ddqn_models/0428/ddqn_600_1.5.pth (torch_old, 69813 bytes, 6 tensors)

layers.0.weight f4 [128, 2]
0.13387078 -0.4571094 2.1500616 -1.0830259 0.07587606 -0.14804602 1.6974732 1.1710527
1.1207253 1.7317538 -0.13846454 -0.11713378 -0.8322562 0.3081804 0.16858022 1.3091359
-0.5510087 -0.32521012 -0.49043846 -0.80420846 -1.7099929 -0.274757 -0.9663149 -0.20010324
-1.1469395 1.0626976 -0.4520846 -0.8844979 -1.2153322 0.6865123 0.23258215 0.7093037
0.4699317 1.0473294 -0.005263746 -0.13978195 1.2766168 -0.16450323 0.74990064 0.2735936
-0.44597334 -0.56994545 1.402554 -0.1903526 -0.68912333 1.0271038 1.2368267 0.1572975
-1.3265705 0.25531504 -0.9076117 -0.3081584 -0.47390768 -0.26657072 -0.087012365 0.7296943
-0.078006975 0.8405837 1.4267673 -0.029548166 1.5559372 -0.758293 -0.52765095 0.36184773
1.6387981 1.3497846 -0.0025538444 -0.33838204 1.5869852 -1.7091187 1.2228539 -0.9951356
0.009745717 -0.120220006 -1.5237471 -0.6325337 1.4468248 0.23583359 -0.37927082 -0.58535826
-0.8940002 0.33736035 -1.5895327 -0.86710817 -0.4645331 -0.19351813 0.5934707 0.7968039
0.36399156 0.3420817 -0.20300367 0.16220976 1.5322354 1.2160892 -0.5506122 -0.8761343
-1.8228434 -0.10556255 -0.85471535 -0.9361073 1.2158732 -0.17706248 0.713378 0.27361062
0.16910516 -1.5340225 -0.34878 0.14890099 1.1524318 0.73327214 -0.22877222 0.22579569
-1.0011894 -1.3660699 -1.7962166 -0.20819916 1.2883987 0.1904017 -1.29071 -2.0043561
1.9177102 -0.44749153 0.7273605 0.45717245 -0.69759345 -0.28819156 -1.3242676 -0.9709287
0.48597398 -0.19466263 0.04945704 0.61999947 1.3008052 0.18031926 -1.4968983 -0.1603281
0.36571345 0.3478572 1.2085916 0.7737162 -0.79307556 -0.22881843 1.1451739 0.22383186
0.70082337 0.29788965 -1.7099332 -0.28079322 1.6953621 1.4586306 1.342821 0.57626116
0.90916187 0.3141139 -1.1343178 -1.650502 1.4223163 1.2196693 -0.2728907 0.14062074
0.42089698 1.1268152 1.0816177 1.8108383 -0.68698955 -1.0693779 2.0477457 0.44356865
-1.0374857 0.17066264 1.3442103 1.4736139 -0.7624276 -0.13705285 -0.16868484 0.9521227
-0.1326047 0.70856845 0.33200812 0.4919575 -0.95595145 -0.064802416 -1.6674434 -0.11998935
-0.80423355 -1.1153094 -1.4096223 0.58385146 1.491728 0.8963021 1.9248188 -0.05353606
-1.4326606 -1.2320575 -1.220709 0.45048764 -0.37587073 -0.589889 -0.6353677 -0.8174571
0.98574674 1.6549727 1.1516548 1.2071517 1.8351808 -0.0420641 1.0262928 1.6328328
0.2508435 1.0120767 1.377062 1.0636346 -1.3454709 0.24845654 1.1294266 -0.0066569494
-1.5524527 -0.93679535 -1.3309311 -0.030977516 1.5513321 0.40843874 -0.8500574 0.27761844
1.571093 0.19370241 0.35648072 0.5198276 0.7854157 -1.0471765 1.9271348 1.0800222
-1.0135859 0.43042937 -0.23509336 -0.3032775 0.4086011 0.42501917 -0.67458105 -0.57662696
0.1379865 -0.35613403 0.09862832 0.7981177 -0.71312255 -1.8545138 -0.42554614 0.5731479
0.6868213 -1.7095248 0.05240498 -0.8487566 -0.638559 -0.06326776 -1.0405213 0.24516742
00000000: 6c15 093e 3e0a eabe 9c9a 0940 98a0 8abf
00000010: e864 9b3d 6099 17be cd46 d93f 0ee5 953f
00000020: ed73 8f3f 1caa dd3f a6c9 0dbe d6e3 efbd
00000030: be0e 55bf d2c9 9d3e 4ba0 2c3e c491 a73f
00000040: e80e 0dbf f181 a6be c01a fbbe 9be0 4dbf
00000050: 0ce1 dabf f3ac 8cbe 6a60 77bf dde7 4cbe
00000060: eace 92bf 7a06 883f a277 e7be 746e 62bf
00000070: 0190 9bbf 45bf 2f3f 042a 6e3e ed94 353f
00000080: e39a f03e e40e 863f 807b acbb 0023 0fbe
00000090: 2e68 a33f 8973 28be 7df9 3f3f 7614 8c3e
000000a0: 9e56 e4be f2e7 11bf e486 b33f cbeb 42be
000000b0: 636a 30bf 2378 833f 5650 9e3f 9912 213e
000000c0: 10cd a9bf a7b8 823e 3e59 68bf f0c6 9dbe
000000d0: 07a4 f2be f57b 88be 8a33 b2bd 3fcd 3a3f
000000e0: 1fc2 9fbd 7e30 573f 50a0 b63f ff0e f2bc
000000f0: f328 c73f 7d1f 42bf 2214 07bf 1b44 b93e
00000100: 23c4 d13f bec5 ac3f 665e 27bb 6940 adbe
00000110: 5522 cb3f 67c4 dabf 7a86 9c3f 35c1 7ebf
00000120: 80ac 1f3c e835 f6bd 250a c3bf bbed 21bf
00000130: 8e31 b93f 5c7e 713e c92f c2be 0ada 15bf
00000140: 32dd 64bf 7fba ac3e cf75 cbbf cdfa 5dbf
00000150: 48d7 edbe 9e29 46be b2ed 173f 57fb 4b3f
00000160: 1a5d ba3e 5525 af3e 32e0 4fbe 511a 263e
00000170: 4a20 c43f d0a8 9b3f ecf4 0cbf 564a 60bf
00000180: ef52 e9bf 2e31 d8bd a0ce 5abf baa4 6fbf
00000190: bca1 9b3f de4f 35be f19f 363f b116 8c3e
000001a0: e729 2d3e d95a c4bf 4b93 b2be 8079 183e
000001b0: e382 933f b9b7 3b3f 4443 6abe fc36 673e
000001c0: f926 80bf 61db aebf 6dea e5bf 2932 55be
000001d0: 40ea a43f aaf8 423e fc35 a5bf 5f47 00c0
000001e0: 8777 f53f 9c1d e5be 4c34 3a3f 8212 ea3e
000001f0: 7c95 32bf d88d 93be 9a81 a9bf c98e 78bf
00000200: 95d1 f83e a455 47be 7793 4a3d 49b8 1e3f
00000210: c980 a63f 9da5 383e 5d9a bfbf 0d2d 24be
00000220: cb3e bb3e 571a b23e 21b3 9a3f 4412 463f
00000230: 0007 4bbf 614f 6abe 0f95 923f 2e34 653e
00000240: 2969 333f fe84 983e 17df dabf 21c4 8fbe
00000250: a001 d93f 68b4 ba3f 8fe1 ab3f da85 133f
00000260: d5be 683f 89d3 a03e 5331 91bf a643 d3bf
00000270: 760e b63f 201e 9c3f 54b8 8bbe e2fe 0f3e
00000280: cf7f d73e 7b3b 903f 7372 8a3f 8dc9 e73f
00000290: 8cde 2fbf 60e1 88bf 440e 0340 6e1b e33e
000002a0: 55cc 84bf 30c2 2e3e 150f ac3f 619f bc3f
000002b0: 752e 43bf 9557 0cbe b8bb 2cbe 50be 733f
000002c0: 87c9 07be be64 353f f8fc a93e dae1 fb3e
000002d0: 3cb9 74bf 21b7 84bd c96e d5bf fabc f5bd
000002e0: 40e2 4dbf 75c2 8ebf 816e b4bf 4a77 153f
000002f0: f1f0 be3f 0e74 653f 7660 f63f a148 5bbd
00000300: 6c61 b7bf 0fb4 9dbf 3140 9cbf 51a6 e63e
00000310: 2172 c0be f702 17bf 75a7 22bf de44 51bf
00000320: e659 7c3f 25d6 d33f 6d69 933f f283 9a3f
00000330: 34e7 ea3f 684b 2cbd 905d 833f aa00 d13f
00000340: 8f6e 803e bb8b 813f 9143 b03f 2e25 883f
00000350: 6438 acbf 646b 7e3e 0d91 903f 8a22 dabb
00000360: c5b6 c6bf d2d1 6fbf f35b aabf 8fc4 fdbc
00000370: 0d92 c63f e21e d13e 5d9d 59bf 0124 8e3e
00000380: 9319 c93f ed59 463e a484 b63e 6c13 053f
00000390: 0111 493f e109 86bf 5aac f63f 2b3e 8a3f
000003a0: 2fbd 81bf 3d61 dc3e 50bc 70be 3047 9bbe
000003b0: 2a34 d13e 1d9c d93e 58b1 2cbf d39d 13bf
000003c0: 554c 0d3e 3357 b6be a5fd c93d 7151 4c3f
000003d0: 338f 36bf b560 edbf 2fe1 d9be d2b9 123f
000003e0: 85d3 2f3f b5d1 dabf 9ba6 563d 1d48 59bf
000003f0: 9a78 23bf 8792 81bd cd2f 85bf 2b0d 7b3e

layers.0.bias f4 [128]
0.9306824 0.42934954 -0.47127795 0.12541069 0.055399634 -0.5705273 0.60668486 -0.62208796
-1.2230995 -0.8052738 -0.078110136 0.6859282 -0.6345728 0.88044196 -0.018019319 -0.86195797
-0.2896911 -0.6376117 0.8854485 0.6501981 1.0255853 0.7770439 -0.41797918 0.8973622
-0.03899326 0.63271564 -0.8235493 -0.51947486 -1.1020921 -0.03453414 0.45316252 -0.7193193
0.21402447 0.723968 0.4724281 -0.14691766 -0.5482338 -0.09549452 0.81420904 1.0143559
0.7040001 -0.07157386 0.26056665 -0.6734586 -1.0492511 0.669097 0.0029391046 0.55799156
-0.068065055 -0.42538273 -0.4832748 0.6102957 0.12636536 0.89141154 0.34755397 0.6595833
0.0015687438 -0.0762149 0.137374 0.015370157 0.63403547 -0.33404005 0.8321691 -0.14184824
-1.2254174 -0.7501769 1.0009261 0.8750491 -1.059802 0.6032916 0.6459779 0.74376935
0.8660332 -0.08476887 0.10220725 0.6745116 -0.23012982 0.31103772 0.27895752 0.76750255
-0.33140782 0.107656 0.27530575 -0.011930888 -0.028590932 0.07514004 0.7574709 -0.22385673
-0.8076528 -0.1098535 -0.042239122 -0.07077839 -0.63557655 -0.020378731 0.73987037 -0.040620953
-0.015898239 -0.01897602 1.0210917 0.9708927 0.011420523 0.040499352 -0.039006714 0.125647
-0.45406416 -0.014433678 -0.04279293 0.6128103 -0.064995 -0.056002315 -0.177208 -0.7776434
0.14991224 0.69100225 -0.1594804 0.07687824 -0.3683028 1.0447868 -1.1229297 -1.2526838
1.0058786 -0.9133884 -0.30790412 -0.4304659 0.20060736 -0.23717791 0.73342764 -0.029659819
00000000: 3441 6e3f b4d3 db3e 584b f1be a96b 003e
00000010: baea 623d 140e 12bf b34f 1b3f 2841 1fbf
00000020: 868e 9cbf 6c26 4ebf 35f8 9fbd fe98 2f3f
00000030: 5d73 22bf a564 613f 409d 93bc 47a9 5cbf
00000040: 6452 94be 853a 23bf c1ac 623f 6273 263f
00000050: 6146 833f 59ec 463f 5e01 d6be 87b9 653f
00000060: 66b7 1fbd a7f9 213f 20d4 52bf 4efc 04bf
00000070: 5b11 8dbf ac73 0dbd eb04 e83e 4f25 38bf
00000080: 3b29 5b3e f855 393f 19e2 f13e 9571 16be
00000090: 0d59 0cbf a292 c3bd 0170 503f 6ad6 813f
000000a0: 5a39 343f 5195 92bd fe68 853e c867 2cbf
000000b0: dc4d 86bf f149 2b3f fe9d 403b 89d8 0e3f
000000c0: b165 8bbd c4cb d9be cb6f f7be 573c 1c3f
000000d0: ec65 013e 8c33 643f 98f2 b13e 73da 283f
000000e0: 4f9e cd3a 8f16 9cbd c5ab 0c3e 1cd3 7b3c
000000f0: 2650 223f 4c07 abbe 0909 553f aa40 11be
00000100: 7ada 9cbf 980b 40bf 591e 803f 3803 603f
00000110: 98a7 87bf 5171 1a3f cf5e 253f ab67 3e3f
00000120: 5ab4 5d3f 4d9b adbd 0952 d13d cbac 2c3f
00000130: 27a7 6bbe 5640 9f3e 85d3 8e3e 0c7b 443f
00000140: 49ae a9be c07a dc3d e0f4 8c3e c579 43bc
00000150: 8837 eabc 05e3 993d 9de9 413f b33a 65be
00000160: 55c2 4ebf dffa e0bd ee02 2dbd 43f4 90bd
00000170: 25b5 22bf 4cf1 a6bc 2568 3d3f 2862 26bd
00000180: 063d 82bc 9973 9bbc 22b3 823f 6d8c 783f
00000190: 251d 3b3c a6e2 253d 81c5 1fbd 9ba9 003e
000001a0: 197b e8be 3c7b 6cbc a447 2fbd 23e1 1c3f
000001b0: 191c 85bd af62 65bd 0476 35be a313 47bf
000001c0: 9882 193e 86e5 303f d44e 23be 5772 9d3d
000001d0: 2f92 bcbe 93bb 853f 29bc 8fbf f157 a0bf
000001e0: a1c0 803f d2d3 69bf 9ca5 9dbe 0766 dcbe
000001f0: 046c 4d3e c4de 72be eac1 3b3f 26f9 f2bc

layers.2.weight f4 [128, 128]
-0.46846598 -0.47444326 -0.030131616 0.2444588 -0.0098790545 0.08334311 -0.21378605 -0.06926298
0.38004142 0.32123148 0.15989204 -0.42730978 -0.26970863 -0.50383514 -0.25176072 0.07565715
0.048385534 -0.081968695 -0.31130216 -0.17951995 -0.40563467 -0.21417637 -0.23258865 -0.2431785
0.049566306 -0.69431394 0.18882778 0.0025850292 0.35264426 -0.4854759 0.090446666 -0.01920447
0.08955968 -0.31320876 -0.51054484 -0.5697772 -0.07647546 0.24103549 -0.1015236 -0.3146221
-0.29980204 -0.14526498 -0.21824643 0.20242654 -0.6423818 -0.27305925 0.08289514 -0.6681616
0.03348504 0.15999378 -0.6491906 -0.31303325 -0.6039068 -0.2775365 0.1593878 -0.21595253
-0.073714934 -0.022362338 0.2070748 -0.26443347 0.053511545 -1.0718114 -0.3143029 -0.3020058
-0.5936359 0.16472375 -0.13747795 -0.6131765 -0.64275163 -0.12885639 -0.4921929 -0.20911786
-0.20888229 0.1707979 0.09706333 -0.2836573 -0.5311112 -0.98630595 0.14109401 -0.22782575
0.07551934 0.2812331 -0.8346321 0.10712979 -0.27947512 0.14133382 -0.41431782 0.1990992
0.04634781 0.075715266 0.040081754 0.02452791 0.25788337 -0.2902729 -0.19929701 -0.54901755
-0.23092335 -0.115543514 -0.4387112 -0.22620071 0.051921085 -0.019396983 -0.32608625 0.0138177425
0.10357349 0.22425933 -0.22233021 -0.2132673 -0.11919457 0.10817245 -0.22595264 0.33222282
0.11457843 -0.16541539 -0.59822947 0.16908453 -0.3646183 -0.37747014 -0.36249712 0.339098
-0.28880513 0.16271727 -0.7177479 -0.08114167 -0.43426922 -0.19895193 -0.30445537 0.043687746
-0.19737574 0.21419086 0.03550554 0.59213626 0.48338977 0.08371746 -0.44109267 0.44745412
-0.032226555 -2.2532876 -1.0249125 -0.8125833 0.9701022 -0.4818774 0.008033672 0.37541837
0.52940327 -0.009557754 0.04984788 0.18527052 -0.44502488 0.23740308 0.674966 0.032740958
-0.09547521 -1.1724777 0.086321004 0.20324858 -0.14175554 -0.07851063 0.2602142 -0.090229236
0.7318298 -0.3394991 0.11257114 -0.16967918 -0.050500836 -0.399737 0.28358567 -0.46977863
-0.36243472 -0.17158188 -0.42920426 0.22706452 -0.8916117 -0.091705754 0.32909745 -0.48946294
-0.24895728 -1.6512393 -0.24601708 0.08810573 -0.2855114 -0.17835179 0.62924844 -0.16404669
-1.3814045 -0.56041294 0.5561802 -0.99408144 0.23887368 -0.49487686 -0.45395118 -0.92379516
0.30355904 -0.18594418 0.07920693 -1.1257541 -0.608907 0.37587187 -0.77209175 0.10911928
0.07023505 -0.33058137 0.56766653 0.3233225 -0.15499924 -0.36738837 0.6024006 -0.098031476
0.4089894 0.4653284 -0.21087083 0.43659204 0.30781803 0.56859845 -0.39522445 0.47834054
0.96242374 0.2791977 0.33290175 -0.21770291 -2.02361 0.122298874 0.3028144 0.029931415
-2.1280046 0.06991256 -0.4255131 -0.632863 0.50079167 0.2519718 -0.024699897 0.4398288
0.66569173 0.49681315 0.19787188 0.13718747 -0.59622705 0.10602873 0.34596422 1.3088181
0.53343 0.09910772 -0.2109349 0.6172473 0.47255218 -0.1836569 -0.04011091 -0.29434118
-0.20596127 -0.14780362 -0.51946557 0.62954986 -0.09116508 -1.0545893 -0.22332902 0.1855647
00000000: c6da efbe 3aea f2be 94d6 f6bc 6853 7a3e
00000010: c2db 21bc cbaf aa3d bbea 5abe c0d9 8dbd
00000020: ca94 c23e 7478 a43e bdba 233e 59c8 dabe
00000030: 4017 8abe 57fb 00bf c8e6 80be 23f2 9a3d
00000040: e92f 463d 34df a7bd ff62 9fbe 14d4 37be
00000050: 59af cfbe 0d51 5bbe b82b 6ebe c903 79be
00000060: 0a06 4b3d 8fbe 31bf 125c 413e 9869 293b
00000070: ca8d b43e 4c90 f8be 1a3c b93d b152 9dbc
00000080: 116b b73d e65c a0be 11b3 02bf ebdc 11bf
00000090: 2a9f 9cbd 02d2 763e 9beb cfbd 2616 a1be
000000a0: a77f 99be 58c0 14be fe7b 5fbe e748 4f3e
000000b0: 2273 24bf 6cce 8bbe edc4 a93d a30c 2bbf
000000c0: 9c27 093d 69d5 233e 5b31 26bf e545 a0be
000000d0: a399 1abf 4419 8ebe 8e36 233e a922 5dbe
000000e0: dbf7 96bd 3931 b7bc 6b0b 543e d363 87be
000000f0: ec2e 5b3d 1e31 89bf 4fec a0be 81a0 9abe
00000100: 86f8 17bf 58ad 283e 05c7 0cbe 23f9 1cbf
00000110: 5f8b 24bf eef2 03be b500 fcbe fe22 56be
00000120: 3de5 55be a5e5 2e3e 24c9 c63d 883b 91be
00000130: e7f6 07bf 8c7e 7cbf f37a 103e 274b 69be
00000140: e2a9 9a3d c9fd 8f3e 73aa 55bf dd66 db3d
00000150: 5d17 8fbe d0b9 103e 7721 d4be a9e0 4b3e
00000160: 34d7 3d3d 9b10 9b3d c42c 243d c1ee c83c
00000170: 4a09 843e a69e 94be 8414 4cbe 6a8c 0cbf
00000180: 2c77 6cbe 14a2 ecbd c19e e0be 29a1 67be
00000190: 34ab 543d 6ce6 9ebc c7f4 a6be d063 623c
000001a0: 571e d43d 3da4 653e 88aa 63be be62 5abe
000001b0: 481c f4bd 8489 dd3d 2160 67be 1c19 aa3e
000001c0: 19a8 ea3d a762 29be 9125 19bf 7f24 2d3e
000001d0: 40af babe c443 c1be 3999 b9be 419e ad3e
000001e0: 44de 93be 5b9f 263e 54be 37bf 9b2d a6bd
000001f0: 8958 debe 0eba 4bbe 93e1 9bbe ecf1 323d
00000200: de1c 4abe d954 5b3e 426e 113d 3e96 173f
00000210: dd7e f73e 0f74 ab3d e6d6 e1be b518 e53e
00000220: feff 03bd dd35 10c0 5530 83bf 7605 50bf
00000230: 9e58 783f a2b8 f6be aa9f 033c d636 c03e
00000240: f986 073f 2098 1cbc 4a2d 4c3d 8eb7 3d3e
00000250: 4dda e3be cb19 733e 92ca 2c3f 621b 063d
00000260: 8288 c3bd c013 96bf 11c9 b03d 6520 503e
00000270: 5d28 11be 2eca a0bd cc3a 853e 1bca b8bd
00000280: 3359 3b3f d3d2 adbe b38b e63d 61c0 2dbe
00000290: f7d9 4ebd 54aa ccbe 2432 913e d386 f0be
000002a0: 0b91 b9be 29b3 2fbe a9c0 dbbe 9a83 683e
000002b0: aa40 64bf 3ad0 bbbd 767f a83e e39a fabe
000002c0: a8ee 7ebe cf5b d3bf e7eb 7bbe c770 b43d
000002d0: 8d2e 92be daa1 36be 6d16 213f dbfb 27be
000002e0: ddd1 b0bf 3977 0fbf d361 0e3f 1f7c 7ebf
000002f0: 4d9b 743e 8060 fdbe 4a6c e8be d77d 6cbf
00000300: 176c 9b3e 2768 3ebe 3e37 a23d b618 90bf
00000310: 54e1 1bbf 4772 c03e cea7 45bf ee79 df3d
00000320: 65d7 8f3d f641 a9be 9852 113f 878a a53e
00000330: 1fb8 1ebe 541a bcbe ed36 1a3f bac4 c8bd
00000340: 0f67 d13e 863f ee3e 86ee 57be fe88 df3e
00000350: 539a 9d3e ab8f 113f dc5a cabe 0de9 f43e
00000360: 6761 763f 00f3 8e3e 1972 aa3e 83ed 5ebe
00000370: d482 01c0 d577 fa3d 7d0a 9b3e ba32 f53c
00000380: 3a31 08c0 512e 8f3d dadc d9be 4f03 22bf
00000390: e233 003f 7302 813e 7057 cabc 3e31 e13e
000003a0: c66a 2a3f 4b5e fe3e ed9e 4a3e df7a 0c3e
000003b0: 56a2 18bf 9725 d93d 3922 b13e 5a87 a73f
000003c0: de8e 083f fdf8 ca3d 52ff 57be eb03 1e3f
000003d0: 5cf2 f13e 8e10 3cbe 564b 24bd e3b3 96be
000003e0: 83e7 52be d559 17be b2fb 04bf 2e2a 213f
000003f0: c2b4 babd c8fc 86bf 5db0 64be ac04 3e3e

layers.2.bias f4 [128]
-0.26596707 -0.20502257 0.6205095 -0.3582441 0.046389572 -0.08228531 0.3823794 0.025362413
-0.34494367 0.29269373 0.20426725 -0.07610406 -0.101937376 0.09662244 -0.11550197 -0.22662313
0.0051199184 0.46794596 -0.0023418136 -0.031447392 -0.27462 0.020779572 -0.42229474 -0.0005457401
0.008231615 0.11126704 0.041821446 -0.032980777 -0.33732185 0.022698473 0.4565279 -0.19263493
0.072754376 -0.290732 -0.079754986 -0.38532907 0.6388642 -0.13244112 -0.24987292 -0.47712222
-0.22050546 -0.083495036 -0.49606237 -0.06824115 0.18017662 0.22785658 -0.03853343 0.010421983
0.05762372 0.1769029 -0.1664747 0.02848747 -0.0011390815 0.053301208 -0.28911743 -0.02095281
-0.40718877 0.0015869209 -0.0007674576 0.016860504 -0.36375132 0.37381744 -0.5957082 0.011082368
0.03829207 -0.07509543 0.16641444 -0.18702486 -0.16938156 -0.031759627 -0.06878279 -0.44716957
-0.063694656 -0.13368464 -0.047838032 -0.10986377 0.5076731 0.028726384 0.062043447 0.4572396
-0.009800382 0.20915036 0.034852512 0.09046142 0.0100101605 -0.35877287 -0.13083485 0.033092737
0.05092689 0.09336997 0.039357826 -0.06700467 0.046933264 0.17494728 0.008524084 -0.0934462
-0.042352922 -0.5313779 -0.093480565 -0.24729322 -0.015930695 -0.2912241 -0.07207022 0.16292843
0.14120737 -0.023019368 0.38582107 0.07958337 -0.55593127 -0.102018766 -0.03244984 0.031255536
0.0005036518 0.22832222 -0.03437756 -0.13077275 -0.07181344 0.070902124 -0.4834756 0.22988237
0.11267498 0.55226153 -0.07715991 -0.21546218 -0.011291201 0.039019864 0.10089509 -0.057731934
00000000: d62c 88be 70f1 51be b6d9 1e3f c56b b7be
00000010: fe02 3e3d 3385 a8bd 3cc7 c33e d6c4 cf3c
00000020: 759c b0be f4db 953e 6f2b 513e 72dc 9bbd
00000030: 8bc4 d0bd fce1 c53d 4c8c ecbd e50f 68be
00000040: fdc4 a73b 9d96 ef3e 1d79 19bb fbce 00bd
00000050: fe9a 8cbe ec39 aa3c 0437 d8be 0010 0fba
00000060: e5dd 063c f9df e33d f74c 2b3d da16 07bd
00000070: 73b5 acbe 26f2 b93c 06be e93e 1742 45be
00000080: 3f00 953d d3da 94be 9556 a3bd da49 c5be
00000090: 9b8c 233f a59e 07be b0de 7fbe 5d49 f4be
000000a0: 2fcc 61be 72ff aabd e3fb fdbe 04c2 8bbd
000000b0: 3880 383e 3c53 693e 3bd5 1dbd f7c0 2a3c
000000c0: da06 6c3d 0926 353e 5878 2abe 8e5e e93c
000000d0: 3c4d 95ba 5e52 5a3d 3307 94be 3aa5 abbc
000000e0: 0c7b d0be 3b00 d03a 352f 49ba 0a1f 8a3c
000000f0: 9d3d babe 0065 bf3e 5580 18bf d292 353c
00000100: 25d8 1c3d a2cb 99bd 8c68 2a3e 7283 3fbe
00000110: 5c72 2dbe 6216 02bd fedd 8cbd 69f3 e4be
00000120: 5872 82bd a0e4 08be d0f1 43bd 4200 e1bd
00000130: ddf6 013f 9853 eb3c 4521 7e3d 4f1b ea3e
00000140: c891 20bc 832b 563e 82c1 0e3d d643 b93d
00000150: a801 243c 14b1 b7be 92f9 05be 408c 073d
00000160: b798 503d c138 bf3d ac35 213d bf39 89bd
00000170: 183d 403d 6125 333e 9aa8 0b3c b960 bfbd
00000180: 427a 2dbd 6208 08bf bd72 bfbd 6f3a 7dbe
00000190: 1781 82bc 531b 95be 8d99 93bd b6d6 263e
000001a0: aa98 103e 1d93 bcbc 578a c53e 9bfc a23d
000001b0: 8351 0ebf 37ef d0bd 20ea 04bd ce05 003d
000001c0: 8007 043a 4dcd 693e 7ccf 0cbd 4be9 05be
000001d0: ed12 93bd 2235 913d 1d8a f7be 4966 6b3e
000001e0: 24c2 e63d 0361 0d3f 0406 9ebd 1ea2 5cbe
000001f0: bbfe 38bc 4bd3 1f3d 16a2 ce3d 5278 6cbd

layers.4.weight f4 [2, 128]
-0.351162 -0.41677445 0.72949415 -0.34073868 -0.017777003 0.0596055 0.7798483 -0.030185476
-0.4869297 0.74017507 -0.5152361 0.0145528745 -0.06858348 1.420216 -0.00062675774 0.009949017
-0.018611243 0.7386359 0.10205673 -0.5095657 -0.31431088 0.061348975 -0.23781283 -0.014023975
0.00502458 0.093350545 -0.20800416 0.04834229 -0.028424798 0.031486824 0.14096686 -1.0076942
0.014192119 0.007961594 -0.058306906 -0.40347967 0.33293924 -0.6650861 0.0015104786 -0.2684455
-0.22296375 0.017704012 -0.5675666 -0.00647132 1.5140804 -1.2869964 -0.08820226 0.18048066
0.15592119 1.402541 -0.27962416 0.0403049 -0.015547526 -0.10279754 -0.11601178 -0.013622624
-0.41953674 0.07686881 -0.07845613 0.054465383 -0.114229254 0.7592973 -0.3494815 0.018777959
-0.0089473985 -0.12798753 1.3270464 0.046284813 -0.7811207 -0.19879597 0.05674515 -0.07751014
0.005369149 0.0047312803 -0.0842997 -0.056279518 0.6775375 -0.057760328 -0.51855063 0.13977024
0.06339524 0.19256993 0.11830968 0.022513254 0.047987122 0.005550409 0.18791828 0.020372804
0.0033922577 0.0096430415 0.03572138 0.072486356 0.020971049 0.9717835 0.06704659 -0.8694012
0.0148301255 -0.24138488 -0.0074733105 -0.23593013 -0.000950114 0.08830686 0.015837617 -1.5741409
0.12579878 -0.009327697 0.7385592 -1.1872172 -0.6029507 -0.0008749879 0.00085514324 0.063762456
-0.08825002 -0.34527528 0.032891113 -0.45438343 0.020211197 0.05328157 -0.7679926 0.25789696
-0.033504203 0.76606417 0.03276381 -0.047291692 0.074165285 0.021901738 0.5679957 -0.001427951
0.02623466 -0.5692144 0.55501187 -0.16506399 0.02424077 0.042957056 0.44440562 -0.07537853
-0.047639836 0.5309751 -0.34498632 0.01144545 -0.030090356 -0.09014327 0.022882072 -0.14374846
0.013936574 0.32246792 -0.40432882 -0.24233606 -0.32679486 -0.023380427 -0.2421745 -0.06917408
0.00031307983 -0.4934327 0.60431427 -0.056888 -0.058582522 -0.0082848305 0.68109655 0.07188965
-0.0026927963 -0.19405104 0.17891872 0.79737604 0.80172354 -0.051873963 0.07902752 -0.049825188
-0.098085225 -0.03599551 -1.2845621 -0.029209781 -0.08298982 -0.34407443 -0.0454385 -0.7962188
1.3535188 -0.102875404 0.024317956 0.053075764 0.04267317 -0.41478398 -0.060438447 -0.04659045
-0.14940426 -0.4022084 0.042009596 0.04553649 -0.09844145 0.47138754 0.3583963 0.45385993
0.07088607 -0.2688873 -0.19904836 -0.30908075 -0.09529462 -0.13046472 0.06392044 -0.18441434
-0.07922023 -0.29702947 0.015580878 0.0043163868 0.43023276 -0.0138992425 -0.20599616 0.8880541
-0.022999965 -0.37866732 0.92958885 -0.29312232 -0.36195466 -0.034249697 -0.24177542 0.06710692
0.028963413 -0.19918276 -0.008773953 -0.008865031 0.045581736 1.1560467 0.054298572 0.4117962
-0.0016914922 -0.7781331 -0.00021136137 -0.18231197 -0.2286992 -0.321775 0.006501009 -0.4066859
1.2118539 -0.0072210683 0.38062903 -0.063547194 -0.16933617 0.006151322 -0.0030894654 -0.044553354
-0.061895132 -0.4140534 0.066036515 0.010107292 0.078827605 -0.19569796 -0.17270964 -0.46057978
0.23715305 0.5844388 0.00547351 -0.43961272 -0.024788465 -0.34869662 -0.11543064 0.046367146
00000000: 81cb b3be 7663 d5be 21c0 3a3f 4d75 aebe
00000010: 14a1 91bc e624 743d 23a4 473f 8847 f7bc
00000020: da4e f9be 1d7c 3d3f 83e6 03bf 2e6f 6e3c
00000030: 7f75 8cbd a3c9 b53f 004d 24ba 3401 233c
00000040: 9b76 98bc 3e17 3d3f 1e03 d13d e672 02bf
00000050: 5bed a0be 1049 7b3d 3585 73be d0c4 65bc
00000060: 3ba5 a43b 922e bf3d 0bff 54be 9102 463d
00000070: 1fdb e8bc 54f8 003d 9e59 103e 20fc 80bf
00000080: 1086 683c 5871 023c 39d3 6ebd e394 cebe
00000090: 0377 aa3e 1543 2abf 40fb c53a b071 89be
000000a0: 9c50 64be 0108 913c 0b4c 11bf 5e0d d4bb
000000b0: 63cd c13f 4cbc a4bf 63a3 b4bd eccf 383e
000000c0: cea9 1f3e 7786 b33f e62a 8fbe c016 253d
000000d0: 0dbb 7ebc 8487 d2bd 9697 edbd 6d31 5fbc
000000e0: 85cd d6be 656d 9d3d 9cad a0bd 1817 5f3d
000000f0: 07f1 e9bd 4f61 423f 3def b2be 3cd4 993c
00000100: 1c98 12bc 2a0f 03be a8dc a93f 2595 3d3d
00000110: 87f7 47bf 2c91 4bbe 9a6d 683d a3bd 9ebd
00000120: b0ef af3b db08 9b3b 52a5 acbd 5a85 66bd
00000130: 1973 2d3f 1896 6cbd bcbf 04bf ee1f 0f3e
00000140: 5dd5 813d 0d31 453e 584c f23d b76d b83c
00000150: 258e 443d 35e0 b53b a66d 403e dee4 a63c
00000160: a450 5e3b d9fd 1d3c 9550 123d ba73 943d
00000170: 7acb ab3c cec6 783f b94f 893d 1491 5ebf
00000180: 0efa 723c 992d 77be ace2 f4bb ab97 71be
00000190: 1211 79ba 3ada b43d e4bd 813c 737d c9bf
000001a0: 65d1 003e 32d3 18bc 3712 3d3f bcf6 97bf
000001b0: fa5a 1abf 725f 65ba b12b 603a e495 823d
000001c0: 6dbc b4bd ecc7 b0be d5b8 063d f2a4 e8be
000001d0: f491 a53c c73d 5a3d 2a9b 44bf 120b 843e
000001e0: b43b 09bd c81c 443f 5833 063d efb4 41bd
000001f0: f8e3 973d 466b b33c 2b68 113f 162a bbba
00000200: 12ea d63c 09b8 11bf 4215 0e3f 8906 29be
00000210: 9494 c63c bdf3 2f3d 2289 e33e 0f60 9abd
00000220: fd21 43bd fced 073f 0ca2 b0be b285 3b3c
00000230: 0d80 f6bc 099d b8bd 2f73 bb3c cc32 13be
00000240: 3a56 643c 841a a53e 3004 cfbe f226 78be
00000250: a851 a7be 4f88 bfbc 98fc 77be 24ab 8dbd
00000260: dd24 a439 36a3 fcbe 57b4 1a3f 6403 69bd
00000270: 3af4 6fbd 19bd 07bc 585c 2e3f e13a 933d
00000280: a079 30bb 51b5 46be 7836 373e d620 4c3f
00000290: c13d 4d3f cb79 54bd 2ed9 a13d 7f15 4cbd
000002a0: e8e0 c8bd 0770 13bd 886c a4bf 5a49 efbc
000002b0: 91f6 a9bd 862a b0be b81d 3abd ffd4 4bbf
000002c0: 1b40 ad3f 57b0 d2bd 7336 c73c f965 593d
000002d0: 10ca 2e3d 915e d4be 4e8e 77bd a1d5 3ebd
000002e0: 6efd 18be 42ee cdbe 4112 2c3d 7884 3a3d
000002f0: ac9b c9bd b559 f13e b87f b73e 5460 e83e
00000300: b72c 913d 99ab 89be 55d3 4bbe d53f 9ebe
00000310: d329 c3bd 8b98 05be b8e8 823d 1dd7 3cbe
00000320: 373e a2bd 3f14 98be f046 7f3c 7a70 8d3b
00000330: 7847 dc3e a6b9 63bc a8f0 52be 8357 633f
00000340: 6c6a bcbc afe0 c1be 89f9 6d3f 2114 96be
00000350: 1f52 b9be 6949 0cbd fa93 77be 5a6f 893d
00000360: ae44 ed3c 91f6 4bbe a0c0 0fbc a33e 11bc
00000370: eab3 3a3d 57f9 933f 2e68 5e3d f4d6 d23e
00000380: 0fb5 ddba bb33 47bf e3a0 5db9 fdaf 3abe
00000390: 2030 6abe b1bf a4be 6b06 d53b 2239 d0be
000003a0: 071e 9b3f b69e ecbb cfe1 c23e 0825 82bd
000003b0: 7666 2dbe 0791 c93b a178 4abb 947d 36bd
000003c0: c085 7dbd cffe d3be 273e 873d 0e99 253c
000003d0: 5e70 a13d 0c65 48be ccda 30be 1dd1 ebbe
000003e0: 40d8 723e c89d 153f 215b b33b eb14 e1be
000003f0: 2e11 cbbc 5d88 b2be e666 ecbd 7aeb 3d3d

layers.4.bias f4 [2]
0.43157753 0.47574702
00000000: bbf7 dc3e 1d95 f33e
