ddqn_models/0428/ddqn_300_1.5.pth (torch_old, 69813 bytes, 6 tensors)

layers.0.weight f4 [128, 2]
00000000: 85cc 693d fb64 b7be b5ba ce3f 3c7e 3abf
00000010: e864 9b3d 6099 17be 9913 a03f ad68 653f
00000020: 057b 913f 8635 8b3f a6c9 0dbe d6e3 efbd
00000030: e3bc 30bf ee6c e03e 29aa ed3e 7d54 8c3f
00000040: 8c8e 0fbf dbba b5be 22f1 f7be 1d0e 73bf
00000050: d06a 88bf cf97 eabe 3652 6dbf 21ce 49be
00000060: dade 80bf e143 803f 0c61 0cbf f1f6 4bbf
00000070: 7d8b 64bf da52 413f c006 18bd f7c7 5b3f
00000080: 33fd 603f c251 6b3f 807b acbb 0023 0fbe
00000090: 6994 8f3f 71c1 5b3c 1c37 4f3f 274e 683e
000000a0: fb01 ffbe 0a0f e7be 34de 973f c3df 05be
000000b0: ec81 eebe c591 703f 44b3 9b3f d2ce 0e3e
000000c0: b734 4cbf 4311 343e 34aa 63bf 64a1 9fbe
000000d0: 301e c2be 1732 80be 4002 393d 7476 363f
000000e0: 26e7 75ba 7955 483f 9bc9 603f bf7f 84be
000000f0: 589a 673f 80be c9be ca0b eebe beaa b13e
00000100: 5c09 ae3f f48d 693f 0d59 8bbd 4523 5dbe
00000110: 6646 6a3f 0bd9 b0bf 4a28 463f 31e8 62bf
00000120: 80ac 1f3c e835 f6bd 011e 7dbf 484b d4be
00000130: f3d8 b53f d994 803d 8897 debe f223 f2be
00000140: 5260 38bf 2d9c fd3e 6166 a4bf 3776 1cbf
00000150: 9874 05bf 64bb 84bd 53b8 9e3e 0c9e 673f
00000160: c197 cf3e 9f48 b83e 8d64 8bbe c892 813e
00000170: 519f 913f 721f 763f d542 15bf 5835 49bf
00000180: b557 b7bf d914 26be 42b4 59bf e07d 7fbf
00000190: ad84 8e3f e51d e3be 3277 583f 583d 913e
000001a0: 059b f3bc ecf6 a2bf 50f2 f6be 127d 893e
000001b0: ff50 6a3f 604e 4d3f d968 7ebe dc3e 8b3e
000001c0: 496a 20bf a667 57bf 7d6b 97bf 2451 6fbe
000001d0: a3e3 893f 257f b73d 506a 55bf 1a4f c7bf
000001e0: e220 a73f 5859 83be c59b 4d3f 3f81 213e
000001f0: 1b53 5bbf 5251 1dbe 31ad 9fbf 1a92 23bf
00000200: 01ff 103f 6b05 bcbe 1974 673d 1750 143f
00000210: 14c4 b33f 3b08 903c a581 c5bf 1396 96bd
00000220: 6b2a d23e 3b26 bc3e 359d 923f 69c5 193f
00000230: bdd7 4fbf be19 69be c7d9 9a3f a1d6 db3d
00000240: 20ee 153f 665a a63e 4fd7 a6bf e23c 70be
00000250: f114 ca3f 80cf 873f 32af a03f b643 9a3e
00000260: 6d2c 623f 09b0 21be 8600 9bbf 4bba adbf
00000270: 16c8 af3f 610e 873f c7e4 afbe d3da 5c3e
00000280: 5444 1b3f f445 733f b4c2 9a3f 72a3 b73f
00000290: a36f 18bf 4293 74bf 71b5 da3f 3da8 cf3e
000002a0: 2d03 24bf 55ad 283f eabd a43f 7e64 7c3f
000002b0: aa5e 41bf a5e6 e0bd 300c 81be a5df 293f
000002c0: 56e1 0dbe c0d9 3d3f e58d a03e 40d2 0b3f
000002d0: e1cd d4be 380d 483c 0e23 a3bf 7e7a eebd
000002e0: cf9e 6fbf 1aad 8bbf 6787 8ebf 9b66 493f
000002f0: a2a0 af3f 9659 513f 0059 9d3f 5388 99be
00000300: 9784 91bf f013 1dbf 8806 54bf af67 423f
00000310: 6517 dcbe 524c f4be 4e6d 41bf 2b29 37bf
00000320: c823 5b3f b76f a23f f37e 703f d3b6 7a3f
00000330: 2e96 a33f ca80 d5bd 747c 963f 634c 9a3f
00000340: 0069 0b3f 126d 573f 40d8 813f f33b 5e3f
00000350: 0f4c 83bf fdb7 303e 707f 6b3f 9094 d63c
00000360: 02c2 a2bf c2af 51bf ad69 47bf 166c 9c3d
00000370: 20fa ab3f c08a 013e 1ec7 42bf 3543 8e3e
00000380: a35f ac3f 923d 023e 0adf 853e 7231 193f
00000390: 0221 fc3e 6e04 79bf 6734 d13f b2b0 893f
000003a0: 4767 05bf 57bf 093f 0cc7 9bbe 2e0c 4fbe
000003b0: c0b4 223f 2479 6c3e 1ed7 40bf 6dd8 d5be
000003c0: 7a3f 8e3d 5733 88be 743a 0b3e 8b28 473f
000003d0: a040 d8be c456 00c0 c317 7cbe 8fe9 213f
000003e0: 764e 8f3e b58d 8dbf fdc3 62be 7a19 73bf
000003f0: f1c8 2cbf c67a 7f3d 378c 0dbf b58b 1f3e
0.05707981 -0.3581923 1.6150728 -0.7284887 0.07587606 -0.14804602 1.2505981 0.8961285
1.1365668 1.0875709 -0.13846454 -0.11713378 -0.6903822 0.43833107 0.46418884 1.0963284
-0.56076884 -0.35494122 -0.48426157 -0.9494341 -1.0657597 -0.45818946 -0.9270357 -0.19707538
-1.0068009 1.0020715 -0.5483558 -0.7967368 -0.8927534 0.75517046 -0.037115812 0.85852
0.8788635 0.9192163 -0.005263746 -0.13978195 1.1217166 0.013412819 0.80943465 0.22686063
-0.49806198 -0.4512866 1.1864686 -0.1307364 -0.46583498 0.93972427 1.2164083 0.13946083
-0.79767936 0.1758471 -0.88931584 -0.3117782 -0.37913656 -0.25038216 0.04516816 0.71274495
-0.0009380452 0.7825542 0.87807626 -0.25878713 0.90469885 -0.39403152 -0.4649337 0.34700578
1.3596606 0.9123223 -0.068040945 -0.21595486 0.9151367 -1.3816236 0.77405226 -0.88635546
0.009745717 -0.120220006 -0.9887391 -0.41463685 1.4206833 0.062783904 -0.43474984 -0.4729305
-0.72021973 0.49533215 -1.2843744 -0.6111788 -0.5213103 -0.064810544 0.31000003 0.90475535
0.40545467 0.35992905 -0.27225152 0.25307298 1.1376745 0.9614173 -0.583051 -0.7859702
-1.4323641 -0.1621889 -0.85040677 -0.99801445 1.113424 -0.44358745 0.8455688 0.28367114
-0.029737005 -1.2731605 -0.48231745 0.26853234 0.9152984 0.80197716 -0.24844684 0.27196395
-0.6266218 -0.8414253 -1.1829678 -0.23370796 1.0772594 0.08959798 -0.83365345 -1.5571015
1.305691 -0.256541 0.8031581 0.1577196 -0.85673684 -0.15363052 -1.2474729 -0.6389481
0.56639105 -0.36722884 0.056507204 0.5793471 1.4044213 0.01758205 -1.5430189 -0.07352843
0.41047987 0.36747918 1.1454226 0.6006685 -0.81188565 -0.22763726 1.209771 0.107342966
0.58566475 0.32490844 -1.3034457 -0.23460725 1.5787641 1.0610199 1.2553465 0.30129784
0.8834904 -0.15789808 -1.2109535 -1.3572477 1.3732936 1.0551263 -0.3435423 0.2156785
0.60651135 0.95028615 1.2090669 1.4346755 -0.59545344 -0.955372 1.7086622 0.40558043
-0.64067346 0.65889484 1.2870457 0.9859084 -0.7553507 -0.10981492 -0.2520461 0.6635688
-0.1385549 0.74160385 0.31358257 0.5461769 -0.41563323 0.012210183 -1.2745073 -0.11644457
-0.936017 -1.0912201 -1.1135072 0.7867219 1.3720896 0.8177732 1.2292786 -0.2998682
-1.1368588 -0.6135855 -0.82822466 0.7593946 -0.429866 -0.47714478 -0.7555741 -0.7154719
0.8560147 1.2690343 0.9394371 0.9793522 1.2780206 -0.10424955 1.175673 1.2054561
0.5445709 0.84150803 1.0144119 0.86810225 -1.0257586 0.17257686 0.9199133 0.026193887
-1.2715456 -0.8190881 -0.77895623 0.07637803 1.3435707 0.12650585 -0.7608508 0.2778565
1.3466686 0.127188 0.26146728 0.5984107 0.49243933 -0.97272384 1.6344117 1.0757048
-0.52110714 0.53807586 -0.30425298 -0.2021949 0.6355705 0.23093086 -0.7532824 -0.41766682
0.06945701 -0.2660167 0.13596517 0.7779624 -0.42236805 -2.0052958 -0.2461844 0.6324701
0.27989548 -1.105887 -0.22145076 -0.9496075 -0.6749411 0.062372945 -0.55292076 0.15580638

layers.0.bias f4 [128]
00000000: 91e7 743f 5ef9 803e 584b f1be 2965 2e3e
00000010: e9e7 843d 140e 12bf 9a9c 303f 6846 e4be
00000020: 7e2c 9abf d885 a8be 3bc2 5dbd 4071 393f
00000030: 0eee d1be 98a7 663f 283f 63bd ca72 ecbe
00000040: 043b 493d 853a 23bf 91d7 653f 42ca 253f
00000050: 3c01 873f 21be 3a3f d78a 4dbe df07 653f
00000060: f9c5 803b 9db6 2b3f 419d 66bf cb4b b8be
00000070: 7136 83bf 540a 57be a4d7 da3e c633 15bf
00000080: d502 0f3e fa4e 413f 1b6f a33e e55f 0ebe
00000090: 0d59 0cbf 03b3 32bd d783 433f 9269 853f
000000a0: 9070 463f 9bfe bebd 6893 cc3e ccf3 37bf
000000b0: 8671 81bf cb73 343f a901 913c a816 173f
000000c0: 53f9 bfbc ec77 1ebe 65a3 b8be 2788 1c3f
000000d0: 157d 5a3c 3956 753f 9ddd e03e 990c 343f
000000e0: cbbb 99bd 1dc4 1dbd db31 e23d 6ff9 cbbd
000000f0: 5776 1f3f a4eb 16be 1e51 5d3f 28bb bcbd
00000100: bba1 8cbf f489 27bf 686e 793f e669 673f
00000110: 3981 82bf 279f 243f 8a0e 2e3f d96a 383f
00000120: 73a4 653f 9125 febc efc6 f13d f7e3 263f
00000130: 22ff 5ebe e5c6 b03e 12b4 7e3e 97a2 533f
00000140: ac98 b3be 0018 023e d687 a33e e8be 463c
00000150: 8101 12bd 4245 b23d 99a4 4c3f 888d 883d
00000160: aa53 e7be 57ae 783c c413 20bc e5b0 8cbc
00000170: 2961 2bbe 642b c0bc c77f 473f e78b fbbd
00000180: 260f a539 444a b6bb e21e 863f b8bd 7f3f
00000190: 7093 223a 7f0c e63a 349e 72be 882b 873d
000001a0: 96d1 a4be 38a1 7f3c 0767 5ebd 3319 0f3f
000001b0: 6715 c3bd ff50 ffbb e513 b8bc 5bce 32bf
000001c0: 61d4 0d3e 1188 443f 8a93 35be 9000 fa3d
000001d0: 55a2 2cbe 0f8d 893f 159a 53bf ef1c 84bf
000001e0: 90e2 843f 2d65 44bf d6e3 06be c302 e5bd
000001f0: 44ba 1a3e 919f 04be f651 483f 51ff eb3b
0.9566584 0.25190252 -0.47127795 0.17030777 0.06489546 -0.5705273 0.68988955 -0.44584966
-1.2044828 -0.32914615 -0.05414031 0.7243843 -0.41001934 0.9009948 -0.055480152 -0.46181327
0.049128547 -0.6376117 0.89782053 0.64761746 1.0547252 0.72946364 -0.20072494 0.89465135
0.00392985 0.6707552 -0.900837 -0.35995325 -1.0250989 -0.21000034 0.42742646 -0.58282125
0.13965924 0.75511134 0.31920704 -0.13903768 -0.5482338 -0.04362775 0.76373047 1.0422843
0.77515507 -0.09325906 0.39956212 -0.7185638 -1.011277 0.70489186 0.017700987 0.59018946
-0.023434317 -0.15475434 -0.3606216 0.6114525 0.013335486 0.9583469 0.43919078 0.7033172
-0.07506522 -0.038517106 0.110446654 -0.09959685 0.6228995 -0.14738327 0.864519 -0.09215385
-1.0986856 -0.65444875 0.9743409 0.90395963 -1.0195686 0.6430535 0.67990935 0.72038037
0.89704055 -0.031023772 0.11805522 0.65191597 -0.21777013 0.34526744 0.24873379 0.8266997
-0.35077417 0.12704468 0.31939572 0.012130477 -0.035645965 0.08704616 0.79938656 0.0666762
-0.45181018 0.015178285 -0.0097703375 -0.017174194 -0.16736282 -0.02345819 0.7792935 -0.12282544
0.0003148254 -0.0055630524 1.0478175 0.9989886 0.00062017795 0.0017551332 -0.23693162 0.066001
-0.3219115 0.015602402 -0.054297473 0.55897826 -0.095255665 -0.007791638 -0.022470424 -0.69846123
0.13850547 0.7677012 -0.17732063 0.122071385 -0.168588 1.0746173 -0.82656986 -1.032133
1.0381641 -0.7671688 -0.1317285 -0.111821674 0.15110117 -0.12951495 0.7825006 0.007202067

layers.2.weight f4 [128, 128]
00000000: c91e cdbe 5e2f e9be 94d6 f6bc d1e2 913e
00000010: f1fc fb3c cbaf aa3d cb96 11be 0dbd f1bc
00000020: ca94 c23e 7478 a43e bdba 233e 59c8 dabe
00000030: eb60 41be 57fb 00bf 735d 25be d0a6 ee3d
00000040: 5668 b63d 34df a7bd 5bf5 88be 0266 0abe
00000050: 60e4 a8be f5b8 2fbe 0af5 3abe fa6c 4cbe
00000060: 0a06 4b3d 8fbe 31bf 125c 413e 3a98 293d
00000070: 461a ba3e 7ae3 f5be 4bc7 003e b152 9dbc
00000080: 62e9 043e d0ca 77be 11b3 02bf ebdc 11bf
00000090: 2a9f 9cbd 02d2 763e bca3 72bd 1344 75be
000000a0: 1ab8 6cbe 58c0 14be 8e13 02be 6b6a 713e
000000b0: 2273 24bf 197b 5cbe 12bf fb3d a30c 2bbf
000000c0: 9c27 093d 69d5 233e fec3 20bf bcca 89be
000000d0: a399 1abf 58db 5cbe 9cd8 4e3e 0cd6 22be
000000e0: dbf7 96bd 3931 b7bc 8ecc 783e d363 87be
000000f0: e1f2 be3d aacc 85bf 6e40 73be 81a0 9abe
00000100: 86f8 17bf b6b2 403e 03f6 c0bd ed89 05bf
00000110: 5f8b 24bf ec48 b0bd 2670 d0be 9f91 2abe
00000120: 79e6 25be a5e5 2e3e 9d3a 0c3e 8136 77be
00000130: 3ea4 04bf 8c7e 7cbf 0465 3a3e 6cd7 2bbe
00000140: c94d e93d 7b54 a53e 73aa 55bf 924a 123e
00000150: 134d 58be c0d9 393e 2359 adbe d483 7d3e
00000160: d1c4 b23d 4430 ec3d c42c 243d c1ee c83c
00000170: 4a09 843e fb76 4ebe b42b 20be 86dc 06bf
00000180: 2c77 6cbe 588f 34bd 172e babe 29a1 67be
00000190: 51f3 be3d a867 af3c 2d36 9bbe 0085 603d
000001a0: f797 113e 9243 873e 88aa 63be 2d73 2ebe
000001b0: 481c f4bd 8489 dd3d a76a 44be 1c19 aa3e
000001c0: 4a41 1a3e 29af f0bd 9125 19bf 67b4 553e
000001d0: aa0d 90be 00c2 99be ead3 b5be 419e ad3e
000001e0: 0edb 68be 5a40 423e 54be 37bf 7064 09bd
000001f0: 8958 debe 0eba 4bbe d757 4fbe ecf1 323d
00000200: fa77 683d 8cef 323e 426e 113d 423b 013f
00000210: a5ad ec3e 0f74 ab3d 7577 0bbe 48bb 433e
00000220: feff 03bd 9532 55bf ac97 e6be c38b 04bf
00000230: 85d9 113f ba1d ccbd 972d 96be 11a5 e23e
00000240: 462d b53e 2098 1cbc 0b30 193e 51b4 8a3e
00000250: 2e7a 36be f2a1 8d3e 5047 9c3e 1260 203e
00000260: cc43 c2be 9f53 5ebf 11c9 b03d ec0a 833e
00000270: b8e3 553e de7e b7bc 5c89 883e a254 243f
00000280: 719c 293f 544d d4bd 3851 763d d136 6ebd
00000290: f7d9 4ebd 40ec c6be 405d b73e 2d43 48be
000002a0: 7f68 febd 76e7 7bbe a8bc acbd 72c1 aa3e
000002b0: 0806 70bf 0337 61bd 9282 7d3e b4b1 d1bd
000002c0: 3cdc b3be 13b4 92bf a071 87bd 2ba1 263e
000002d0: 4dec acbe e87b 04be 172c 123f 17c3 06be
000002e0: 77f6 3cbf dd81 00bf f150 023f 17ad 11bf
000002f0: 8ac7 663e 055a 0cbf 80cc a0be 8816 44be
00000300: 1c60 953e f035 183d ab10 563e 73ac 2dbf
00000310: b47b 2cbf e174 c53e 09b7 08bf 5397 5d3e
00000320: aa07 223e b2f5 a3be a15d fe3e e78c c23e
00000330: c0c3 18bd a725 cbbe e62a 023f fb73 5bbd
00000340: c5ef 6b3e d633 e73e de53 19be 51fd c03e
00000350: cd13 bdbc c24c 003f 4755 66be ef03 4a3e
00000360: 4042 303f e623 243e c184 f73d fb9a c6be
00000370: 1564 8fbf c4c7 30be 9e27 a23e eac3 cfbb
00000380: 87e9 a9bf 57e2 74be 397a 1abe ebe9 85be
00000390: 5756 c73e 8e4c 433e 37d9 dbbc 73bc e83e
000003a0: cc44 cc3e 9545 ca3e fedd 26be 0720 2f3e
000003b0: fcd2 efbe 3bd3 73be 8e90 943e 1bfc 033f
000003c0: 2ac1 f83e 7389 a43d 068b 1ebb 44c6 043f
000003d0: 9707 fa3d db6c ee3b 5005 7d3d e3b3 96be
000003e0: a939 a53c cd0c 453d 2e2b 60be 4a70 a83e
000003f0: 5a83 10be 046f fbbe c902 d4bd 8f9f d8bd
-0.4006255 -0.4554395 -0.030131616 0.2849336 0.03076026 0.08334311 -0.14217679 -0.029509092
0.38004142 0.32123148 0.15989204 -0.42730978 -0.18884628 -0.50383514 -0.1614893 0.11652911
0.08906619 -0.081968695 -0.2674969 -0.13515475 -0.32986736 -0.171604 -0.18257537 -0.19963446
0.049566306 -0.69431394 0.18882778 0.04140494 0.3634817 -0.48025113 0.12576024 -0.01920447
0.12979653 -0.2419846 -0.51054484 -0.5697772 -0.07647546 0.24103549 -0.05923818 -0.2395175
-0.23117104 -0.14526498 -0.12702772 0.23575751 -0.6423818 -0.21531333 0.12292303 -0.6681616
0.03348504 0.15999378 -0.6279906 -0.26912487 -0.6039068 -0.21568048 0.20199817 -0.15901965
-0.073714934 -0.022362338 0.24296781 -0.26443347 0.09323669 -1.0453084 -0.23755047 -0.3020058
-0.5936359 0.18818173 -0.09421923 -0.52163583 -0.64275163 -0.08607659 -0.40710562 -0.16657113
-0.162012 0.1707979 0.13694234 -0.24141885 -0.51813114 -0.98630595 0.18202597 -0.16781396
0.113917895 0.32291016 -0.8346321 0.14286259 -0.21123151 0.18149471 -0.33857068 0.2475732
0.08728946 0.115326434 0.040081754 0.02452791 0.25788337 -0.20162575 -0.15641671 -0.5268024
-0.23092335 -0.044082016 -0.3636329 -0.22620071 0.09323753 0.021411732 -0.3031477 0.05481434
0.14218126 0.2641874 -0.22233021 -0.17036124 -0.11919457 0.10817245 -0.1918131 0.33222282
0.15063968 -0.11752159 -0.59822947 0.208696 -0.28135425 -0.30030823 -0.3551324 0.339098
-0.22739813 0.1896986 -0.7177479 -0.03354305 -0.43426922 -0.19895193 -0.20248352 0.043687746
0.056755044 0.17474192 0.03550554 0.50481045 0.4622623 0.08371746 -0.13619788 0.19114411
-0.032226555 -0.8328031 -0.4503759 -0.5177576 0.56972533 -0.099666074 -0.29331657 0.4426656
0.35386103 -0.009557754 0.14959733 0.27090696 -0.17820045 0.27662617 0.30523157 0.15661648
-0.3794235 -0.86846346 0.086321004 0.2559427 0.20887649 -0.022399362 0.26667297 0.6419164
0.66254336 -0.10366312 0.06013605 -0.058157746 -0.050500836 -0.3885212 0.35813332 -0.19556876
-0.12422275 -0.24600014 -0.08434421 0.33350712 -0.937592 -0.054984104 0.2475684 -0.10238972
-0.35128963 -1.1461204 -0.06613469 0.16272418 -0.33774033 -0.12937891 0.57098526 -0.13160358
-0.73813576 -0.50198156 0.50904757 -0.5690474 0.22537056 -0.5482486 -0.3140602 -0.1914922
0.29174888 0.037160814 0.20904796 -0.6784126 -0.67376256 0.38565734 -0.5340429 0.21639757
0.15823236 -0.32023388 0.49680808 0.37998125 -0.037296057 -0.39677164 0.5084671 -0.053577404
0.23040684 0.45156735 -0.14973399 0.37693265 -0.02308073 0.50117123 -0.22493468 0.19728063
0.6885109 0.16029319 0.12085868 -0.38790116 -1.1202418 -0.17263705 0.3167085 -0.0063404934
-1.3274392 -0.23914467 -0.15085687 -0.26155028 0.3893306 0.19072172 -0.026836975 0.45456275
0.39896238 0.39506212 -0.16295621 0.17102061 -0.46840656 -0.23811047 0.29016536 0.5155656
0.48584872 0.08034029 -0.002419175 0.5186503 0.12208479 0.00727616 0.061772645 -0.29434118
0.020169096 0.04810791 -0.21891472 0.3289817 -0.14112607 -0.49108136 -0.10352094 -0.105773084

layers.2.bias f4 [128]
00000000: 6676 56be f208 37bd c636 0f3f fe7e 99bd
00000010: fe02 3e3d 3385 a8bd 84be a23e d6c4 cf3c
00000020: c045 b7bd 3085 6a3e 7553 cd3c 72dc 9bbd
00000030: 8bc4 d0bd c067 983d 4c8c ecbd 8456 2ebe
00000040: fdc4 a73b a2ae d33e 0127 813c c39a a8bd
00000050: 773e e43c ec39 aa3c 3a07 c8be 0010 0fba
00000060: e5dd 063c 3ae8 f13d 23e1 ad3d da16 07bd
00000070: 4a88 5cbe 26f2 b93c 9c36 f83e 2242 e1bd
00000080: 3f00 953d 8dd6 8cbc 0b98 21bd 0a8d a6be
00000090: acf4 1b3f 45d1 aa3d a2a7 8ebd e588 3dbe
000000a0: e766 3cbe 18d9 88bd e251 92be 46b1 22bd
000000b0: 0f58 e43d e842 0d3e 3bd5 1dbd fd72 2a3c
000000c0: d60f d03b 63dc 193e dc45 0fbe 8e5e e93c
000000d0: 3c4d 95ba 4c65 083e 4389 1bbe 3aa5 abbc
000000e0: 682d 95be 432f 47ba 24c7 fd3c 0a1f 8a3c
000000f0: 34fa a9be 2f5e a23e e61a e8be 0d32 733c
00000100: 25d8 1c3d 6287 853d 1e27 1a3e b872 013e
00000110: 8b07 2dbe ae2d 033d fedd 8cbd f1a1 9abe
00000120: 5872 82bd 10d6 a73d d0f1 43bd edfd 9fbd
00000130: 73a5 eb3e 9c17 8b3d f1ee 6a3d c76e f53e
00000140: c891 20bc 367b 2f3d 61db 6ebb 8794 773d
00000150: 20b0 163d 43d8 a7be cc5c 8dbd 408c 073d
00000160: b798 503d dd0a a13d ac35 213d bf39 89bd
00000170: 183d 403d eea5 1e3e 9aa8 0b3c 0ea4 59be
00000180: 427a 2dbd e0b1 8abe bd72 bfbd 77de 43bd
00000190: f699 07bd c14f e2bd 8d99 93bd bd08 35bd
000001a0: 7a87 c33d 4e7b 7a3d d27d ad3e 14f1 213e
000001b0: b940 acbe 37ef d0bd 20ea 04bd ce05 003d
000001c0: 8007 043a c6b5 0f3e 7ccf 0cbd 962a 163e
000001d0: ed12 93bd d0f9 373d 0b4a 80be d9cd 8abd
000001e0: 5c03 1e3e 4f10 003f 0406 9ebd ea89 bdbd
000001f0: bbfe 38bc 2c9e c13c 74e0 a03d 5278 6cbd
-0.20943603 -0.044686265 0.5594295 -0.07494925 0.046389572 -0.08228531 0.31785977 0.025362413
-0.08948851 0.2290237 0.02506421 -0.07610406 -0.101937376 0.07441664 -0.11550197 -0.1702519
0.0051199184 0.41344172 0.015765669 -0.082326435 0.027861817 0.020779572 -0.39068013 -0.0005457401
0.008231615 0.11811872 0.08490207 -0.032980777 -0.21536365 0.022698473 0.48479164 -0.10998942
0.072754376 -0.01719215 -0.03945164 -0.3252948 0.60920215 0.08340696 -0.06965567 -0.18509252
-0.18398629 -0.06682032 -0.28578097 -0.039719842 0.11149608 0.13795054 -0.03853343 0.010403392
0.006349544 0.15025477 -0.13991493 0.02848747 -0.0011390815 0.13319892 -0.1518908 -0.02095281
-0.29136205 -0.000759829 0.030978747 0.016860504 -0.33198702 0.3171248 -0.45333022 0.014843476
0.03829207 0.06519963 0.15053985 0.12641418 -0.16897409 0.032025985 -0.06878279 -0.30201676
-0.063694656 0.08195126 -0.047838032 -0.078121044 0.46024665 0.067916125 0.05735678 0.4793608
-0.009800382 0.042842112 -0.0036446678 0.06044438 0.03678906 -0.32782182 -0.06902465 0.033092737
0.05092689 0.078634 0.039357826 -0.06700467 0.046933264 0.15492985 0.008524084 -0.21253988
-0.042352922 -0.27088833 -0.093480565 -0.04781958 -0.033105813 -0.11050368 -0.07207022 -0.044197787
0.095473245 0.06115275 0.33885056 0.1581462 -0.3364313 -0.102018766 -0.03244984 0.031255536
0.0005036518 0.14034185 -0.03437756 0.14664683 -0.07181344 0.044915974 -0.2505649 -0.067775436
0.15430969 0.50024885 -0.07715991 -0.09254821 -0.011291201 0.023634993 0.07855311 -0.057731934

layers.4.weight f4 [2, 128]
00000000: d7f8 c3be c2b7 9cbe 97b6 373f f39d 89be
00000010: 14a1 91bc e624 743d 8665 463f 8847 f7bc
00000020: efc6 22bf 36a5 3f3f aa4c a5be 2e6f 6e3c
00000030: 7f75 8cbd de15 633f 004d 24ba 26f5 ecbc
00000040: 9b76 98bc 2c12 3e3f aef7 093e 52ce 3fbe
00000050: ca9c a1be 1049 7b3d 3585 73be d0c4 65bc
00000060: 3ba5 a43b c656 c13d 07e6 0fbf 9102 463d
00000070: ef51 3abe 54f8 003d 8dd1 103e b471 65bf
00000080: 1086 683c d045 dcbd accb 56bd e394 cebe
00000090: 31c7 a33e 5242 d4be ce7b a6bd a535 cdbd
000000a0: 9c50 64be 4a3f f83a 7a2e 01bf 3398 01bd
000000b0: 5d73 1f3e 6b57 5fbf 63a3 b4bd 853a 8e3d
000000c0: fdbe af3d 5ddb 033f e62a 8fbe c016 253d
000000d0: 0dbb 7ebc 4408 3cbd e7ff 9abe 6d31 5fbc
000000e0: da60 ecbe f2c7 be3d 9cad a0bd 1817 5f3d
000000f0: 947f 15be 9267 413f b5ab d8be 958a 5abc
00000100: 1c98 12bc ea67 21be 411c 593f 8b61 b23e
00000110: d0ef 38bf 32ad 68be 9a6d 683d 7f8c 89be
00000120: b0ef af3b 7d06 d43d 52a5 acbd 5a85 66bd
00000130: 1401 2c3f 8f2b 7bbd e7e5 78be 26e5 073e
00000140: 5dd5 813d bb27 6c3d a9ef 083e d956 e73c
00000150: bcfd 85bd 35e0 b53b af94 82ba dee4 a63c
00000160: a450 5e3b 1168 da3b 9550 123d ba73 943d
00000170: 7acb ab3c 8265 853f b94f 893d 6fe7 28be
00000180: 0efa 723c a6b7 f9be ace2 f4bb a5d4 14be
00000190: 31a7 2bbe 0d53 a93d e4bd 813c 9101 86bf
000001a0: ddc4 393e 6656 afbd 9134 3d3f 598c 46bf
000001b0: 8bf7 17bf 725f 65ba b12b 603a e495 823d
000001c0: 6dbc b4bd f535 53be d5b8 063d ec9a e9be
000001d0: f491 a53c addc 833d 0d47 efbe a125 ac3d
000001e0: 1d7f 14be 2a66 413f 5833 063d 60eb 88bc
000001f0: f8e3 973d 43f8 0abe f07c a73e 162a bbba
00000200: 6ddd db3b aeec e5be bf22 f33e bb23 bebe
00000210: 9494 c63c bdf3 2f3d 5601 ab3e 0f60 9abd
00000220: 4ef3 70bd cf37 dd3e c794 b6be b285 3b3c
00000230: 0d80 f6bc 549b 97be 2f73 bb3c dcd8 1cbe
00000240: 3a56 643c 8608 9d3e ec3b 0cbe 5df6 0cbe
00000250: 8b8a abbe 4f88 bfbc 430b 78be 24ab 8dbd
00000260: dd24 a439 a7d9 bebe d520 0b3f 6403 69bd
00000270: ac73 bfbd 19bd 07bc 4374 313f 1922 a8bd
00000280: a079 30bb 92ef 5fbe 0e16 28bd 4b97 543f
00000290: d1c7 483f 78a9 0cbe de87 563e eeb9 753e
000002a0: 304f cdbd d644 84bd 8471 cfbe 5bdd 53bd
000002b0: bd01 74be 3ead 08bf b81d 3abd 2fa2 06bf
000002c0: d246 3e3f c057 6fbe 8415 b73b f965 593d
000002d0: 10ca 2e3d 9f90 04bf 38bb 36be a1d5 3ebd
000002e0: 699f 4fbe d908 a8be a752 933d 7884 3a3d
000002f0: ac9b c9bd 670e ce3e df1a cc3e bcbc 133f
00000300: b72c 913d f46e 87be 7e6a d0be ef78 afbe
00000310: 66e8 46bd 665b 8ebe b8e8 823d 3603 27be
00000320: 373e a2bd 9ff0 b1be f046 7f3c 5d8f 133d
00000330: 6d3b d23e 41ed 59bd 6b13 89be 7416 683f
00000340: 6c6a bcbc 4c16 25be 58ea 2b3f fe73 89be
00000350: 12a1 a4be 0ebd 69bd 6bbc 39bd 5a6f 893d
00000360: ae44 ed3c a3c2 81be a0c0 0fbc a33e 11bc
00000370: eab3 3a3d bd58 6c3f 2e68 5e3d 305c efbd
00000380: 0fb5 ddba 25a0 edbe e3a0 5db9 e7fd 6fbe
00000390: 2b0c 9dbe 4f4a 96be 6b06 d53b 3fed dbbe
000003a0: 5338 643f 04fd 1bbe adf8 963e 166e a2bd
000003b0: 7d4d 83be 0791 c93b a178 4abb 947d 36bd
000003c0: c085 7dbd 2614 c5be 273e 873d e312 4dbe
000003d0: 5e70 a13d 48aa 7abe bab6 813e 0c8e 4cbe
000003e0: c1cd 133e 6daa 0e3f 215b b33b e27d 95be
000003f0: 2e11 cbbc 8f3f c2be 7222 c8be 7aeb 3d3d
-0.38275787 -0.30608946 0.71762985 -0.26878318 -0.017777003 0.0596055 0.7749866 -0.030185476
-0.635848 0.74861467 -0.32285053 0.0145528745 -0.06858348 0.8870524 -0.00062675774 -0.02892549
-0.018611243 0.7424648 0.13473389 -0.18731049 -0.31564933 0.061348975 -0.23781283 -0.014023975
0.00502458 0.09440379 -0.5621037 0.04834229 -0.18195318 0.031486824 0.14142437 -0.8962662
0.014192119 -0.10755503 -0.05244033 -0.40347967 0.31987908 -0.41456848 -0.081290826 -0.100199975
-0.22296375 0.001893976 -0.5046154 -0.03163929 0.15571351 -0.87242764 -0.08820226 0.069447555
0.0858135 0.51506597 -0.27962416 0.0403049 -0.015547526 -0.04590632 -0.30273363 -0.013622624
-0.46167642 0.0931548 -0.07845613 0.054465383 -0.14599448 0.7554866 -0.42318502 -0.013338705
-0.0089473985 -0.15762296 0.8480874 0.34840044 -0.72240925 -0.22722319 0.05674515 -0.26865003
0.005369149 0.103528 -0.0842997 -0.056279518 0.67189145 -0.061320838 -0.24306451 0.13271007
0.06339524 0.057655077 0.13372673 0.028239654 -0.065425366 0.005550409 -0.0009962524 0.020372804
0.0033922577 0.0066652377 0.03572138 0.072486356 0.020971049 1.0421603 0.06704659 -0.16494535
0.0148301255 -0.48772925 -0.0074733105 -0.14534242 -0.16762997 0.08267794 0.015837617 -1.0469228
0.18141504 -0.08561401 0.73908335 -0.77557904 -0.59362096 -0.0008749879 0.00085514324 0.063762456
-0.08825002 -0.20626052 0.032891113 -0.4562601 0.020211197 0.06438575 -0.46733895 0.08405615
-0.14501615 0.75546515 0.03276381 -0.016713798 0.074165285 -0.13571267 0.32712507 -0.001427951
0.0067097456 -0.44907135 0.47487447 -0.37136635 0.02424077 0.042957056 0.33399457 -0.07537853
-0.058825783 0.4320664 -0.35660383 0.01144545 -0.030090356 -0.29610693 0.022882072 -0.153171
0.013936574 0.30670565 -0.13694733 -0.13765855 -0.33504137 -0.023380427 -0.24223046 -0.06917408
0.00031307983 -0.3727543 0.5434697 -0.056888 -0.093482345 -0.0082848305 0.69318026 -0.082096286
-0.0026927963 -0.21868733 -0.041036658 0.83043355 0.78429896 -0.13736522 0.20950267 0.23996708
-0.100248694 -0.06458442 -0.40516293 -0.051724773 -0.23828788 -0.53389347 -0.0454385 -0.5259122
0.74326813 -0.23373318 0.0055872817 0.053075764 0.04267317 -0.51783174 -0.17844856 -0.04659045
-0.20275654 -0.3281925 0.07193499 0.04553649 -0.09844145 0.40245363 0.3986425 0.5770986
0.07088607 -0.26451838 -0.40706247 -0.34271953 -0.048561476 -0.27804106 0.06392044 -0.16309819
-0.07922023 -0.34753892 0.015580878 0.036025394 0.41060963 -0.05320478 -0.26772627 0.9065926
-0.022999965 -0.16121787 0.67154455 -0.26846308 -0.32154137 -0.057065062 -0.045345705 0.06710692
0.028963413 -0.2534381 -0.008773953 -0.008865031 0.045581736 0.92322904 0.054298572 -0.11687505
-0.0016914922 -0.46411243 -0.00021136137 -0.234367 -0.30673346 -0.29353568 0.006501009 -0.42954442
0.89148444 -0.15233237 0.294866 -0.079311535 -0.25645056 0.006151322 -0.0030894654 -0.044553354
-0.061895132 -0.38491935 0.066036515 -0.20026736 0.078827605 -0.2447902 0.25334722 -0.19976062
0.14433958 0.557288 0.00547351 -0.29197603 -0.024788465 -0.37939116 -0.3908878 0.046367146

layers.4.bias f4 [2]
00000000: c692 b73e 8fe1 cd3e
0.35854167 0.4021115
