ddqn_models/0428/ddqn_200_1.5.pth (torch_old, 69813 bytes, 6 tensors)

layers.0.weight f4 [128, 2]
0.070171244 -0.37774432 1.49063 -0.64232814 0.07587606 -0.14804602 1.2217053 0.8072728
1.0513136 0.98786086 -0.13846454 -0.11713378 -0.71822697 0.40490013 0.5703573 0.98191816
-0.64861465 -0.40382057 -0.59627956 -0.9572084 -0.9644595 -0.2606517 -0.94173026 -0.19558918
-0.8031915 1.0354931 -0.5341949 -0.80968755 -0.85273683 0.8210802 0.057428695 0.9170294
0.8000639 0.8230339 -0.005263746 -0.13978195 1.1117971 -0.048714075 0.86406547 0.14140062
-0.5052233 -0.4517094 1.0801939 -0.10606311 -0.32631236 0.9354636 1.1908826 0.13066794
-0.7255416 0.2726702 -0.9202237 -0.31820574 -0.4665491 -0.2983322 -0.028676819 0.8012682
0.031765677 0.77115923 0.8095465 -0.4099236 0.7124795 -0.25349057 -0.5329134 0.35117948
1.2876216 0.94775003 -0.05070598 -0.23558848 0.66458637 -1.2103252 0.69969743 -0.88525313
0.009745717 -0.120220006 -0.8819335 -0.25711727 1.4062587 0.13275379 -0.4374063 -0.46161115
-0.7123321 0.45618555 -1.2450666 -0.44495815 -0.56426287 0.1603087 0.46358636 0.857816
0.45749933 0.28015268 -0.260746 0.21069138 0.9574286 1.0645826 -0.5392264 -0.7982958
-1.3913336 -0.15958238 -0.95751446 -0.9726698 1.0289053 -0.4877641 0.8890108 0.23502281
0.029901795 -1.0813414 -0.4463483 0.23795506 0.9410734 0.73270243 -0.23399408 0.22851598
-0.63887066 -0.7731416 -1.1049876 0.00904643 1.0199472 0.1982113 -0.9585096 -1.5007536
1.2128388 -0.16869901 0.848607 0.074054375 -0.8420101 -0.06163122 -1.0854876 -0.61280036
0.5582266 -0.45427907 0.051653724 0.5258275 1.3953199 -0.07985703 -1.5282469 -0.001261353
0.49276105 0.282437 1.148436 0.55406725 -0.8534318 -0.19861752 1.2351811 0.11768882
0.5779004 0.31056073 -1.2614659 -0.26054424 1.5602345 0.86480224 1.3196707 0.22255467
0.8235618 -0.2363982 -1.1609889 -1.4187499 1.3206722 0.9998292 -0.33356243 0.16076484
0.6311429 0.9031428 1.1758037 1.5110593 -0.60514045 -0.95881116 1.6841252 0.42789117
-0.53302276 0.70028585 1.151287 0.90726984 -0.72552997 -0.08968151 -0.1706518 0.7760831
-0.028712155 0.6353592 0.40872124 0.54089767 -0.44696945 0.20429754 -1.2404335 -0.09554605
-1.0402102 -1.0684135 -1.0375942 0.92465395 1.3907834 0.7338854 1.3971349 -0.39673108
-1.0881841 -0.57840115 -0.77975845 0.8382881 -0.42653185 -0.46961626 -0.79334337 -0.7275651
0.86957073 1.2384412 0.75694084 1.0628366 1.2041389 -0.14469847 1.1223273 1.1266961
0.5394191 0.80347186 0.925779 0.8915863 -0.91378003 0.25064793 0.8932523 0.049507555
-1.174871 -0.6723001 -0.6976348 0.3051922 1.2879429 0.14114724 -0.75921607 0.23050058
1.2854528 0.24718289 0.25551897 0.59931904 0.49257374 -0.9437689 1.5987698 0.8934263
-0.39163223 0.5745248 -0.2887907 -0.22346434 0.7259921 0.23910414 -0.80515885 -0.4418471
0.08664452 -0.2917049 0.24750993 0.71529263 -0.21742877 -1.9552945 -0.25037995 0.5898909
0.29804644 -1.2696562 -0.33970505 -0.9383791 -0.71514755 0.1748718 -0.48036066 0.25490072
00000000: f1b5 8f3d b467 c1be f7cc be3f 9e6f 24bf
00000010: e864 9b3d 6099 17be d760 9c3f 6ea9 4e3f
00000020: 7291 863f 73e4 7c3f a6c9 0dbe d6e3 efbd
00000030: b9dd 37bf 124f cf3e f002 123f fd5e 7b3f
00000040: 9c0b 26bf 92c1 cebe c7a5 18bf 9c0b 75bf
00000050: d1e6 76bf 2474 85be 3c15 71bf 8848 48be
00000060: f59d 4dbf 0a8b 843f ffc0 08bf af47 4fbf
00000070: f64c 5abf 5032 523f 5a3a 6b3d 70c2 6a3f
00000080: fdd0 4c3f 5ab2 523f 807b acbb 0023 0fbe
00000090: 5e4f 8e3f 6988 47bd 6533 5d3f 53cb 103e
000000a0: 5056 01bf 7446 e7be cb43 8a3f 9e37 d9bd
000000b0: 6a12 a7be 8b7a 6f3f d76e 983f d1cd 053e
000000c0: 18bd 39bf 6e9b 8b3e c893 6bbf ddeb a2be
000000d0: 86df eebe 00bf 98be a6eb eabc ea1f 4d3f
000000e0: ba1c 023d b16a 453f 703e 4f3f 82e1 d1be
000000f0: 0e65 363f 84c9 81be 036d 08bf cccd b33e
00000100: c9d0 a43f bf9f 723f 13b1 4fbd 1b3e 71be
00000110: 5522 2a3f f0eb 9abf 5f1f 333f f39f 62bf
00000120: 80ac 1f3c e835 f6bd 65c6 61bf e0a4 83be
00000130: 4900 b43f 9cf0 073e b8f3 dfbe 4c58 ecbe
00000140: 665b 36bf 2791 e93e 585e 9fbf 8ed1 e3be
00000150: 8873 10bf f727 243e 315b ed3e d499 5b3f
00000160: 5a3d ea3e 2c70 8f3e 8080 85be 7bbf 573e
00000170: 0a1a 753f 3e44 883f be0a 0abf 1d5d 4cbf
00000180: 3817 b2bf 9069 23be ab1f 75bf e300 79bf
00000190: 2bb3 833f 37bc f9be 3696 633f d2a9 703e
000001a0: 9cf4 f43c 6569 8abf c487 e4be 7eaa 733e
000001b0: 30ea 703f 6392 3b3f 259c 6fbe 1800 6a3e
000001c0: 078d 23bf 9cec 45bf 3c70 8dbf 7a37 143c
000001d0: a18d 823f e7f7 4a3e e360 75bf b218 c0bf
000001e0: 4d3e 9b3f 6fbf 2cbe 4f3e 593f d2a9 973d
000001f0: f98d 57bf 0571 7cbd 42f1 8abf 7ce0 1cbf
00000200: f0e7 0e3f 4497 e8be db92 533d a29c 063f
00000210: d899 b23f 158c a3bd 989d c3bf fc53 a5ba
00000220: 2d4b fc3e 959b 903e f3ff 923f 5ad7 0d3f
00000230: 827a 5abf 6462 4bbe 6a1a 9e3f d606 f13d
00000240: 48f1 133f d101 9f3e b777 a1bf 0e66 85be
00000250: c4b5 c73f ae63 5d3f f8ea a83f 5fe5 633e
00000260: f2d4 523f 5f12 72be 499b 94bf 9999 b5bf
00000270: c90b a93f cef4 7f3f b2c8 aabe 8a9f 243e
00000280: 9592 213f 5e34 673f bc80 963f 646a c13f
00000290: 7cea 1abf a674 75bf 6a91 d73f 8d14 db3e
000002a0: 2e74 08bf ef45 333f 5f5d 933f d642 683f
000002b0: 55bc 39bf f1aa b7bd 58bf 2ebe 62ad 463f
000002c0: c135 ebbc e7a6 223f e943 d13e 4578 0a3f
000002d0: 2ed9 e4be 6033 513e 86c6 9ebf a6ad c3bd
000002e0: 9c25 85bf c6c1 88bf e3cf 84bf 1fb6 6c3f
000002f0: 3105 b23f eadf 3b3f 51d5 b23f 5620 cbbe
00000300: 9e49 8bbf 1912 14bf 409e 47bf 0d9a 563f
00000310: 6262 dabe 8b71 f0be 8d18 4bbf b541 3abf
00000320: 309c 5e3f 3e85 9e3f e0c6 413f 080b 883f
00000330: 3921 9a3f d62b 14be 6ca8 8f3f 9437 903f
00000340: 5f17 0a3f 55b0 4d3f daff 6c3f 003f 643f
00000350: 7ded 69bf ed54 803e 2fac 643f 6fc8 4a3d
00000360: 2c62 96bf dc1b 2cbf 3298 32bf 2742 9c3e
00000370: 50db a43f e788 103e fc5b 42bf 5808 6c3e
00000380: b889 a43f 831d 7d3e 62d3 823e f96c 193f
00000390: a032 fc3e d79a 71bf 7da4 cc3f 96b7 643f
000003a0: 0584 c8be 0f14 133f 60dc 93be d6d3 64be
000003b0: 9eda 393f b7d7 743e e41e 4ebf c839 e2be
000003c0: af72 b13d 585a 95be 3e73 7d3e 6b1d 373f
000003d0: a6a5 5ebe 1747 fabf cd31 80be 1703 173f
000003e0: 8b99 983e 1884 a2bf d2ed adbe 9d39 70bf
000003f0: e913 37bf 9811 333e d5f1 f5be 5982 823e

layers.0.bias f4 [128]
0.97064465 0.19842206 -0.47127795 0.20381013 0.035641573 -0.5705273 0.7202134 -0.49579936
-1.1515782 -0.25860295 -0.040592484 0.7358887 -0.31192097 0.9146948 -0.014909229 -0.31707314
0.067018636 -0.6376117 0.9133008 0.6594495 1.068115 0.7524939 -0.21973372 0.91319066
0.0066769114 0.6778655 -0.84804773 -0.18138859 -0.9275467 -0.23905087 0.45201632 -0.4297593
0.13363321 0.7697599 0.36744285 -0.12241846 -0.5482338 -0.03792862 0.7779914 1.055147
0.8031036 -0.052277207 0.44092122 -0.6394331 -0.9549994 0.7230206 0.044490635 0.6064422
-0.034327187 -0.082727164 -0.45361426 0.62769073 -0.012647404 0.9883083 0.48667306 0.72348464
-0.0030342173 -0.012519436 0.10444492 0.016200876 0.63441414 -0.11299093 0.88240504 -0.08664384
-0.9479007 -0.6042294 0.9869818 0.915491 -0.93751746 0.670676 0.6898785 0.7330566
0.91736615 -0.03844287 0.07416779 0.6597435 -0.3360083 0.36888626 0.30296174 0.8542744
-0.38863164 0.13492419 0.343152 -0.051153127 -0.034804504 0.07233527 0.8184543 0.08508812
-0.40696833 -0.007784304 -0.008559165 -0.025685934 -0.09013449 -0.014215116 0.8072951 0.0045085587
0.081572846 -0.016350461 1.0605414 1.0117357 0.0357359 0.031651437 -0.3319855 0.09486874
-0.37135994 0.0073507535 -0.04442069 0.569924 -0.09387406 0.012095049 0.027360346 -0.6258382
0.13369386 0.80185306 -0.20720993 0.075989805 -0.15268347 1.0898106 -0.74977857 -0.930912
1.054203 -0.6932935 0.01953731 -0.10235563 0.07947217 -0.14455217 0.8012878 0.015165439
00000000: 2b7c 783f 272f 4b3e 584b f1be 9ab3 503e
00000010: e6fc 113d 140e 12bf e85f 383f 6ad9 fdbe
00000020: ea66 93bf 9b67 84be 4e44 26bd 3463 3c3f
00000030: 1bb4 9fbe 7029 6a3f d745 74bc 6957 a2be
00000040: 1141 893d 853a 23bf 15ce 693f afd1 283f
00000050: feb7 883f 71a3 403f e001 61be ddc6 693f
00000060: fec9 da3b 9888 2d3f a819 59bf eebd 39be
00000070: b373 6dbf c0c9 74be af6e e73e 6909 dcbe
00000080: 25d7 083e fc0e 453f 7821 bc3e 88b6 fabd
00000090: 0d59 0cbf 0a5b 1bbd 722a 473f 0f0f 873f
000000a0: 3398 4d3f a020 56bd 6dc0 e13e e3b1 23bf
000000b0: d77a 74bf e117 393f d03b 363d cc3f 1b3f
000000c0: aa9a 0cbd dc6c a9bd 2140 e8be 57b0 203f
000000d0: 0f37 4fbc c601 7d3f 362d f93e 4a36 393f
000000e0: b8d9 46bb 521e 4dbc 38e7 d53d b3b7 843c
000000f0: f768 223f ca67 e7bd 4ce5 613f 5372 b1bd
00000100: 9fa9 72bf c7ae 1abf d7aa 7c3f 9e5d 6a3f
00000110: 2501 70bf 6cb1 2b3f e19b 303f 99a9 3b3f
00000120: 82d8 6a3f 4576 1dbd 48e5 973d f3e4 283f
00000130: 4809 acbe a9de bc3e cd1d 9b3e bab1 5a3f
00000140: bafa c6be 9129 0a3e 9eb1 af3e f185 51bd
00000150: 2b8f 0ebd 8424 943d 3986 513f ae42 ae3d
00000160: 275e d0be 7a13 ffbb bd3b 0cbc 4f6b d2bc
00000170: 6e98 b8bd 85e6 68bc e4aa 4e3f 88bc 933b
00000180: aa0f a73d 67f1 85bc d2bf 873f 8e80 813f
00000190: cf5f 123d f0a4 013d 01fa a9be 8b4a c23d
000001a0: e422 bebe 97de f03b 78f2 35bd 8ae6 113f
000001b0: 0b41 c0bd 502a 463c ce22 e03c ef36 20bf
000001c0: 0be7 083e 3e46 4d3f d72e 54be 8ba0 9b3d
000001d0: 0e59 1cbe ea7e 8b3f 7df1 3fbf 4050 6ebf
000001e0: 20f0 863f af7b 31bf b50c a03c d49f d1bd
000001f0: 4ec2 a23d 7c05 14be 3221 4d3f 7678 783c

layers.2.weight f4 [128, 128]
-0.20975156 -0.26351756 -0.030131616 0.46933964 0.22128531 0.08334311 -0.015254635 0.15075415
0.38004142 0.32123148 0.15037706 -0.35201484 -0.09447285 -0.41103646 -0.05075196 0.23407938
0.2790657 -0.081968695 -0.04853705 0.059628837 -0.19734195 -0.11510452 -0.08124165 -0.0015457654
0.118436925 -0.62061125 0.18882778 0.16239487 0.1899877 -0.27772844 0.12051232 0.0020590853
0.310993 -0.049895678 -0.36556342 -0.37586683 -0.07647546 0.22495139 0.093531474 -0.10063629
-0.09828916 -0.1879135 -0.05431025 0.3084103 -0.73331666 -0.049768355 0.29690617 -0.73666745
0.09319114 0.15999378 -0.41236123 -0.08118768 -0.45098397 -0.0555491 0.38867137 0.008287479
-0.073714934 0.03500003 0.30360442 -0.26443347 0.091205366 -0.84564286 -0.15294719 -0.17994851
-0.27541772 0.021620343 0.03684567 -0.44968644 -0.71632767 0.099817365 -0.33388266 0.033851966
0.02080971 0.2077663 0.34524676 -0.0116225565 -0.32751548 -0.98630595 0.36589727 -0.003115907
0.29570752 0.50646585 -0.9328915 0.23424318 -0.10826487 0.3720876 -0.24439788 0.38160622
0.15627463 0.3009874 0.10273941 0.09000103 0.25788337 -0.107716724 0.029273417 -0.33501688
-0.2910204 0.057550028 -0.22387166 -0.170206 0.27690822 0.19966383 -0.110411644 0.24321981
0.32499236 0.43267596 -0.15778977 0.011068884 -0.020663084 0.17602958 -0.040358994 0.27005416
0.21126913 0.06350304 -0.45511085 0.41341844 -0.15110786 -0.105605744 -0.14451659 0.339098
-0.04109855 0.07776986 -0.5638317 0.08967767 -0.35985392 -0.1685041 -0.06279185 0.11572419
0.06935933 0.18156034 0.03550554 0.44919533 0.43644702 0.08371746 -0.07946633 0.21381804
-0.032226555 -0.31426454 -0.26827523 -0.47587472 0.5399662 -0.09237735 -0.37482014 0.40183172
0.33988795 -0.009557754 0.15006162 0.2734309 -0.14178947 0.25678435 0.33583605 0.15696205
-0.38367045 -0.8414879 0.086321004 0.2619748 0.27811337 -0.01138056 0.23192745 0.46853328
0.5956697 -0.09023882 0.10433659 -0.075333975 -0.050500836 -0.19472206 0.34068358 -0.1597901
-0.068810716 -0.10160442 -0.048792277 0.36235195 -0.83651537 -0.020954454 0.25278595 -0.07225728
-0.22362061 -0.5293666 -0.048792794 0.16095462 -0.37080395 -0.089315765 0.5602364 -0.09563409
-0.501961 -0.46492022 0.4566715 -0.55070245 0.18958263 -0.5832741 -0.29443067 0.023268541
0.31118745 0.17664678 0.20377542 -0.57152814 -0.57993823 0.37927788 -0.49645078 0.20512334
0.16778907 -0.12258141 0.43759602 0.37347662 -0.021144517 -0.38405356 0.4617337 -0.021798339
0.23867983 0.42420304 -0.122338004 0.35291177 -0.12513876 0.45199284 -0.20245856 0.16623275
0.6497247 0.14767995 0.06895176 -0.28216115 -0.51720244 -0.24829054 0.31196058 -0.028802227
-1.1395755 -0.323812 -0.11487328 -0.25238734 0.31646234 0.17447227 -0.03966746 0.43657187
0.41891545 0.3935149 -0.22544004 0.15317474 -0.34387535 -0.25637713 0.2690577 0.2711974
0.43330505 0.096572876 0.02255905 0.4597341 0.12716089 0.029656999 -0.003849422 -0.29434118
0.034825966 0.15478474 -0.235304 0.27815756 -0.12140443 -0.38858888 -0.09902813 -0.12729703
00000000: 1dc9 56be c6eb 86be 94d6 f6bc 494d f03e
00000010: 9e98 623e cbaf aa3d 94ee 79bc 4c5f 1a3e
00000020: ca94 c23e 7478 a43e 72fc 193e 4a3b b4be
00000030: fb7a c1bd 5f73 d2be 4ae1 4fbd 81b2 6f3e
00000040: b3e1 8e3e 34df a7bd c9ce 46bd 5e3d 743d
00000050: 0214 4abe ebbb ebbd 0662 a6bd 489b caba
00000060: 0f8f f23d 61e0 1ebf 125c 413e d74a 263e
00000070: 238c 423e 6c32 8ebe 2acf f63d b8f1 063b
00000080: 793a 9f3e 695f 4cbd 212b bbbe 9e71 c0be
00000090: 2a9f 9cbd a859 663e 6e8d bf3d 661a cebd
000000a0: d44b c9bd 666c 40be 6d74 5ebd f4e7 9d3e
000000b0: a4ba 3bbf e7d9 4bbd 1604 983e 3d96 3cbf
000000c0: ffda be3d 69d5 233e 0321 d3be ba45 a6bd
000000d0: 5fe7 e6be 7487 63bd efff c63e 35c8 073c
000000e0: dbf7 96bd 315c 0f3d 0a72 9b3e d363 87be
000000f0: e1c9 ba3d 0d7c 58bf 309e 1cbe 6c44 38be
00000100: 8d03 8dbe 251d b13c 7ceb 163d 4d3d e6be
00000110: 4061 37bf 0c6d cc3d abf2 aabe 5ca8 0a3d
00000120: 2079 aa3c b0c0 543e 2fc4 b03e 896c 3ebc
00000130: 1cb0 a7be 8c7e 7cbf e356 bb3e 3f34 4cbb
00000140: fa66 973e bfa7 013f fad1 6ebf 72dd 6f3e
00000150: f9b9 ddbd 4482 be3e 7043 7abe e461 c33e
00000160: 7506 203e 051b 9a3e 0a69 d23d 7652 b83d
00000170: 4a09 843e 969a dcbd cece ef3c 5587 abbe
00000180: a000 95be 94b9 6b3d 9d3e 65be 7b4a 2ebe
00000190: eac6 8d3e ad74 4c3e 801f e2bd 9d0e 793e
000001a0: 6665 a63e b487 dd3e a493 21be 445a 353c
000001b0: a145 a9bc 1941 343e 794f 25bd 8a44 8a3e
000001c0: ef56 583e e20d 823d 4a04 e9be 95ab d33e
000001d0: 05bc 1abe d347 d8bd 28fc 13be 419e ad3e
000001e0: f456 28bd ce45 9f3d 4657 10bf eda8 b73d
000001f0: c63e b8be 578c 2cbe 0399 80bd ce00 ed3d
00000200: 440c 8e3d f4ea 393e 426e 113d eefc e53e
00000210: fc75 df3e 0f74 ab3d 3ebf a2bd 1ef3 5a3e
00000220: feff 03bd 48e7 a0be 5f5b 89be daa5 f3be
00000230: 3a3b 0a3f 5630 bdbd 6de8 bfbe e3bc cd3e
00000240: cb05 ae3e 2098 1cbc c1a9 193e 23ff 8b3e
00000250: 4231 11be 3d79 833e b4f2 ab3e a9ba 203e
00000260: 7470 c4be c06b 57bf 11c9 b03d 9021 863e
00000270: e064 8e3e 8775 3abc 647e 6d3e 98e3 ef3e
00000280: cf7d 183f 21cf b8bd 6cae d53d b348 9abd
00000290: f7d9 4ebd 3865 47be 146e ae3e 04a0 23be
000002a0: a2ec 8cbd fa15 d0bd 69da 47bd 3286 b93e
000002b0: df25 56bf ada8 abbc 296d 813e a0fb 93bd
000002c0: cdfc 64be 9284 07bf f4da 47bd 4ad1 243e
000002d0: 04da bdbe 2feb b6bd a76b 0f3f cedb c3bd
000002e0: 8480 00bf 060a eebe d9d0 e93e d6fa 0cbf
000002f0: f321 423e 7451 15bf 9ebf 96be ab9d be3c
00000300: f653 9f3e e5e2 343e 81aa 503e ab4f 12bf
00000310: d576 14bf b630 c23e cc2e febe da0b 523e
00000320: e6d0 2b3e f60b fbbd 960c e03e 5438 bf3e
00000330: 4437 adbc aba2 c4be 5c68 ec3e 6e92 b2bc
00000340: 7c68 743e 2431 d93e 598c fabd dab0 b43e
00000350: 6024 00be 9b6b e73e 4c51 4fbe eb38 2a3e
00000360: 5c54 263f 6a39 173e 9536 8d3d 6d77 90be
00000370: 6167 04bf e03f 7ebe 4cb9 9f3e a6f2 ebbc
00000380: 9cdd 91bf b0ca a5be af42 ebbd ea38 81be
00000390: 5a07 a23e dca8 323e 597a 22bd 5986 df3e
000003a0: 167c d63e c97a c93e c1d9 66be d7d9 1c3e
000003b0: 6e10 b0be dd43 83be eec1 893e 63da 8a3e
000003c0: 29da dd3e 00c8 c53d c2cd b83c 4562 eb3e
000003d0: 7736 023e 3cf3 f23c 9646 7cbb e3b3 96be
000003e0: aca5 0e3d e47f 1e3e 88f3 70be ab6a 8e3e
000003f0: e3a2 f8bd 1ff5 c6be 43cf cabd 275a 02be

layers.2.bias f4 [128]
-0.025404345 -0.017565917 0.55179536 -0.02872014 0.046389572 -0.08228531 0.30923203 0.025362413
-0.022350391 0.21975015 0.104869395 -0.07610406 -0.101937376 0.050058 -0.11550197 -0.13121718
0.08244144 0.40557456 -0.05368353 -0.030015867 0.048738915 0.020779572 -0.057787765 -0.0005457401
0.008231615 0.075052105 0.01701094 -0.032980777 -0.08741624 0.022698473 0.5014869 -0.06391793
0.072754376 0.031535674 -0.03945164 -0.23042576 0.6091575 0.06834752 -0.044777863 -0.1450987
0.022826506 -0.024256965 -0.23629087 -0.039719842 0.111350864 0.05796484 -0.03853343 -0.046008408
0.06016801 0.12211043 -0.13991493 0.02848747 -0.0011390815 0.113438636 -0.141067 -0.02095281
-0.06712969 -0.04292265 0.030978747 0.016860504 -0.2171463 0.30764952 -0.1497919 0.09392347
0.03829207 0.03396639 0.12804745 0.0067774416 -0.21765447 0.021146195 -0.06878279 -0.153646
-0.063694656 -0.00838353 -0.047838032 -0.078121044 0.45511118 0.06842324 0.03767095 0.49483052
-0.009800382 0.098146915 0.0014822356 0.023738805 0.007901911 -0.23096485 0.031312093 0.033092737
0.05092689 0.14273147 0.039357826 -0.06700467 0.046933264 0.15084381 0.008524084 -0.08507171
-0.042352922 -0.23583908 -0.093480565 -0.07090077 -0.0036800716 -0.08260822 -0.07207022 -0.029968295
0.1381757 0.05974516 0.33023697 0.121994674 -0.30180544 -0.102018766 -0.03244984 0.031255536
0.0005036518 0.043777265 -0.03437756 0.11315373 -0.07181344 0.00022285213 -0.17888232 0.048404265
0.15370014 0.493726 -0.07715991 -0.017432794 -0.011291201 0.06529311 0.015021979 -0.057731934
00000000: c61c d0bc 66e6 8fbc 7642 0d3f 8046 ebbc
00000010: fe02 3e3d 3385 a8bd a953 9e3e d6c4 cf3c
00000020: 2b18 b7bc 2f06 613e c4c5 d63d 72dc 9bbd
00000030: 8bc4 d0bd 9e09 4d3d 4c8c ecbd cc5d 06be
00000040: 0fd7 a83d 78a7 cf3e 43e3 5bbd d6e3 f5bc
00000050: 75a2 473d ec39 aa3c ddb2 6cbd 0010 0fba
00000060: e5dd 063c ebb4 993d 875a 8b3c da16 07bd
00000070: 4907 b3bd 26f2 b93c 7261 003f 67e7 82bd
00000080: 3f00 953d 8d2b 013d 0b98 21bd bbf4 6bbe
00000090: bff1 1b3f c9f9 8b3d fe68 37bd c194 14be
000000a0: a7fe ba3c 8bb6 c6bc 3cf6 71be 46b1 22bd
000000b0: ec0b e43d 8a6c 6d3d 3bd5 1dbd 5073 3cbd
000000c0: bb72 763d 0815 fa3d dc45 0fbe 8e5e e93c
000000d0: 3c4d 95ba 8452 e83d de73 10be 3aa5 abbc
000000e0: 4a7b 89bd a9cf 2fbd 24c7 fd3c 0a1f 8a3c
000000f0: 9a5b 5ebe 3d84 9d3e 0c63 19be f35a c03d
00000100: 25d8 1c3d 5720 0b3d df1e 033e 4d15 de3b
00000110: d0e0 5ebe c93a ad3c fedd 8cbd 6155 1dbe
00000120: 5872 82bd 135b 09bc d0f1 43bd edfd 9fbd
00000130: 5504 e93e 7c21 8c3d db4c 1a3d 6d5a fd3e
00000140: c891 20bc 4001 c93d 9347 c23a e277 c23c
00000150: 0477 013c 0d82 6cbe 1c41 003d 408c 073d
00000160: b798 503d 3328 123e ac35 213d bf39 89bd
00000170: 183d 403d cd76 1a3e 9aa8 0b3c 143a aebd
00000180: 427a 2dbd cd7f 71be bd72 bfbd 6c34 91bd
00000190: 5b2d 71bb 802e a9bd 8d99 93bd 1280 f5bc
000001a0: ee7d 0d3e 57b7 743d d214 a93e 58d8 f93d
000001b0: 3e86 9abe 37ef d0bd 20ea 04bd ce05 003d
000001c0: 8007 043a ca4f 333d 7ccf 0cbd 25bd e73d
000001d0: ed12 93bd 6aad 6939 ed2c 37be 8d43 463d
000001e0: 9263 1d3e a7c9 fc3e 0406 9ebd 38cf 8ebc
000001f0: bbfe 38bc 65b8 853d bf1e 763c 5278 6cbd

layers.4.weight f4 [2, 128]
-0.5119809 -0.1996566 0.72923714 -0.24926142 -0.017777003 0.0596055 0.7898618 -0.030185476
-0.5405898 0.7651135 -0.2287811 0.0145528745 -0.06858348 0.55794567 -0.00062675774 -0.120702125
-0.028823499 0.75593203 0.031803474 -0.14198601 -0.30403438 0.061348975 -0.30651003 -0.014023975
0.00502458 0.13221689 -0.6361839 0.04834229 -0.25268978 0.031486824 0.15440315 -0.979402
0.014192119 -0.09802131 -0.05244033 -0.40347967 0.32928118 -0.12698694 -0.01610556 -0.015958989
-0.18846451 0.07363867 -0.31863618 -0.03163929 0.009017771 -0.32776836 -0.08820226 0.04581324
0.086980365 0.35786584 -0.27962416 0.0403049 -0.015547526 0.008785524 -0.26389048 -0.013622624
-0.5086054 0.135832 -0.07845613 0.054465383 -0.19412726 0.76901186 -0.4568532 -0.03567424
-0.0089473985 -0.12733717 0.5805728 0.41480193 -0.67262995 -0.27250573 0.05674515 -0.3072014
0.005369149 0.045714986 -0.0842997 -0.056279518 0.6831843 0.0048517757 -0.24224652 0.14364332
0.06339524 -0.008869843 0.2658214 0.04124564 -0.04025834 -0.031108862 -0.09950884 0.020372804
0.0033922577 0.020638213 0.03572138 0.072486356 0.020971049 1.0745095 0.06704659 -0.17482747
0.0148301255 -0.4027878 -0.0074733105 -0.10127012 -0.11794093 0.16868861 0.015837617 -1.0414133
0.26567224 -0.13472751 0.7528363 -0.46415365 -0.6410631 -0.0008749879 0.00085514324 0.063762456
-0.08825002 -0.09772624 0.032891113 -0.14906253 0.020211197 0.13077676 -0.48558223 -0.11050495
-0.3299862 0.7651056 0.03276381 -0.015773105 0.074165285 -0.12012246 0.48822036 -0.001427951
0.019435935 -0.43640932 0.46450865 -0.40924647 0.02424077 0.042957056 0.20998776 -0.07537853
-0.16623738 0.37166655 -0.37297255 0.01144545 -0.030090356 -0.2902998 0.022882072 -0.22473556
-0.14576714 0.2660843 -0.1548694 -0.18455848 -0.3276725 -0.023380427 -0.42190474 -0.06917408
0.00031307983 -0.407448 0.42975774 -0.056888 -0.10936968 -0.0082848305 0.6963988 -0.108499095
-0.0026927963 -0.34202585 -0.041036658 0.8994748 0.7815949 -0.22912082 0.2897518 0.25850272
-0.20167889 -0.19054258 -0.15385439 -0.051724773 -0.2852358 -0.5185968 -0.0454385 -0.5768965
0.74299973 -0.2351502 0.0055872817 0.053075764 0.04267317 -0.4996061 -0.21628681 -0.04659045
-0.26075128 -0.37254435 0.07193499 0.04553649 -0.18644987 0.3100606 0.34862915 0.6285702
0.07088607 -0.2907533 -0.4276485 -0.35354632 -0.16228573 -0.3232365 0.06392044 -0.17072546
-0.07922023 -0.32463992 0.015580878 0.036025394 0.39432082 -0.22671531 -0.27523378 0.91159165
-0.022999965 -0.18181705 0.69968885 -0.33325574 -0.36321914 -0.15440555 -0.1250082 0.06710692
0.028963413 -0.2561864 -0.008773953 -0.008865031 0.045581736 0.8706235 0.054298572 -0.1890436
-0.0016914922 -0.25173682 -0.00021136137 -0.25949085 -0.3211479 -0.38779378 0.006501009 -0.43456516
0.93095845 -0.20713471 0.24379292 -0.1495121 -0.2726122 0.006151322 -0.0030894654 -0.044553354
-0.061895132 -0.42081347 0.066036515 -0.28492552 0.078827605 -0.35159364 0.28363544 -0.23055921
0.13718802 0.5391684 0.00547351 -0.28263402 -0.024788465 -0.3413205 -0.21700427 0.046367146
00000000: 2e11 03bf c872 4cbe 49af 3a3f 633e 7fbe
00000010: 14a1 91bc e624 743d 6234 4a3f 8847 f7bc
00000020: 1864 0abf 7ade 433f 9845 6abe 2e6f 6e3c
00000030: 7f75 8cbd 87d5 0e3f 004d 24ba ad32 f7bd
00000040: 421f ecbc c384 413f 5c44 023d c864 11be
00000050: 65aa 9bbe 1049 7b3d e2ee 9cbe d0c4 65bc
00000060: 3ba5 a43b dd63 073e f3dc 22bf 9102 463d
00000070: 8e60 81be 54f8 003d dc1b 1e3e 17ba 7abf
00000080: 1086 683c 66bf c8bd accb 56bd e394 cebe
00000090: 8b97 a83e dd08 02be cfef 83bc 6dbc 82bc
000000a0: d7fc 40be dfcf 963d 4824 a3be 3398 01bd
000000b0: 46bf 133c 41d1 a7be 63a3 b4bd aaa6 3b3d
000000c0: c322 b23d 313a b73e e62a 8fbe c016 253d
000000d0: 0dbb 7ebc 29f1 0f3c a71c 87be 6d31 5fbc
000000e0: f733 02bf 8b17 0b3e 9cad a0bd 1817 5f3d
000000f0: 4cc9 46be f6dd 443f aae8 e9be 271f 12bd
00000100: 1c98 12bc ad64 02be 6ba0 143f eb60 d43e
00000110: 7a31 2cbf df85 8bbe 9a6d 683d 8049 9dbe
00000120: b0ef af3b a33f 3b3d 52a5 acbd 5a85 66bd
00000130: 2be5 2e3f a5fb 9e3b 790f 78be 3c17 133e
00000140: 5dd5 813d d152 11bc be19 883e 30f1 283d
00000150: eee5 24bd 03d8 febc 4acb cbbd dee4 a63c
00000160: a450 5e3b 7811 a93c 9550 123d ba73 943d
00000170: 7acb ab3c 8789 893f b94f 893d f905 33be
00000180: 0efa 723c 343a cebe ace2 f4bb b566 cfbd
00000190: 048b f1bd b5bc 2c3e e4bd 813c 084d 85bf
000001a0: 3106 883e 02f6 09be e1b9 403f 8ca5 edbe
000001b0: b61c 24bf 725f 65ba b12b 603a e495 823d
000001c0: 6dbc b4bd b224 c8bd d5b8 063d d9a3 18be
000001d0: f491 a53c 58ea 053e 3c9e f8be 6b50 e2bd
000001e0: f4f3 a8be f6dd 433f 5833 063d 9936 81bc
000001f0: f8e3 973d c402 f6bd 05f8 f93e 162a bbba
00000200: 1c38 9f3c 0b71 dfbe 14d4 ed3e c188 d1be
00000210: 9494 c63c bdf3 2f3d 0807 573e 0f60 9abd
00000220: 223a 2abe 144b be3e 42f6 bebe b285 3b3c
00000230: 0d80 f6bc 2da2 94be 2f73 bb3c 1421 66be
00000240: fb43 15be 343c 883e 1696 1ebe e6fc 3cbe
00000250: b1c4 a7be 4f88 bfbc e603 d8be 24ab 8dbd
00000260: dd24 a439 069d d0be 3509 dc3e 6403 69bd
00000270: 36fd dfbd 19bd 07bc 3147 323f c634 debd
00000280: a079 30bb 031e afbe 0e16 28bd fb43 663f
00000290: 9a16 483f a69e 6abe 595a 943e 785a 843e
000002a0: e984 4ebe 981d 43be 018c 1dbe 5bdd 53bd
000002b0: 6d0a 92be c3c2 04bf b81d 3abd 7daf 13bf
000002c0: 3b35 3e3f 37cb 70be 8415 b73b f965 593d
000002d0: 10ca 2e3d 5fcc ffbe 4a7a 5dbe a1d5 3ebd
000002e0: 3181 85be 22be bebe a752 933d 7884 3a3d
000002f0: b7ec 3ebe 43c0 9e3e 857f b23e fae9 203f
00000300: b72c 913d 9edd 94be bff4 dabe 0604 b5be
00000310: 3b2e 26be 417f a5be b8e8 823d a8d2 2ebe
00000320: 373e a2bd 3437 a6be f046 7f3c 5d8f 133d
00000330: 6be4 c93e 0f28 68be 71eb 8cbe 125e 693f
00000340: 6c6a bcbc 402e 3abe cf1e 333f 7fa0 aabe
00000350: dcf7 b9be 7d1c 1ebe 2602 00be 5a6f 893d
00000360: ae44 ed3c dd2a 83be a0c0 0fbc a33e 11bc
00000370: eab3 3a3d 2fe1 5e3f 2e68 5e3d a594 41be
00000380: 0fb5 ddba a6e3 80be e3a0 5db9 fcdb 84be
00000390: 7f6d a4be e88c c6be 6b06 d53b 537f debe
000003a0: 4b53 6e3f 1f1b 54be daa4 793e b319 19be
000003b0: d493 8bbe 0791 c93b a178 4abb 947d 36bd
000003c0: c085 7dbd dd74 d7be 273e 873d c2e1 91be
000003d0: 5e70 a13d 1504 b4be aa38 913e b717 6cbe
000003e0: 047b 0c3e f106 0a3f 215b b33b 68b5 90be
000003f0: 2e11 cbbc 90c1 aebe 5e36 5ebe 7aeb 3d3d

layers.4.bias f4 [2]
0.34566134 0.3678016
00000000: 86fa b03e 7e50 bc3e
