OS/ddqn_models/0428/ddqn_500_1.5.pth (torch_old, 69813 bytes, 6 tensors)

layers.0.weight f4 [128, 2]
00000000: 47ac 0d3e 8b55 d4be 8d24 0440 7f9d 8abf
00000010: e864 9b3d 6099 17be e07c bc3f ad58 8c3f
00000020: 5062 903f 9c8a b83f a6c9 0dbe d6e3 efbd
00000030: e777 4bbf 38cd 563e 663d 623e 0674 af3f
00000040: 34ed 06bf c577 a4be bf5f 10bf 1f20 5bbf
00000050: 7379 c6bf c82a b1be 2c17 7abf 28e7 2cbe
00000060: 3899 8bbf d654 833f cf4c e7be b735 58bf
00000070: bde9 82bf 52cc 393f 322a de3c 732d 483f
00000080: 46e0 223f 0411 763f 807b acbb 0023 0fbe
00000090: 5190 a53f 0a6e 84bd 5beb 463f 265f 953e
000000a0: f59c edbe f6c0 0ebf 53c9 ab3f 29b2 54bd
000000b0: 7a95 2fbf c86f 7c3f 831c a03f 0979 113e
000000c0: b7cd 97bf 69bf 953e c249 6bbf c99f a8be
000000d0: 7558 b7be c4d7 6abe c2a5 fb3d d3dc 1c3f
000000e0: a64d aabc cf7b 543f f7f9 8b3f f16a 28be
000000f0: a7eb bc3f 011a 33bf 4eaa 11bf 0337 9b3e
00000100: 69a5 bc3f e6d0 8c3f 2eaa 1c3b b8e2 95be
00000110: 7f77 bf3f d6ef f1bf f989 803f a19e 72bf
00000120: 80ac 1f3c e835 f6bd 4d2b bbbf a758 a8be
00000130: 1536 bb3f ee56 533e 2fac cbbe b3ff 11bf
00000140: d66e 55bf 960a 893e 5cb2 c7bf df1a 29bf
00000150: 23ac fbbe 9987 efbd 5809 f23e 59b3 673f
00000160: 3d26 b53e 0819 a43e 8716 6fbe d5f5 693e
00000170: a4ba af3f 1e6f 9a3f 2e62 0abf 03aa 63bf
00000180: f945 dcbf d958 40be e218 65bf c241 63bf
00000190: 0388 a23f b3ae cebe 7b97 423f db91 a13e
000001a0: e027 96bd dca8 a5bf eaf3 cbbe 2265 693e
000001b0: 224b 893f 19a6 4c3f 900f 64be c0d4 7a3e
000001c0: bf5c 50bf 5372 88bf 5ef5 d2bf 2898 96be
000001d0: dc35 993f 47cc b13d 701e 87bf d3c0 d6bf
000001e0: 2029 f13f 1814 efbe 78e6 4a3f 276b b73e
000001f0: 9b07 38bf 719f 5cbe 461b b2bf e4a8 50bf
00000200: 95d1 f83e a455 47be c181 393e 3c14 1f3f
00000210: 9f01 ac3f f624 4d3e dd97 bdbf a4a4 30be
00000220: b0ab b53e 23a2 a73e e66f 983f 6413 3b3f
00000230: cdad 44bf 8617 7fbe 1b40 9f3f 4614 fa3d
00000240: 05af 2d3f 2fbf a93e 5f12 cebf 6afc 7abe
00000250: 0270 d73f 6ba9 973f cf1c a53f e979 053f
00000260: 9644 783f fed6 a43d 756d 88bf 60d4 d7bf
00000270: e645 af3f b6f4 833f 55ef a0be 4582 543e
00000280: 04c3 f03e 8954 8e3f 82ba 813f 3fde c23f
00000290: f344 17bf 3966 81bf 1a41 0040 334b c03e
000002a0: c0da 52bf c0ad 913e 12ea af3f e9cc 8f3f
000002b0: aeab 38bf 1e64 0bbe 0130 b7be 4156 833f
000002c0: 7b63 ebbd 22f3 3c3f 05da c63e e964 023f
000002d0: 068c 54bf bf15 edbd 9e98 c8bf 5aed 0fbe
000002e0: fd28 4ebf 1532 a1bf 3984 96bf c73f 413f
000002f0: 7857 bd3f e3aa 5a3f 64e0 c53f 3ca9 dcbd
00000300: 0e2e acbf 0844 8cbf 4d53 7fbf cf9a 1c3f
00000310: f644 c9be 03d3 12bf bae4 20bf 4062 3fbf
00000320: f7e7 8a3f 4835 b93f e3dd 963f ebfd 853f
00000330: 3e2c c43f 3d00 0c3d 4877 813f 1cd7 b13f
00000340: c6f8 b63e 7138 813f 0411 a53f 5c7c 833f
00000350: 5873 95bf 75c1 843e abfe 893f 4822 823d
00000360: d7fe bcbf c383 5dbf b3c5 98bf 1047 a53c
00000370: b9f8 c43f c01c 963e 9a45 5abf e893 603e
00000380: badb bb3f 2ede 023e ed6b a03e c94d 093f
00000390: adf1 1e3f 0828 7dbf cecd e33f 01de 903f
000003a0: b93b 6bbf e941 eb3e cf86 6ebe bb5b 87be
000003b0: 585b e83e 3158 e83e a51a 71bf 324b 10bf
000003c0: 0410 133e 2801 a5be 6781 053e 9463 473f
000003d0: b278 1dbf ca02 edbf 2cd9 afbe 5542 0b3f
000003e0: babc 123f 0acd 95bf 64a5 ddbc 96ab 63bf
000003f0: be8e 1dbf 6bf1 74bd 9170 6ebf 297d 573e
0.1383525 -0.41471514 2.064731 -1.0829314 0.07587606 -0.14804602 1.4725609 1.0964562
1.1280003 1.44173 -0.13846454 -0.11713378 -0.7947983 0.20976722 0.22093734 1.3707283
-0.52705693 -0.32122627 -0.56396097 -0.8559589 -1.5505813 -0.34602952 -0.9769161 -0.16885054
-1.0906134 1.0260265 -0.45175788 -0.8445696 -1.0227581 0.72577393 0.02711973 0.7819435
0.63623464 0.96119714 -0.005263746 -0.13978195 1.2934667 -0.06466301 0.77702874 0.29174155
-0.4640881 -0.55763185 1.3420814 -0.05192772 -0.6858746 0.98608065 1.2508701 0.14206327
-1.1859654 0.29247597 -0.9190942 -0.32934406 -0.35809675 -0.2293387 0.12287475 0.6127445
-0.020788979 0.83001417 1.0935658 -0.16447045 1.4759415 -0.69961554 -0.5690049 0.30315408
1.4737979 1.1001251 0.0023905146 -0.29274535 1.4958342 -1.8901317 1.0042106 -0.947733
0.009745717 -0.120220006 -1.4622589 -0.32880136 1.462588 0.2063863 -0.39779803 -0.5703079
-0.8337225 0.2676589 -1.5601306 -0.6605663 -0.49154767 -0.11695785 0.47272754 0.9050804
0.35380736 0.32050347 -0.23348437 0.22847684 1.3728833 1.206516 -0.5405606 -0.8893129
-1.7208854 -0.18783893 -0.89491093 -0.88772213 1.2697757 -0.4036766 0.7601239 0.3155659
-0.07331824 -1.2942157 -0.3983453 0.22792485 1.0726054 0.79940945 -0.22271562 0.2449522
-0.8139152 -1.0659889 -1.648113 -0.2941296 1.1969562 0.08681541 -1.0556164 -1.6777595
1.8840675 -0.46695018 0.7925792 0.35823938 -0.71886605 -0.21545197 -1.3914573 -0.81507707
0.48597398 -0.19466263 0.18115903 0.6214025 1.3437995 0.2003363 -1.481197 -0.17250305
0.3548255 0.32740888 1.1909149 0.7307646 -0.768277 -0.24911317 1.2441438 0.12210898
0.67845184 0.33153674 -1.6099356 -0.24510351 1.6831057 1.1848577 1.2899417 0.52139145
0.96979654 0.08048819 -1.0658404 -1.6861687 1.3693206 1.0309055 -0.31432596 0.20752819
0.47023785 1.1119548 1.0135043 1.5224074 -0.59089583 -1.0109321 2.0039735 0.37557372
-0.82365036 0.28452873 1.3743308 1.1234409 -0.7213696 -0.1361241 -0.35778812 1.0260698
-0.11493584 0.7380849 0.3883821 0.50935227 -0.8302616 -0.11576413 -1.5671575 -0.14055386
-0.80531293 -1.2593409 -1.1759101 0.7548794 1.4792318 0.85417 1.5459104 -0.107744664
-1.3451555 -1.0958261 -0.9973648 0.6117372 -0.39310426 -0.5735323 -0.6284901 -0.7475929
1.085204 1.4469385 1.1786464 1.0468115 1.5326002 0.034179915 1.0114527 1.3893771
0.35736674 1.009535 1.2895818 1.0272326 -1.1675825 0.25928846 1.0780843 0.06354195
-1.4765271 -0.8652918 -1.1935333 0.020175487 1.5388404 0.2931881 -0.85262454 0.21931422
1.467643 0.12780067 0.3133234 0.53634316 0.6208752 -0.9888921 1.7797182 1.131775
-0.91888005 0.45948723 -0.23293613 -0.26437172 0.4538219 0.45379785 -0.9418128 -0.5636474
0.14361578 -0.32227445 0.13037644 0.7788632 -0.6151229 -1.8516476 -0.34345376 0.5439809
0.57319224 -1.1703198 -0.027056403 -0.88933694 -0.6154593 -0.059800547 -0.9314051 0.21043839

layers.0.bias f4 [128]
00000000: be3a 6f3f 8dbb ab3e 584b f1be d645 d73d
00000010: aa7a 323d 140e 12bf ee5b 213f 4019 dbbe
00000020: 257d 9ebf 9fe5 19bf 5b14 92bd 1210 313f
00000030: a20f 01bf 9021 623f be75 21bd 2255 38bf
00000040: 17f2 58be 853a 23bf 8a22 623f af97 253f
00000050: 0ad6 833f 7824 443f fd57 88be a3f9 643f
00000060: 46c1 d9bc 559d 233f 3500 6cbf 6cef 16bf
00000070: 0e0a 89bf e97d 81bd fd44 d93e 9113 21bf
00000080: 22bb 643e c3e6 3a3f 2a5f af3e 2b40 3ebe
00000090: 0d59 0cbf c353 8bbd 8b5f 4c3f b53f 823f
000000a0: 5483 393f 2b45 86bd ffd3 9c3e 1ba2 36bf
000000b0: 8776 87bf 380a 2d3f 6d64 57bd d12d 103f
000000c0: 4524 5cbd 42f8 e7be 8e2d 3fbe 09ea 1b3f
000000d0: e499 0d3e 7ed8 683f e11e ba3e 20ae 2b3f
000000e0: 0323 88bc 7632 85bd 47a1 fb3d 7d14 8f3b
000000f0: cc6e 193f 7a53 acbe be9a 573f 555a f1bd
00000100: 7ada 9cbf c462 30bf 48ee 7d3f 2b57 623f
00000110: ebe4 88bf 28aa 1d3f 1810 283f ee2f 3a3f
00000120: 894f 5f3f 0da2 63bd de36 ad3d 2c5f 2c3f
00000130: 95b6 60be ef03 983e 7748 8f3e 5356 483f
00000140: 94dc 82be 8833 cd3c 80a0 923e d3f2 ecbc
00000150: e26d d1bc c27b 8e3d bf13 453f 6927 5dbd
00000160: 35bc 21bf d101 62bd 7b29 ecbc efa9 4abd
00000170: a4f8 59be cff0 0cbd a0db 3f3f 43ac bd3c
00000180: 4f45 33bd c983 acbc c828 833f 5ecf 7a3f
00000190: 833c c5bd aabf c43d 3cad d2bc 3b7a 173e
000001a0: 2c84 87be 9dfa e0bc 450d 95bd ee35 193f
000001b0: cb77 00be 3ab7 20bd a95f 08be c81f 38bf
000001c0: f2a8 173e c3f7 363f 081f 94be 17a0 be3d
000001d0: c121 33be b06f 863f f388 89bf 0fc9 76bf
000001e0: 3e81 813f 3ede 60bf af57 42be cca2 aebe
000001f0: 5f57 343e df36 9bbe e2c8 3f3f 109e bdbc
0.9344901 0.33541527 -0.47127795 0.10511367 0.043574013 -0.5705273 0.630309 -0.42792702
-1.2381941 -0.60116 -0.07132789 0.69165146 -0.5041448 0.8833246 -0.03941893 -0.720049
-0.211861 -0.6376117 0.8833395 0.64684576 1.0299695 0.76618147 -0.2662963 0.89443415
-0.026581418 0.63911945 -0.92187816 -0.5895908 -1.0706193 -0.063228436 0.42435446 -0.6292048
0.2233701 0.73008364 0.34252292 -0.18579166 -0.5482338 -0.06803086 0.79833287 1.0175692
0.72466016 -0.065561615 0.3063049 -0.71341103 -1.0583047 0.6759372 -0.052586008 0.5631991
-0.053745527 -0.45306593 -0.18669721 0.60903984 0.13828236 0.9095534 0.36351684 0.6706257
-0.016618257 -0.06503765 0.122866206 0.004366456 0.5993469 -0.33657438 0.8422049 -0.117848076
-1.2254174 -0.68900704 0.99191713 0.8841426 -1.069486 0.6158776 0.6564956 0.72729385
0.87230736 -0.055574466 0.08457731 0.6733272 -0.2194465 0.296905 0.27984974 0.7825672
-0.25558913 0.025048986 0.28638077 -0.028924381 -0.025565092 0.06957199 0.76983255 -0.053992663
-0.63177806 -0.055177514 -0.028828373 -0.049478468 -0.21286255 -0.03440934 0.74944496 0.02315343
-0.04376727 -0.021058934 1.024682 0.9797267 -0.09630682 0.096068695 -0.02571737 0.14792721
-0.26468027 -0.027463252 -0.072779216 0.59847915 -0.12545697 -0.03923724 -0.13317741 -0.71923494
0.14810541 0.71471804 -0.28929925 0.093078785 -0.17493345 1.0502834 -1.0744919 -0.9640054
1.0117567 -0.87839115 -0.18978761 -0.3410858 0.17611454 -0.303153 0.749159 -0.02314666

layers.2.weight f4 [128, 128]
00000000: c6da efbe 3aea f2be 94d6 f6bc 6853 7a3e
00000010: c2db 21bc cbaf aa3d bbea 5abe c0d9 8dbd
00000020: ca94 c23e 7478 a43e bdba 233e 59c8 dabe
00000030: 4017 8abe 57fb 00bf c8e6 80be 23f2 9a3d
00000040: e92f 463d 34df a7bd ff62 9fbe 14d4 37be
00000050: 59af cfbe 0d51 5bbe b82b 6ebe c903 79be
00000060: 0a06 4b3d 8fbe 31bf 125c 413e 9869 293b
00000070: ca8d b43e 4c90 f8be 1a3c b93d b152 9dbc
00000080: 116b b73d e65c a0be 11b3 02bf ebdc 11bf
00000090: 2a9f 9cbd 02d2 763e 9beb cfbd 2616 a1be
000000a0: a77f 99be 58c0 14be fe7b 5fbe e748 4f3e
000000b0: 2273 24bf 6cce 8bbe edc4 a93d a30c 2bbf
000000c0: 9c27 093d 69d5 233e 5b31 26bf e545 a0be
000000d0: a399 1abf 4419 8ebe 8e36 233e a922 5dbe
000000e0: dbf7 96bd 3931 b7bc 6b0b 543e d363 87be
000000f0: ec2e 5b3d 1e31 89bf 4fec a0be 81a0 9abe
00000100: 86f8 17bf 58ad 283e 05c7 0cbe 23f9 1cbf
00000110: 5f8b 24bf eef2 03be b500 fcbe fe22 56be
00000120: 3de5 55be a5e5 2e3e 24c9 c63d 883b 91be
00000130: e7f6 07bf 8c7e 7cbf f37a 103e 274b 69be
00000140: e2a9 9a3d c9fd 8f3e 73aa 55bf dd66 db3d
00000150: 5d17 8fbe d0b9 103e 7721 d4be a9e0 4b3e
00000160: 34d7 3d3d 9b10 9b3d c42c 243d c1ee c83c
00000170: 4a09 843e a69e 94be 8414 4cbe 6a8c 0cbf
00000180: 2c77 6cbe 14a2 ecbd c19e e0be 29a1 67be
00000190: 34ab 543d 6ce6 9ebc c7f4 a6be d063 623c
000001a0: 571e d43d 3da4 653e 88aa 63be be62 5abe
000001b0: 481c f4bd 8489 dd3d 2160 67be 1c19 aa3e
000001c0: 19a8 ea3d a762 29be 9125 19bf 7f24 2d3e
000001d0: 40af babe c443 c1be 3999 b9be 419e ad3e
000001e0: 44de 93be 5b9f 263e 54be 37bf 9b2d a6bd
000001f0: 8958 debe 0eba 4bbe 93e1 9bbe ecf1 323d
00000200: 2b81 853c 9e3e 683e 426e 113d 88eb 243f
00000210: 444a 0a3f 0f74 ab3d 5622 babe c771 b23e
00000220: feff 03bd 029b d9bf c820 9fbf 1008 3cbf
00000230: 6bee 633f 4ba6 41be 6539 80bd 53b5 133f
00000240: 207f 053f 2098 1cbc 3c53 273e 424e a23e
00000250: dbdd 7fbe 3f92 963e 5a67 173f 2f02 3b3e
00000260: b78c 3dbe 79b3 8cbf 11c9 b03d 3667 3f3e
00000270: 8832 f63d 7053 cabd ab6f 933e eff7 08bf
00000280: 1d25 4b3f 4aeb 0abe eb18 cc3d d95a 17be
00000290: f7d9 4ebd 9612 84bf b409 c93e c65f 84be
000002a0: f46d 8ebe e8ce 8cbf 5818 bcbe 0ebd b23e
000002b0: 4c21 63bf 8847 1dbc a8c7 b33e 0b29 89be
000002c0: 9657 c1be cf5b d3bf 123e 4ebe b58e 5c3e
000002d0: 7789 7abe 0dcf c1bd 3600 353f 6544 b2bd
000002e0: e421 94bf 65fe 37bf 4e77 093f 4769 4ebf
000002f0: 550e 723e 683d 0abf aa63 b5be b530 41bf
00000300: 176c 9b3e ebc6 09bd e242 6e3e e20e 86bf
00000310: 0584 1abf ccbc f43e 73c2 2dbf 4f5f 773e
00000320: 1c98 533e 44d8 f4be 4399 1f3f 5edf e13e
00000330: 4856 10be fece c1be b20e 2a3f 66ee 57bc
00000340: 4f5a ca3e 63fd 033f 4da1 4dbe 39b4 cb3e
00000350: aaf6 693e 1f71 1e3f 8583 9cbe f3da db3e
00000360: 002c 643f 008e 8a3e df33 353e f81a b3be
00000370: cbfe e6bf e3d9 5e3d 9b7e d03e 313f 28b9
00000380: 02d1 e5bf 4741 50b9 adeb 5abe 57d6 bebe
00000390: f82f 063f 4422 913e 039c 72bd 19ca fe3e
000003a0: 28b4 1f3f cea5 003f 3de1 bd3d ce23 4e3e
000003b0: 0ca9 10bf cbab 1abd 8aeb 9d3e 9976 3f3f
000003c0: fe8b 033f 837c 443e 1767 0dbe dc58 2a3f
000003d0: c945 cc3e e027 71bc 9e2e 15bd e3b3 96be
000003e0: a4c8 f3bb ed34 9b3c 609a cabe 12e4 113f
000003f0: c191 b7bd 567c 5dbf 760b 13be 93ea c13d
-0.46846598 -0.47444326 -0.030131616 0.2444588 -0.0098790545 0.08334311 -0.21378605 -0.06926298
0.38004142 0.32123148 0.15989204 -0.42730978 -0.26970863 -0.50383514 -0.25176072 0.07565715
0.048385534 -0.081968695 -0.31130216 -0.17951995 -0.40563467 -0.21417637 -0.23258865 -0.2431785
0.049566306 -0.69431394 0.18882778 0.0025850292 0.35264426 -0.4854759 0.090446666 -0.01920447
0.08955968 -0.31320876 -0.51054484 -0.5697772 -0.07647546 0.24103549 -0.1015236 -0.3146221
-0.29980204 -0.14526498 -0.21824643 0.20242654 -0.6423818 -0.27305925 0.08289514 -0.6681616
0.03348504 0.15999378 -0.6491906 -0.31303325 -0.6039068 -0.2775365 0.1593878 -0.21595253
-0.073714934 -0.022362338 0.2070748 -0.26443347 0.053511545 -1.0718114 -0.3143029 -0.3020058
-0.5936359 0.16472375 -0.13747795 -0.6131765 -0.64275163 -0.12885639 -0.4921929 -0.20911786
-0.20888229 0.1707979 0.09706333 -0.2836573 -0.5311112 -0.98630595 0.14109401 -0.22782575
0.07551934 0.2812331 -0.8346321 0.10712979 -0.27947512 0.14133382 -0.41431782 0.1990992
0.04634781 0.075715266 0.040081754 0.02452791 0.25788337 -0.2902729 -0.19929701 -0.54901755
-0.23092335 -0.115543514 -0.4387112 -0.22620071 0.051921085 -0.019396983 -0.32608625 0.0138177425
0.10357349 0.22425933 -0.22233021 -0.2132673 -0.11919457 0.10817245 -0.22595264 0.33222282
0.11457843 -0.16541539 -0.59822947 0.16908453 -0.3646183 -0.37747014 -0.36249712 0.339098
-0.28880513 0.16271727 -0.7177479 -0.08114167 -0.43426922 -0.19895193 -0.30445537 0.043687746
0.016296944 0.22680137 0.03550554 0.6442189 0.5401957 0.08371746 -0.3635432 0.3485243
-0.032226555 -1.700043 -1.2431879 -0.734498 0.8903567 -0.18911092 -0.06260947 0.57698554
0.521471 -0.009557754 0.16340345 0.3170033 -0.24986975 0.29408452 0.59142077 0.18262552
-0.1851071 -1.0992271 0.086321004 0.18691716 0.12021357 -0.09879196 0.28796133 -0.53503317
0.79353505 -0.13566318 0.0996569 -0.1478075 -0.050500836 -1.0318172 0.39265215 -0.2585432
-0.27818263 -1.1000643 -0.36737323 0.34909862 -0.8872268 -0.009599574 0.35113263 -0.26789126
-0.37762135 -1.6512393 -0.20140865 0.21538813 -0.24466501 -0.0946332 0.70703447 -0.087044515
-1.1572843 -0.7187255 0.5369767 -0.8062939 0.2363828 -0.5399995 -0.354276 -0.75464946
0.30355904 -0.03363697 0.23267701 -1.0473292 -0.60357696 0.4780029 -0.6787483 0.24157451
0.20663494 -0.47821248 0.62343234 0.44115728 -0.14095414 -0.37853235 0.66428673 -0.013179397
0.39522025 0.5155851 -0.20081063 0.39785936 0.22848001 0.6189136 -0.3056909 0.42940482
0.8912964 0.27061462 0.17695569 -0.34981513 -1.8046507 0.05440701 0.40721592 -0.00016045269
-1.7954409 -0.00019860743 -0.21378966 -0.37272903 0.52416945 0.28346455 -0.059230816 0.49763563
0.6238427 0.50253 0.092714764 0.20130846 -0.56507945 -0.03776149 0.30843765 0.7479034
0.51385486 0.19188122 -0.13808857 0.6654184 0.39896992 -0.01471898 -0.03642141 -0.29434118
-0.0074396897 0.018946135 -0.39570904 0.5698863 -0.08963347 -0.86517847 -0.14359841 0.094685696

layers.2.bias f4 [128]
00000000: d62c 88be bb0b 49bd 61fd 173f 0a34 7bbe
00000010: fe02 3e3d 3385 a8bd 0e0f b63e d6c4 cf3c
00000020: 935b a0be 581d 883e 51b7 db3c 72dc 9bbd
00000030: 8bc4 d0bd cb7a 9b3d 4c8c ecbd e50f 68be
00000040: fdc4 a73b 454a e43e 30ce d3bd 4954 c3bc
00000050: 1d50 c7bd ec39 aa3c 0437 d8be 0010 0fba
00000060: e5dd 063c c5f7 9a3d bd50 523d da16 07bd
00000070: 73b5 acbe 26f2 b93c 4f74 e63e 135d dcbd
00000080: 3f00 953d 815e 96be 4376 15bd da49 c5be
00000090: 8718 1e3f ed01 dabc 9a57 75be 8d21 93be
000000a0: 2fcc 61be 72ff aabd 3ea1 cdbe 99dd 15bd
000000b0: 3177 0b3e 4a32 273e 3bd5 1dbd cd4b 74bd
000000c0: 3fa7 983d 41a9 183e 5878 2abe 8e5e e93c
000000d0: 3c4d 95ba 6e21 853c 3307 94be 3aa5 abbc
000000e0: cd91 b3be db52 fabc 352f 49ba 0a1f 8a3c
000000f0: 9d3d babe 05a2 b23e 9bb5 0dbf fed8 183d
00000100: 25d8 1c3d aea8 ea3c 533c 123e 5f35 5abd
00000110: 3d7d 38be d6b5 1ebc fedd 8cbd 69f3 e4be
00000120: 5872 82bd b894 68bd d0f1 43bd 4200 e1bd
00000130: 5802 f93e 9853 eb3c 7312 983d fa26 e43e
00000140: c891 20bc 2596 2b3e ff6e e43c 68da 8a3d
00000150: d630 be3a 14b1 b7be 7386 4dbe 408c 073d
00000160: b798 503d 2e6e 923d ac35 213d bf39 89bd
00000170: 183d 403d 0080 313e 9aa8 0b3c c6d4 b9bd
00000180: 427a 2dbd 0350 f6be bd72 bfbd a4b1 5ebd
00000190: 82b1 84bd 5336 35be 8d99 93bd 8db4 183e
000001a0: 99dd 233e 3936 0f3c eb0d bd3e 2955 d53d
000001b0: 2f74 06bf 37ef d0bd 20ea 04bd ce05 003d
000001c0: 8007 043a 8e6d cb3d 7ccf 0cbd 3672 27bd
000001d0: ed12 93bd b2fe 1f3d 29a8 cbbe 8f7f 4e3e
000001e0: 7c61 ef3d d95a 073f 0406 9ebd b1b3 32be
000001f0: bbfe 38bc 873e 6a3c 8016 6f3c 5278 6cbd
-0.26596707 -0.049083453 0.59371 -0.2453157 0.046389572 -0.08228531 0.3555836 0.025362413
-0.31319866 0.26584888 0.02682081 -0.07610406 -0.101937376 0.0759178 -0.11550197 -0.22662313
0.0051199184 0.44587913 -0.103420615 -0.023843901 -0.09732077 0.020779572 -0.42229474 -0.0005457401
0.008231615 0.075667895 0.05134653 -0.032980777 -0.33732185 0.022698473 0.4501061 -0.1075994
0.072754376 -0.29368976 -0.036489736 -0.38532907 0.61756176 -0.026612246 -0.23959199 -0.28736535
-0.22050546 -0.083495036 -0.4016208 -0.036588285 0.13619687 0.16327778 -0.03853343 -0.0596426
0.07453775 0.14908315 -0.1664747 0.02848747 -0.0011390815 0.016251292 -0.28911743 -0.02095281
-0.35072175 -0.030557087 -0.0007674576 0.016860504 -0.36375132 0.34889236 -0.5535523 0.037316315
0.03829207 0.028644886 0.14280824 -0.053273555 -0.18016525 -0.009686908 -0.06878279 -0.44716957
-0.063694656 -0.056782454 -0.047838032 -0.10986377 0.486346 0.028726384 0.07425394 0.44560987
-0.009800382 0.16756494 0.027884958 0.06779939 0.0014510404 -0.35877287 -0.2007082 0.033092737
0.05092689 0.07149921 0.039357826 -0.06700467 0.046933264 0.17333984 0.008524084 -0.090737864
-0.042352922 -0.4810792 -0.093480565 -0.05436863 -0.064791694 -0.17696504 -0.07207022 0.14912625
0.16002502 0.008740955 0.3692468 0.10416634 -0.5252103 -0.102018766 -0.03244984 0.031255536
0.0005036518 0.09933005 -0.03437756 -0.040880404 -0.07181344 0.039061256 -0.39776734 0.20165847
0.116885155 0.52873 -0.07715991 -0.1745136 -0.011291201 0.014297134 0.014592767 -0.057731934

layers.4.weight f4 [2, 128]
00000000: 81cb b3be 2655 d5be 9411 393f d0e5 98be
00000010: 14a1 91bc e624 743d 9a85 453f 8847 f7bc
00000020: da4e f9be 4d4a 3d3f 6ecb ecbe 2e6f 6e3c
00000030: 7f75 8cbd baf5 ad3f 004d 24ba 3401 233c
00000040: 9b76 98bc 77a2 3c3f 7136 ff3d fe8a bdbe
00000050: 71b2 b3be 1049 7b3d 3585 73be d0c4 65bc
00000060: 3ba5 a43b 0785 ab3d 5b01 97be 9102 463d
00000070: 1fdb e8bc 54f8 003d 7b3b 0e3e 4fd5 74bf
00000080: 1086 683c f3f9 753b 7eee 57bb e394 cebe
00000090: afe8 a63e b620 1cbf 40fb c53a 628d 45be
000000a0: 9c50 64be 0108 913c b7db e0be 5e0d d4bb
000000b0: 0c02 853f 9983 9cbf 63a3 b4bd bcbc 1c3e
000000c0: 45a3 153d 5270 a13f e62a 8fbe c016 253d
000000d0: 0dbb 7ebc e37f e2bd 9697 edbd 6d31 5fbc
000000e0: dd92 ddbe 9d13 9a3d 9cad a0bd 1817 5f3d
000000f0: 07f1 e9bd 3851 403f d332 c3be 68eb d7ba
00000100: 1c98 12bc eb27 26be 2f4d 9e3f ab38 1b3e
00000110: 8e50 41bf f7b1 49be 9a6d 683d a3bd 9ebd
00000120: b0ef af3b 7b70 d23d 52a5 acbd 5a85 66bd
00000130: 483b 2c3f 1896 6cbd a323 c1be 13f6 093e
00000140: 5dd5 813d 9261 283e 8086 673d 52b5 143d
00000150: 1c25 233c 35e0 b53b b7c7 833e dee4 a63c
00000160: a450 5e3b 9960 e6b9 9550 123d ba73 943d
00000170: 7acb ab3c 6487 7f3f b94f 893d e2e9 16bf
00000180: 0efa 723c 7080 77be ace2 f4bb 3dbf 7abe
00000190: 1c1d a7bd 3a3e fd3d e4bd 813c 20b2 bfbf
000001a0: 555a 093e 32d3 18bc e243 3c3f fa40 93bf
000001b0: 1c0e 1dbf 725f 65ba b12b 603a e495 823d
000001c0: 6dbc b4bd f053 96be d5b8 063d 6bda 0dbf
000001d0: f491 a53c 25bc 1c3d d8c1 1cbf 1511 9e3e
000001e0: dc02 28bd f466 423f 5833 063d c240 5e3d
000001f0: f8e3 973d dada a5bc 2f2d 393e 162a bbba
00000200: 12ea d63c 65c1 16bf 745a 053f 4fd6 52be
00000210: 9494 c63c bdf3 2f3d aeb2 d63e 0f60 9abd
00000220: ef47 a2bd 925b ff3e 3257 a5be b285 3b3c
00000230: 0d80 f6bc d741 42be 2f73 bb3c cc32 13be
00000240: 3a56 643c 1bf5 8a3e fa41 7bbe ea26 65be
00000250: 2199 afbe 4f88 bfbc 98fc 77be 24ab 8dbd
00000260: dd24 a439 359a dabe 8186 c33e 6403 69bd
00000270: 3af4 6fbd 19bd 07bc 688b 2a3f 82e4 7dbd
00000280: a079 30bb 0a20 19be 6d43 963d d620 4c3f
00000290: 2b44 473f c09b d5bd cac6 a63d a2c4 753d
000002a0: e8e0 c8bd 0770 13bd 4132 82bf 59de 263b
000002b0: 5524 c2bb 9879 d3be b81d 3abd 4b21 31bf
000002c0: da15 823f 3940 51be 7336 c73c f965 593d
000002d0: 10ca 2e3d 5a09 e9be 4e8e 77bd a1d5 3ebd
000002e0: 6557 8cbd fe02 b1be 4112 2c3d 7884 3a3d
000002f0: ac9b c9bd dbf0 e43e 0c42 ce3e 174b f73e
00000300: b72c 913d e895 79be b23d 9abe 8622 a1be
00000310: debf f3bb a7a3 62be b8e8 823d 1dd7 3cbe
00000320: 373e a2bd ce63 88be f046 7f3c 7a70 8d3b
00000330: 0779 cc3e a6b9 63bc 5f2a 6cbe 2265 5f3f
00000340: 6c6a bcbc 2e85 4abe 811b 4c3f f477 7ebe
00000350: db2f abbe 6949 0cbd 45a5 f2bd 5a6f 893d
00000360: ae44 ed3c c6b6 77be a0c0 0fbc a33e 11bc
00000370: eab3 3a3d eead 263f 2e68 5e3d a092 e6bc
00000380: 0fb5 ddba fe2b 52bf e3a0 5db9 042d 3fbe
00000390: 20d6 93be ad74 b9be 6b06 d53b 9363 cabe
000003a0: 30b5 813f d2fa c73c ffae a83e 09ba 1dbd
000003b0: cfd2 11be 0791 c93b a178 4abb 947d 36bd
000003c0: c085 7dbd eb61 b8be 273e 873d e9e0 eabc
000003d0: 5e70 a13d 537e 3fbe 6a21 5fbe 9f25 8dbe
000003e0: 2394 1c3e a25f 0e3f 215b b33b 2e22 b4be
000003f0: 2e11 cbbc 0961 c0be 658e 7abe 7aeb 3d3d
-0.351162 -0.41666526 0.7229245 -0.29862833 -0.017777003 0.0596055 0.77156985 -0.030185476
-0.4869297 0.739415 -0.46248955 0.0145528745 -0.06858348 1.3590615 -0.00062675774 0.009949017
-0.018611243 0.736854 0.12461556 -0.37020105 -0.35097077 0.061348975 -0.23781283 -0.014023975
0.00502458 0.08374982 -0.29493222 0.04834229 -0.028424798 0.031486824 0.13889877 -0.95637983
0.014192119 0.0037533015 -0.003294855 -0.40347967 0.32599398 -0.6098741 0.0015104786 -0.19292215
-0.22296375 0.017704012 -0.4391763 -0.00647132 1.039125 -1.222766 -0.08820226 0.15306371
0.03653266 1.2612402 -0.27962416 0.0403049 -0.015547526 -0.11059549 -0.11601178 -0.013622624
-0.4327611 0.07523272 -0.07845613 0.054465383 -0.114229254 0.7512393 -0.38124713 -0.0016473355
-0.0089473985 -0.16226165 1.2367305 0.15158336 -0.7551354 -0.19696794 0.05674515 -0.07751014
0.005369149 0.1027536 -0.0842997 -0.056279518 0.67277956 -0.057760328 -0.377225 0.13472776
0.06339524 0.1644347 0.056524754 0.036305733 0.009957578 0.005550409 0.25738308 0.020372804
0.0033922577 -0.0004394099 0.03572138 0.072486356 0.020971049 0.99815965 0.06704659 -0.58950627
0.0148301255 -0.24170089 -0.0074733105 -0.24487014 -0.08159849 0.123653844 0.015837617 -1.4976234
0.13413365 -0.009327697 0.7354108 -1.1504204 -0.61349654 -0.0008749879 0.00085514324 0.063762456
-0.08825002 -0.29360914 0.032891113 -0.55411404 0.020211197 0.038265366 -0.6123328 0.30872408
-0.041018352 0.75938344 0.03276381 0.054260977 0.074165285 -0.020245958 0.18083642 -0.001427951
0.02623466 -0.58888847 0.52091146 -0.20589565 0.02424077 0.042957056 0.41933197 -0.07537853
-0.079238765 0.4987455 -0.32293087 0.01144545 -0.030090356 -0.18970428 0.022882072 -0.14374846
0.013936574 0.27140126 -0.24536887 -0.22378126 -0.34296516 -0.023380427 -0.2421745 -0.06917408
0.00031307983 -0.42695776 0.38188556 -0.056888 -0.058582522 -0.0082848305 0.6661897 -0.0619855
-0.0026927963 -0.14953628 0.07337079 0.79737604 0.7783839 -0.104300976 0.08143385 0.060001977
-0.098085225 -0.03599551 -1.0171586 0.002546212 -0.0059247413 -0.41303706 -0.0454385 -0.69191426
1.0162919 -0.20434655 0.024317956 0.053075764 0.04267317 -0.45514947 -0.060438447 -0.04659045
-0.06852607 -0.34572595 0.042009596 0.04553649 -0.09844145 0.44715008 0.40284765 0.48299477
0.07088607 -0.24373591 -0.30125195 -0.31471652 -0.007438644 -0.22132741 0.06392044 -0.18441434
-0.07922023 -0.26638645 0.015580878 0.0043163868 0.39936087 -0.0138992425 -0.23063038 0.8726369
-0.022999965 -0.19777367 0.7972947 -0.24850446 -0.33434948 -0.034249697 -0.11847929 0.06710692
0.028963413 -0.24190816 -0.008773953 -0.008865031 0.045581736 0.65109146 0.054298572 -0.028146088
-0.0016914922 -0.82098377 -0.00021136137 -0.18669516 -0.28874302 -0.3622183 0.006501009 -0.39529094
1.0133419 0.024411593 0.3294601 -0.038507495 -0.14240573 0.006151322 -0.0030894654 -0.044553354
-0.061895132 -0.36012205 0.066036515 -0.028671699 0.078827605 -0.18700533 -0.2179009 -0.27567765
0.15290885 0.55614674 0.00547351 -0.35182327 -0.024788465 -0.37574032 -0.24468382 0.046367146

layers.4.bias f4 [2]
00000000: 2c97 ce3e 877d e13e
0.4034971 0.44041082
