OS/ddqn_models/inv/ddqn_100_1.0.pth (torch_old, 69813 bytes, 6 tensors)

layers.0.weight f4 [128, 2]
0	0xbea28eea	-0.3174966
1	0xbef195da	-0.4718464
2	0x3e963182	0.29334646
3	0xbf9d4f05	-1.228974
4	0x3d9b64e8	0.07587606
5	0xbe179960	-0.14804602
6	0x3f8995ed	1.0748879
7	0x3ec78264	0.38966668
8	0x3f68ba5a	0.9090935
9	0x3d43bd81	0.047788147
10	0xbe0e7f04	-0.1391564
11	0xbdf14d74	-0.11782351
12	0xbd95f456	-0.07321994
13	0x3ea59ca0	0.32346058
14	0x3f20a65d	0.6275385
15	0x3f82ac43	1.020882
16	0xbf4651be	-0.7746848
17	0xbdcd079f	-0.10011219
18	0xbf938e2d	-1.1527764
19	0xbf34df76	-0.70653474
20	0xbf7d8035	-0.99023753
21	0x3eaeaabc	0.34114635
22	0xbefb39ac	-0.49067438
23	0xbb485558	-0.0030568447
24	0xbdeb3662	-0.11484982
25	0x3f216065	0.6303771
26	0xbf5ff270	-0.87479305
27	0xbf0c7c54	-0.5487721
28	0xbf8a40bc	-1.0801005
29	0x3eee50f8	0.4654615
30	0x3ea81d9a	0.32835084
31	0x3f4e4bd3	0.8058445
32	0x3f6b57da	0.91930926
33	0x3ef062d3	0.46950397
34	0xbbac7b80	-0.005263746
35	0xbe0f2300	-0.13978195
36	0x3deb6697	0.11494177
37	0xbd9d1f5e	-0.076719984
38	0x3e702b63	0.2345405
39	0x3de4623c	0.11151549
40	0xbf5e96b8	-0.8694873
41	0xbf183d1b	-0.5946824
42	0x3f03d3e4	0.51495194
43	0xbf253d09	-0.6454626
44	0xbe946c7f	-0.28989026
45	0x3f409b1d	0.75236684
46	0x3ea66b4b	0.32503733
47	0x3e125379	0.14289655
48	0xbeca26a1	-0.39482597
49	0x3f36f4c7	0.7146725
50	0xbf3a5a66	-0.7279419
51	0xbecde5c5	-0.40214363
52	0xbe8b2165	-0.27173916
53	0xbf40a340	-0.752491
54	0x3e06cb86	0.13163576
55	0x3f1f4a3a	0.62222636
56	0xbdcaf073	-0.09909143
57	0x3f167818	0.58777
58	0x3ecbf95a	0.39838678
59	0xbf4474dc	-0.76740813
60	0xbe96a670	-0.29423857
61	0xbf3a1c39	-0.72699314
62	0xbe90e107	-0.28296682
63	0x3e8fd9fa	0.2809599
64	0x3f6ce827	0.92541736
65	0x3f688a7a	0.908363
66	0xbedd2764	-0.43194115
67	0xbda7e649	-0.0819822
68	0xbecf3273	-0.40468177
69	0xbf927a77	-1.1443623
70	0x3f6128fd	0.8795317
71	0xbf433dd7	-0.76266235
72	0x3c1fac80	0.009745717
73	0xbdf635e8	-0.120220006
74	0xbf8886d4	-1.0666146
75	0xbe85bfea	-0.2612298
76	0x3f0b8d71	0.545127
77	0xbf049369	-0.5178743
78	0xbedb26d2	-0.42803055
79	0xbec302d0	-0.38088083
80	0xbd4e5f64	-0.05038394
81	0x3ec96f50	0.39342737
82	0xbf2f0645	-0.6836894
83	0xbf5706d0	-0.8399477
84	0xbdab3378	-0.08359426
85	0x3e943ff3	0.2895504
86	0x3f0f5aca	0.5599791
87	0x3f6dc61d	0.9288042
88	0x3ee92574	0.45536387
89	0xbe4e5a4f	-0.20151637
90	0x3c4b0e0b	0.012393485
91	0x3e29952e	0.16560814
92	0x3f2eceb9	0.68284184
93	0x3df588f0	0.119890094
94	0xbf443e0b	-0.7665717
95	0xbf063b8c	-0.5243461
96	0xbfa323d1	-1.2745305
97	0x3ef50da8	0.4786198
98	0xbf5130bc	-0.8171499
99	0xbf6d2ee4	-0.92649674
100	0x3f4230a2	0.7585546
101	0xbf7887e7	-0.9708237
102	0x3d93e178	0.07220739
103	0x3e9f7230	0.31141806
104	0xbde4ff22	-0.11181475
105	0xbf2f420c	-0.68460155
106	0xbe28d115	-0.16486008
107	0x3f4f15d8	0.80892706
108	0x3f074c49	0.52850777
109	0x3ec96b2c	0.39339578
110	0x3db5795a	0.088610366
111	0x3e65e024	0.22448784
112	0xbf326519	-0.6968551
113	0xbe28cf75	-0.16485389
114	0xbf8c8c02	-1.0980227
115	0xbe4f520c	-0.20246142
116	0x3f109c84	0.56488824
117	0xbdc72847	-0.09724479
118	0xbf3942e6	-0.72367704
119	0xbf8bb6fe	-1.091522
120	0x3efe2cfe	0.496437
121	0xbf0fb21d	-0.56131154
122	0x3ed38272	0.4131046
123	0xbeaacb6b	-0.3335832
124	0xbd445fbd	-0.047942866
125	0x3e8517a7	0.25994608
126	0xbf834351	-1.0254918
127	0xbe47e4ed	-0.19520922
128	0x3db38265	0.08765105
129	0xbf793dac	-0.9735973
130	0xbecd6cd0	-0.4012208
131	0x3ea2a07c	0.31763065
132	0x3e07089a	0.13186875
133	0xbe0dbfd0	-0.13842702
134	0xbf3df7ab	-0.74206036
135	0xbec1026a	-0.37697154
136	0x3ed8420c	0.4223789
137	0xbe8c602b	-0.2741712
138	0x3e33b197	0.17548214
139	0x3ea9c125	0.3315517
140	0xbe8a9b63	-0.27071676
141	0x3e01bb69	0.12669148
142	0x3ecffc9b	0.4062241
143	0x3d33472e	0.043769054
144	0x3e8cf824	0.27533066
145	0x3e5ce12e	0.21570274
146	0xbf9e5045	-1.2368246
147	0xbeb100e4	-0.34570992
148	0x3f848d16	1.0355556
149	0x3f7f9690	0.99839115
150	0x3f3f7e52	0.74802125
151	0xbc86c577	-0.01645158
152	0x3ecffc87	0.4062235
153	0xbf3631f7	-0.7116999
154	0xbf78d734	-0.97203374
155	0xbf73e980	-0.9527817
156	0x3ebfe5f5	0.3748013
157	0x3f87c293	1.0606254
158	0xbd80b223	-0.06283977
159	0x3ecbeb3f	0.39827916
160	0x3eb18ae8	0.3467629
161	0x3f894309	1.0723583
162	0x3eb4b616	0.3529517
163	0x3f874de9	1.0570651
164	0xbf10b4bc	-0.5652578
165	0xbefa1633	-0.48845062
166	0x3f85c707	1.0451363
167	0x3f253d8d	0.64547044
168	0xbf5a8c1b	-0.85370034
169	0x3f31ab31	0.6940184
170	0x3f8e5eb5	1.1122652
171	0x3f14fe08	0.5820012
172	0x3b152729	0.0022758937
173	0x3eb0a274	0.34498942
174	0x3e717868	0.23581088
175	0x3f4fe3df	0.8120708
176	0x3cc69adf	0.02424377
177	0x3e8d92af	0.27650973
178	0xbdd16466	-0.102242276
179	0x3f51f4fa	0.8201443
180	0xbd9fba8a	-0.077992514
181	0x3e613aa6	0.21995029
182	0xbf8e470c	-1.1115432
183	0x3ec8eb87	0.39242193
184	0xbf5c7a23	-0.86123866
185	0xbf841180	-1.031784
186	0xbfa9a555	-1.325358
187	0x3f1727de	0.5904521
188	0x3f148299	0.58011776
189	0x3efddd5a	0.4958294
190	0x3f030590	0.5118036
191	0xbf791f6e	-0.9731358
192	0xbf9d82da	-1.2305558
193	0xbebbcc65	-0.36679378
194	0xbf41fdd0	-0.7577791
195	0x3f0c7e80	0.54880524
196	0xbf5b7d53	-0.85738105
197	0xbf142936	-0.5787538
198	0xbf713309	-0.942185
199	0xbf23877f	-0.63878626
200	0x3f358c76	0.7091745
201	0x3f90339f	1.1265754
202	0x3f3b595e	0.7318324
203	0x3f82f436	1.0230777
204	0x3f3ec6e6	0.74522245
205	0xbe1faf36	-0.15594181
206	0x3f8b1c01	1.0867921
207	0x3f3c8b60	0.7365017
208	0x3e8c76cd	0.27434388
209	0x3f918266	1.136792
210	0x3f0aba39	0.54190403
211	0x3f7f48e8	0.9972062
212	0xbe6969e2	-0.22794297
213	0x3eb33e83	0.3500863
214	0xbe0eb2e6	-0.13935432
215	0xbf10a5e1	-0.5650311
216	0xbf8b509e	-1.0883977
217	0xbf095cf0	-0.53657436
218	0x3e84d33a	0.25942403
219	0x3f26e9be	0.6520041
220	0x3f6184ee	0.8809346
221	0xbeade2c5	-0.33962074
222	0xbf43a520	-0.76423836
223	0x3f11c7aa	0.5694529
224	0x3fb59088	1.4184732
225	0xbd4060d2	-0.046967335
226	0x3c41fafb	0.011839624
227	0x3efac661	0.48979476
228	0x3eeabaaf	0.45845553
229	0xbf3b9ca9	-0.7328592
230	0x3faac7c3	1.3342212
231	0x3f32f336	0.6990236
232	0xbf729154	-0.94753003
233	0x3ec07199	0.37586668
234	0xbf1bc505	-0.608475
235	0xbc79adc2	-0.015239181
236	0x3f3c1c6b	0.7348086
237	0x3bb56f34	0.005536938
238	0xbf9f7327	-1.2457017
239	0xbef3dde4	-0.47630227
240	0xbeafeecb	-0.34361872
241	0xbe96b706	-0.2943651
242	0xbe183180	-0.14862633
243	0x3f374f69	0.71605545
244	0xbea0ed89	-0.31431225
245	0xbf2c9601	-0.6741639
246	0x3dd2242d	0.10260806
247	0x3f232c30	0.637393
248	0x3e09a0c9	0.13440241
249	0xbf5f31f3	-0.8718559
250	0xbef822d1	-0.48464063
251	0xbf3d568f	-0.739602
252	0x3d4959de	0.04915797
253	0x3e82ecc6	0.2557127
254	0x3e555e98	0.20836866
255	0x3f0dee17	0.5544142

layers.0.bias f4 [128]
0	0x3f63c096	0.8896574
1	0xbd05d454	-0.032673195
2	0xbef14b58	-0.47127795
3	0xbd427565	-0.047475237
4	0x3e20d647	0.1570674
5	0xbf11e68a	-0.569924
6	0x3f153d70	0.5829687
7	0xbf3c71ef	-0.7361135
8	0xbf5597e7	-0.8343491
9	0xbdf87539	-0.121317334
10	0xbd563174	-0.052293256
11	0x3f4af25e	0.7927607
12	0xbf64f793	-0.8944027
13	0x3f528d78	0.82247114
14	0xbeb3cdd7	-0.3511798
15	0xbc40e6c7	-0.011773772
16	0x3d26684f	0.04062682
17	0xbf233a85	-0.6376117
18	0x3f648f10	0.89280796
19	0x3f372b9c	0.7155092
20	0x3f6b1e9f	0.918436
21	0x3f12dade	0.57365215
22	0xbf823b66	-1.0174377
23	0x3f6c91be	0.92409885
24	0x3aee8e80	0.0018200427
25	0x3f16eacd	0.5895203
26	0xbf2c5b49	-0.6732679
27	0xbf31606e	-0.69287765
28	0xbf9852e1	-1.1900293
29	0x3d4512c8	0.048113614
30	0x3e303b1d	0.1721005
31	0xbf5b4c61	-0.8566342
32	0x3cf1a2d0	0.02949658
33	0x3f2bc58d	0.67098314
34	0x3d296db9	0.041364405
35	0xbef7f3b5	-0.4842812
36	0xbf0c590d	-0.5482338
37	0xbe171326	-0.14753398
38	0x3f177d4c	0.5917556
39	0x3f88bd07	1.0682687
40	0x3f37e04f	0.7182664
41	0xbc1c0fb8	-0.009525232
42	0x3f03a812	0.5142833
43	0xbf1bebda	-0.60906756
44	0xbf751fcb	-0.9575164
45	0x3f299f5c	0.6625879
46	0xbf600641	-0.8750954
47	0x3f00792e	0.50184906
48	0xbee320f4	-0.4436108
49	0xbd477faf	-0.048705753
50	0xbe84b751	-0.2592111
51	0x3f306d30	0.68916607
52	0x3ce79fe5	0.028274486
53	0x3f4430bd	0.7663687
54	0x3f2c90a3	0.674082
55	0x3f37bb01	0.7176972
56	0xbf321194	-0.6955807
57	0xbd34a128	-0.044099003
58	0xbec8b7ce	-0.39202732
59	0xbd8edf5e	-0.06976198
60	0x3f0d7c04	0.5526736
61	0xbf68d385	-0.90947753
62	0x3f66409a	0.89942324
63	0xbd4b497c	-0.049630627
64	0xbead37ee	-0.33831733
65	0xbf2b13ef	-0.6682729
66	0x3f72c5d1	0.94833094
67	0x3f693810	0.9110117
68	0xbf84b06b	-1.0366338
69	0x3f6a9a44	0.9164164
70	0x3f23a018	0.6391616
71	0x3f59a305	0.85014373
72	0x3f7014bc	0.9378164
73	0xbd32c102	-0.043641098
74	0x3cc5e2cb	0.024155995
75	0x3f0f9ba6	0.56096876
76	0x3bb235ea	0.005438556
77	0x3ea60864	0.32428277
78	0xbd6210a8	-0.055191666
79	0x3f3a2391	0.7271052
80	0xbda1e503	-0.07905009
81	0xbc97f723	-0.018550461
82	0x3e917573	0.2840992
83	0x3f08d4ca	0.5344969
84	0xbf062fbf	-0.52416605
85	0x3dd19e2a	0.102352455
86	0x3f2540a2	0.64551747
87	0xbe70f391	-0.23530413
88	0x3f0dbe9b	0.55368966
89	0x3ced65eb	0.028979262
90	0x3ec9162e	0.39274734
91	0xbedd3c3f	-0.43210027
92	0xbd4e6b32	-0.0503952
93	0xbec5896c	-0.38581407
94	0x3f75cfa4	0.9601996
95	0x3d89ce48	0.06728798
96	0xbe100f8d	-0.14068432
97	0xbf222e67	-0.63352054
98	0x3f6aa11b	0.9165208
99	0x3f7a65c1	0.97811514
100	0xbee50414	-0.44729674
101	0xbf003127	-0.50075
102	0xbf7f2618	-0.996675
103	0x3d2e5780	0.042563915
104	0x3d2056b3	0.039145183
105	0xbe279339	-0.16364755
106	0xbf5824c9	-0.8443113
107	0x3e8f2825	0.27960315
108	0xbdec1dbd	-0.115291096
109	0xbe239251	-0.15973784
110	0xbe10061f	-0.14064835
111	0xbf1f1952	-0.6214801
112	0xbdccad3b	-0.099939786
113	0x3f6d6c6f	0.9274358
114	0xbf39d835	-0.7259553
115	0x3de438d3	0.11143651
116	0xbe9499d0	-0.290236
117	0x3f7c09c8	0.98452425
118	0xbf883412	-1.0640891
119	0xbe05b493	-0.13057165
120	0x3f790f98	0.9728942
121	0xbf803b19	-1.0018035
122	0x3e680cb2	0.22661093
123	0xbe398623	-0.18117575
124	0x3dc9bf44	0.09850934
125	0x3c7e35d7	0.015515766
126	0x3f4c762e	0.7986783
127	0xbe17a576	-0.14809212

layers.2.weight f4 [128, 128]
0	0xbdef0494	-0.11670795
1	0xbfa29b23	-1.2703594
2	0xbcf6d694	-0.030131616
3	0xbef90e3d	-0.48643675
4	0x3e3a6817	0.1820377
5	0x3daaafcb	0.08334311
6	0x3e2b3a94	0.16721565
7	0x3daf1083	0.08548071
8	0xbdf5f60b	-0.120098196
9	0xbdc7c1ce	-0.09753762
10	0xbea032ad	-0.31288663
11	0x3d6dfa4f	0.05810004
12	0xbe266fef	-0.16253637
13	0xbe14a84d	-0.14517327
14	0xbe926a42	-0.28596693
15	0x3ee246b6	0.44194573
16	0x3eb0f059	0.3455837
17	0xbda7df34	-0.081968695
18	0x3d5b476a	0.053534903
19	0x3e3eebac	0.18644589
20	0xbda5fc9c	-0.08104822
21	0xbeb7736b	-0.35830244
22	0xbefa2c5b	-0.48861966
23	0x3de33039	0.11093182
24	0x3e4119ba	0.1885747
25	0xbe24c90e	-0.16092321
26	0x3c925bf0	0.017866105
27	0x3c4c62cc	0.012474727
28	0x3d9aa608	0.07551199
29	0xbf3729c5	-0.7154811
30	0xbf4aaf6e	-0.79173934
31	0xbe5c8039	-0.21533288
32	0x3e63900d	0.2222292
33	0x3dbf6193	0.09344783
34	0xbf95e2ae	-1.1709802
35	0xbf41bb15	-0.7567609
36	0xbd9c9f2a	-0.07647546
37	0xbf22fef7	-0.63670295
38	0xbd35672f	-0.044287857
39	0x3d819158	0.0632655
40	0x3d974cdc	0.07387707
41	0xbecd4e41	-0.40098765
42	0x3e30f701	0.17281725
43	0x3efef492	0.49795967
44	0xbf239070	-0.6389227
45	0x3dc8d8a3	0.09806945
46	0x3cf6b282	0.030114416
47	0xbe3740e5	-0.17895849
48	0xbf16a48d	-0.58844835
49	0xbee6d9d0	-0.45088053
50	0xbf7d5a2a	-0.98965704
51	0x3dc2ff9d	0.095214106
52	0xbf4fa9b1	-0.81118304
53	0x3e2bbeb5	0.16771968
54	0x3e8f2f37	0.2796571
55	0x3e5fa9e1	0.21842147
56	0xbf3ffa87	-0.7499165
57	0xbf62511e	-0.88405025
58	0xbed51ab9	-0.4162195
59	0xbe173582	-0.14766505
60	0xbe9fa162	-0.31177813
61	0xbe8334bc	-0.2562617
62	0x3e0ba46f	0.13636945
63	0xbf78e843	-0.97229403
64	0xbf26baa2	-0.6512853
65	0x3ec649b8	0.38728118
66	0x3dd032d5	0.101659454
67	0xbd26a5b7	-0.04068538
68	0xbf2af65e	-0.66782176
69	0x3e476b1e	0.19474456
70	0x3df26d31	0.11837233
71	0x3e0274c3	0.12739854
72	0x3e0eb451	0.13935973
73	0xbf7c5efc	-0.98582435
74	0x3ebbd74a	0.3668769
75	0x3e03c2dc	0.12867302
76	0xbf5e3fb7	-0.8681597
77	0xbed64d3b	-0.41855797
78	0xbc030029	-0.007995644
79	0x3e50e57f	0.20400046
80	0x3db8ec9b	0.09029504
81	0x3e07b46e	0.13252422
82	0xbe5b2e3c	-0.21404356
83	0x3e93e676	0.28886765
84	0xbe37ffb6	-0.1796864
85	0x3ed4284b	0.4143699
86	0x3de4639e	0.11151813
87	0x3efb0a88	0.49031472
88	0x3e1eb7ce	0.15499803
89	0x3e901d2e	0.28147262
90	0x3e8f8551	0.280314
91	0xbf03a5a6	-0.51424634
92	0xbebbe1e1	-0.3669577
93	0xbec9391a	-0.39301378
94	0x3e12d3a4	0.14338547
95	0xbf6c19a3	-0.9222662
96	0xbf7f1a4e	-0.9964951
97	0xbe160da8	-0.14653647
98	0xbdc3f050	-0.0956732
99	0xbcfb0ff5	-0.030647257
100	0x3d884d22	0.06655337
101	0x3d8278d4	0.063707024
102	0xbe0740fb	-0.13208382
103	0x3e97bf39	0.2963808
104	0x3eabf0bb	0.335821
105	0x3e3a8914	0.18216354
106	0xbeb105dd	-0.34574786
107	0xbe02bc3a	-0.12767115
108	0xbf6d2dd2	-0.9264804
109	0x3ebd0aae	0.3692221
110	0xbf2d76dd	-0.67759496
111	0xbe2ce26a	-0.16883245
112	0xbe575500	-0.21028519
113	0x3e80fa46	0.25190943
114	0xbf07ac0d	-0.52996904
115	0x3ed2b751	0.41155484
116	0xbe976f1a	-0.2957695
117	0x3bbb6f7e	0.005720078
118	0xbb11e495	-0.002226149
119	0xbf046bb8	-0.51726866
120	0x3db47ebc	0.08813235
121	0xbf0e75b6	-0.5564836
122	0xbec91222	-0.39271647
123	0x3ee8d723	0.45476636
124	0xbf147616	-0.57992685
125	0xbf20a3a5	-0.627497
126	0x3e0b47b4	0.13601571
127	0x3e55f9d6	0.20896086
128	0xbdab03be	-0.08350323
129	0x3e9173a6	0.28408545
130	0x3d116e42	0.03550554
131	0x3ea5b8b5	0.32367483
132	0x3efa9e46	0.48948878
133	0x3dab740f	0.08371746
134	0xbe37f4a5	-0.17964418
135	0x3ec45ffc	0.3835448
136	0xbc3cede1	-0.011531324
137	0x3e414fc2	0.18878081
138	0xbebca755	-0.36846414
139	0xbe31eb6c	-0.17374963
140	0x3f61d2ee	0.8821248
141	0xbe2ace61	-0.1668029
142	0xbc3039de	-0.010755984
143	0xbe336683	-0.17519574
144	0x3ef20bcd	0.47274628
145	0xbc1c9820	-0.009557754
146	0x3d0ee239	0.03488371
147	0x3e34b508	0.17647183
148	0xbe8a7528	-0.27042508
149	0x3ebdffaf	0.37109134
150	0x3f0f82f2	0.5605918
151	0x3d2cfb87	0.042232063
152	0xbeac1a45	-0.33613792
153	0xbe74ea1e	-0.23917434
154	0x3eac8bc4	0.33700383
155	0x3ddf19e6	0.108936116
156	0x3ee4cd20	0.44687748
157	0x3ea6a9dd	0.3255147
158	0x3e708b4f	0.23490642
159	0x3edb1d69	0.42795876
160	0x3ea0bc64	0.3139373
161	0xbe8b8d76	-0.27256364
162	0x3e237b7a	0.15965071
163	0x3e3b18a1	0.18271114
164	0xbd4ed9f7	-0.050500836
165	0x3d3b30a2	0.045700677
166	0x3eeda8bf	0.46417806
167	0xbe89a8f8	-0.26886725
168	0xbe306f58	-0.17229974
169	0x3e37c45d	0.17946
170	0xbe549bb3	-0.2076252
171	0x3f298c0f	0.6622934
172	0x3f06c890	0.52649784
173	0xbdf3dae0	-0.119069815
174	0x3eea0f00	0.4571457
175	0xbe34384b	-0.17599599
176	0x3e5eda37	0.2176293
177	0x3e4a48f7	0.19754396
178	0x3e9a5a17	0.30146858
179	0xbe0046c3	-0.12526993
180	0x3e0881e6	0.13330802
181	0xbd0def5e	-0.034652106
182	0x3e07352a	0.13203874
183	0xbdd593bf	-0.10428571
184	0xbea9180b	-0.33026156
185	0xbe10db72	-0.14146212
186	0xbda747c2	-0.081679836
187	0x3e3b07bf	0.18264674
188	0x3e9a5a02	0.30146796
189	0x3e81b7c1	0.25335506
190	0xbe559616	-0.20858034
191	0xbe57d1d2	-0.21076134
192	0x3e93fd39	0.2890413
193	0xbe702c35	-0.23454364
194	0x3d4518d8	0.048119396
195	0xbe5854b8	-0.21126068
196	0x3f091b3f	0.535572
197	0x3e10f447	0.14155684
198	0xbe881b3c	-0.26583278
199	0x3de823ae	0.1133493
200	0x3d7fce78	0.062452763
201	0x3e7c819c	0.24658817
202	0x3ea43df5	0.3207852
203	0x3ef9227d	0.48659125
204	0x3ea704f8	0.32620978
205	0xbf01c5dc	-0.50692534
206	0x3ea5b2f8	0.32363105
207	0xbe19aa62	-0.15006402
208	0x3ebbe1db	0.36695752
209	0x3eb9e2a5	0.3630573
210	0xbe09e0f0	-0.13464713
211	0x3e9cc50a	0.3061908
212	0x3eb0bddd	0.34519854
213	0x3f1dbe5d	0.61618596
214	0xbe08dd66	-0.13365707
215	0xbe9aab5c	-0.30208862
216	0x3da9cddd	0.082912184
217	0x3e1e093d	0.15433212
218	0xbddd3da0	-0.1080277
219	0x3e796cdb	0.24357931
220	0x3e2fe367	0.17176591
221	0x3e0514f3	0.12996273
222	0x3ddcc57f	0.10779857
223	0x3e998790	0.29986238
224	0x3d96c213	0.073612355
225	0x3edd437c	0.4321555
226	0xbe88c013	-0.2670904
227	0xbeb04db0	-0.3443427
228	0x3ef9ee83	0.48814783
229	0x3f0b4ad7	0.5441107
230	0x3e1e0b0d	0.15433903
231	0x3ee1a77a	0.44073087
232	0x3e71068d	0.23537655
233	0x3efcd4b7	0.4938104
234	0x3ee668a7	0.45001718
235	0x3e47c020	0.19506884
236	0x3de3fc2c	0.11132082
237	0xbe903ace	-0.28169864
238	0x3e920c8b	0.28525195
239	0x3ebd7504	0.37003338
240	0x3ecbf519	0.39835432
241	0xbe02b209	-0.12763228
242	0x3eab201a	0.3342293
243	0x3f018672	0.5059577
244	0x3d3b8c76	0.04578825
245	0xbe17ca77	-0.14823328
246	0x3f6e7ba0	0.93157387
247	0xbe91e271	-0.28493074
248	0xbe3700df	-0.17871426
249	0x3f18dfa1	0.5971623
250	0x3e2cfd7a	0.16893569
251	0x3cd18087	0.025573982
252	0x3e983c57	0.29733536
253	0x3d8d5216	0.06900422
254	0xbda9ebe9	-0.082969494
255	0xbe33c5bd	-0.175559

layers.2.bias f4 [128]
0	0x3d8b5cd3	0.06804814
1	0xbe025aee	-0.1273
2	0x3eb82b94	0.35970747
3	0xbe778dd3	-0.24175195
4	0x3d3e02fe	0.046389572
5	0xbdaa4130	-0.08313215
6	0x3dfb93ca	0.12284048
7	0x3ccc4741	0.02493632
8	0xbdbf8961	-0.09352375
9	0x3cfbafb0	0.030723423
10	0x3c041861	0.008062453
11	0xbdb48798	-0.08814925
12	0xbdc73e78	-0.09728712
13	0xbe4dc1bb	-0.20093434
14	0xbdab81c7	-0.083743624
15	0x3c9313d9	0.0179538
16	0x3d56d2be	0.052447073
17	0x3ec5f830	0.38665915
18	0xbdc7b238	-0.097507894
19	0xbe0ed6e0	-0.13949156
20	0x3c98d904	0.018658169
21	0x3ce054e8	0.027384236
22	0xbddc6e12	-0.10763182
23	0xba0f1000	-0.0005457401
24	0x3eb4aa97	0.352864
25	0x3d693848	0.05693844
26	0xbeb85a33	-0.36006317
27	0xbd1c141c	-0.038105115
28	0xbe918048	-0.28418183
29	0x3d12bea1	0.03582633
30	0x3e66235f	0.2247443
31	0xbe97cb94	-0.29647505
32	0x3db37417	0.08762377
33	0xbc8c80fa	-0.017151345
34	0xbd21980b	-0.03945164
35	0xbe5d2066	-0.2159439
36	0x3ec4575b	0.38347897
37	0xbe41ae3d	-0.18914123
38	0x3dbddce4	0.09270647
39	0x3e43d836	0.19125447
40	0xbd3d2f36	-0.046187602
41	0x3eacd781	0.33758166
42	0x3d026927	0.031838562
43	0xbd22b146	-0.039719842
44	0xbe481e61	-0.19542839
45	0x3ce1509f	0.027504263
46	0xbcff1d1e	-0.031141814
47	0x3da6ea1d	0.08150122
48	0xbe92b10a	-0.28650695
49	0xbae926b0	-0.0017788019
50	0x3e973147	0.29529783
51	0x3cc3c644	0.023898251
52	0x3ea3c792	0.31988198
53	0x3dd0ab5e	0.10188936
54	0xbdf3dd0d	-0.119073965
55	0xbd13271e	-0.035925977
56	0xbdf77ec9	-0.12084729
57	0xbead940c	-0.33902013
58	0x3c09256f	0.008370741
59	0x3ebd5fd2	0.36987168
60	0xbe1fc5d7	-0.15602814
61	0x3d1b752a	0.037953533
62	0x3eba5562	0.36393267
63	0xbd3d5cc5	-0.04623105
64	0x3eb6f199	0.357312
65	0xbed369ed	-0.41291752
66	0x3aa9f7cf	0.001296753
67	0x3d043b56	0.03228315
68	0x3c9fa41d	0.019487435
69	0xbe5dd243	-0.2166224
70	0x3e92c83d	0.28668395
71	0xbed2a963	-0.41144857
72	0xbd827258	-0.063694656
73	0xbe8e54cf	-0.2779908
74	0xbd43f1d0	-0.047838032
75	0x3dc47ea5	0.09594468
76	0xbeccfc37	-0.40036175
77	0xbda28fe1	-0.07937599
78	0x3ce81e75	0.028334836
79	0x3e8286b1	0.25493386
80	0xbe7d1865	-0.24716337
81	0xbe2c5821	-0.16830494
82	0x3e9b47d2	0.30328232
83	0xbb97ec78	-0.0046363436
84	0x3d5f249b	0.05447827
85	0xbf18991a	-0.59608614
86	0xbee75103	-0.45178995
87	0x3ed203ca	0.41018516
88	0x3ed7a69e	0.42119306
89	0x3ebea2fc	0.37233722
90	0x3d1c8d20	0.038220525
91	0x3e90503e	0.2818622
92	0x3ecbee08	0.3983004
93	0xbe8cdddc	-0.27513015
94	0x3ec371a6	0.38172644
95	0xbee87525	-0.45401874
96	0xbcd58a8c	-0.02606704
97	0xbec2f50d	-0.38077584
98	0xbd75797a	-0.059930302
99	0x3e35f4e2	0.17769197
100	0xbf0b1254	-0.5432484
101	0xbdae829e	-0.08521007
102	0xbe4a4f84	-0.19756895
103	0xbf0024f4	-0.50056386
104	0x3e8e0fef	0.2774653
105	0xbefd2ff3	-0.49450645
106	0x3e57bdc3	0.21068482
107	0x3d6c56f3	0.05770011
108	0xbe8adf56	-0.27123517
109	0xbd9e33f1	-0.07724751
110	0x3ea577a2	0.32317835
111	0x3e49389b	0.196505
112	0x3a040780	0.0005036518
113	0xbf02c309	-0.5107885
114	0xbd1a3add	-0.037653793
115	0x3edb3b51	0.42818692
116	0xbdaffc2c	-0.0859302
117	0xbe605d57	-0.21910606
118	0xbee73f9a	-0.45165712
119	0xbb1bf21c	-0.0023795431
120	0xbd075325	-0.033038277
121	0x3e8f6ec6	0.280142
122	0x3e95854b	0.29203257
123	0xbcc48d4b	-0.023993155
124	0xbe7d9291	-0.24762942
125	0xbc356cb8	-0.011073284
126	0xbc568b33	-0.013094711
127	0x3e4feea4	0.20305878

layers.4.weight f4 [2, 128]
0	0x3b0c06af	0.0021366288
1	0xbeac9933	-0.33710632
2	0x3ee7b8e4	0.45258248
3	0xbeb9d993	-0.36298808
4	0xbc91a114	-0.017777003
5	0x3d6d8704	0.05799009
6	0x3f0afb63	0.54289836
7	0xbd0deff1	-0.034652654
8	0xbea8e546	-0.32987422
9	0x3f0895f0	0.53353786
10	0xbec39924	-0.38202775
11	0x3cc661cc	0.024216555
12	0xbdb39aed	-0.08769784
13	0x3e398439	0.18116845
14	0xba244d00	-0.00062675774
15	0xbcd90248	-0.026490346
16	0xbd0f911e	-0.035050504
17	0x3ee0033d	0.4375247
18	0xbedcb14a	-0.4310401
19	0xbef20411	-0.47268727
20	0xbd64d4e4	-0.05586709
21	0x3d93d2f3	0.0721797
22	0xbc8ffdce	-0.017577078
23	0xbc65c4d0	-0.014023975
24	0x3ecc9442	0.39956862
25	0x3d8cdfcb	0.068786226
26	0xbf729e52	-0.9477283
27	0x3d3e359d	0.04643785
28	0xbf5decfe	-0.86689746
29	0x3cd9a9ee	0.026570287
30	0x3dcd76c8	0.10032421
31	0xbf2b915b	-0.6701867
32	0xbbbe4370	-0.005806379
33	0xbe633deb	-0.22191589
34	0xbd56cbac	-0.05244033
35	0xbd87d06d	-0.06631551
36	0x3e80f868	0.2518952
37	0x3e2698aa	0.16269174
38	0xbd0af163	-0.03392161
39	0x3e2ff73f	0.1718416
40	0x3c9a0561	0.018801393
41	0x3f066032	0.5249053
42	0xbc4e8a36	-0.012606194
43	0xbd019833	-0.03163929
44	0xbec4fbd9	-0.38473395
45	0x3cda33b9	0.026635991
46	0xbd4257d0	-0.047447026
47	0x3eceb617	0.403733
48	0xbda920e5	-0.08258227
49	0x3d0592da	0.03261075
50	0x3e255243	0.16144662
51	0x3d4bf2c2	0.04979206
52	0x3e769033	0.24078445
53	0x3eeaf40c	0.45889318
54	0xbf05733d	-0.52128965
55	0xbc43e0c0	-0.01195544
56	0xbedf7ec2	-0.43651396
57	0xbf2f18b6	-0.6839708
58	0xbda0ad9c	-0.07845613
59	0x3ee3a493	0.44461498
60	0xbf2fe698	-0.68711233
61	0x3edb78fc	0.4286574
62	0x3e7faee1	0.24969055
63	0xbe17f63f	-0.14840029
64	0x3e595f0d	0.21227665
65	0xbf179fa1	-0.5922795
66	0x3ce75e18	0.02824311
67	0x3eee59c6	0.46552867
68	0x3ea1f3db	0.3163136
69	0xbed60ae4	-0.41805184
70	0x3eb16ebd	0.346548
71	0xbf0dec15	-0.5543836
72	0x3bafefb0	0.005369149
73	0xbec07f76	-0.37597245
74	0xbdaca552	-0.0842997
75	0xbc745bcc	-0.014914464
76	0xbef1746b	-0.47159132
77	0x3dbe98cd	0.09306488
78	0xbd3ed4b1	-0.046589557
79	0x3c4c7ee4	0.012481425
80	0xbf020fc3	-0.508053
81	0xbf228ae1	-0.6349316
82	0x3e873e99	0.26414946
83	0x3d0b2e96	0.033979975
84	0x3ea237e7	0.31683275
85	0xbf68d9a0	-0.9095707
86	0xbf594f3c	-0.8488653
87	0x3e8cb6fd	0.2748336
88	0x3e8be987	0.27326605
89	0x3ed60e3a	0.4180773
90	0x3d19856a	0.03748075
91	0x3efa6d27	0.48911402
92	0x3ed63819	0.41839674
93	0xbebfeeb5	-0.37486807
94	0x3edd9164	0.43274987
95	0xbf3a8db4	-0.7287247
96	0x3d359cbe	0.044338934
97	0xbefeb61e	-0.4974832
98	0xbba1d67a	-0.0049388977
99	0x3f15bf30	0.58494854
100	0xbf623250	-0.8835802
101	0x3d00776b	0.031363886
102	0x3e157662	0.1459594
103	0xbf51a130	-0.8188658
104	0x3de0fec8	0.10986096
105	0xbf5272af	-0.82206243
106	0x3f171fa7	0.5903267
107	0x3eb0a17f	0.34498212
108	0xbeb42509	-0.35184506
109	0xbcebc610	-0.028780967
110	0x3e829e99	0.25511625
111	0x3f0a3f4c	0.54002833
112	0xbdb4bc6d	-0.08825002
113	0xbf33e010	-0.7026377
114	0x3d6c3466	0.05766716
115	0x3ea89519	0.32926252
116	0x3cdcad04	0.026937969
117	0xbeecf4aa	-0.46280414
118	0xbf84ab04	-1.036469
119	0xbeec489d	-0.4614915
120	0xbdabf3ac	-0.08396086
121	0x3ef5dedd	0.48021594
122	0x3ecfacd5	0.40561548
123	0x3d7548a6	0.059883736
124	0xbea8b97c	-0.32954013
125	0xbe916e3e	-0.2840442
126	0x3bdc89fc	0.006730316
127	0x3df61e06	0.12017445
128	0x3f67245c	0.90289855
129	0xbec8519e	-0.3912477
130	0x3e6d1d02	0.23155597
131	0xbe7ade2d	-0.24498816
132	0x3cc69494	0.02424077
133	0x3d565d1e	0.052334897
134	0xbbda987e	-0.0066710105
135	0xbd850ea7	-0.06496935
136	0x3e343fba	0.17602435
137	0xbd82ebbd	-0.0639262
138	0xbe8b6a2f	-0.2722945
139	0xbb0bb684	-0.0021318505
140	0x3c0f5b8b	0.008749853
141	0x3cf47945	0.029842982
142	0x3d5b0f1e	0.053481214
143	0xbd48594d	-0.04891329
144	0xbc78e582	-0.015191438
145	0x3e661b9b	0.22471468
146	0x3f69ec70	0.913764
147	0x3f69dfa0	0.9135685
148	0xbd9ca858	-0.076492965
149	0xbbf43340	-0.0074523985
150	0xbd8c766f	-0.06858527
151	0xbd8dab24	-0.06917408
152	0x3e8cfa7f	0.27534863
153	0xbd2a3ad8	-0.041560024
154	0x3e7ec6bd	0.248805
155	0xbd615d27	-0.055020478
156	0xbef1f07f	-0.47253796
157	0x3d240b62	0.040049918
158	0x3f00febf	0.5038871
159	0x3e014696	0.12624583
160	0xbb3079a0	-0.0026927963
161	0xbeddadc3	-0.43296632
162	0xbd28160e	-0.041036658
163	0x3f91653c	1.1359019
164	0x3ed298cf	0.4113221
165	0x3c8d2706	0.017230522
166	0x3ed70d27	0.42002222
167	0x3eafdf36	0.34349984
168	0xbba32bfe	-0.0049796095
169	0x3d837c16	0.06420152
170	0x3ecbd174	0.39808238
171	0xbd53dd5b	-0.051724773
172	0xbea23492	-0.31680733
173	0xbc878ac1	-0.016545655
174	0x3b4cdab8	0.0031258296
175	0xbe020c36	-0.1269997
176	0x3f6c920e	0.9241036
177	0xbc15db28	-0.009146489
178	0x3ed804ea	0.4219125
179	0x3d419f6a	0.04727117
180	0x3ed2532d	0.41079083
181	0xbd8f5898	-0.0699932
182	0xbe01da3d	-0.12680908
183	0x3b1cf6ef	0.0023950895
184	0xbe6d1b18	-0.23154867
185	0xbf1b41f2	-0.606475
186	0x3d4a12c5	0.049334306
187	0x3eb5c36b	0.35500655
188	0xbee1f18e	-0.44129604
189	0xbe1caba2	-0.15299848
190	0x3eca3b41	0.39498332
191	0x3dfff03a	0.124969915
192	0x3ee86917	0.45392677
193	0xbe278825	-0.16360529
194	0xbd3d4d86	-0.04621651
195	0xbe92a70c	-0.28643072
196	0xbdcf8257	-0.10132282
197	0x3fbd553d	1.4791638
198	0x3edcd4e3	0.4313117
199	0xbee9c142	-0.45655257
200	0xbda23e37	-0.07922023
201	0xbec75734	-0.38933718
202	0x3c7f46f0	0.015580878
203	0x3f0afe48	0.5429425
204	0xbe57540d	-0.21028157
205	0xbd947a37	-0.07249873
206	0xbd884865	-0.06654433
207	0x3ee9070e	0.45513195
208	0xbf1e660e	-0.61874473
209	0x3efcee84	0.49400723
210	0x3ed28a70	0.41121244
211	0xbd108317	-0.035281267
212	0xbe6b2d3d	-0.22966476
213	0xbec55b43	-0.3854619
214	0xbe381da5	-0.17980058
215	0x3ec6a9ab	0.3880132
216	0x3ed5e201	0.4177399
217	0x3e89576b	0.26824507
218	0x3c63ac17	0.01389601
219	0x3e8a460f	0.27006575
220	0x3eabe9e6	0.33576888
221	0x3d83752a	0.06418832
222	0x3ec91908	0.3927691
223	0x3e59be36	0.21263966
224	0x3cb4a61f	0.022051869
225	0xbeed8ddc	-0.46397293
226	0xbd0120f1	-0.031525556
227	0x3deb4525	0.11487798
228	0xbef3c6e2	-0.47612673
229	0xbd5fd289	-0.05464414
230	0x3ba53df5	0.0050427862
231	0x3f5b5238	0.8567233
232	0x3edfdd30	0.4372344
233	0xbf1a870f	-0.60362333
234	0x3d9f6685	0.07783226
235	0xbe0bf8fa	-0.13669196
236	0xbec74fd7	-0.389281
237	0xbc7f0c5a	-0.01556691
238	0x3ec773b3	0.3895546
239	0x3daf7e79	0.085690446
240	0xbd7d85c0	-0.061895132
241	0xbebf224d	-0.37330857
242	0x3d3b8ea5	0.045790333
243	0x3eb48f3e	0.35265535
244	0x3d8116ad	0.06303153
245	0xbf2171ee	-0.6306447
246	0x3d876569	0.06611139
247	0x3e198bfa	0.14994803
248	0x3d1f970c	0.03896241
249	0x3e806ba4	0.25082123
250	0x3eaf9996	0.34296864
251	0xbd6f4c17	-0.058422174
252	0xbee0cd15	-0.43906465
253	0x3e8f301c	0.27966392
254	0x3c5e1a92	0.01355614
255	0x3ed8da63	0.42354116

layers.4.bias f4 [2]
0	0x3e86272d	0.26201764
1	0x3e7a0a70	0.24418044
