OS/ddqn_models/inv/ddqn_700_1.0.pth (torch_old, 69813 bytes, 6 tensors)

layers.0.weight f4 [128, 2]
000000 5d 4b 80 be ad 32 01 bf e9 35 82 3f 38 6f b9 bf
       -0.25057498 -0.5046795 1.0172702 -1.4487066
000010 e8 64 9b 3d 60 99 17 be 09 ff 88 3f e3 9d 20 3f
       0.07587606 -0.14804602 1.070283 0.62740916
000020 23 c4 80 3f 80 e3 2e 3f 04 7f 0e be 74 4d f1 bd
       1.0059856 0.6831589 -0.1391564 -0.11782351
000030 15 e9 57 bb 39 f5 3a 3e ff 96 3c 3f 62 61 7f 3f
       -0.0032945324 0.18257608 0.736679 0.9975797
000040 2e fd 52 bf 0f f8 3b be 03 f2 99 bf f2 a5 85 bf
       -0.8241757 -0.18356346 -1.2026981 -1.0441267
000050 bf b7 f6 bf 1b 85 84 3e 15 b6 8d be ef ed 27 bc
       -1.9274825 0.258828 -0.2767798 -0.010249599
000060 55 74 3d bc e3 30 ff 3e e0 43 12 bf 24 31 fa be
       -0.01156338 0.49841985 -0.5713482 -0.48865616
000070 98 71 d7 bf 86 8b 87 3d e4 d2 7f 3f a6 e7 75 3f
       -1.6831541 0.06618409 0.9993117 0.9605659
000080 76 cb 9e 3f 9b e6 a5 3f 80 7b ac bb 00 23 0f be
       1.2405841 1.2961 -0.005263746 -0.13978195
000090 5a a5 60 3e 0d 30 58 3c 9f 99 82 3e fc 02 f7 3d
       0.21938077 0.01319505 0.2550783 0.12061116
0000a0 17 66 6b be 32 bb 04 bf 3a 4f 16 3f ef 4b 0b bf
       -0.22988163 -0.5184814 0.5871464 -0.5441274
0000b0 3c 1f ae be fd eb d9 3e e8 12 b8 3e c5 7c 18 3e
       -0.34008205 0.42562857 0.35951924 0.14891346
0000c0 fc a6 30 bf b0 46 a1 3f f0 b3 cf be 4e 12 a9 be
       -0.690048 1.2599697 -0.4056697 -0.33021778
0000d0 66 5e a6 bd 6d 58 0f bf 5d 82 90 3e 92 48 43 3f
       -0.08123474 -0.559943 0.2822446 0.7628261
0000e0 10 e2 89 bd 50 56 0e 3f 4b cc 99 3f 9a ce 06 3e
       -0.06732571 0.5560045 1.201547 0.1316475
0000f0 81 b5 82 be 7f 19 bf be cd 78 a7 be 0f 02 42 3e
       -0.25529101 -0.3732414 -0.3270935 0.18946098
000100 8f 36 50 3f a5 69 9a 3f 36 c5 3b be bb cd 9b bb
       0.8133325 1.206349 -0.18336949 -0.0047547496
000110 ed 30 9e be 68 32 67 bf a3 9d 82 3f 39 20 5c 3d
       -0.30896702 -0.9031129 1.0204357 0.053741667
000120 80 ac 1f 3c e8 35 f6 bd 02 d3 a7 bf 09 29 02 bf
       0.009745717 -0.120220006 -1.311127 -0.50843865
000130 48 47 17 3f a3 3f da be 2b d3 69 be 82 09 16 be
       0.5909314 -0.42626676 -0.2283446 -0.14652064
000140 f9 81 9b 3b fb fb 86 3e 6b 55 2d bf bf 76 68 bf
       0.0047457186 0.2636412 -0.6770846 -0.9080619
000150 cc 02 fc 3a 6e 00 1d 3e d0 cb 45 3f 78 e9 7a 3f
       0.0019226908 0.15332195 0.7726412 0.98012495
000160 61 63 b8 3e bf 0c d8 bd 7f 29 a4 3d 3e 3d 60 3e
       0.3601332 -0.10549306 0.08015727 0.21898362
000170 54 ab 38 3f 0b 31 70 3e 2c 58 91 be 1a 84 35 bf
       0.72136426 0.23456208 -0.28387582 -0.70904696
000180 1c 60 a4 bf e9 c5 9c 3d 51 e9 b7 be b7 4a bf bf
       -1.284183 0.07654936 -0.35920194 -1.4944676
000190 aa 7e bd 3f 2a 80 a0 bf f0 a5 cc 3d 23 ec 9c 3e
       1.480428 -1.2539113 0.099925876 0.30648908
0001a0 c9 85 6e 3e f3 0e 98 bd 34 cc 8f be 87 8f 75 3f
       0.23293222 -0.07424726 -0.28085482 0.9592213
0001b0 27 4f 38 3f 55 0c e5 3e 22 8f 1b 3e 2c 69 91 3e
       0.71995777 0.4473597 0.1519132 0.28400552
0001c0 cc 85 3f bf 0f fe 37 be c1 76 ab bf 1b 20 6f be
       -0.7481353 -0.1796801 -1.3395616 -0.23352091
0001d0 a4 3f 27 3f 21 bf 3d 3f cc 75 18 bf eb bb aa bf
       0.6533148 0.74119765 -0.59554744 -1.3338598
0001e0 72 0c 07 3f c5 c6 af be c3 25 5c 3e 9e e1 b6 be
       0.52753365 -0.34331337 0.2149878 -0.35719007
0001f0 9c 09 f3 3c 8d 0a 9c 3e 64 8d 77 bf f5 33 2e bf
       0.029667668 0.304768 -0.9670012 -0.6804803
000200 32 ac 3f 3f af 09 80 bf 7e d1 36 bf 0b a1 a1 3e
       0.74872124 -1.0002955 -0.7141341 0.3156818
000210 83 0f 68 3e 28 ff 12 bd 10 ca 7c be fa 99 02 bf
       0.22662167 -0.035887867 -0.24686456 -0.510162
000220 d8 8a 2d 3f 44 cc 60 3e 6d 1b 48 3e 51 01 b3 3e
       0.67789984 0.21952921 0.19541712 0.34961942
000230 ed 5f 19 be 87 98 ac 3c 3a 6e cb 3e 5a 76 88 3d
       -0.14977999 0.021068824 0.39732534 0.06663199
000240 e8 79 9d 3e ed 77 66 3e 7a ad aa bf 2d af 4a bf
       0.3075707 0.22506686 -1.3334191 -0.7917355
000250 3c 92 ad 3f f5 11 93 3f 11 f8 6b 3f a4 8f 2f bd
       1.3560252 1.1489855 0.92175394 -0.042861596
000260 d1 77 4d 3f d9 05 a3 bf b5 f8 27 bf f8 f8 8c bf
       0.8026095 -1.273616 -0.6561387 -1.1013479
000270 61 c3 db be a1 70 ca 3f ab 02 fc bb da cc 85 3e
       -0.429225 1.5815622 -0.0076907477 0.26132852
000280 77 fd 86 be f5 5d a7 3f b1 99 a0 be 16 59 dd 3f
       -0.26365253 1.3075548 -0.31367257 1.7292812
000290 cd 73 0a be bf dc ad be 02 c4 20 3f 8a 80 2b 3f
       -0.13520737 -0.33957478 0.62799084 0.6699301
0002a0 fb 22 5e bf 56 77 13 bd 4b 49 8a 3f f6 d8 60 3f
       -0.86772126 -0.03600248 1.0803617 0.87831056
0002b0 1b d3 8d 3d e6 99 88 3e b8 e5 37 3e 45 d5 3f 3f
       0.06925031 0.26679915 0.17958724 0.749348
0002c0 04 9c 81 3d 83 45 89 3e ad f2 25 bf 4b 30 b6 3f
       0.06328586 0.26810846 -0.6482342 1.4233488
0002d0 ff 8a 42 3c d7 79 8e 3d b0 d3 ab bf 7f 5b 9b be
       0.01187396 0.06956833 -1.3423977 -0.30343243
0002e0 2c 0f 92 be 6a a2 ae bf b6 7f e1 bf 8f f3 2f 3f
       -0.285272 -1.3643315 -1.7617099 0.68731016
0002f0 8c 82 2e 3e 92 42 02 3f e4 c5 27 3f de a6 3f bf
       0.17041987 0.5088283 0.6553633 -0.74863994
000300 70 7b c6 bf 59 16 f3 be 98 5f 52 bf dc 35 0a be
       -1.550642 -0.47477987 -0.82177114 -0.13497108
000310 54 04 5e be 3f 60 07 bf 9a 21 26 bf 24 3d 1e bf
       -0.21681339 -0.52881235 -0.6489502 -0.61812043
000320 2b c8 51 3f d6 cf a4 3f d0 d4 30 3f fb 63 a3 3f
       0.8194606 1.2875926 0.69074726 1.2764887
000330 a7 81 7c 3f e1 7e 18 3e f8 0d c6 3f e5 07 c2 3f
       0.98635334 0.1489215 1.5473013 1.5158659
000340 39 22 38 bf db dc d5 3f 23 dd 70 3f f4 de 91 3f
       -0.7192722 1.6708025 0.9408743 1.1396165
000350 7b 43 ba be 8b 64 52 3e 5c e8 0e 3f c1 27 fc be
       -0.3637961 0.20546167 0.558233 -0.4924908
000360 78 d3 80 bf a0 20 95 bf d4 cf 5e 3f 04 e2 58 3f
       -1.0064535 -1.1650581 0.8703587 0.8471987
000370 f2 b8 d1 3f 11 cd e4 bd b6 2a 86 bf 20 ea 9e 3e
       1.6384566 -0.11171926 -1.0481784 0.31037998
000380 e5 43 b8 3f 4e 5c 2e 3f d2 12 1c 3d 96 d7 df 3e
       1.439572 0.68109596 0.038103886 0.43719167
000390 69 0a 87 3f 18 e6 64 bf 75 c0 e9 3f 2b 5e b5 3f
       1.0550052 -0.89413595 1.8261858 1.4169363
0003a0 ba fa c1 bf 88 e6 d1 3c fa 00 b9 be 8a 12 bc 3b
       -1.5154641 0.025622621 -0.36133558 0.0057395147
0003b0 4a 49 84 3f 42 9a 2b 3e 16 d5 6d bf 6b 01 2e bf
       1.0334866 0.16758063 -0.9290327 -0.67970914
0003c0 87 e6 3f be 9b c2 0a be 15 18 60 be f1 b6 e2 3e
       -0.18740283 -0.13550799 -0.21884187 0.44280198
0003d0 16 f7 b3 3e f9 4b 5f bf 79 f8 ed bd 87 55 58 3f
       0.3514945 -0.872253 -0.11619658 0.84505504
0003e0 22 bc 9a 3f e6 59 dd be ad 05 94 be e7 da 8b bf
       1.2088664 -0.4323265 -0.2891058 -1.0926179
0003f0 50 96 ed 3d 69 8d 9f 3e 64 85 39 3d 2b 3e a3 3e
       0.116009355 0.31162575 0.045293227 0.31883368

layers.0.bias f4 [128]
000000 b0 17 66 3f e1 a0 04 3e 58 4b f1 be 76 ff 97 bf
       0.89879894 0.12951995 -0.47127795 -1.1874835
000010 49 7f 80 bf 8a e6 11 bf 23 74 0f 3f d0 35 bc bf
       -1.0038844 -0.569924 0.56036586 -1.4703922
000020 cf b8 c8 bf ed 56 d4 be d6 b9 28 be 62 bd 60 3f
       -1.5681399 -0.4147257 -0.16477141 0.87788975
000030 c9 81 85 bf 4f e8 3e 3f 1f 6d e0 be 59 a0 77 bc
       -1.0430232 0.74573225 -0.43833253 -0.015113913
000040 02 06 93 3d 85 3a 23 bf e1 41 64 3f 54 e5 3d 3f
       0.0717888 -0.6376117 0.89163023 0.7417805
000050 c7 ff 66 3f 45 7d 08 3f 64 44 b6 bf c5 16 76 3f
       0.90234035 0.53316146 -1.4239621 0.96128494
000060 59 03 1f 3d da 7b fa 3e 7e 13 9d bf 1d 67 9e bf
       0.038821552 0.48922616 -1.2271574 -1.2375218
000070 c0 63 9c bf a5 a6 70 bf d1 5d f1 bd f7 1c 82 bf
       -1.2217941 -0.9400428 -0.11785472 -1.0165089
000080 e4 10 0a 3e f7 73 39 3f 5f 89 d2 3d 94 c9 e8 bf
       0.13483006 0.72442573 0.10280108 -1.8186517
000090 0d 59 0c bf b0 10 ee be 37 3c 12 3f a2 ba 8b 3f
       -0.5482338 -0.46497107 0.5712313 1.0916331
0000a0 6f 68 37 3f 89 3b 4f be fb 08 f5 3e 62 fc aa bf
       0.7164373 -0.20237555 0.47858414 -1.3358271
0000b0 c7 00 87 bf 4a ea 26 3f ad 68 be bf e1 b7 be 3e
       -1.0547112 0.65201247 -1.4875695 0.37249663
0000c0 ad d3 8c bf ac 4b 86 be b5 79 ef bd f9 61 33 3f
       -1.1002098 -0.26229608 -0.11693136 0.7007137
0000d0 d3 7b 2e bf 44 93 40 3f 37 42 0a 3f dc 22 38 3f
       -0.6815769 0.7522471 0.54007286 0.7192819
0000e0 99 5e b6 bf bc 00 a5 be f4 70 93 bf 63 ce 97 3c
       -1.4247619 -0.32227123 -1.1518846 0.01853103
0000f0 92 cd 07 3f de b5 8e bf 6c 42 65 3f 82 b5 65 bf
       0.5304805 -1.1149251 0.89554477 -0.89730084
000100 ad 66 33 bf b2 cb 60 bf 70 79 72 3f ed e8 66 3f
       -0.70078546 -0.87810814 0.9471655 0.90199167
000110 6d f2 af bf 8c a8 6d 3f 6f 66 2e 3f 6a 74 6e 3f
       -1.3745857 0.9283531 0.6812505 0.93146384
000120 67 52 75 3f ba 18 95 bd 71 12 45 3e 96 c0 d7 3e
       0.9582886 -0.07280107 0.19245316 0.4213912
000130 8e fc 0d 3e b2 c0 63 3e bc 6d 58 bd eb 4b 39 3f
       0.13865873 0.22241476 -0.052839026 0.72381467
000140 48 30 c4 be 44 88 01 bf 8e ff af 3d 70 94 e8 3e
       -0.38318086 -0.5059855 0.08593665 0.4542575
000150 91 9a bb bf 62 a3 61 bf d5 d4 21 3f ec 68 a0 bf
       -1.4656545 -0.8813993 0.6321538 -1.253202
000160 96 b6 0a 3f 77 0c ee bd 1e c9 9a 3e bb 62 9a bf
       0.54184854 -0.11623471 0.30231565 -1.206138
000170 81 f8 69 be cc 05 fa be 7a 33 6c 3f 03 9b 13 3e
       -0.22848703 -0.48832548 0.92266047 0.14414601
000180 5f 00 6a be f0 04 c3 bf 5a c7 64 3f 57 de 6a 3f
       -0.22851704 -1.5235882 0.89366686 0.91745514
000190 37 20 15 bf ee 33 5a bf 22 44 cd bf 1b 3f 82 3d
       -0.5825228 -0.8523549 -1.6036417 0.06359693
0001a0 df 0b 4d 3d 2a 53 9b be 25 83 8b bf c5 d1 d6 3d
       0.05006015 -0.30336887 -1.0899397 0.10489229
0001b0 bc a1 1d bf 81 ec 52 bd 19 a7 71 be ef f6 90 bf
       -0.6157491 -0.05149508 -0.23598899 -1.1325358
0001c0 13 70 59 be b3 14 6f 3f fd 9b 0e bf 0a 36 b1 3d
       -0.21234159 0.9339096 -0.5570677 0.08652885
0001d0 40 f0 f8 be 70 84 88 3f 91 4d d0 bf e9 c5 b1 bf
       -0.48620796 1.0665417 -1.6273671 -1.3888522
0001e0 51 d1 7b 3f 71 5d ad bf d2 d9 16 bd eb 12 90 bf
       0.98366266 -1.3544141 -0.036828823 -1.1255773
0001f0 8d 9c 0f be 07 5d 00 3e 99 00 4a 3f a2 39 46 bf
       -0.14024563 0.12535487 0.7890716 -0.7743169

layers.2.weight f4 [128, 128]
000000 c4 88 d9 bd 51 45 b2 bf 94 d6 f6 bc 00 33 1f bf
       -0.10621789 -1.3927404 -0.030131616 -0.62187195
000010 be e2 5a 3e cb af aa 3d b0 82 7e 3e 62 ac 88 be
       0.21375558 0.08334311 0.24854541 -0.26694018
000020 0b f6 f5 bd 7c 5e f0 3f 58 79 08 bf 59 de 5f 3e
       -0.120098196 1.8778834 -0.53310156 0.21862163
000030 11 4e 2b be 5e 66 2d be f5 8b 9b be 25 c7 c3 3e
       -0.16728999 -0.16933581 -0.30380216 0.38237873
000040 7c cc 06 3f 34 df a7 bd 15 35 cc 3d cb 0a 5a 3e
       0.5265577 -0.081968695 0.09971062 0.2129318
000050 ea 09 20 be a0 95 ee be ec 6c b5 3e f6 10 12 3e
       -0.15628782 -0.4659853 0.35434663 0.14264283
000060 67 18 95 3e cd 6b 3e be f0 5b 92 3c 86 ae 0e bf
       0.2912018 -0.1859581 0.017866105 -0.5573505
000070 08 a6 9a 3d 6e 8c 3d 3f f5 91 a5 bf a0 9f 1b bd
       0.07551199 0.74042404 -1.2935168 -0.037994027
000080 c5 04 30 3d bc 1c 6f 3e 31 0a c3 3f ed a4 aa be
       0.0429733 0.23350805 1.5237485 -0.33328953
000090 2a 9f 9c bd c3 b0 07 bf 60 e5 05 be ef 30 3e 3e
       -0.07647546 -0.5300409 -0.13075781 0.18573354
0000a0 f3 a9 26 3e 45 7d 19 c0 e1 c0 7c 3e 0d 84 c1 3e
       0.16275768 -2.3982708 0.24682952 0.3779606
0000b0 70 90 23 bf 15 d2 27 3e 86 30 97 bf b0 d4 31 be
       -0.6389227 0.16388734 -1.1811683 -0.1736629
0000c0 a1 c6 f6 bd 00 7c 61 c0 ca 26 c8 bf d3 da 21 3e
       -0.12049604 -3.5231934 -1.5636837 0.15806131
0000d0 89 92 88 bf fc b1 80 3e b2 f1 8e 3e c8 3d 8d 3e
       -1.0669719 0.2513579 0.27918774 0.27586198
0000e0 87 fa 3f bf 65 61 58 bf ab 3c 4d 3f 7b d9 f6 3f
       -0.7499165 -0.8452361 0.80170697 1.928512
0000f0 ee af d8 be bc 34 83 be b6 34 64 3e a1 39 7b bf
       -0.42321724 -0.2562617 0.22285733 -0.9813481
000100 dd 40 45 c0 37 e6 86 3d 1a 5a 13 3e dd b4 ee bd
       -3.082084 0.06586879 0.1438984 -0.11655591
000110 14 85 04 c0 81 fc 81 3e d0 d0 7d 3e 55 07 15 3e
       -2.0706224 0.25387958 0.24786687 0.14553578
000120 d4 15 3a 3e 3e 1a 71 bf 9a 27 e8 3e 52 d4 72 3e
       0.1817239 -0.9418067 0.45342714 0.23713806
000130 8e 81 dc be a4 32 5b bf 90 01 a7 3d 8a 07 96 3e
       -0.43067592 -0.85624146 0.08154595 0.29302627
000140 f3 d1 51 3e 1b d7 63 3e 79 cf 0e bf d6 2a 75 3e
       0.20490246 0.22250025 -0.5578533 0.23942122
000150 17 bb 1b 3f bd af 3c 3f 00 08 44 3e 6e 4a e2 3d
       0.6083235 0.73705655 0.19143677 0.110493526
000160 88 93 5a 3e 23 a2 e0 3e 9a 1c a7 3e 5d 09 f2 3e
       0.21345341 0.438737 0.3263901 0.4727277
000170 cd 5f 62 40 6c cb 09 bf 16 a6 37 3e 61 9b 94 bf
       3.5370972 -0.5382602 0.1793445 -1.1609918
000180 b6 6a 15 bf ae f8 ab bf 5b 44 2e be 1c 7c 84 bd
       -0.5836595 -1.3435266 -0.17018263 -0.064689845
000190 bf a8 79 be 23 be c0 be 07 27 82 bf b6 ed c7 3e
       -0.24380778 -0.37645063 -1.016816 0.39048547
0001a0 d9 20 0a 3f 8e c3 7f bd 7b 68 b2 be cf eb 05 3f
       0.5395637 -0.062442355 -0.34845337 0.5231294
0001b0 7f 3a 07 be fe 70 9c 39 c3 76 f8 bf 4f 5a 70 3f
       -0.13205908 0.00029838824 -1.9411243 0.938878
0001c0 18 77 af bf a5 2c ac 3e ee e6 74 bf 51 3a 74 3f
       -1.370822 0.3362781 -0.9566487 0.95401484
0001d0 9f 6e b0 be c0 29 32 3e 06 d7 b5 bf 58 f7 ae bf
       -0.34459397 0.17398739 -1.4206245 -1.3669233
0001e0 8b a0 67 3e 29 85 77 3e 36 24 a8 3f 64 02 f5 be
       0.22619836 0.2417189 1.3136051 -0.47853386
0001f0 a8 9b 0f c0 ac 2f 45 40 a1 17 51 3e 62 dc 88 be
       -2.2438755 3.0810347 0.2041917 -0.2673064
000200 e4 3f 09 c0 63 d4 9d bd 42 6e 11 3d e2 82 2a 3f
       -2.1445246 -0.07706525 0.03550554 0.6660596
000210 86 9f 25 3f 0f 74 ab 3d 43 e5 5b bf 04 4e fa 3e
       0.6469654 0.08371746 -0.858967 0.48887646
000220 e1 ed 3c bc a0 8e 23 3f a3 7d 3b bf 20 df 42 c0
       -0.011531324 0.63889503 -0.7323858 -3.0448685
000230 25 9c 68 3f 68 df b9 bf 70 89 dc be d1 a0 68 be
       0.9086326 -1.4521303 -0.43073606 -0.22717597
000240 38 52 1f 3f 20 98 1c bc 1e d5 f4 be 84 17 40 be
       0.6223483 -0.009557754 -0.47818846 -0.1875897
000250 2c 7b 40 c0 7e 9e e8 3d d3 0f 08 3f a1 ee a3 be
       -3.0075178 0.11358355 0.53149146 -0.32017997
000260 3e 6c af bf 1a 3f 01 bf 1d 2f 87 3f 9b 27 09 3f
       -1.3704908 -0.5048691 1.0561253 0.5357606
000270 20 cd e4 3e 77 a4 98 3e 68 0f 35 bf 69 1d db 3e
       0.44687748 0.29812977 -0.70726633 0.42795876
000280 6b 43 bf 3e 20 8f 1e c0 01 91 56 bf 3e 79 8e 3e
       0.37356123 -2.4774857 -0.8381501 0.27826875
000290 f7 d9 4e bd 35 c8 82 be 11 80 57 3e 99 8c f3 bf
       -0.050500836 -0.2554337 0.21044947 -1.9027282
0002a0 da 28 51 bf 6f 87 28 3b 5b d0 66 bf ae f2 34 3f
       -0.8170296 0.002571549 -0.90161675 0.706828
0002b0 29 fa e5 3e fe 14 33 bf a3 18 50 40 12 a2 1f bf
       0.4491742 -0.69953907 3.2515037 -0.62356675
0002c0 3a 05 23 bd 49 63 13 3d 20 49 39 3e 23 95 19 bf
       -0.039799906 0.035983358 0.18094301 -0.5999319
0002d0 6a 69 c2 bd 0c 4a 2d bf 66 38 b2 bd 6a 24 16 bf
       -0.094927624 -0.6769111 -0.087021634 -0.58649313
0002e0 0b 18 a9 be 05 05 55 bd d0 f9 a3 3d 69 ae 13 be
       -0.33026156 -0.05200674 0.08006632 -0.14422001
0002f0 6d 8e 77 3d 72 7c 15 3f df d4 5c bf bf 04 04 be
       0.060438562 0.58393013 -0.86262316 -0.12892435
000300 97 86 65 bf 92 67 75 bf ca f7 ee be bf 63 41 c0
       -0.8965849 -0.9586116 -0.46673423 -3.021713
000310 64 5e 38 40 62 7e 96 be db 03 0a c0 5a 19 60 be
       2.8807611 -0.29393297 -2.1564853 -0.21884671
000320 d4 9a a8 be 6a 6c c1 3e 91 02 99 3e fd 68 be 3e
       -0.32930624 0.37778026 0.2988477 0.37189475
000330 f4 01 57 3d d9 37 69 bf e2 08 65 bd 13 92 4e bf
       0.052492097 -0.9110084 -0.055916674 -0.8069164
000340 39 b8 0a 3d bc 8c 1c 3d 5f f4 09 bf 43 b1 63 3e
       0.033867095 0.038220152 -0.53888506 0.22235589
000350 c3 7d f1 3d 83 c8 3e 3f 89 03 37 bf 8c 29 e0 be
       0.11791565 0.74524707 -0.7148977 -0.43781698
000360 91 93 d5 be de be 5a bf f7 5c 4f bf ec 5c 48 3c
       -0.41714147 -0.8544749 -0.8100123 0.012229186
000370 ca 97 7e 3c 7a 9c d8 be bc e8 42 be 36 ea b9 3d
       0.015539119 -0.42306882 -0.19034094 0.09077875
000380 b6 dd d8 3d e2 4d 60 3e 6e a9 3c c0 0c 6b d5 bf
       0.10589163 0.2190471 -2.9478412 -1.6673293
000390 0f 83 10 3f 37 64 33 3f fc 54 11 40 1a 50 06 3f
       0.5644998 0.7007479 2.270812 0.52465975
0003a0 78 43 3d be d9 39 0d 3f a7 68 e6 3e a1 e5 0d c0
       -0.18482769 0.55166394 0.45001718 -2.2171404
0003b0 0c a8 00 3f 23 b6 02 bf 36 5a 0a 3f 85 98 1c 3e
       0.5025642 -0.5105917 0.540439 0.15292557
0003c0 56 27 0b 3f e2 9c 31 bf 00 af 6d bd 4d 51 22 3f
       0.54356897 -0.6938001 -0.05802822 0.63405305
0003d0 0b ce ee be 74 81 4d c0 58 a4 5d 40 68 b1 5b 3e
       -0.46641573 -3.2110262 3.4631557 0.21454394
0003e0 c6 7b e6 bf a3 3b 0e 3f 49 e0 e4 bf e5 da 8f be
       -1.8006523 0.5555975 -1.7880946 -0.2809669
0003f0 18 aa b6 be 2c 6a fd be 06 b8 1e bf f7 fd 06 bf
       -0.35676646 -0.49495065 -0.6199955 -0.5273127

layers.2.bias f4 [128]
000000 9f f3 2e 3e f2 da 49 bf c5 68 e2 3e f6 da 2f bf
       0.17085122 -0.7884971 0.44220558 -0.6869348
000010 fe 02 3e 3d 50 fa 06 bf 37 ac 85 3e 41 47 cc 3c
       0.046389572 -0.52725697 0.26107952 0.02493632
000020 d2 37 a1 be cf a4 00 3e 07 d0 5f bf 84 77 f5 bd
       -0.314879 0.1256287 -0.874268 -0.119856864
000030 78 3e c7 bd bb c1 4d be a0 8f ec bd b3 49 62 bc
       -0.09728712 -0.20093434 -0.11550832 -0.013811517
000040 be d2 56 3d a0 e9 ee 3e 92 3d 64 be 1e 23 87 be
       0.052447073 0.46662617 -0.22289112 -0.2639398
000050 e9 36 08 bc 10 1a 8d bb 12 6e dc bd 3c 56 04 bd
       -0.008313873 -0.0043060854 -0.10763182 -0.032308802
000060 59 6a d8 3e 3a 7f 06 3d cf e0 1a bf 1c 14 1c bd
       0.42268637 0.032836176 -0.6049928 -0.038105115
000070 cc e0 29 bf a1 be 12 3d eb a7 0a 3e e6 fc 2c bf
       -0.6635864 0.03582633 0.13540618 -0.6757339
000080 db 98 69 3d 17 7c 2f be 0b 98 21 bd 08 7b 4d be
       0.05703054 -0.1713718 -0.03945164 -0.20066464
000090 d6 dd d4 3e 3d ae 41 be 71 4a 8f bd c4 f3 0f 3e
       0.41575497 -0.18914123 -0.069966204 0.14057833
0000a0 36 2f 3d bd fd 69 dc 3e 64 11 92 bd e7 4e 8f bd
       -0.046187602 0.43049613 -0.07132223 -0.06997471
0000b0 a0 8f 26 bf 9f 50 e1 3c 1e 1d ff bc 53 98 92 3d
       -0.65062904 0.027504263 -0.031141814 0.0715796
0000c0 00 8e b3 be b0 26 e9 ba 10 0c 8c 3e 44 c6 c3 3c
       -0.35069275 -0.0017788019 0.27352953 0.023898251
0000d0 3d 7e b1 3e 7c 36 f2 3d 91 0a 3a bf 1e 27 13 bd
       0.34666625 0.11826798 -0.72672373 -0.035925977
0000e0 fa 44 3d bf 99 56 38 bf 6f 25 09 3c f3 a4 e8 3e
       -0.73933375 -0.7200714 0.008370741 0.45438346
0000f0 fb a1 1c bf 95 a7 78 bd a1 d8 ca 3e c5 5c 3d bd
       -0.6118466 -0.060706694 0.396184 -0.04623105
000100 56 90 be 3e 6b 4e 2f bf b2 f1 39 bd f9 54 2d be
       0.37219495 -0.6847903 -0.045396514 -0.16926946
000110 9b a9 b4 bd 3b b0 3f be 15 ef b5 3e a0 8b 3a bf
       -0.08821412 -0.1871957 0.35533968 -0.728693
000120 58 72 82 bd 65 52 0c bf d0 f1 43 bd a7 ce a7 bd
       -0.063694656 -0.54813224 -0.047838032 -0.08193713
000130 e8 01 81 bf e1 8f a2 bd 75 1e e8 3c 80 fa 24 3e
       -1.0078707 -0.07937599 0.028334836 0.16111183
000140 06 22 c8 be bd dc f4 be 7f 28 ab 3e 78 ec 97 bb
       -0.39088458 -0.4782466 0.33429334 -0.0046363436
000150 34 dd 8e be 94 cd 75 bf 38 9b 64 bf 7d c7 e3 3e
       -0.2790314 -0.9601681 -0.89299345 0.44488135
000160 6a 3f e9 3e c7 b9 e4 3e 20 8d 1c 3d da 19 bd 3e
       0.45556194 0.44672987 0.038220525 0.36933786
000170 82 08 f7 3e b9 e1 9a be 22 8a ed 3e 8b 0f 1c bf
       0.48248678 -0.30250338 0.4639445 -0.60961217
000180 8c 8a d5 bc 88 0a 47 bf 7a 79 75 bd b2 f8 8e 3e
       -0.02606704 -0.77750444 -0.059930302 0.27924114
000190 bb c8 41 bf 9e 82 ae bd 84 4f 4a be 57 43 4a bf
       -0.75696915 -0.08521007 -0.19756895 -0.79009
0001a0 37 c9 52 bd 62 1f 13 bf 5b 2f 9e 3e b4 09 b5 be
       -0.051461425 -0.5746976 0.30895504 -0.35358965
0001b0 4c 1f 0a bf f1 33 9e bd 77 81 b4 3e 83 e9 af 3e
       -0.53954005 -0.07724751 0.35255024 0.34357843
0001c0 80 07 04 3a c4 d0 16 bf dd 3a 1a bd 2e 18 f8 3e
       0.0005036518 -0.589123 -0.037653793 0.48455948
0001d0 2c fc af bd f6 7e b7 be d4 6d 40 bf bd 79 b8 be
       -0.0859302 -0.3583905 -0.75167584 -0.3603038
0001e0 25 53 07 bd 09 64 bc 3e a5 51 bc 3e 11 2e 64 bd
       -0.033038277 0.3679507 0.3678104 -0.055707995
0001f0 8e 0c 23 bf b0 b0 8d bd 33 8b 56 bc 69 d9 75 3d
       -0.6369103 -0.06918466 -0.013094711 0.06002179

layers.4.weight f4 [2, 128]
000000 03 c3 27 3d 8b 23 1a bf ee fb ef 3e 6e 95 e0 be
       0.040957462 -0.60210484 0.46871895 -0.43864006
000010 14 a1 91 bc 4b df ad bf 4a f7 03 3f f1 ef 0d bd
       -0.017777003 -1.3583769 0.5154921 -0.034652654
000020 b5 59 2d bf 0f 10 e3 3e 86 ee 36 bf cc 61 c6 3c
       -0.6771501 0.4434819 -0.7145771 0.024216555
000030 ed 9a b3 bd 39 84 39 3e 00 4d 24 ba 48 02 d9 bc
       -0.08769784 0.18116845 -0.00062675774 -0.026490346
000040 1e 91 0f bd dc f9 e7 3e 6c 21 a5 be 63 cf b9 be
       -0.035050504 0.45307815 -0.3225206 -0.36291036
000050 5b 4e 47 bc f3 d2 93 3d ce fd 8f bc bd 58 90 3c
       -0.0121646775 0.0721797 -0.017577078 0.017620439
000060 ea a6 d6 3e 50 ca b3 3b ed 1a 14 c0 9d 35 3e 3d
       0.4192422 0.005486764 -2.3141434 0.04643785
000070 f5 d7 ed bf ee a9 d9 3c db 5c 12 3d 18 56 ac bf
       -1.858153 0.026570287 0.035733085 -1.3463774
000080 70 43 be bb b8 14 ad 3e ac cb 56 bd 00 e6 8c 3d
       -0.005806379 0.3380487 -0.05244033 0.068798065
000090 f2 d5 90 3e aa 98 26 3e 68 e8 b2 be 6a 2e 0c 3e
       0.28288227 0.16269174 -0.34942937 0.1368958
0000a0 61 05 9a 3c db 97 0b 3f 8a c6 c8 3d e3 45 2f 3d
       0.018801393 0.5452859 0.09803493 0.04279126
0000b0 26 76 e5 be b9 33 da 3c d0 57 42 bd 51 a6 55 3e
       -0.44816703 0.026635991 -0.047447026 0.20864226
0000c0 e5 20 a9 bd da 92 05 3d 86 b5 39 3e c2 f2 4b 3d
       -0.08258227 0.03261075 0.18135652 0.04979206
0000d0 e1 ef 85 3e e0 e9 c8 3e dd 21 04 bf c0 e0 43 bc
       0.26159576 0.39240932 -0.5161417 -0.01195544
0000e0 29 a6 36 c0 bd 83 c0 bf 9c ad a0 bd 9a e4 f3 3e
       -2.8538916 -1.5040203 -0.07845613 0.47635347
0000f0 cb 9c d5 be 83 d4 1b 3e 26 2d 8c 3e 3f f6 17 be
       -0.41721186 0.15217786 0.27378196 -0.14840029
000100 db b3 6d 3e 25 7f b8 bf 18 5e e7 3c 78 85 aa 3e
       0.2321314 -1.4413801 0.02824311 0.33304954
000110 b9 39 85 3e ae 60 10 3f dc ad c2 3e 4d 89 dc be
       0.260206 0.5639752 0.3802327 -0.43073502
000120 b0 ef af 3b 47 9c 56 bf 52 a5 ac bd c1 22 01 bc
       0.005369149 -0.8383221 -0.0842997 -0.007881821
000130 9f 3b 7b bc cd 98 be 3d b1 d4 3e bd 7b 4a 57 bd
       -0.015334039 0.09306488 -0.046589557 -0.052561264
000140 a4 64 cc be b5 73 ff bf 82 0b 98 3e 96 2e 0b 3d
       -0.39920533 -1.9957186 0.2969628 0.033979975
000150 64 0a 9e 3e cc b5 7a bf 45 9d 6b bf fd 27 9d 3e
       0.30867302 -0.9793365 -0.9203685 0.3069457
000160 86 e9 9c 3e a3 21 e0 3e 6a 85 19 3d 4e cd 03 3f
       0.30646914 0.43775663 0.03748075 0.51485145
000170 94 82 e5 3e b5 ee bf be bf ea ed 3e b4 8d 3a bf
       0.44826186 -0.37486807 0.4646816 -0.7287247
000180 be 9c 35 3d a0 5c bf bf 7a d6 a1 bb 2a 58 1b 3f
       0.044338934 -1.4950142 -0.0049388977 0.606814
000190 f5 ef 75 bf 6b 77 00 3d 62 76 15 3e 3f 8f bc be
       -0.9606927 0.031363886 0.1459594 -0.36828038
0001a0 c3 ce 84 3e cf 38 6d bf 9d 33 23 3f 00 e8 ab 3e
       0.25938997 -0.9266481 0.6375063 0.3357544
0001b0 a8 71 42 bf 10 c6 eb bc b8 c4 90 3e b5 02 0e 3f
       -0.75954676 -0.028780967 0.28275084 0.5547288
0001c0 6d bc b4 bd 41 c7 2b bf 66 34 6c 3d ac 5a b9 3e
       -0.08825002 -0.6710091 0.05766716 0.3620199
0001d0 04 ad dc 3c ab 34 b2 be 65 9b 42 c0 f0 9c bd bf
       0.026937969 -0.34805807 -3.0407345 -1.4813519
0001e0 ac f3 ab bd c6 97 00 3f 58 b0 e0 3e a6 48 75 3d
       -0.08396086 0.5023159 0.4388454 0.059883736
0001f0 2e c2 8a bf e6 df 9e bf fc 89 dc 3b 33 98 dd 3c
       -1.0840509 -1.2412078 0.006730316 0.027050113
000200 c0 cb c4 3f e1 c7 e7 bf a5 7a 9c 3e d3 45 2c c0
       1.537468 -1.8107873 0.3056232 -2.6917617
000210 94 94 c6 3c ff 0c b8 bf 21 4e b1 3e a7 0e 85 bd
       0.02424077 -1.4378966 0.3462992 -0.06496935
000220 5f 08 0b 3f de 24 17 bf 1d be 23 c0 12 9f f2 3c
       0.5430965 -0.5904063 -2.5584786 0.029616866
000230 8b 5b 0f 3c 45 79 f4 3c 22 46 b2 3c f7 7a 8c bc
       0.008749853 0.029842982 0.021761958 -0.017148478
000240 82 e5 78 bc 14 fa 87 3e 70 ec 69 3f a0 df 69 3f
       -0.015191438 0.26557982 0.913764 0.9135685
000250 82 da 01 bd f4 c7 c6 3c 6f 76 8c bd 24 ab 8d bd
       -0.031702526 0.024265267 -0.06858527 -0.06917408
000260 a1 5d b5 3e 27 6c 4d be e2 a4 4e bf 27 5d 61 bd
       0.35422996 -0.20060788 -0.8072034 -0.055020478
000270 69 c1 b7 bf 62 0b 24 3d 5e 24 45 3f ae cc 52 3f
       -1.4355899 0.040049918 0.77008617 0.82343566
000280 d1 c5 e3 3c 9d 9e c6 be 0e 16 28 bd e6 c1 9b 3f
       0.027804287 -0.38792887 -0.041036658 1.2168548
000290 56 e5 01 3f 06 27 8d 3c 0c d8 78 3f 8d e6 fe 3e
       0.50740564 0.017230522 0.9720466 0.4978527
0002a0 fe 2b a3 bb 92 8e 63 be 1e 5d 9a 3f 9d c0 8c bc
       -0.0049796095 -0.22222355 1.2059667 -0.017181689
0002b0 52 48 2f c0 c1 8a 87 bc b8 da 4c 3b d4 0a 6c be
       -2.738789 -0.016545655 0.0031258296 -0.23051006
0002c0 34 67 6c 3f 28 db 15 bc a5 25 23 3f 6a 9f 41 3d
       0.92344975 -0.009146489 0.63729316 0.04727117
0002d0 d4 8c 01 3f b3 8a 26 be a0 18 60 bf ef f6 1c 3b
       0.5060551 -0.16263847 -0.87537575 0.0023950895
0002e0 26 d3 7f bf f3 ad ad bf c5 12 4a 3d 27 a3 d9 3e
       -0.9993156 -1.356871 0.049334306 0.42507288
0002f0 90 08 fe be 4d 55 62 bf 25 28 ff 3e 3a f0 ff 3d
       -0.49615908 -0.8841141 0.49835315 0.124969915
000300 3a db fe 3e e2 31 2a bf 6a 56 d0 bc dc 01 15 bf
       0.49776632 -0.66482365 -0.02543183 -0.5820596
000310 c8 a8 41 bf 21 e2 05 40 11 b1 03 3f 4e 92 57 bf
       -0.75648165 2.0919268 0.51442057 -0.8420762
000320 37 3e a2 bd 54 13 44 bf f0 46 7f 3c 1f bd 14 3f
       -0.07922023 -0.7659199 0.015580878 0.58101076
000330 b0 f0 48 bf 37 7a 94 bd 65 48 88 bd 35 18 ac 3f
       -0.7849226 -0.07249873 -0.06654433 1.3444887
000340 0e 66 1e bf 8e ed c5 be 7a a5 00 3f 17 83 10 bd
       -0.61874473 -0.38657802 0.502525 -0.035281267
000350 4e 07 22 bf 29 8c 2a c0 5a 94 24 c0 08 38 f3 3e
       -0.63292396 -2.6648047 -2.5715547 0.47503686
000360 36 f1 fb 3e ec d3 bb 3e 17 ac 63 3c 71 17 b1 3e
       0.49207467 0.3668512 0.01389601 0.34588197
000370 22 bd d8 3e 4d fa 51 3d 9b 7d f2 3e bc a1 90 3e
       0.42331797 0.051264096 0.47361454 0.28248394
000380 1f a6 b4 3c 27 25 3a bf f1 20 01 bd b8 ac 98 be
       0.022051869 -0.7271294 -0.031525556 -0.29819274
000390 aa 8a c9 bf 89 d2 5f bd f5 3d a5 3b 46 61 9f 3f
       -1.5745442 -0.05464414 0.0050427862 1.245156
0003a0 4d 1c dd 3e b3 f4 85 bf 15 f0 82 3e 45 e0 8a bf
       0.43185654 -1.0465301 0.25573793 -1.0849692
0003b0 d3 21 49 bf 5a 0c 7f bc 07 c0 f9 3e 31 1c 21 3f
       -0.78567237 -0.01556691 0.48779318 0.6293364
0003c0 c0 85 7d bd 75 ce b1 be a5 8e 3b 3d 7a 4d d2 3e
       -0.061895132 -0.34727827 0.045790333 0.41074735
0003d0 ad 16 81 3d ee 71 21 bf 6f 61 bd bf d9 18 a0 be
       0.06303153 -0.6306447 -1.4795359 -0.31268957
0003e0 0c 97 1f 3d ed 9b a9 3e c4 c6 cc 3e 5a 15 dd bc
       0.03896241 0.33126774 0.39995396 -0.02698772
0003f0 9a b1 b2 bf cf 12 0b 3f 92 1a 5e 3c 33 9f 15 3f
       -1.396045 0.54325575 0.01355614 0.58446044

layers.4.bias f4 [2]
000000 f1 a9 d9 3e 6f 3f 88 3e
       0.42512468 0.26610896
