OS/ddqn_models/inv/ddqn_500_1.0.pth (torch_old, 69813 bytes, 6 tensors)

layers.0.weight f4 [128, 2]
0	0xbeaae060	-0.3337431
1	0xbf2aeead	-0.6677044
2	0x3f6a782b	0.9158961
3	0xbfb401dc	-1.4063067
4	0x3d9b64e8	0.07587606
5	0xbe179960	-0.14804602
6	0x3f875921	1.0574075
7	0x3f0edb6c	0.5580356
8	0x3f8bf7c5	1.0934988
9	0x3ec19665	0.37810054
10	0xbe0e7f04	-0.1391564
11	0xbdf14d74	-0.11782351
12	0xbdb819ff	-0.08989333
13	0x3e2b3cd1	0.16722418
14	0x3f0344ee	0.51277053
15	0x3f9d778e	1.230211
16	0xbf55acb7	-0.83466667
17	0xbbb76f5c	-0.005597992
18	0xbfaa927c	-1.3325953
19	0xbf8356d2	-1.026087
20	0xbfcabad4	-1.5838265
21	0x3ec2185a	0.37909204
22	0xbec77ba8	-0.3896153
23	0x3cc46a51	0.023976477
24	0xbc3d7455	-0.01156338
25	0x3eff30e3	0.49841985
26	0xbf472278	-0.7778697
27	0xbeffa65d	-0.49931613
28	0xbfbd598e	-1.4792955
29	0x3de39460	0.11112285
30	0x3f362ab8	0.71158934
31	0x3f93e494	1.1554132
32	0x3f6fe66b	0.93710965
33	0x3fb2200a	1.3916028
34	0xbbac7b80	-0.005263746
35	0xbe0f2300	-0.13978195
36	0x3ddb2482	0.10700323
37	0xbd8a3f67	-0.06750374
38	0x3e60d8b0	0.2195766
39	0x3d8c5b91	0.068534024
40	0xbe932234	-0.28737032
41	0xbf4fefc6	-0.8122524
42	0x3f1ac05e	0.6044978
43	0xbf098178	-0.5371318
44	0xbec70777	-0.38872883
45	0x3ef2d437	0.47427532
46	0x3ea0fac8	0.3144133
47	0x3dd216df	0.102582686
48	0xbe81c365	-0.25344387
49	0x3fb67a99	1.4256164
50	0xbf122dd5	-0.57101184
51	0xbed84730	-0.42241812
52	0xbda65e66	-0.08123474
53	0xbf0f586d	-0.559943
54	0x3e82f70d	0.2557911
55	0x3f54c5b2	0.8311416
56	0xbd89e210	-0.06732571
57	0x3f0e5650	0.5560045
58	0x3f891437	1.0709294
59	0xbceeca4e	-0.0291492
60	0xbebf47f3	-0.3735958
61	0xbed12c2c	-0.40854013
62	0xbea778cd	-0.3270935
63	0x3e42020f	0.18946098
64	0x3f5d04a3	0.863352
65	0x3f91351a	1.134433
66	0xbea0c93d	-0.31403533
67	0x3cc4073a	0.023929227
68	0xbebeb45f	-0.37246987
69	0xbf721105	-0.9455722
70	0x3f633de4	0.8876631
71	0xbe0ef895	-0.13962014
72	0x3c1fac80	0.009745717
73	0xbdf635e8	-0.120220006
74	0xbfa95ce1	-1.3231469
75	0xbe8c1ffc	-0.27368152
76	0x3f0b5971	0.5443335
77	0xbeefef77	-0.46862385
78	0xbeb37cff	-0.35056302
79	0xbe39954a	-0.18123356
80	0xbdab47c8	-0.083633006
81	0x3e85a7eb	0.26104674
82	0xbf12d676	-0.5735849
83	0xbf4c8060	-0.79883385
84	0xbdacd497	-0.08438986
85	0x3e06dd4d	0.13170357
86	0x3ef962ac	0.48708093
87	0x3f92922c	1.1450858
88	0x3eb86361	0.3601332
89	0xbdd80cbf	-0.10549306
90	0xbcb4ee0f	-0.022086171
91	0x3e1dec66	0.1542221
92	0x3f417967	0.7557587
93	0x3e67509b	0.22589342
94	0xbf248b8c	-0.6427543
95	0xbf18e849	-0.5972944
96	0xbfa1bb03	-1.2635196
97	0x3eb05d94	0.34446394
98	0xbf1e0c1c	-0.6173723
99	0xbf8e65f7	-1.1124867
100	0x3f8fbc22	1.1229289
101	0xbfabf536	-1.3434207
102	0x3b2c5d8d	0.0026300878
103	0x3e776255	0.24158604
104	0x3e86c636	0.26323098
105	0xbdcf36ea	-0.10117896
106	0xbc0df87b	-0.008665199
107	0x3f8522c8	1.0401239
108	0x3f0b7f6c	0.54491305
109	0x3f18fb11	0.59758097
110	0x3d7fa2d3	0.06241114
111	0x3e5968a7	0.21231328
112	0xbf462ebc	-0.7741506
113	0xbc8efa61	-0.017453374
114	0xbfa65957	-1.2996014
115	0xbe841fc6	-0.2580549
116	0x3f4028c8	0.7506223
117	0x3ed2f81c	0.41204917
118	0xbf1a4243	-0.6025736
119	0xbf8d62eb	-1.1045812
120	0x3f0f1b9a	0.5590149
121	0xbee58292	-0.4482618
122	0x3e5c25c3	0.2149878
123	0xbeb6e19e	-0.35719007
124	0xbd9c781d	-0.07640097
125	0x3e856356	0.2605235
126	0xbfa75737	-1.3073491
127	0xbeaba636	-0.33525246
128	0x3edd125e	0.43178076
129	0xbf991e08	-1.196229
130	0xbf2579f5	-0.64639217
131	0x3ec64045	0.3872091
132	0x3df5e63d	0.12006805
133	0xbdf976be	-0.121808514
134	0xbeb2d8d8	-0.34931064
135	0xbf264288	-0.6494527
136	0x3f339480	0.7014847
137	0x3e534587	0.20631991
138	0x3ddea150	0.10870612
139	0x3e8c57e0	0.27410793
140	0xbe87e4f1	-0.26541856
141	0x3d2e1ae2	0.042506106
142	0x3ea67624	0.3251201
143	0xbd2b8067	-0.0418705
144	0x3e83a96a	0.2571519
145	0x3e328080	0.17431831
146	0xbfaaecf7	-1.3353566
147	0xbef5af0c	-0.47985113
148	0x3f89410e	1.0722978
149	0x3fd1b279	1.638259
150	0x3f59a5cc	0.8501861
151	0x3cf08700	0.029361248
152	0x3f4d0ddb	0.80099267
153	0xbf9336ee	-1.1501138
154	0xbf2bda7e	-0.6713027
155	0xbf97f36a	-1.1871159
156	0xbe80f70c	-0.25188482
157	0x3fa25f06	1.2685249
158	0xbdc0681c	-0.09394857
159	0x3e844387	0.2583277
160	0xbe65cbba	-0.22440997
161	0x3fa10968	1.2580996
162	0xbe85f9f9	-0.26167277
163	0x3fe7242a	1.8057911
164	0xbeac1597	-0.33610222
165	0xbed59919	-0.41718367
166	0x3f53c67e	0.8272475
167	0x3f32d5c2	0.6985742
168	0xbf65ce22	-0.8976766
169	0x3e874c7d	0.26425543
170	0x3fd23ad7	1.6424206
171	0x3f50cec5	0.81565505
172	0xbcd90948	-0.026493683
173	0x3e84aa92	0.25911385
174	0xbcd37a74	-0.025815226
175	0x3f467cb0	0.7753401
176	0xbd108584	-0.03528358
177	0x3e562444	0.20912272
178	0xbef1d3a5	-0.47231784
179	0x3f870d83	1.0550998
180	0xbda150b0	-0.07876718
181	0x3d542413	0.051792216
182	0xbfa3f9d2	-1.2810614
183	0xbd164983	-0.0366912
184	0xbf2fc340	-0.686573
185	0xbfa0eb53	-1.2571815
186	0xbfcdd322	-1.6080058
187	0x3f296802	0.6617433
188	0x3eb73b93	0.3578764
189	0x3f04fac0	0.51945114
190	0x3f2e76ff	0.68150324
191	0xbf85c917	-1.0451993
192	0xbfbe22dc	-1.4854388
193	0xbeb9930f	-0.3624501
194	0xbf4273ce	-0.75957954
195	0x3c80f460	0.015741527
196	0xbe90423f	-0.28175542
197	0xbf507be2	-0.8143903
198	0xbf5cba57	-0.8622183
199	0xbf0dd61a	-0.5540482
200	0x3f5597f8	0.8343501
201	0x3f9ddaac	1.2332358
202	0x3f45cfbc	0.772701
203	0x3fa03f8a	1.251939
204	0x3f589e25	0.8461631
205	0x3e162f0d	0.14666386
206	0x3f85a5d2	1.0441229
207	0x3fee16aa	1.8600667
208	0xbdf80323	-0.12109973
209	0x3fc37f65	1.5273253
210	0x3f35e909	0.7105871
211	0x3f8ea16c	1.1143012
212	0xbeba437b	-0.3637961
213	0x3e52648b	0.20546167
214	0x3e036101	0.12829973
215	0xbf34e340	-0.70659256
216	0xbf5646e9	-0.8370195
217	0xbf7b9025	-0.9826682
218	0x3ee41dc2	0.44553953
219	0x3f508b6f	0.8146276
220	0x3f9df027	1.2338914
221	0xbe9aab1f	-0.3020868
222	0xbf73b1e6	-0.95193326
223	0x3e86c682	0.26323324
224	0x3fb5677c	1.4172206
225	0x3eac8e02	0.33702093
226	0xbd4fb202	-0.05070687
227	0x3ed1a5c3	0.4094678
228	0x3f648919	0.89271694
229	0xbf6e1edf	-0.93015856
230	0x3fcbad46	1.5912254
231	0x3fb7105c	1.4301867
232	0xbfaeb6bc	-1.3649516
233	0x3dbdeb7f	0.09273433
234	0xbef8aa40	-0.4856739
235	0x3d1641d6	0.03668388
236	0x3f5b9da2	0.85787404
237	0x3e2d2f1e	0.16912505
238	0xbf92ecb6	-1.1478488
239	0xbf1c41ac	-0.6103771
240	0xbe9f8984	-0.31159604
241	0xbe254542	-0.16139701
242	0xbe601815	-0.21884187
243	0x3ee2b6f1	0.44280198
244	0x3de993a8	0.11405116
245	0xbf4924fc	-0.7857206
246	0xbbe5087d	-0.0069895373
247	0x3f39c653	0.72568244
248	0x3f3ef73d	0.74596006
249	0xbf3827a0	-0.7193546
250	0xbee7458f	-0.45170256
251	0xbf580476	-0.84381807
252	0x3c894393	0.016755855
253	0x3e78bcd2	0.24290779
254	0x3d398564	0.045293227
255	0x3ea33e2b	0.31883368

layers.0.bias f4 [128]
0	0x3f6c09eb	0.92202634
1	0x3e16d562	0.14729837
2	0xbef14b58	-0.47127795
3	0xbf760380	-0.9609909
4	0xbf7c2732	-0.9849731
5	0xbf11e68a	-0.569924
6	0x3f177d3c	0.5917547
7	0xbf75e234	-0.96048284
8	0xbfbb0812	-1.4611838
9	0xbd214ff8	-0.039382905
10	0xbde53542	-0.11191799
11	0x3f65ce1c	0.8976762
12	0xbf8581c9	-1.0430232
13	0x3f46da7d	0.77677137
14	0xbea8b1c7	-0.32948133
15	0x3dfef49f	0.124490015
16	0x3d7c5f3f	0.06161427
17	0xbf233a85	-0.6376117
18	0x3f69b694	0.9129422
19	0x3f430aca	0.7618834
20	0x3f6efae4	0.9335158
21	0x3f0c9499	0.5491424
22	0xbfb00a57	-1.3753155
23	0x3f79bbed	0.97552377
24	0xbd940b55	-0.07228724
25	0x3f066239	0.52493626
26	0xbf9d137e	-1.2271574
27	0xbf5695b4	-0.8382218
28	0xbf9c63c0	-1.2217941
29	0xbf56ec49	-0.8395429
30	0x3d134df9	0.035963032
31	0xbf821cf7	-1.0165089
32	0x3d9d05c4	0.07667115
33	0x3f3fe96f	0.74965566
34	0xbd67908a	-0.056534328
35	0xbfcbdcf1	-1.5926801
36	0xbf0c590d	-0.5482338
37	0xbea07f15	-0.31346956
38	0x3f169d31	0.58833605
39	0x3f8ed2de	1.1158102
40	0x3f3c928b	0.73661107
41	0xbed30d24	-0.41220963
42	0x3f040109	0.5156408
43	0xbf6a8831	-0.9161406
44	0xbf8700c7	-1.0547112
45	0x3f2db4e2	0.6785413
46	0xbfba5e49	-1.4560024
47	0x3ed7b61a	0.4213112
48	0xbf6041e7	-0.8760056
49	0xbef0eaee	-0.47054237
50	0xbe96bc32	-0.29440457
51	0x3f39bc46	0.7255291
52	0xbf2711f1	-0.6526175
53	0x3f3a0ce7	0.7267594
54	0x3f138278	0.57620955
55	0x3f3e4c29	0.7433496
56	0xbfa5b55f	-1.2945975
57	0xbe8c58de	-0.2741155
58	0xbf8b1282	-1.0865023
59	0xbd9a2fb4	-0.0752863
60	0x3f08f58c	0.53499675
61	0xbf8eb5de	-1.1149251
62	0x3f6b338f	0.9187555
63	0xbe7df6cc	-0.24801177
64	0xbf2a4c4c	-0.6652267
65	0xbf45e2ff	-0.77299494
66	0x3f783e9a	0.9697052
67	0x3f6efc93	0.9335415
68	0xbfad37f3	-1.3532699
69	0x3f73ed16	0.9528364
70	0x3f34d301	0.70634466
71	0x3f72ea61	0.94888884
72	0x3f79d3c9	0.97588784
73	0xbd11168b	-0.03542189
74	0x3e2bfe67	0.16796266
75	0x3ee5e59f	0.4490175
76	0x3d35cee5	0.044386763
77	0x3e854255	0.2602717
78	0xbe54a1a7	-0.2076479
79	0x3f3e8b62	0.7443143
80	0xbe533262	-0.20624688
81	0xbb20d606	-0.002454163
82	0x3e49f94d	0.19724007
83	0x3ef21e1d	0.472886
84	0xbfa0b28e	-1.255449
85	0x3ca636ed	0.020289863
86	0x3f275cb5	0.65375835
87	0xbf83b7b6	-1.0290439
88	0x3f12c1ad	0.57326776
89	0xbcafde41	-0.021468284
90	0x3ebbbf83	0.3666955
91	0xbf8a7de6	-1.0819671
92	0xbcaba242	-0.020951394
93	0xbedacec4	-0.42735875
94	0x3f68d9d9	0.9095741
95	0x3e00534b	0.12531774
96	0xbe76f771	-0.24117829
97	0xbfa9308c	-1.321794
98	0x3f6cd2c2	0.9250909
99	0x3f71659a	0.94295657
100	0xbf00573a	-0.501331
101	0xbf21cbe0	-0.63201714
102	0xbfc01d6b	-1.5008978
103	0x3de3f65f	0.11130976
104	0xbdcebe8a	-0.10094936
105	0xbe799cc5	-0.24376209
106	0xbf8b8325	-1.0899397
107	0x3e430aa8	0.19047034
108	0xbe77a8c9	-0.2418548
109	0x3df78ede	0.12087797
110	0xbea79340	-0.3272953
111	0xbf92ed28	-1.1478624
112	0xbd9b8065	-0.07592849
113	0x3f7430db	0.9538705
114	0xbeed57f1	-0.46356156
115	0x3dda4ad1	0.10658801
116	0xbead1f3a	-0.33812886
117	0x3f8b2ee2	1.0873682
118	0xbfc89c73	-1.5672745
119	0xbf88faa9	-1.0701495
120	0x3f814487	1.0099038
121	0xbfad5d71	-1.3544141
122	0x3dc3b204	0.09555438
123	0xbf6ee9d9	-0.93325573
124	0xbda61426	-0.08109312
125	0x3d34b7c5	0.04412057
126	0x3f50d3c8	0.8157315
127	0xbf4639a2	-0.7743169

layers.2.weight f4 [128, 128]
0	0xbe02a301	-0.12757494
1	0xbfb97a1b	-1.4490389
2	0xbcf6d694	-0.030131616
3	0xbf335feb	-0.70068234
4	0x3c84053f	0.016115783
5	0x3daaafcb	0.08334311
6	0x3e646b7a	0.22306624
7	0xbdefa002	-0.11700441
8	0xbdf5f60b	-0.120098196
9	0x3fd1e19b	1.6396974
10	0xbf277f7b	-0.65428895
11	0x3e425ea7	0.1898142
12	0xbe2b4e11	-0.16728999
13	0xbe4c4a96	-0.19950327
14	0xbeff3f27	-0.4985287
15	0x3f0c1318	0.54716635
16	0x3f1fb167	0.6238007
17	0xbda7df34	-0.081968695
18	0x3d89ca36	0.06728022
19	0x3e39ebee	0.18156406
20	0xbe2fe546	-0.17177305
21	0xbf0ebb60	-0.5575466
22	0x3eb56cec	0.35434663
23	0x3ddb5659	0.10709829
24	0x3ea7af69	0.32751015
25	0xbe502218	-0.20325506
26	0x3c925bf0	0.017866105
27	0xbf027917	-0.5096602
28	0x3d9aa608	0.07551199
29	0x3f12ec25	0.5739158
30	0xbf8e26a9	-1.1105548
31	0xbd1b9fa0	-0.037994027
32	0x3e360e12	0.17778805
33	0x3e549982	0.20761684
34	0x3f04e2d7	0.5190863
35	0xbe909d6f	-0.28245112
36	0xbd9c9f2a	-0.07647546
37	0xbf4547d2	-0.77062714
38	0xbe4d0ba1	-0.20023967
39	0x3e1eabb8	0.15495193
40	0x3e097a89	0.1342565
41	0xbfa18d18	-1.2621183
42	0x3e65ef35	0.22454531
43	0x3e68d643	0.22737984
44	0xbf239070	-0.6389227
45	0x3e0caf3e	0.13738725
46	0xbf9306de	-1.1486471
47	0xbe0cafd5	-0.1373895
48	0xbeff2166	-0.49830168
49	0xc0033c5c	-2.050559
50	0xc002bd11	-2.0427897
51	0x3e062e85	0.13103683
52	0xbf889289	-1.0669719
53	0x3e7be5ac	0.24599332
54	0x3e7f3a6c	0.2492463
55	0x3e7d5391	0.2473891
56	0xbf3ffa87	-0.7499165
57	0xbf8c771d	-1.097385
58	0x3f3f02ed	0.7461384
59	0x3fbfecba	1.4994118
60	0xbefadf3d	-0.48998442
61	0xbe8334bc	-0.2562617
62	0x3e45fbf1	0.1933439
63	0xbf9bcea6	-1.2172439
64	0xc057885f	-3.3676984
65	0xbd914ae2	-0.07094361
66	0x3de478fc	0.111558884
67	0xbe0cd17e	-0.1375179
68	0xc001a46e	-2.025661
69	0x3e63b1a1	0.22235729
70	0x3e631932	0.2217758
71	0x3ddf9c6b	0.10918506
72	0x3e172da6	0.14763507
73	0xbfa3f2c7	-1.2808465
74	0x3f0a3075	0.5398019
75	0x3e17775d	0.14791627
76	0xbeda4984	-0.42634213
77	0xbf487db8	-0.7831683
78	0x3d5ac5e8	0.053411394
79	0x3e87c8ff	0.26520535
80	0x3de306bc	0.11085269
81	0x3e109eff	0.14123152
82	0xbe9baafd	-0.3040389
83	0x3e76d9ce	0.24106523
84	0x3f1ff0e0	0.6247692
85	0x3f52c510	0.82331944
86	0x3e27cb1c	0.16386074
87	0x3e055f16	0.13024554
88	0x3e42e4d4	0.19032604
89	0x3edda0bf	0.43286702
90	0x3ea0fe48	0.31444
91	0x3d647792	0.055778094
92	0x404e0524	3.2190638
93	0xbf39b2c2	-0.7253839
94	0x3e16d1ce	0.14728472
95	0xbfcf2825	-1.6184126
96	0xbf53a1ef	-0.82668966
97	0x3d56e7ab	0.05246703
98	0xbe3e244d	-0.18568535
99	0xbdb85e4b	-0.0900236
100	0xbe035c32	-0.12828138
101	0xbe4c7110	-0.19965005
102	0xbf779d5f	-0.96724504
103	0x3f0a5578	0.54036665
104	0x3f11d73a	0.56969035
105	0xbcdd24f3	-0.026995158
106	0xbeb2687b	-0.34845337
107	0xbe7b6244	-0.24549204
108	0x3f24c2e9	0.6435991
109	0x3d99e0a2	0.075135484
110	0xbf904ddd	-1.1273762
111	0x3f2b9a13	0.67031974
112	0xbf72d380	-0.94853973
113	0x3e9d4724	0.30718338
114	0xbfad17f5	-1.3522936
115	0x3f783959	0.96962506
116	0xbf0b692e	-0.54457366
117	0x3e131202	0.14362338
118	0xbfa2bd02	-1.2713931
119	0xbfb3839f	-1.4024543
120	0x3e494ef8	0.1965903
121	0x3e778529	0.2417189
122	0xbf2b0186	-0.667992
123	0xbe898065	-0.2685577
124	0xc007a277	-2.119291
125	0x3fe235e5	1.7672697
126	0x3e33c022	0.17553762
127	0xbe88dc62	-0.2673064
128	0xc0115975	-2.271085
129	0x3c82ed92	0.015982423
130	0x3d116e42	0.03550554
131	0x3f298780	0.6622238
132	0x3f2425e7	0.64120334
133	0x3dab740f	0.08371746
134	0xbf5ce1f1	-0.8628226
135	0x3ef76561	0.48319533
136	0xbc3cede1	-0.011531324
137	0x3f238ea0	0.63889503
138	0xbf3b7da3	-0.7323858
139	0xc043d67b	-3.0599658
140	0x3f689c25	0.9086326
141	0xbfb9df68	-1.4521303
142	0xbedc8970	-0.43073606
143	0xbe6e7fa7	-0.23290883
144	0x3f1ea214	0.6196606
145	0xbc1c9820	-0.009557754
146	0xbef0e627	-0.47050592
147	0xbe3c65c1	-0.18398191
148	0xc0455af8	-3.0836773
149	0x3e258526	0.16164073
150	0x3f080fd3	0.53149146
151	0xbea19861	-0.31561568
152	0xbfb16415	-1.3858668
153	0xbf013f1a	-0.5048691
154	0x3f872f1d	1.0561253
155	0x3f0969d6	0.5367712
156	0x3ee4cd20	0.44687748
157	0x3e99e497	0.30057213
158	0xbf350f68	-0.70726633
159	0x3edb1d69	0.42795876
160	0x3ebd3fc5	0.36962715
161	0xc01f68e0	-2.490776
162	0xbf569101	-0.8381501
163	0x3ebe1c31	0.37130883
164	0xbd4ed9f7	-0.050500836
165	0xbe82c835	-0.2554337
166	0x3e823fc3	0.2543927
167	0xbff10588	-1.8829813
168	0xbf51bd92	-0.81929886
169	0x3b28876f	0.002571549
170	0xbf6820e9	-0.90675217
171	0x3f371560	0.7151699
172	0x3ee5fa29	0.4491742
173	0xbf337c83	-0.70111865
174	0x404f792a	3.2417703
175	0xbf1fa212	-0.62356675
176	0xbd23053a	-0.039799906
177	0x3d136349	0.035983358
178	0x3e8fa607	0.28056356
179	0xbf19f419	-0.6013809
180	0xbdc2696a	-0.094927624
181	0xbf300087	-0.68750805
182	0xbdaf9c83	-0.08574774
183	0xbf16405e	-0.58691967
184	0xbea9180b	-0.33026156
185	0xbd550505	-0.05200674
186	0x3d8101fd	0.06299207
187	0xbe13ae69	-0.14422001
188	0x3dcbd6fd	0.09953115
189	0x3f157c72	0.58393013
190	0xbf5d10d1	-0.86353785
191	0xbe0404bf	-0.12892435
192	0xbf658697	-0.8965849
193	0xbf756792	-0.9586116
194	0xbeea1164	-0.45716393
195	0xc04a813e	-3.1641383
196	0x4037392d	2.8628647
197	0xbe95e7f0	-0.29278517
198	0xc00ab546	-2.167314
199	0xbe584d27	-0.21123181
200	0xbea70ac6	-0.32625407
201	0x3ec16c6a	0.37778026
202	0x3e9727c3	0.29522523
203	0x3ec1ffb7	0.37890407
204	0x3e125943	0.14291863
205	0xbf6937d9	-0.9110084
206	0xbd7741e5	-0.060365576
207	0xbf4f1f9b	-0.809076
208	0x3cb7a878	0.0224192
209	0x3cc2c2b3	0.02377448
210	0xbf09f45f	-0.53888506
211	0x3e63fe18	0.22264898
212	0x3df17dc3	0.11791565
213	0x3f3e9224	0.7444174
214	0xbf37a57c	-0.71736884
215	0xbef0282b	-0.46905646
216	0xbed77293	-0.420796
217	0xbf5ebb5d	-0.87004644
218	0xbf51fcb0	-0.82026196
219	0x3c485cec	0.012229186
220	0x3c7e97ca	0.015539119
221	0xbed89c7a	-0.42306882
222	0xbe43560c	-0.19075793
223	0x3e3c8a9d	0.18412252
224	0x3dd8ddb6	0.10589163
225	0x3e604de2	0.2190471
226	0xc041a994	-3.0259752
227	0xbfd56b0c	-1.6673293
228	0x3f1067d9	0.5640846
229	0x3f320b24	0.6954825
230	0x4011e14d	2.2793763
231	0x3f058bd2	0.52166474
232	0xbe3f4e9a	-0.18682328
233	0x3f0d2ca8	0.55146265
234	0x3ee668a7	0.45001718
235	0xc00766ec	-2.1156569
236	0x3f00a80c	0.5025642
237	0xbf04c1d5	-0.51858264
238	0x3f0d25f4	0.55136037
239	0x3e1c9885	0.15292557
240	0x3f0c51e5	0.5481246
241	0xbf320a0e	-0.6954659
242	0x3d1a2df2	0.037641473
243	0x3f21f449	0.63263375
244	0xbeeece0b	-0.46641573
245	0xc04e3254	-3.2218218
246	0x405deefc	3.4677114
247	0x3e5bb168	0.21454394
248	0xbfe446f6	-1.7834156
249	0x3f0e3ba3	0.5555975
250	0xbffba1a3	-1.9658703
251	0xbeb06da7	-0.34458658
252	0xbea1a9b9	-0.315748
253	0xbefd6a2c	-0.49495065
254	0xbf1ee3c8	-0.62066317
255	0xbf06fdf7	-0.5273127

layers.2.bias f4 [128]
0	0x3e0348e9	0.12820782
1	0xbf466ca1	-0.77509505
2	0x3ed83456	0.4222743
3	0xbf1fbf69	-0.62401444
4	0x3d3e02fe	0.046389572
5	0xbeafdf35	-0.3434998
6	0x3e6744bd	0.22584815
7	0x3ccc4741	0.02493632
8	0xbea137d2	-0.314879
9	0x3dcecec5	0.10098032
10	0xbf497b3d	-0.7870367
11	0xbdf57784	-0.119856864
12	0xbdc73e78	-0.09728712
13	0xbe4dc1bb	-0.20093434
14	0xbdab81c7	-0.083743624
15	0x3c9313d9	0.0179538
16	0x3d56d2be	0.052447073
17	0x3ee475c3	0.44621095
18	0xbe643d92	-0.22289112
19	0xbe87231e	-0.2639398
20	0x3c98d904	0.018658169
21	0x3ce054e8	0.027384236
22	0xbddc6e12	-0.10763182
23	0xbd04563c	-0.032308802
24	0x3ed185fb	0.4092253
25	0x3d067f3a	0.032836176
26	0xbebe48f8	-0.37165046
27	0xbd1c141c	-0.038105115
28	0xbf219534	-0.6311829
29	0x3d12bea1	0.03582633
30	0x3e375fa5	0.17907579
31	0xbf21707c	-0.6306226
32	0x3db37417	0.08762377
33	0xbe26305b	-0.16229384
34	0xbd21980b	-0.03945164
35	0xbe4d7b08	-0.20066464
36	0x3ed20070	0.4101596
37	0xbe41ae3d	-0.18914123
38	0x3c8e60b5	0.017380098
39	0x3e1cf8fb	0.15329354
40	0xbd3d2f36	-0.046187602
41	0x3ecab76a	0.3959306
42	0x3d10796d	0.03527205
43	0xbd8f4ee7	-0.06997471
44	0xbf186127	-0.5952324
45	0x3ce1509f	0.027504263
46	0xbcff1d1e	-0.031141814
47	0x3d83a895	0.06428639
48	0xbeb38e00	-0.35069275
49	0xbae926b0	-0.0017788019
50	0x3e999715	0.2999808
51	0x3cc3c644	0.023898251
52	0x3eaf4436	0.34231728
53	0x3e1b02a3	0.15137725
54	0xbf37fe76	-0.7187265
55	0xbd13271e	-0.035925977
56	0xbf162b50	-0.5865984
57	0xbf334939	-0.70033604
58	0x3c09256f	0.008370741
59	0x3edd8002	0.43261725
60	0xbf08b4e7	-0.53401035
61	0x3c1396ce	0.009008123
62	0x3ec75739	0.38933733
63	0xbd3d5cc5	-0.04623105
64	0x3ebda04d	0.37036362
65	0xbf2f4e6b	-0.6847903
66	0xbc5f53da	-0.013630832
67	0xbe2d54f9	-0.16926946
68	0x3c31e7ee	0.010858519
69	0xbe06fc15	-0.13182099
70	0x3eab7454	0.3348719
71	0xbf3a8ba0	-0.728693
72	0xbd827258	-0.063694656
73	0xbf0c5265	-0.54813224
74	0xbd43f1d0	-0.047838032
75	0xbda7cea7	-0.08193713
76	0xbf6d9b67	-0.9281525
77	0xbda28fe1	-0.07937599
78	0x3ce81e75	0.028334836
79	0x3dbb436f	0.09143721
80	0xbec82206	-0.39088458
81	0xbee03540	-0.43790627
82	0x3ea80fe2	0.32824618
83	0xbb97ec78	-0.0046363436
84	0xbe8edd34	-0.2790314
85	0xbf6505df	-0.89462084
86	0xbf5244b2	-0.8213607
87	0x3ee0bc55	0.43893686
88	0x3ee66dc5	0.45005623
89	0x3edc75aa	0.4305852
90	0x3d1c8d20	0.038220525
91	0x3eb29cf6	0.34885377
92	0x3eebe18e	0.46070522
93	0xbe9ae1b9	-0.30250338
94	0x3ee39621	0.44450477
95	0xbf1c0f8b	-0.60961217
96	0xbcd58a8c	-0.02606704
97	0xbf470a88	-0.77750444
98	0xbd75797a	-0.059930302
99	0x3e802049	0.25024632
100	0xbf352b06	-0.70768774
101	0xbdae829e	-0.08521007
102	0xbe4a4f84	-0.19756895
103	0xbf231cc0	-0.63715744
104	0x3df17115	0.11789147
105	0xbf26771a	-0.65025485
106	0x3e8ecbb5	0.2788979
107	0xbe8da86c	-0.27667558
108	0xbf0a1f4c	-0.53954005
109	0xbd9e33f1	-0.07724751
110	0x3eb1a9e1	0.3469992
111	0x3e9c49ca	0.30525047
112	0x3a040780	0.0005036518
113	0xbf16d0c4	-0.589123
114	0xbd1a3add	-0.037653793
115	0x3ef1fe46	0.47264308
116	0xbdaffc2c	-0.0859302
117	0xbeb77ef6	-0.3583905
118	0xbf3c71b7	-0.73611015
119	0xbea7c452	-0.32766968
120	0xbd075325	-0.033038277
121	0x3eb15838	0.34637618
122	0x3eb2afd6	0.34899777
123	0xbcc48d4b	-0.023993155
124	0xbf230c8e	-0.6369103
125	0xbd92bdfd	-0.07165144
126	0xbc568b33	-0.013094711
127	0x3defe6cc	0.11713943

layers.4.weight f4 [2, 128]
0	0x3c6355e2	0.0138754565
1	0xbf1a238b	-0.60210484
2	0x3eebdbaa	0.46066028
3	0xbebd9386	-0.37026614
4	0xbc91a114	-0.017777003
5	0xbf8ec296	-1.1153133
6	0x3efdf1f4	0.49598658
7	0xbd0deff1	-0.034652654
8	0xbf2d59b5	-0.6771501
9	0x3ee8e16f	0.45484492
10	0xbf1a75e9	-0.60336167
11	0x3cc661cc	0.024216555
12	0xbdb39aed	-0.08769784
13	0x3e398439	0.18116845
14	0xba244d00	-0.00062675774
15	0xbcd90248	-0.026490346
16	0xbd0f911e	-0.035050504
17	0x3ee3a60d	0.44462624
18	0xbea5216c	-0.3225206
19	0xbeb9cf63	-0.36291036
20	0xbd64d4e4	-0.05586709
21	0x3d93d2f3	0.0721797
22	0xbc8ffdce	-0.017577078
23	0x3c9058bd	0.017620439
24	0x3ed2e193	0.41187724
25	0x3bb3ca50	0.005486764
26	0xc010c2cb	-2.2618892
27	0x3d3e359d	0.04643785
28	0xbfedd7f5	-1.858153
29	0x3cd9a9ee	0.026570287
30	0x3cf3de16	0.029768985
31	0xbfb7bd4f	-1.4354647
32	0xbbbe4370	-0.005806379
33	0x3ebf516b	0.37366804
34	0xbd56cbac	-0.05244033
35	0x3d8ce600	0.068798065
36	0x3e8c929d	0.27455607
37	0x3e2698aa	0.16269174
38	0x3c047679	0.008084887
39	0x3e1dfb78	0.15427959
40	0x3c9a0561	0.018801393
41	0x3f05bf9a	0.52245486
42	0x3d21f955	0.039544422
43	0x3d2f45e3	0.04279126
44	0xbec49a4b	-0.38398966
45	0x3cda33b9	0.026635991
46	0xbd4257d0	-0.047447026
47	0x3e794f99	0.2434677
48	0xbda920e5	-0.08258227
49	0x3d0592da	0.03261075
50	0x3e3f15de	0.18660685
51	0x3d4bf2c2	0.04979206
52	0x3e82e3e2	0.25564486
53	0x3ec28412	0.37991387
54	0xbecdb431	-0.40176538
55	0xbc43e0c0	-0.01195544
56	0xc0000775	-2.0004551
57	0xbfc083bd	-1.5040203
58	0xbda0ad9c	-0.07845613
59	0x3eee0e39	0.46495226
60	0xbedd9312	-0.43276268
61	0x3e595915	0.21225388
62	0x3e893e21	0.26805213
63	0xbe17f63f	-0.14840029
64	0x3e689b3e	0.2271547
65	0xbfb87f25	-1.4413801
66	0x3ce75e18	0.02824311
67	0x3eaa8578	0.33304954
68	0xbc9caa10	-0.01912406
69	0xbe98c66d	-0.29838887
70	0x3ebd61d0	0.36988688
71	0xbedc894d	-0.43073502
72	0x3bafefb0	0.005369149
73	0xbf569c47	-0.8383221
74	0xbdaca552	-0.0842997
75	0xbc0122c1	-0.007881821
76	0x3cf67080	0.030082941
77	0x3dbe98cd	0.09306488
78	0xbd3ed4b1	-0.046589557
79	0xbd3fe8cf	-0.046852883
80	0xbecc64a4	-0.39920533
81	0xbfff73b5	-1.9957186
82	0x3e92bb7d	0.28658667
83	0x3d0b2e96	0.033979975
84	0x3e9e0a64	0.30867302
85	0xbf68d9a0	-0.9095707
86	0xbf594f3c	-0.8488653
87	0x3e987666	0.2977783
88	0x3e98270c	0.2971729
89	0x3edc6012	0.43042046
90	0x3d19856a	0.03748075
91	0x3f012acc	0.5045593
92	0x3ee08dee	0.43858284
93	0xbebfeeb5	-0.37486807
94	0x3ee82cbf	0.4534664
95	0xbf3a8db4	-0.7287247
96	0x3d359cbe	0.044338934
97	0xbfbf5ca0	-1.4950142
98	0xbba1d67a	-0.0049388977
99	0x3f187341	0.59550864
100	0xbf623250	-0.8835802
101	0x3d00776b	0.031363886
102	0x3e157662	0.1459594
103	0xbed550eb	-0.41663298
104	0xb9aeee16	-0.00033365254
105	0xbf5272af	-0.82206243
106	0x3f1ce33a	0.6128422
107	0x3ebe0c47	0.37118742
108	0xbf4271a8	-0.75954676
109	0xbcebc610	-0.028780967
110	0x3e8c2cb5	0.2737786
111	0x3f0a805f	0.5410213
112	0xbdb4bc6d	-0.08825002
113	0xbf2bc741	-0.6710091
114	0x3d6c3466	0.05766716
115	0x3eb3f381	0.35146716
116	0x3cdcad04	0.026937969
117	0xbeb234ab	-0.34805807
118	0xc0449e43	-3.0721595
119	0xbfbd9cf0	-1.4813519
120	0xbdabf3ac	-0.08396086
121	0x3efc6aff	0.49300382
122	0x3eda9fc0	0.42700005
123	0x3d7548a6	0.059883736
124	0xbf8ac22e	-1.0840509
125	0xbf37c94a	-0.7179152
126	0x3bdc89fc	0.006730316
127	0x3dba49bd	0.09096096
128	0x3fd31d73	1.6493362
129	0xbff86b6c	-1.9407783
130	0x3e93861c	0.28813255
131	0xc018301f	-2.377937
132	0x3cc69494	0.02424077
133	0xbf8e3726	-1.111058
134	0x3f038b71	0.51384646
135	0xbd850ea7	-0.06496935
136	0x3f0b085f	0.5430965
137	0xbf01344a	-0.5047041
138	0xbff149d1	-1.8850652
139	0x3cf29f12	0.029616866
140	0x3c0f5b8b	0.008749853
141	0x3cf47945	0.029842982
142	0x3d5b0f1e	0.053481214
143	0xbd48594d	-0.04891329
144	0xbc78e582	-0.015191438
145	0x3e88b0a9	0.2669728
146	0x3f69ec70	0.913764
147	0x3f69dfa0	0.9135685
148	0xbd9ca858	-0.076492965
149	0xbbf43340	-0.0074523985
150	0xbd8c766f	-0.06858527
151	0xbd8dab24	-0.06917408
152	0x3ea6371c	0.3246392
153	0xbe4d6c27	-0.20060788
154	0x3e4be8df	0.19913052
155	0xbd615d27	-0.055020478
156	0xbfb64ca7	-1.4242142
157	0x3d240b62	0.040049918
158	0x3f21ff26	0.6327995
159	0x3e8988a7	0.2686207
160	0xbb3079a0	-0.0026927963
161	0xbebfb05b	-0.37439236
162	0xbd28160e	-0.041036658
163	0x3f9bc1e6	1.2168548
164	0x3ef80e50	0.4844842
165	0x3c8d2706	0.017230522
166	0x3f2e9399	0.68193966
167	0x3ed88978	0.4229238
168	0xbba32bfe	-0.0049796095
169	0xbd9cad1d	-0.07650206
170	0x3f586956	0.8453573
171	0xbc8cc09d	-0.017181689
172	0xc0205287	-2.505037
173	0xbc878ac1	-0.016545655
174	0x3b4cdab8	0.0031258296
175	0xbec3ca85	-0.38240448
176	0x3f6c6734	0.92344975
177	0xbc15db28	-0.009146489
178	0x3efc5367	0.4928238
179	0x3d419f6a	0.04727117
180	0x3ef38955	0.47565714
181	0xbf32e22b	-0.69876355
182	0xbf840ad6	-1.0315807
183	0x3b1cf6ef	0.0023950895
184	0xbf306541	-0.689045
185	0xbfc363dd	-1.5264851
186	0x3d4a12c5	0.049334306
187	0x3ed610d3	0.4180971
188	0xbf0dbc48	-0.5536542
189	0xbf5efd0f	-0.87104887
190	0x3ef355bb	0.47526345
191	0x3dfff03a	0.124969915
192	0x3f035ce9	0.51313645
193	0xbf2a31e2	-0.66482365
194	0xbd6a46af	-0.057196315
195	0xbf1501dc	-0.5820596
196	0xbf364cac	-0.7121074
197	0x3fc9a993	1.5754875
198	0x3f037e1f	0.5136432
199	0xbf57924e	-0.8420762
200	0xbda23e37	-0.07922023
201	0xbf441354	-0.7659199
202	0x3c7f46f0	0.015580878
203	0x3f14bd1f	0.58101076
204	0xbf511279	-0.8166881
205	0xbd947a37	-0.07249873
206	0xbd884865	-0.06654433
207	0x3f830ec8	1.0238886
208	0xbf1e660e	-0.61874473
209	0xbebe8ae6	-0.37215346
210	0x3eef1401	0.4669495
211	0xbd108317	-0.035281267
212	0xbf22074e	-0.63292396
213	0xc01e97b8	-2.4780102
214	0xc0138bff	-2.3054197
215	0x3ee3ebcc	0.44515836
216	0x3eed49a2	0.4634524
217	0x3eade2c0	0.3396206
218	0x3c63ac17	0.01389601
219	0x3ea48416	0.32132024
220	0x3ed6f445	0.41983238
221	0x3d51fa4d	0.051264096
222	0x3ee68a0b	0.45027193
223	0x3e90a1bc	0.28248394
224	0x3cb4a61f	0.022051869
225	0xbf3a2527	-0.7271294
226	0xbd0120f1	-0.031525556
227	0xbea1b4a5	-0.31583133
228	0xbfb4f680	-1.4137726
229	0xbd5fd289	-0.05464414
230	0x3ba53df5	0.0050427862
231	0x3f663a93	0.8993313
232	0x3ec3ebb1	0.38265756
233	0xbf939815	-1.1530787
234	0x3e947634	0.28996432
235	0xbf8ef124	-1.116734
236	0xbf4921d3	-0.78567237
237	0xbc7f0c5a	-0.01556691
238	0x3ee62017	0.44946358
239	0x3f3b6918	0.73207235
240	0xbd7d85c0	-0.061895132
241	0xbeb1ce75	-0.34727827
242	0x3d3b8ea5	0.045790333
243	0x3ece7e4c	0.40330732
244	0x3d8116ad	0.06303153
245	0xbf2171ee	-0.6306447
246	0xbfcf5ddb	-1.6200517
247	0xbeee4b7b	-0.46541962
248	0x3d1f970c	0.03896241
249	0x3e9f1b25	0.31075397
250	0x3ecb42ff	0.3969955
251	0xbd6f4c17	-0.058422174
252	0xbfb2b19a	-1.396045
253	0x3ee34c9d	0.4439439
254	0x3c5e1a92	0.01355614
255	0x3ef9d461	0.48794845

layers.4.bias f4 [2]
0	0x3ebee9f4	0.37287867
1	0x3e6796e2	0.22616151
