ddqn_models/whole/ddqn_1100_1.0.pth (torch_old, 69813 bytes, 6 tensors)

layers.0.weight f4 [128, 2]
0	0x3e2f3585	0.1711026
1	0xbf37238c	-0.71538615
2	0x3fc8e033	1.569342
3	0xbf852efd	-1.0404965
4	0x3d9b64e8	0.07587606
5	0xbe179960	-0.14804602
6	0x3f5ed1e8	0.8703904
7	0x3e56b87c	0.20968813
8	0x3f3a9e2a	0.7289759
9	0x3fd72da0	1.6810799
10	0xbe0e469b	-0.13894121
11	0xbe3a56f6	-0.18197235
12	0xbe7b7f41	-0.24560262
13	0x3e2df9a0	0.16989756
14	0x3e726bed	0.23673983
15	0x3f6cc5d0	0.9248934
16	0xbf8e94b2	-1.1139128
17	0xbf246a60	-0.64224815
18	0xbe9cc7a3	-0.3062106
19	0xbedbe6a2	-0.42949396
20	0xbf4051f7	-0.7512507
21	0xbf3b9c98	-0.7328582
22	0xbed8e858	-0.42364764
23	0x3ea01cfe	0.3127212
24	0xbf3657eb	-0.712279
25	0xbd40e755	-0.047095615
26	0xbb2e78ca	-0.002662229
27	0xbe8bb43a	-0.2728594
28	0xbf0b5b0f	-0.5443582
29	0xbe26b064	-0.16278225
30	0xc00063ef	-2.0060995
31	0x3ff0d34f	1.8814486
32	0x4006e76b	2.1078746
33	0x3faeaadc	1.3645892
34	0xbbac7b80	-0.005263746
35	0xbe0f2300	-0.13978195
36	0x3eb21d53	0.34787998
37	0xbd8dc855	-0.06922976
38	0x3e3d6939	0.1849717
39	0x3df2829e	0.118413195
40	0xbdebfaa8	-0.11522418
41	0xbe8783be	-0.264677
42	0x3f88b3f5	1.0679919
43	0xbf874789	-1.0568706
44	0xbe9af843	-0.30267534
45	0x3ecfc084	0.40576565
46	0x3ea17b96	0.315396
47	0x3ddffbea	0.10936721
48	0xc0139220	-2.3057938
49	0x3dc56329	0.09638054
50	0xbf89f2f6	-1.0777271
51	0xbe77b5a6	-0.24190387
52	0xbe181125	-0.1485029
53	0xbe43e984	-0.19132048
54	0xbd673274	-0.0564446
55	0x3f73d449	0.95245796
56	0xc02ff244	-2.7491617
57	0xbe90520b	-0.28187594
58	0x3fc83876	1.564223
59	0x3ea4dc97	0.32199547
60	0x3ef6f08c	0.48230398
61	0xbf69626f	-0.9116582
62	0xbf874235	-1.056708
63	0xbf2da3c6	-0.67828023
64	0xbe237352	-0.1596196
65	0x40089370	2.1339989
66	0xbe5d10ff	-0.21588515
67	0x3ccf46c4	0.025302298
68	0x3fa105c3	1.2579883
69	0xbf88d8e2	-1.0691187
70	0x3e870e0f	0.26377913
71	0xbe1233d9	-0.14277591
72	0x3c1fac80	0.009745717
73	0xbdf635e8	-0.120220006
74	0xbf7564bf	-0.9585685
75	0xbf433ce1	-0.7626477
76	0x3fe0c68e	1.7560594
77	0x3f024e8b	0.509011
78	0xbe07d076	-0.13263115
79	0xbe5d1795	-0.21591027
80	0xbf267b0f	-0.6503152
81	0x3f19174b	0.5980117
82	0xbd0019d1	-0.03127462
83	0xbff69d36	-1.9266727
84	0xbf44ce7e	-0.7687758
85	0x3f94f782	1.1638033
86	0x3d177515	0.036976893
87	0x3f34146a	0.7034365
88	0x3eb3b69f	0.35100266
89	0x3dbd8c38	0.0925526
90	0x3e07aad2	0.13248757
91	0x3e35a89a	0.17740098
92	0x3f2c6d6f	0.6735448
93	0x3f9799b6	1.1843784
94	0x3d9d0d75	0.07668582
95	0xbefd7147	-0.49500486
96	0xc002a2b7	-2.0411813
97	0xbf1d20ea	-0.6137835
98	0x3e17ec21	0.1483617
99	0xbfa82424	-1.3136029
100	0x3f7a3080	0.97730255
101	0xbf35bf3f	-0.70994943
102	0x3e57f227	0.21088468
103	0x3dc60fa9	0.09670956
104	0x3fb5082a	1.4143116
105	0xbfcd0b14	-1.6019006
106	0xbf15fdae	-0.5859021
107	0x3f809427	1.0045213
108	0x3edd7e99	0.4326065
109	0x3f19ee28	0.6012902
110	0xbd0d5349	-0.034503255
111	0x3ea0baf8	0.31392646
112	0xbef6bede	-0.48192495
113	0x3f319613	0.6936962
114	0xbe54cbce	-0.2078087
115	0xbdaca2c1	-0.0842948
116	0x3d9e6cdb	0.07735606
117	0x3ee92350	0.45534754
118	0x3fb4a4a8	1.4112749
119	0xbdb04e06	-0.08608632
120	0x3f9b8a92	1.2151663
121	0x3e7f2ccc	0.24919432
122	0x3f634a0e	0.88784873
123	0x3efb9094	0.49133742
124	0xbf165b3a	-0.5873295
125	0x3f0f2a55	0.5592397
126	0xbeb209ea	-0.3477319
127	0x3f5844f9	0.84480244
128	0x3ede3261	0.4339781
129	0xbe71a63b	-0.23598568
130	0x3ec96121	0.39331916
131	0x3faeb3a0	1.3648567
132	0x3ec4e30f	0.38454482
133	0x3dccab4c	0.0999361
134	0xbee5ddb7	-0.44895718
135	0x3e76de6c	0.24108285
136	0x3ef80115	0.48438326
137	0x3e4c30f1	0.19940545
138	0x3f0a3a5a	0.5399529
139	0x3f23f1c2	0.6404077
140	0xbe8b78ab	-0.272405
141	0x3e38f9e7	0.1806408
142	0x3f70090f	0.9376382
143	0x3f024c66	0.50897825
144	0x3ea70186	0.3261835
145	0x3dd9e617	0.10639589
146	0xbf3629d4	-0.71157575
147	0xbeece7cb	-0.46270594
148	0x3f82ed46	1.022866
149	0x400a16f0	2.15765
150	0x3f8db671	1.1071302
151	0x3f527e8b	0.8222434
152	0x3f3a2454	0.7271168
153	0x3e4a11ee	0.19733402
154	0xbf80ba8f	-1.0056933
155	0xbf84ba67	-1.0369385
156	0x3f87740a	1.0582287
157	0x3f982b14	1.1888146
158	0xbe7208f9	-0.23636235
159	0x3db8c093	0.090211056
160	0x3f3b06c9	0.7305723
161	0x3fa2db7b	1.272323
162	0x3f164b4e	0.58708656
163	0x3fa3e417	1.2803982
164	0xbd0c785e	-0.03429448
165	0xbef9079e	-0.48638624
166	0x3fb57fc2	1.4179614
167	0x3f876c32	1.0579894
168	0xbf613bbc	-0.8798177
169	0xbe9b579c	-0.30340278
170	0x3fc2b23f	1.5210646
171	0x3ff272eb	1.894132
172	0xbe3eec6e	-0.18644878
173	0x3d257331	0.04039306
174	0xbf9c3c97	-1.220599
175	0x3f8b4a54	1.0882058
176	0x3e2285e7	0.15871392
177	0x3e038826	0.12844905
178	0x3e5772e7	0.21039926
179	0x3ebe3928	0.37152982
180	0x3e0e33a6	0.1388689
181	0x3ded889b	0.11598321
182	0xbf579a4e	-0.84219825
183	0xbf5c1f84	-0.8598559
184	0xbf6bfdc1	-0.9218407
185	0xbfa6ce38	-1.3031683
186	0xbf036827	-0.513308
187	0x3fd771a6	1.6831558
188	0x3fb2f971	1.3982373
189	0x3f2b48f5	0.669082
190	0x3f56a1cb	0.83840626
191	0x3e27f479	0.16401853
192	0xbf85c7c1	-1.0451585
193	0xbeb1160d	-0.34587136
194	0xbeecf8d6	-0.46283597
195	0xbe24caf1	-0.16093041
196	0xbdbc0b9c	-0.09181902
197	0xbe8abcd0	-0.27097178
198	0xbe015158	-0.12628686
199	0xbe820d03	-0.25400552
200	0x3ee01d60	0.4377241
201	0x3fa65af2	1.2996504
202	0x3e1a7da8	0.15086997
203	0x3f60bd8c	0.87789226
204	0x3f01319b	0.50466317
205	0x3e32b730	0.17452693
206	0x4003cd6b	2.0594127
207	0x3fd0b46d	1.6305062
208	0x3f4f3d85	0.80953246
209	0x3f973c16	1.1815212
210	0x3eb5ffcf	0.3554673
211	0x3fcafc14	1.5858178
212	0xbfe120f9	-1.7588187
213	0xbf98e621	-1.194523
214	0x3fadff1c	1.3593478
215	0x3ce97f85	0.028503189
216	0x3e95cac1	0.2925625
217	0xbfb1571a	-1.3854706
218	0xc0387b3f	-2.8825223
219	0xbf17713c	-0.59157157
220	0x3f9cc3a9	1.2247211
221	0x3fa2165b	1.2663072
222	0xc002e1e2	-2.0450368
223	0xbe98b1a4	-0.2982303
224	0x40160ed3	2.3446548
225	0x3f50666a	0.8140627
226	0x3e1dbea8	0.15404761
227	0x3e87925a	0.26478845
228	0x3f9d4587	1.2286843
229	0x3eeeb38d	0.4662136
230	0x40079715	2.1185963
231	0x3fbd47f9	1.4787589
232	0xbe82a0a4	-0.25513184
233	0xbcec8938	-0.028874025
234	0xbe24c23d	-0.16089721
235	0xbe220fa6	-0.15826282
236	0x3fad22d0	1.3526249
237	0x3e41454a	0.18874088
238	0x3efacacf	0.48982856
239	0xbf38c376	-0.7217325
240	0xbd055d83	-0.032559883
241	0xbe8dffc1	-0.27734187
242	0x3e58df64	0.21178967
243	0x3ee63274	0.44960368
244	0x3f35edd7	0.7106604
245	0xbf4ed296	-0.8079008
246	0x3ef8cf62	0.4859572
247	0x401cec30	2.4519157
248	0x3fd3601e	1.6513708
249	0xbf0237d0	-0.50866413
250	0x3ed1a0e9	0.40943077
251	0xbdaf1edf	-0.0855081
252	0xbdbfca73	-0.09364786
253	0x3e4b3604	0.19844824
254	0xbfd3109c	-1.6489444
255	0x3f9f282f	1.2434138

layers.0.bias f4 [128]
0	0x3f415cb7	0.75532097
1	0x3e00586c	0.1253373
2	0xbef14b58	-0.47127795
3	0xbf9f9ba7	-1.2469376
4	0x3e7fa4e5	0.24965246
5	0xbf3a2718	-0.727159
6	0x3effe49b	0.499791
7	0xbfcbb389	-1.5914165
8	0xbf9db898	-1.2321959
9	0xbfaa2c26	-1.3294723
10	0xbf0eeebb	-0.55833024
11	0x3f2ffd24	0.68745637
12	0xbfb4b510	-1.4117756
13	0x3f48b4c4	0.78400826
14	0xbfa1a7ec	-1.2629371
15	0xbe34bad5	-0.17649396
16	0xbe235bc8	-0.1595298
17	0xbf233a85	-0.6376117
18	0x3f3c479e	0.7354678
19	0x3ed8429c	0.4223832
20	0x3f629fa4	0.8852484
21	0x3db16508	0.08661848
22	0xbfae7c71	-1.3631727
23	0x3f339857	0.7015433
24	0xbe361fe8	-0.17785609
25	0x3ec7f478	0.39053702
26	0xbf415c57	-0.75531524
27	0xbf952fd4	-1.1655221
28	0xbf3ad8e4	-0.729872
29	0xbf10d5be	-0.56576145
30	0xbecc634d	-0.3991951
31	0xbfc97b34	-1.5740724
32	0x3e7a4019	0.24438514
33	0x3f1d3a71	0.614173
34	0x3e2e1c15	0.170029
35	0xbf4f8fa4	-0.81078553
36	0xbf0c590d	-0.5482338
37	0xbf67d14f	-0.90553755
38	0x3e0c0d83	0.1367703
39	0x3f68084e	0.9063767
40	0x3f2b1f14	0.66844296
41	0xbf978c86	-1.1839759
42	0x3ccca918	0.024982974
43	0xbfcb52ca	-1.588464
44	0xbf79fe56	-0.9765371
45	0x3ef04984	0.46931088
46	0xbec32376	-0.38112992
47	0x3edfa7b3	0.43682632
48	0x3d02deb8	0.031950682
49	0xbef2b6a0	-0.47404957
50	0xbf74c618	-0.9561477
51	0x3ef3084b	0.47467265
52	0x3e7a1a70	0.24424148
53	0x3f029c4b	0.51019734
54	0x3edff2ce	0.43739933
55	0x3ef943e2	0.48684603
56	0x3e41f667	0.18941651
57	0xbf1b9d66	-0.60787046
58	0xbf81f2e0	-1.0152245
59	0x3e128219	0.14307441
60	0xbea0cdcd	-0.31407014
61	0xbf787faf	-0.9706983
62	0x3f2dc925	0.6788505
63	0xbf58b790	-0.84655094
64	0xbfa6defa	-1.3036797
65	0xbd3683cf	-0.044559296
66	0x3f479f59	0.7797752
67	0x3f5484c4	0.83015084
68	0xbfb8be1e	-1.4433019
69	0x3f083cc7	0.5321774
70	0x3f0d6408	0.5523076
71	0x3f061675	0.52378017
72	0x3f369877	0.7132639
73	0xbf9ea2e4	-1.239346
74	0x3df51946	0.11967711
75	0x3e605d13	0.21910505
76	0xbfacb377	-1.3492268
77	0x3e357751	0.17721297
78	0xbf0fb15e	-0.56130016
79	0x3f2574d7	0.6463141
80	0xbf3517b0	-0.7073927
81	0xbf578b38	-0.84196806
82	0x3ea0d01d	0.31408778
83	0x3e1e0d06	0.15434656
84	0xbf48fa21	-0.78506666
85	0x3da38c8f	0.07985794
86	0x3f133c84	0.57514215
87	0x3d8eb7e6	0.069686696
88	0x3e0f8090	0.14013886
89	0xbfa446fa	-1.283416
90	0x3dfcff21	0.123533495
91	0xbfa0bdea	-1.2557957
92	0xbf3e4d3f	-0.7433662
93	0xbed5a132	-0.41724545
94	0x3f15dd81	0.58541113
95	0xbfa4458f	-1.2833728
96	0x3c31c403	0.0108499555
97	0xbf9c04dc	-1.2188983
98	0x3f61051b	0.87898415
99	0x3f67547b	0.9036328
100	0xbf9f0c86	-1.2425697
101	0xbfd031ea	-1.6265233
102	0xbfb0f567	-1.3824891
103	0x3e7aebc0	0.24503994
104	0xbf64efcd	-0.89428407
105	0x3d825558	0.06363934
106	0xbda45504	-0.08024028
107	0x3dc748eb	0.09730705
108	0xbe839594	-0.25700057
109	0xbe7892d3	-0.24274759
110	0xbeca8571	-0.39554933
111	0xbc07402b	-0.008255045
112	0x3dbd5792	0.09245218
113	0x3f277359	0.6541038
114	0xbe90acc3	-0.28256807
115	0x3e7c586b	0.24643104
116	0xbf13a08d	-0.57666856
117	0x3f5e8eb5	0.86936504
118	0xbf666f42	-0.90013516
119	0xbf9c588c	-1.2214522
120	0x3f55b209	0.83474785
121	0xbfa68e92	-1.3012259
122	0x3d4cb542	0.04997755
123	0xbece9b6f	-0.4035296
124	0xbf420354	-0.7578633
125	0xbf8696ec	-1.0514808
126	0x3f15a33e	0.5845221
127	0xbe2e0b11	-0.16996409

layers.2.weight f4 [128, 128]
0	0xbd3d7d06	-0.04626181
1	0xbf1329d6	-0.5748571
2	0xbcf6d694	-0.030131616
3	0xbd8078f1	-0.06273068
4	0x3ea009d4	0.31257498
5	0x3daaafcb	0.08334311
6	0x3defddeb	0.11712249
7	0x3f237fa8	0.6386666
8	0xbfa742b2	-1.3067229
9	0xbf4b4a4c	-0.79410243
10	0xbf95e91d	-1.1711766
11	0x3e3cc72f	0.18435358
12	0x3ea27c22	0.3173533
13	0xbd99b8d6	-0.07505958
14	0x3ecdbff3	0.40185508
15	0xbf3a5a4d	-0.7279404
16	0xbed9cd98	-0.42539668
17	0xbda7df34	-0.081968695
18	0x3e186fdf	0.14886425
19	0x3e6f059d	0.23341985
20	0xbba9e2d4	-0.0051845107
21	0xbf068b45	-0.5255626
22	0x3f75facb	0.96085805
23	0x3e527bfc	0.20555109
24	0xbf12eac7	-0.5738949
25	0xbe19d083	-0.15020947
26	0x3c925bf0	0.017866105
27	0x3d8e1b1a	0.06938763
28	0xbe8277d3	-0.25482044
29	0xbf1ac868	-0.60462046
30	0xbf3a8d58	-0.72871923
31	0xbf9b4006	-1.2128913
32	0x3e9cc953	0.30622348
33	0x3e533441	0.20625402
34	0xbe6c33b0	-0.23066592
35	0xbe67b625	-0.22628076
36	0xbd9c9f2a	-0.07647546
37	0xc000f867	-2.0151613
38	0xbf73816b	-0.9511935
39	0x3dfec046	0.12439017
40	0x3e2661ff	0.1624832
41	0xbfdaa853	-1.7082618
42	0xbd2a3cbb	-0.041561823
43	0xbe4ed423	-0.20198111
44	0xbd7185fd	-0.05896567
45	0x3dbe7c4f	0.09301054
46	0xbe11c835	-0.14236529
47	0xbe51205b	-0.20422499
48	0xbd96720d	-0.07345972
49	0xbf9c3bed	-1.2205788
50	0x3f925b7d	1.143417
51	0x3d9fbbb9	0.07799477
52	0xbf95a61b	-1.1691316
53	0x3e4c7414	0.19966155
54	0x3e591615	0.2119983
55	0x3e63da64	0.22251278
56	0xbd2463f7	-0.040134396
57	0xbde45198	-0.11148375
58	0x3d955264	0.072911054
59	0xc0296906	-2.6470351
60	0xbfa7da24	-1.3113446
61	0x3f1534fc	0.5828397
62	0x3e6b9004	0.23004156
63	0xbf7f5fea	-0.9975573
64	0x3ebaad48	0.36460328
65	0xbd5104cc	-0.051029965
66	0x3e7f144c	0.24910086
67	0x3d7ad2ab	0.061236065
68	0xbf75720e	-0.9587716
69	0x3e3cab8b	0.18424813
70	0x3e17f192	0.14838246
71	0x3e40f1fc	0.1884231
72	0x3e5402c3	0.20704179
73	0xc05366a2	-3.3031392
74	0x3ecc790f	0.3993611
75	0x3d7007a6	0.058601044
76	0x3ebf750b	0.37393984
77	0xbebbe37b	-0.3669699
78	0xbf69b4b3	-0.9129135
79	0x3e506bde	0.20353648
80	0xbe0c944b	-0.13728444
81	0x3e04d9f2	0.12973765
82	0xbd9a6d3e	-0.075403675
83	0x3d53dc89	0.05172399
84	0x3fc6cf41	1.5531999
85	0xbd8e855f	-0.06959032
86	0x3dca5174	0.09878817
87	0x3f3b8750	0.73253345
88	0xbc00488c	-0.0078297965
89	0xbe815b7f	-0.25265118
90	0x3dae314e	0.08505498
91	0xbfa6e244	-1.3037801
92	0xbfa46bc8	-1.2845392
93	0x3f8f0be4	1.1175504
94	0x3dd2d88c	0.10295209
95	0xbed40abe	-0.41414446
96	0xbeb2a1d1	-0.3488908
97	0x3f1b2613	0.6060497
98	0xbc93bf4c	-0.018035553
99	0x3d2adec9	0.04171637
100	0x3ea1e695	0.31621233
101	0x3e300900	0.17190933
102	0xbf2afe5e	-0.66794384
103	0xbf1f43b5	-0.6221269
104	0xba49b76b	-0.0007694873
105	0x3ee92902	0.455391
106	0xbd06c772	-0.03290505
107	0xbf2a0221	-0.664095
108	0xbff68b0e	-1.9261186
109	0xbf31ea55	-0.6949819
110	0xbd56971e	-0.05239021
111	0x3f8d5909	1.1042796
112	0xbf760f34	-0.9611695
113	0x3e564a66	0.20926818
114	0xbf6bc738	-0.9210086
115	0xbdae5549	-0.085123606
116	0x3ef32515	0.4748923
117	0x3db5b789	0.08872897
118	0x3f911e0f	1.1337298
119	0xbf91c7a1	-1.1389047
120	0x3e2e05c1	0.16994382
121	0x3cd74334	0.026277162
122	0xbed65161	-0.41858962
123	0x3f0d368b	0.5516135
124	0xbf8f7b0a	-1.1209424
125	0x3d294688	0.04132703
126	0x3e1a1ffc	0.15051264
127	0xbf63e119	-0.89015347
128	0x3d48d2c2	0.04902912
129	0x3f25f886	0.6483234
130	0x3d116e42	0.03550554
131	0xbf026438	-0.5093417
132	0x3e5603d1	0.20899893
133	0x3dab740f	0.08371746
134	0xbcb221d4	-0.021744646
135	0x3ebe3b11	0.3715444
136	0xbfca2916	-1.5793788
137	0xbf2b8ad6	-0.6700872
138	0xbf9c818a	-1.2227032
139	0xbce31edf	-0.027724681
140	0x3d985be5	0.074394025
141	0xbd89d841	-0.067307
142	0x3ed9d32e	0.4254393
143	0xbff079ee	-1.878721
144	0x3e8cdb46	0.27511042
145	0xbc1c9820	-0.009557754
146	0x3d35c972	0.044381566
147	0x3dd027b6	0.10163824
148	0xbde5d474	-0.11222163
149	0x3eae478b	0.34038958
150	0x3da1aed0	0.07894671
151	0x3ce5b2f8	0.02803944
152	0xc002be71	-2.0428736
153	0xbeed3b5d	-0.46334353
154	0x3db0c911	0.086321004
155	0xbf064a2d	-0.52456933
156	0x3ff8ba05	1.9431769
157	0xc01efe66	-2.4842772
158	0x3d71cb4d	0.059031773
159	0xbf705e56	-0.93893945
160	0x3e83ce55	0.25743356
161	0xbd87adad	-0.06624923
162	0x3f109a5a	0.5648552
163	0xbf20efff	-0.62866205
164	0xbd4ed9f7	-0.050500836
165	0xbfe09e42	-1.7548296
166	0xbd9619e7	-0.07329159
167	0xbde6d0a8	-0.11270267
168	0x3dbab004	0.091156036
169	0xbd415816	-0.047203146
170	0xbe9dad7c	-0.3079642
171	0x3c876487	0.016527427
172	0xbe19cbed	-0.15019198
173	0xbbae2395	-0.0053143003
174	0x3ec24bfc	0.37948596
175	0xbdad4076	-0.084595606
176	0xc0546ffe	-3.3193355
177	0xbf0c39d2	-0.54775727
178	0xbf1763b9	-0.5913654
179	0xbd1fef10	-0.039046347
180	0xbd2b0bf6	-0.041759454
181	0x3d1d4392	0.03839452
182	0x3dbffcd3	0.09374394
183	0xbd1fc75a	-0.039008476
184	0xbe99284a	-0.2991355
185	0x3e20a194	0.15686637
186	0x3d6c1529	0.057637367
187	0xbfabdd07	-1.3426827
188	0xc0176699	-2.365637
189	0xbfe9fbc8	-1.8279963
190	0xbd0be86a	-0.034157194
191	0xbf9b62c2	-1.2139513
192	0xbe10472b	-0.14089648
193	0xbea7304a	-0.3265403
194	0x3da245f3	0.07923498
195	0xbd61d8fc	-0.055138573
196	0xbf83163d	-1.0241162
197	0x3dcfdf7d	0.10150049
198	0xbdcb25b8	-0.09919304
199	0x3cd90824	0.02649314
200	0x3d955a52	0.07292618
201	0xbfd0b000	-1.6303711
202	0x3f0aef2f	0.54271215
203	0x3e5bd609	0.21468367
204	0xbf2f6bd6	-0.6852392
205	0xbefa3aa1	-0.48872855
206	0xbf528482	-0.8223344
207	0x3dd05876	0.101731226
208	0xbf94da8f	-1.1629199
209	0xbfb6d94f	-1.4285067
210	0xbda4fe61	-0.080563314
211	0x3e3b12e0	0.18268919
212	0x3f3aed19	0.7301803
213	0x3eb76a6a	0.35823375
214	0x3d861a6b	0.065480076
215	0xbe1ad0f0	-0.15118766
216	0x3d28a9b4	0.041177467
217	0xbe3fdf9c	-0.18737644
218	0x3c9f6d5d	0.019461328
219	0xbfc7e7fc	-1.5617671
220	0xbe2b114e	-0.1670582
221	0x40181989	2.3765585
222	0x3de6661a	0.11249943
223	0xbf53ac8d	-0.82685167
224	0xbf091520	-0.5354786
225	0x3eae30eb	0.34021696
226	0xbdb9b69a	-0.090680316
227	0xbe29a2f1	-0.16566063
228	0xbf9cf69f	-1.2262763
229	0xbe7b2569	-0.2452599
230	0xbf5d43da	-0.8643166
231	0x3eab9cbd	0.3351802
232	0xbf91793c	-1.1365123
233	0x40061003	2.0947273
234	0xc023e668	-2.560938
235	0x3ee481e1	0.4463034
236	0xbeb40508	-0.3516009
237	0xc082d030	-4.0879135
238	0xbf0ccf61	-0.55003935
239	0xbf82e142	-1.0224993
240	0xbf25daf5	-0.64787227
241	0xbc99e4a1	-0.018785777
242	0xc022b82e	-2.5424914
243	0x3ead1376	0.3380391
244	0x3f6965e7	0.91171116
245	0x3da83a95	0.08214299
246	0xbf1d9e84	-0.6157
247	0xc00f1618	-2.2357235
248	0x3d19af43	0.03752066
249	0x3c4cc940	0.012499154
250	0x3e4333cf	0.19062732
251	0x3f420776	0.75792634
252	0xbfaf0e4d	-1.3676239
253	0xbfb5a7d7	-1.4191846
254	0x3cd12f11	0.025535138
255	0xc015c676	-2.340238

layers.2.bias f4 [128]
0	0x3e7e3c1a	0.24827614
1	0x3d13985e	0.03603398
2	0x3efe65ba	0.49686986
3	0xbda975a9	-0.08274395
4	0x3d3e02fe	0.046389572
5	0x3ee3a381	0.4446068
6	0x3ec30299	0.3808792
7	0xbf0aa9cc	-0.5416534
8	0xbe68bc97	-0.22728191
9	0x3e6af5ed	0.22945376
10	0xbecd724e	-0.4012627
11	0xbde65246	-0.11246161
12	0xbefa0db5	-0.48838583
13	0x3e9ee007	0.31030294
14	0xbe1352e6	-0.14387092
15	0xbe6f5331	-0.23371579
16	0xbf0862ed	-0.5327595
17	0x3f08fe26	0.535128
18	0xbf1528e4	-0.5826552
19	0xbece9520	-0.40348148
20	0xbbda2653	-0.0066574006
21	0xbf23ed37	-0.64033836
22	0xbe023472	-0.12715319
23	0xbd15d0b1	-0.036575977
24	0x3efdc257	0.49562332
25	0x3edbedb6	0.42954797
26	0x3ca82d03	0.020529276
27	0x3e99b005	0.30017105
28	0xbf13f4a2	-0.57795155
29	0x3f14b36c	0.58086276
30	0xbe8ddccd	-0.2770752
31	0x3e1f3969	0.15549244
32	0x3d5185fc	0.051153168
33	0xbd5d16e5	-0.053976912
34	0xbdda4a34	-0.106586844
35	0xbc1dbb91	-0.009627239
36	0x3eb5532a	0.35415012
37	0xbdb9bf92	-0.09069742
38	0xbefec225	-0.49757496
39	0x3e05e25c	0.1307463
40	0xbc89a998	-0.016804501
41	0xbf281fd0	-0.6567354
42	0xbf08a54b	-0.5337722
43	0xbd925e45	-0.07146887
44	0xbf19dcba	-0.60102427
45	0xbb5b726b	-0.0033484946
46	0xbd2382cc	-0.03991966
47	0xbe027245	-0.12738903
48	0xbea48e26	-0.321397
49	0xbb3c16c3	-0.002870009
50	0x3e495a41	0.19663335
51	0x3d31f03e	0.043442003
52	0x3e6e7e6b	0.23290412
53	0xbd64bb14	-0.055842474
54	0xbe885422	-0.26626688
55	0x3e7ebef5	0.24877532
56	0xbd8d292f	-0.06892621
57	0x3dde45cb	0.10853156
58	0x3d06ccd5	0.032910187
59	0x3f0d8a85	0.5528949
60	0xbf2c7635	-0.6736787
61	0x3ea50a47	0.32234403
62	0x3e89bd00	0.26902008
63	0xbd518350	-0.05115062
64	0x3e6fb461	0.23408653
65	0xbe0c649a	-0.13710251
66	0xbc4e07eb	-0.01257513
67	0x3ea96ebd	0.330923
68	0xbeea8f7e	-0.458126
69	0xbf1a9bde	-0.60394084
70	0x3ef85561	0.4850264
71	0xbdf88230	-0.12134206
72	0xbd827258	-0.063694656
73	0xbc64139c	-0.013920691
74	0xbd43f1d0	-0.047838032
75	0x3e54e00d	0.20788594
76	0x3eac66a2	0.33672053
77	0xbf1e15ea	-0.6175219
78	0xbd8b8701	-0.06812859
79	0x3d0ad758	0.033896774
80	0xbd2a1a63	-0.04152907
81	0xbcc79d37	-0.024366958
82	0x3e76b708	0.24093258
83	0x3eb9824f	0.3623223
84	0xba72e2b7	-0.00092653505
85	0xbf200bec	-0.6251819
86	0x3d22a625	0.03970923
87	0x3e89fd10	0.26950884
88	0x3f1830f7	0.59449714
89	0x3ef6ebc5	0.48226753
90	0xbc1f087a	-0.009706611
91	0x3edbcfe6	0.4293205
92	0x3f135f07	0.57566875
93	0x3e6b31ff	0.22968291
94	0x3f0ded9c	0.5544069
95	0xbde56c60	-0.112023115
96	0xbd28eedb	-0.041243415
97	0xbd478200	-0.048707962
98	0xbd94a2ac	-0.0725759
99	0x3e9b5619	0.30339125
100	0xbef7be2e	-0.48387283
101	0x3e80b87e	0.25140756
102	0xbef49531	-0.47770074
103	0xbd12474d	-0.03571253
104	0xbec1ed94	-0.3787657
105	0xbef4056a	-0.4766038
106	0x3ecbe506	0.3982317
107	0x3e82be95	0.25536028
108	0xbecd60d4	-0.40112936
109	0xbe484951	-0.19559218
110	0xbd3518ed	-0.044213224
111	0x3ee99883	0.4562417
112	0xbca05b30	-0.019574732
113	0xbd5ca91c	-0.053872213
114	0xbce7e1a4	-0.028305836
115	0x3d2031aa	0.039109863
116	0xbd9d0123	-0.076662324
117	0x3ecf00e9	0.40430382
118	0xbd99006f	-0.07470786
119	0xbe564576	-0.20924935
120	0xbcfba265	-0.030717084
121	0x3eeb0976	0.45905656
122	0x3edf3070	0.43591642
123	0xbd546c03	-0.05186082
124	0x3ed99d51	0.42502835
125	0x3e4e79ec	0.20163697
126	0xbc91db58	-0.017804787
127	0x3e485637	0.19564138

layers.4.weight f4 [2, 128]
0	0x3f0cc76b	0.5499179
1	0x4011a835	2.2758915
2	0x3ee65887	0.44989416
3	0xbdaf628f	-0.085637204
4	0xbc91a114	-0.017777003
5	0x3ec3a8ae	0.3821463
6	0x3ecf2753	0.4045969
7	0xbf0ee2ad	-0.5581463
8	0xbf2bff00	-0.67185974
9	0x3f04119a	0.5158936
10	0xbeb989ec	-0.3623804
11	0xbbf4bbd3	-0.0074686795
12	0xbf338305	-0.70121795
13	0xbdaec0ba	-0.085328534
14	0xba137f6f	-0.0005626594
15	0xbf4d8320	-0.80278206
16	0xbf3cce49	-0.73752266
17	0x3ed76c8f	0.4207501
18	0xbe7d7871	-0.24752976
19	0x3f5e9c04	0.8695681
20	0xbd64d4e4	-0.05586709
21	0x3f361836	0.7113069
22	0xbca4e87d	-0.02013039
23	0xbb2c9f01	-0.002633989
24	0x3edb0ea0	0.42784595
25	0x3ed6bdca	0.41941673
26	0xbd7a5473	-0.061115693
27	0x3ecd4092	0.40088326
28	0x3e0b3c21	0.13597156
29	0x3ecd87db	0.40142712
30	0x3f7bcfe9	0.9836412
31	0xbe8029b0	-0.25031805
32	0xbd33a30b	-0.04385666
33	0x3da2d6ae	0.07951103
34	0xbcefedc7	-0.029288186
35	0xbfc15884	-1.5105138
36	0x3dd29599	0.1028244
37	0x3cf085a8	0.029360607
38	0x3b13fd60	0.0022581443
39	0x4010734d	2.2570374
40	0x3b8f6605	0.0043761753
41	0xbf321928	-0.69569635
42	0xbf0ac986	-0.5421375
43	0xbd019833	-0.03163929
44	0xbf185573	-0.59505385
45	0x3cadad15	0.021200696
46	0xbe198f0d	-0.14995976
47	0x3eb0bd35	0.34519354
48	0xbf168615	-0.5879834
49	0x3d76fe16	0.06030091
50	0xbf36b1f5	-0.7136529
51	0x3b626e64	0.0034550661
52	0x3eefa3e4	0.46804726
53	0x3e54f7db	0.20797674
54	0xbedd094a	-0.4317115
55	0x3f0c34c8	0.5476804
56	0xbd3eb1b2	-0.046556182
57	0x3fb86eec	1.4408851
58	0xbe57bb5c	-0.21067566
59	0x3ef584ea	0.47952968
60	0xbf2bd01d	-0.6711443
61	0x3ec8b730	0.3920226
62	0xbe87bf01	-0.26512912
63	0xbeefc9ad	-0.46833554
64	0x3d30135a	0.042987205
65	0x3dfefabe	0.12450169
66	0xbac3f562	-0.0014950449
67	0x3ed7d101	0.42151645
68	0xbf2aeee8	-0.6677079
69	0xbf0db73d	-0.55357724
70	0x3ef43edb	0.47704205
71	0x3d54c881	0.051949028
72	0x3bafefb0	0.005369149
73	0x3d04af76	0.032393895
74	0xbdaca552	-0.0842997
75	0x3f7d23fb	0.98883027
76	0x3eb39c6b	0.35080275
77	0x3f3103d8	0.6914649
78	0xbf4f3636	-0.80942094
79	0xbdec332b	-0.11533197
80	0x3d81d55d	0.06339524
81	0xbf486e86	-0.78293645
82	0x3db0017c	0.08594033
83	0x3ebd9dcd	0.37034455
84	0x3dbb1e28	0.09136611
85	0xbe5f42f0	-0.21802878
86	0xbd1d0d5f	-0.03834283
87	0xbd1b0e51	-0.03785545
88	0x3ec28ef5	0.37999693
89	0x3ebbba35	0.36665502
90	0x3c6200d1	0.01379414
91	0x3eecab29	0.46224335
92	0x3ee4aded	0.44663945
93	0x3e511eff	0.2042198
94	0x3ef92529	0.48661163
95	0xbd51277d	-0.05106305
96	0x3bcb0427	0.0061955634
97	0xbd154658	-0.03644404
98	0xbc903c4d	-0.017606879
99	0x3ec5e266	0.3864929
100	0xbf343db6	-0.70406663
101	0x3ed9224b	0.42408976
102	0xbf43f50b	-0.7654578
103	0xbed0512a	-0.40686923
104	0x3f41ae1c	0.75656295
105	0xbf3d8cbc	-0.7404287
106	0x3ec6f52b	0.38858923
107	0x3e786ea9	0.24260963
108	0x3cd00c1c	0.0253964
109	0xbf64f84a	-0.8944136
110	0xbd888afc	-0.06667134
111	0x3edc0459	0.42972067
112	0xbd8c6ae0	-0.06856322
113	0x3ca5d2f1	0.020242186
114	0x3d11664e	0.035497956
115	0x3c9b3f9f	0.018951235
116	0x3cdcad04	0.026937969
117	0x3ef257e8	0.47332692
118	0xbd8dbd10	-0.069208264
119	0x3f6c5fdd	0.92333776
120	0xbd646eda	-0.05576978
121	0x3ef0f2b4	0.47060168
122	0x3eed9682	0.4640389
123	0x3c9338f3	0.017971491
124	0x3ed62485	0.41824737
125	0x3fb04524	1.37711
126	0x3da9cdef	0.08291232
127	0x3eb8a39a	0.36062318
128	0x3dce843f	0.10083818
129	0x3eebd512	0.46060997
130	0x3ed5ef0b	0.41783938
131	0xba2ddf47	-0.0006632697
132	0x3cc69494	0.02424077
133	0x3f101d56	0.56294763
134	0x3e8a502f	0.270143
135	0xbf3a5ff9	-0.7280269
136	0x3dd59364	0.10428503
137	0x3f05feb1	0.52341753
138	0x3e39c05c	0.18139786
139	0x3bb538fe	0.0055304756
140	0xbf0d42f4	-0.5518029
141	0xbf8026a2	-1.001179
142	0x3cb1ea79	0.02171825
143	0x3d00cdf9	0.03144643
144	0xbf0b4ceb	-0.5441424
145	0x3ed7b133	0.4212738
146	0x3f10efdd	0.56616
147	0x3e2e53b9	0.17024125
148	0xbd525001	-0.05134583
149	0xbf13bae8	-0.5770707
150	0xbd5454b3	-0.051838588
151	0xbc2c9a02	-0.010534765
152	0x3ee6183e	0.4494037
153	0x3e4b6d9d	0.19866033
154	0x3d7e1dcf	0.062040146
155	0x3ec40328	0.38283658
156	0xbf74887f	-0.95520777
157	0x3f17098e	0.58998954
158	0x3e8a0656	0.2695796
159	0x3f344e6f	0.7043218
160	0x3a78c0c6	0.00094891747
161	0xbcb00539	-0.021486865
162	0xbe01043d	-0.12599273
163	0x3f43a5de	0.7642497
164	0x3ebf0d6b	0.37314925
165	0xbc3f6a9e	-0.011683134
166	0x3e7dc730	0.24783015
167	0xbf357877	-0.7088694
168	0xbd419602	-0.0472622
169	0xbf156a89	-0.58365685
170	0x3f42b1b6	0.76052415
171	0xbcabd463	-0.020975297
172	0xbf228773	-0.6348793
173	0xbcde6452	-0.027147446
174	0xbd11366b	-0.035452288
175	0x3e5c0148	0.21484864
176	0x3f437562	0.76350987
177	0x3ca8bc10	0.020597488
178	0x3f358b81	0.7091599
179	0xbd0b7bec	-0.034053728
180	0x3ef1b40e	0.47207683
181	0x3da01519	0.07816524
182	0x3f2b347f	0.6687698
183	0xbf7aeb8d	-0.9801567
184	0x3c4fe82d	0.012689632
185	0x3e77dee5	0.24206121
186	0x3ed19f0e	0.40941662
187	0x3f00c4fd	0.5030058
188	0xbf2291cd	-0.63503724
189	0x3e7a3f76	0.24438271
190	0xbfce8a8c	-1.6136031
191	0x3f29b2c7	0.6628842
192	0x3e7bca19	0.24588813
193	0xbf5ea2a0	-0.86966896
194	0xbd7e48f5	-0.062081296
195	0x3ee8646c	0.45389116
196	0xbeffa0e1	-0.49927428
197	0xbf3cd8dd	-0.7376841
198	0x3f16b5e0	0.5887127
199	0xbda4c1ee	-0.08044802
200	0xbda23e37	-0.07922023
201	0xbc82d4f3	-0.015970683
202	0x3c7f46f0	0.015580878
203	0x3f5cdd57	0.8627524
204	0x3e770606	0.24123392
205	0xbf031408	-0.5120244
206	0x3f22e746	0.63634145
207	0x3e5146dc	0.20437187
208	0x3c0bc5c5	0.008531039
209	0xbe554f4c	-0.2083103
210	0x3ed2c752	0.41167694
211	0x3ea51403	0.3224183
212	0xbdce8e1b	-0.10085698
213	0xbf9b95ea	-1.2155125
214	0x3d6aea6b	0.057352465
215	0x3f846503	1.0343326
216	0x3f1a5523	0.6028616
217	0x3e9eaf72	0.3099323
218	0x3d6b1801	0.05739594
219	0x3ee44de2	0.4459067
220	0x3efd2821	0.49444678
221	0x3ee15435	0.44009557
222	0x3f0a2df2	0.53976357
223	0x3c983d18	0.01858382
224	0x3be30c5a	0.0069289627
225	0xbd82869e	-0.063733324
226	0xbd0120f1	-0.031525556
227	0x3ea31dc4	0.31858647
228	0xbe8a87e2	-0.27056795
229	0x3eb2165d	0.34782687
230	0x3e405753	0.18783312
231	0x3fe355ce	1.776056
232	0x3eff3e03	0.49852
233	0xbeed1cf2	-0.46311146
234	0x3ea5be98	0.32371974
235	0x3f4c7a64	0.79874253
236	0xbf39d573	-0.7259132
237	0xbe328ffd	-0.1743774
238	0x3d5ec1b8	0.054383963
239	0x3e9d7867	0.30755922
240	0xbd2b7c20	-0.04186642
241	0xbbbe1d73	-0.0058018505
242	0x3dac0d53	0.08400979
243	0x3c732f35	0.014842798
244	0x3d96d47b	0.07364746
245	0x3e9594c0	0.2921505
246	0x3d835efc	0.06414601
247	0xbeee1d5b	-0.4650677
248	0x3d4ec4e0	0.050480723
249	0x3eeef7a0	0.46673298
250	0x3f00a2ee	0.5024861
251	0xbd981b5d	-0.07427094
252	0x3f025767	0.50914615
253	0x3e2c3cbb	0.16820042
254	0xbc68f1e8	-0.014217831
255	0x3e8acd00	0.27109528

layers.4.bias f4 [2]
0	0x3eca3a28	0.39497495
1	0x3ee0b627	0.4388897
