ddqn_models/whole/ddqn_900_1.0.pth (torch_old, 69813 bytes, 6 tensors)

layers.0.weight f4 [128, 2]
00000000: 7d36 3e3e 4f67 39bf 7837 a03f 36da 98bf
00000010: e864 9b3d 6099 17be 6f28 3a3f 6122 533e
00000020: 62bc 1d3f 7dae d53f 9b46 0ebe f656 3abe
00000030: cd08 4dbe d2f6 523e 01af bb3e 4b2c 563f
00000040: 82fa d2bf 4b83 b4be 84f6 abbe 8215 ebbe
00000050: b237 d0be 7044 5bbf c563 d7be eb67 ce3e
00000060: 613c 43bf f65c 23be 95d7 a83d 459f 92be
00000070: 311a 34bf 7dfc 9dbe 9df0 e5bf b1df ce3f
00000080: f1d5 f43f b15d 943f 807b acbb 0023 0fbe
00000090: 9f61 d93e 1dc5 acbd 8170 853e 4bd7 6b3d
000000a0: a4fa f1bc 5656 8abe af96 5f3f 2030 acbf
000000b0: 43f8 9abe 84c0 cf3e f6e4 c83e 5ef2 553d
000000c0: 0c53 06c0 1229 f33e 43d3 57bf 8826 98be
000000d0: 2511 18be 84e9 43be 487c 18be 4bf2 393f
000000e0: 0268 21c0 f28f 793e f3cd d43f 0323 bd3d
000000f0: 5a6c fa3e 3855 87bf 834b 9ebf c7d8 1abf
00000100: a04c 02be 70ae e93f e1e2 0fbe 483b 0d3d
00000110: c00b 783f eca6 aabf 0f0e 873e d933 12be
00000120: 80ac 1f3c e835 f6bd ca2d 6abf fb5d 48bf
00000130: 62a0 a03f 1aaa 013f 0336 3ebd 7911 67be
00000140: 9053 f2be cfd1 203f cf04 5d3e f096 0ec0
00000150: dcfa 0dbf 3d83 2a3f 1575 173d 6a14 343f
00000160: 9fb6 b33e 388c bd3d 8e0a 453e 5642 253e
00000170: 9cff 4c3f e9df 983f 2d30 da3d fce7 f8be
00000180: 7680 fdbf 001b 2ebf 9b82 b43d d897 a5bf
00000190: 8555 8c3f e0ad 67bf eed6 8b3e c461 4f3d
000001a0: b27e 903f 09f0 c7bf 1b23 c6be 042f 6e3f
000001b0: 2233 073f 107a 0d3f 4aa1 a73d f764 8d3e
000001c0: 63c7 14be 20fe f93e cecb 54be c1a2 acbd
000001d0: db6c 9e3d 5023 e93e 5fda f03e 0003 18bf
000001e0: 5aee aa3f e0c0 a0bc 9f8e 523f c707 8b3e
000001f0: 663e e8be 406a 133f 6ea4 c6be 7744 3d3f
00000200: 6132 de3e 3ba6 71be 2df7 1d3f e8e8 9b3f
00000210: a381 e83e 9ed3 013d b78d bcbe 10d8 853e
00000220: 1501 f83e f130 4c3e d8f6 193f fb79 243f
00000230: 1af8 5fbe eaf7 663e b674 853f 65fc 003f
00000240: 0735 cd3e e475 563d 4356 6ebf 299b 1dbf
00000250: a8fd 983f 4967 aa3f 71ab 8e3f f861 403f
00000260: 51c1 5d3f 8242 8a3e b72b 3abf ae19 89bf
00000270: 7e8f 913f e89a 9b3f f8b8 2abe 5be6 b73d
00000280: 9f2d 363f 2009 b93f 6682 3c3f 225a 9f3f
00000290: 7848 12bd b113 04bf 12b9 a53f d4aa 713f
000002a0: 0814 83bf 256b 68bd c75a ad3f c185 bf3f
000002b0: 7bde fabd 0bc0 4e3d fe7a a6bf 2647 8a3f
000002c0: b6d1 1e3e 80b6 583d e772 573e 2839 be3e
000002d0: 592a 143e 217e 753d 3c5f b2bf c22b 49bf
000002e0: 74d6 3bbf b0e2 8fbf 094f 17bf c1f0 df3f
000002f0: d5c4 b63f 651e 273f 07dc 483f 3898 da3d
00000300: c9fa 46bf 04f0 19bf d6f8 ecbe f1ca 24be
00000310: b95f e93a 701a 90be 3ed4 23bd a55c 84be
00000320: 5b0b 1b3f 66a6 b13f c9a3 e73e d37c a73f
00000330: 9b31 013f 30b7 323e 9c60 e23f be4c ca3f
00000340: 441f 343f 4b29 a43f 78d0 a73e 03a9 bc3f
00000350: 5335 cdbf 7e63 8abf e82f 753f c54d e7bd
00000360: cd0f 9c3e e3fa aabf 36d7 27c0 aebb 7bbe
00000370: d41d db3f 12ee 2d3f 1cb5 e5bf c76d 023e
00000380: 11eb 0d40 6945 583f 5b1b 5f3e 68e3 783e
00000390: 39f5 933f fa1a c6be 86b7 f13f c571 a03f
000003a0: a4a0 82be 3889 ecbc da67 9ebd 05bb 30be
000003b0: 5eb6 9d3f 1a5f 6e3e 95e6 ce3e 8acd 40bf
000003c0: fe8a 513d efe0 99be 64df 583e 7432 e63e
000003d0: 3530 ff3e 8c64 7fbf eb76 863f f868 1c40
000003e0: 302c eb3f a312 02bf e9a0 d13e df1e afbd
000003f0: bc78 d4bc 7cc4 503e 9031 b7bf 1e03 793f
0.18575473 -0.7242326 1.2516928 -1.1941593 0.07587606 -0.14804602 0.72717947 0.20618583
0.61615574 1.6693875 -0.13894121 -0.18197235 -0.20022888 0.20601967 0.36656955 0.83661336
-1.6482699 -0.3525642 -0.33586514 -0.45914847 -0.40667492 -0.856513 -0.42068306 0.40313658
-0.76264006 -0.1595343 0.08244244 -0.28637138 -0.70352465 -0.30856696 -1.7964054 1.6162015
1.912779 1.1591092 -0.005263746 -0.13978195 0.4245729 -0.08436034 0.26062396 0.057578366
-0.02953846 -0.27018994 0.873393 -1.3452187 -0.30267534 0.40576565 0.39237183 0.052233092
-2.0988188 0.47492272 -0.84306735 -0.29716897 -0.1485029 -0.19132048 -0.1489116 0.72635335
-2.5219731 0.24371317 1.6625351 0.092351936 0.4891079 -1.0572882 -1.2366794 -0.60487026
-0.12724543 1.8256359 -0.14051391 0.034480363 0.9689293 -1.333219 0.26377913 -0.14277591
0.009745717 -0.120220006 -0.9147612 -0.782684 1.2548945 0.5065018 -0.04643823 -0.22565259
-0.47329378 0.6282014 0.21583866 -2.2279625 -0.55460906 0.66606504 0.036976893 0.7034365
0.35100266 0.0925526 0.19242308 0.16138586 0.8007753 1.1943332 0.1065372 -0.4861449
-1.9804828 -0.6800995 0.088139735 -1.2936964 1.0963598 -0.9049969 0.27312416 0.050630346
1.1288664 -1.5620128 -0.38698658 0.9304049 0.528124 0.5526438 0.0818506 0.27616093
-0.14529185 0.48826694 -0.2078087 -0.0842948 0.07735606 0.45534754 0.47041604 -0.5937958
1.3353989 -0.01962322 0.8224887 0.2715437 -0.45360106 0.57584 -0.38797325 0.73932594
0.4339781 -0.23598568 0.61705285 1.2180452 0.45411405 0.031695955 -0.3682687 0.26141405
0.48438326 0.19940545 0.6014228 0.6424863 -0.21871987 0.22555509 1.0426242 0.50385123
0.4007952 0.052358523 -0.93100375 -0.6156488 1.195241 1.331277 1.114607 0.7514949
0.866231 0.27003866 -0.72722954 -1.0710962 1.1371915 1.2156649 -0.16672122 0.08979484
0.7116336 1.445591 0.7363647 1.2449381 -0.035713643 -0.51592547 1.2947104 0.9440129
-1.0240488 -0.056742806 1.3543328 1.4962693 -0.12249466 0.050476115 -1.3006284 1.0802963
0.15509686 0.05290842 0.21039926 0.37152982 0.1446928 0.05993474 -1.3935313 -0.78582394
-0.73374104 -1.1241055 -0.59104973 1.7495347 1.4278818 0.65280753 0.78460735 0.10673565
-0.7772642 -0.6013186 -0.46283597 -0.16093041 0.0017805017 -0.2814517 -0.03999733 -0.25851932
0.605642 1.3878906 0.45242146 1.3084968 0.50466317 0.17452693 1.7685733 1.580467
0.7036021 1.2825102 0.32776237 1.4739078 -1.6031898 -1.0811613 0.95776224 -0.1129413
0.30480805 -1.3357815 -2.6225104 -0.24583313 1.7118478 0.6794139 -1.7945895 0.12737189
2.2174723 0.8448091 0.21787779 0.24305499 1.1559211 -0.38692456 1.8884132 1.253472
-0.25513184 -0.028874025 -0.07734652 -0.17258842 1.2321279 0.23278466 0.40410295 -0.7531363
0.051157944 -0.30054423 0.21178967 0.44960368 0.49841467 -0.997628 1.0505041 2.4439068
1.837286 -0.5080969 0.40943077 -0.0855081 -0.025936477 0.20387453 -1.4312 0.9727038

layers.0.bias f4 [128]
00000000: d51e 493f 2ad1 363e 584b f1be e864 a3bf
00000010: dda2 3c3e 1827 3abf dacb 083f e511 d1bf
00000020: 31a9 2cbf 7960 a6bf aa3b 08bf 332d 363f
00000030: 6512 adbf 6457 503f 83e8 79bf 9ade 1bbe
00000040: be8f 29be 853a 23bf 3666 423f f4ba ed3e
00000050: eefa 683f f351 033e 717c aebf 9637 3a3f
00000060: b1c2 a93d debe e13e 575c 41bf 7c12 a0bf
00000070: 2f09 35bf c13f 08bf 79c6 03be 1275 a5bf
00000080: 6b42 853e 3b99 233f 749a 403e a48f 4fbf
00000090: 0d59 0cbf 25c0 58bf a200 293e 49f0 6d3f
000000a0: fcf1 333f 1a3e 4fbf 447f ab3d ca52 cbbf
000000b0: 56fe 79bf 3995 fe3e e8ae 8bbe f842 f53e
000000c0: f7bb 7fbd 2f58 1ebf 4ba4 4abf 49bd 023f
000000d0: 9691 b23e dd01 0d3f 2124 f83e 7b2f 053f
000000e0: 05a1 793e 669d 1bbf e0f2 81bf c706 393c
000000f0: 2c59 b6be cc64 8abf 4f69 373f 57f0 56bf
00000100: fade a6bf 2538 823d 02c8 4e3f ec70 5a3f
00000110: 1ebe b8bf 3db8 113f b1cb 143f 3f42 0c3f
00000120: f458 3e3f 923f 59bf e4fc 543e aca4 8d3e
00000130: 69b3 83bf 58a7 803e 1327 fbbe 4d0c 2d3f
00000140: ae20 21bf f3c8 53bf 1830 b93e 9b6d 7e3e
00000150: 22af 02bf 68db 2d3e 8fd8 1b3f 28e7 0b3e
00000160: 8d55 723e fa46 a4bf cfcd 6a3e f775 56bf
00000170: 4167 7bbf 3415 28be 35d9 1e3f 3865 9dbf
00000180: 1783 a33d dc04 9cbf 69b7 663f 8966 6c3f
00000190: 3f4e 82bf f64c 8dbf 67f5 b0bf 7384 3c3e
000001a0: 06e1 43bf 4f9a c1be 5c77 bebd e0af ca3d
000001b0: c3f1 cebe f60a 00be b77f 04bf 6787 c33d
000001c0: 814c 243e 223d 2f3f a663 a6be 2eb3 903e
000001d0: 8da0 13bf bd17 663f 3236 81bf 06a4 94bf
000001e0: bf97 5c3f 928e a6bf 3fc1 ad3d 9ed2 0bbe
000001f0: 96eb 10bf ec96 86bf dd1e 1e3f 3bac 3ebb
0.7856267 0.17853227 -0.47127795 -1.2765169 0.18421502 -0.727159 0.5343605 -1.6333586
-0.67445666 -1.2998191 -0.5321604 0.7116272 -1.3521239 0.8138335 -0.9762041 -0.15221635
-0.1655874 -0.6376117 0.7593721 0.46431696 0.9100789 0.1282423 -1.3631727 0.7274107
0.082890876 0.44090933 -0.75531524 -1.2505641 -0.7071714 -0.5322228 -0.1286868 -1.2926352
0.26027235 0.63905686 0.18808919 -0.81078553 -0.5482338 -0.8466819 0.16504148 0.9294477
0.70291114 -0.80954134 0.08373883 -1.588464 -0.9765371 0.49723223 -0.2728188 0.47902656
-0.062435117 -0.6185331 -0.7915694 0.51070076 0.34876698 0.5508097 0.48465064 0.52025574
0.2437783 -0.60787046 -1.0152245 0.01129312 -0.35614908 -1.0812011 0.71645063 -0.8396048
-1.3036797 0.06358365 0.8077394 0.85328555 -1.4433019 0.5692175 0.5812331 0.54788584
0.7435448 -0.84862626 0.20799595 0.27664697 -1.0289127 0.25127673 -0.4905325 0.67596895
-0.6294049 -0.827285 0.36169505 0.24846499 -0.5104848 0.16978228 0.6087732 0.13662398
0.23665448 -1.283416 0.22930072 -0.8377375 -0.9820443 -0.16414338 0.6205018 -1.2296515
0.07983988 -1.2188983 0.9012361 0.92343956 -1.0180129 -1.1039112 -1.3824891 0.184099
-0.76515234 -0.3781304 -0.0930011 0.09896827 -0.40418825 -0.12504181 -0.5175738 0.0954731
0.16044809 0.68452656 -0.324979 0.28261703 -0.57666856 0.8987997 -1.0094664 -1.1612556
0.86169046 -1.3012259 0.084841244 -0.13654563 -0.56609476 -1.0514808 0.61765844 -0.0029094357

layers.2.weight f4 [128, 128]
00000000: f333 92bd 7de2 5cbe 94d6 f6bc 8c85 9ebe
00000010: b97f a03e cbaf aa3d 3c9d ac3d 3dbf 553f
00000020: e558 d0bf 4c4a 4bbf 8ecf 67bf 473c 123e
00000030: 7996 343e de66 d5bd 0f79 8d3e 4f66 bebe
00000040: c4fe ddbd 34df a7bd e5d1 043e aa54 663e
00000050: 01c6 1dbd 8d49 acbe cbfa 753f 740b 3f3e
00000060: ab04 00bf f734 55be f05b 923c e6c7 09bd
00000070: 516d 64be b3b7 023f 60fe 473d 7f6b 8bbf
00000080: af15 a33e 608d 313e f903 fabd 25b6 67be
00000090: 2a9f 9cbd d7d2 09c0 5eac c33b bcf9 b83d
000000a0: 17af ee3d 1a4b debf 7b7e 343d 23d4 4ebe
000000b0: fd85 71bd 4190 9e3d 003b c4be c705 62be
000000c0: 9968 0fbf c79d 24bf 4245 9b3f 9d91 873d
000000d0: 707b 90bf 7ace 1e3e 57ab 593e e6db 4c3e
000000e0: ddac 9abd 9851 e4bd 6452 953d abec 53bf
000000f0: e8b3 1ebd e2d2 c13e 2f98 3e3e b3ec 92bf
00000100: 48ad ba3e 618d 143e 97af 6a3e 4b4c a03c
00000110: 0e72 75bf 0d17 383e fb88 e73d 657c 523e
00000120: 011c 403e 2b42 55c0 6348 fc3e 50cb 383e
00000130: 8248 863e ffd7 dabe d203 5abf 0d73 2d3e
00000140: f4cb 6bbc 964c 5a3e 1c9f b9bd 6512 993e
00000150: 9a41 c33f 22df df3e c31d 8a3d 38b5 2e3f
00000160: 08ef cd3c 7f5b 81be c383 f93d b18c aebf
00000170: c86b a4bf 0b37 9e3f 9bed 033e dd64 fbbe
00000180: 04cc 01bf 1326 1b3f da33 4fbd 13db fe3b
00000190: fbf3 a43e 204f cd3e 5efe 2abf e73d 973d
000001a0: db33 783d 470e 823e 48a0 c93c f044 80be
000001b0: c196 96be 7ce5 42be 578e a53e 04f6 603f
000001c0: ab76 e5bd 1286 3e3e dae9 8b3d 71f9 473d
000001d0: 1525 f33e 28b4 5e3d c825 a33f a1c7 91bf
000001e0: 1899 0e3e 3443 d73c 8495 7abe 060b fe3e
000001f0: a9d9 33bf 8846 293d 5cd2 f83d bc67 2abf
00000200: 4626 d43d 4c78 243f 426e 113d 3864 02bf
00000210: 91fb 813e 0f74 ab3d f83d 303d 4e30 173f
00000220: 1629 cabf d68a 2bbf 5216 f1bf 5c79 0b3d
00000230: e55b 983d fd2d 3ebc 2ed3 d93e 747e fabf
00000240: 8844 9abd 2098 1cbc c54e cd3d 7ea4 293e
00000250: ccdb 6abd 5d35 a03e d0ae a13d 3e67 ab3d
00000260: e930 cbbf 2272 cabe 11c9 b03d df2b 15bf
00000270: 05ba f83f c29b d3bf 0590 c83e 565e 70bf
00000280: a28e a43e 0290 c0bb 9681 083f ffef 20bf
00000290: f7d9 4ebd fdf3 dbbf 85ab a23e fdcd 6dbd
000002a0: a769 1a3e 41f2 0abf 34f1 343d 8764 873c
000002b0: edcb 19be 6ca2 6c3d 59ad 82be ad04 b0bc
000002c0: 84f6 5bc0 b37e 85bf 73c2 e6bf 05f0 b83c
000002d0: cee4 cebd 9a8b d53d b360 203e aebe c33c
000002e0: c0c0 65be 94a1 203e 2915 6c3d 5199 90be
000002f0: 0354 abbf a0be b0bf 12e3 d23c 4171 c1bf
00000300: 2b47 10be 6fa1 f1bc 3d64 083e c373 0e3b
00000310: 3d16 83bf 4e72 253e f345 15bd 08cd ae3d
00000320: 4d5e 033e 00b0 d0bf 5227 ef3e 4e49 8e3e
00000330: d66b 2fbf 9662 d3be 39d1 2fbf db5d 253e
00000340: 76bd f2be 19ad 1cbf eae2 13bc 4ab9 713e
00000350: 19ed 3a3f 55bc 0f3f 7cf6 013e 3e6a fa3c
00000360: c0f0 043e 9cdf 3fbe def1 e43d fce7 c7bf
00000370: 4497 1abf dda8 953e 712a 293e 8dac 53bf
00000380: 8ef8 0cbf eb30 ae3e 4070 12bd 5e63 e3bd
00000390: 9b02 d1be 317e 44be da43 5dbf f8a9 f83e
000003a0: 441c a7be 27cd 65be cd4e 17c0 06c9 863e
000003b0: 10b3 1abe 287c 12c0 d2e8 67bf dc09 63bf
000003c0: 6670 cabe 3647 1f3d ad12 0fc0 045d 7d3e
000003d0: e765 693f 79cf 0c3e 278d b63d e7ae fdbf
000003e0: aab3 bd3d 40c9 4c3c 8c99 1e3e 1749 4ebe
000003f0: d8dc 13c0 d7a7 b5bf 2699 b03d 468f cfbf
-0.07138815 -0.21570773 -0.030131616 -0.30961263 0.31347445 0.08334311 0.084284276 0.8349493
-1.6277128 -0.79410243 -0.9055108 0.14280806 0.17635526 -0.10420011 0.27631423 -0.3718743
-0.10839608 -0.081968695 0.12970693 0.22493234 -0.03851891 -0.33649865 0.96085805 0.18656713
-0.5000712 -0.20820986 0.017866105 -0.033637904 -0.22307326 0.5106155 0.048826575 -1.089218
0.3185248 0.17339087 -0.12207789 -0.22628076 -0.07647546 -2.1534936 0.0059714755 0.09032008
0.116544895 -1.7366669 0.044065934 -0.20198111 -0.05896567 0.07742358 -0.38326263 -0.22072516
-0.5601898 -0.6430325 1.2130511 0.066195704 -1.128767 0.15508452 0.21256767 0.2000576
-0.07552502 -0.11148375 0.072911054 -0.82783 -0.03874579 0.37856203 0.18612741 -1.1478485
0.36460328 0.14507057 0.22918545 0.01956763 -0.9587716 0.17977543 0.11305424 0.20555265
0.18760683 -3.3321636 0.49273977 0.18046308 0.26227194 -0.42742917 -0.8516208 0.1693842
-0.014391888 0.21318278 -0.09063551 0.29896846 1.5254395 0.43724924 0.06743958 0.6824527
0.025138393 -0.25265118 0.12183335 -1.3636686 -1.2845392 1.2360548 0.12883608 -0.4910039
-0.5070193 0.6060497 -0.05058656 0.0077775805 0.32217392 0.4009943 -0.66794384 0.07384854
0.06059633 0.25401518 0.02461256 -0.25052595 -0.2941189 -0.19032854 0.3233516 0.8787539
-0.11204275 0.18605831 0.06831713 0.04882187 0.4748923 0.05437103 1.2745905 -1.1389047
0.13925588 0.026277162 -0.24471098 0.49617785 -0.70254 0.04132703 0.12149498 -0.66564536
0.103588626 0.6424606 0.03550554 -0.5093417 0.25387242 0.08371746 0.043027848 0.5905808
-1.5793788 -0.6700872 -1.8834937 0.034051284 0.074394025 -0.011607644 0.4254393 -1.956984
-0.075326025 -0.009557754 0.1002479 0.16566655 -0.05733852 0.31290713 0.07894671 0.08369301
-1.5874301 -0.395402 0.086321004 -0.58270067 1.9431769 -1.6531909 0.39172378 -0.93893945
0.3214007 -0.005876542 0.5332273 -0.62866205 -0.050500836 -1.7183834 0.31771484 -0.058057774
0.15079366 -0.542759 0.04417534 0.016527427 -0.15019198 0.057772085 -0.2552288 -0.021486605
-3.4369211 -1.042929 -1.8028091 0.022575388 -0.10102235 0.104270175 0.15661888 0.023894634
-0.2243681 0.15686637 0.057637367 -0.2824197 -1.3385013 -1.3808174 0.025743041 -1.5112687
-0.14089648 -0.029495923 0.13319488 0.002173648 -1.0241162 0.16156885 -0.036443662 0.085352
0.12828942 -1.6303711 0.46709687 0.27790302 -0.6852392 -0.41286153 -0.68678623 0.16149084
-0.47410172 -0.61201626 -0.0090262685 0.23605838 0.7301803 0.56146747 0.12691683 0.030568238
0.12982464 -0.18737644 0.11178945 -1.5617671 -0.60387063 0.29230395 0.16520096 -0.82685167
-0.55066764 0.34021696 -0.03575158 -0.11102937 -0.408223 -0.19188763 -0.8643166 0.48567176
-0.32638752 -0.2244154 -2.3641846 0.26325244 -0.1510737 -2.288828 -0.9058963 -0.8868692
-0.39538878 0.03888627 -2.2355149 0.24742514 0.91171116 0.1375102 0.089136414 -1.9819001
0.09262784 0.012499154 0.15488261 -0.20145069 -2.3103542 -1.4191846 0.08622961 -1.6215599

layers.2.bias f4 [128]
00000000: b4bc 4f3e 7c66 a33d 9dd0 e93e a975 a9bd
00000010: fe02 3e3d 802b d13e eb4f b13e cca9 0abf
00000020: 97bc 68be d15b 3d3e 4e72 cdbe 4652 e6bd
00000030: b50d fabe 741a b73e e652 13be 3153 6fbe
00000040: ed62 08bf b734 ff3e e428 15bf f4da f1be
00000050: 5326 dabb 75cb 1bbf 7234 02be b1d0 15bd
00000060: e7a5 eb3e 8a20 ca3e 032d a83c 3d2d 8b3e
00000070: a2f4 13bf 3cff 0a3f 0785 b6be c82f 523d
00000080: fc85 513d e516 5dbd 344a dabd ce82 fcbd
00000090: a129 b63e a866 71bd 25c2 febe 4814 ce3c
000000a0: 98a9 89bc d01f 28bf 4ba5 08bf 455e 92bd
000000b0: badc 19bf 6b72 5bbb cc82 23bd 79d7 c3bd
000000c0: fbdc bcbe c316 3cbb 4dd0 583e 3ef0 313d
000000d0: 40a1 283e 14bb 64bd 2254 88be edff 8c3e
000000e0: 2f29 8dbd 6de9 073e e7a8 c83d 3b59 023f
000000f0: 3576 2cbf b70c 943e ab00 913e e2e6 7c3c
00000100: 250c 943e 9a64 0cbe eb07 4ebc e6ab 923e
00000110: b43a a3be de9b 1abf 8b47 e23e 3082 f8bd
00000120: 5872 82bd 9c13 64bc d0f1 43bd 58b2 1f3e
00000130: 2abb 9d3e ea15 1ebf a4d5 d3bd 58d7 0a3d
00000140: 631a 2abd 379d c7bc eaff 813e 8f78 a63e
00000150: b7e2 72ba ec0b 20bf 25a6 223d 371d 8d3e
00000160: 1aef 0e3f b52d e73e 7a08 1fbc b0ae c63e
00000170: e405 093f aa19 693e 5796 023f 606c e5bd
00000180: dbee 28bd 0082 47bd aca2 94bd f1db 893e
00000190: 2ebe f7be 74d2 593e 3195 f4be 6ad7 653d
000001a0: 94ed c1be 6a05 f4be e5bd ba3e 34b1 5b3e
000001b0: d460 cdbe a72d 0fbe ed18 35bd d203 d63e
000001c0: 305b a0bc 1ca9 5cbd a4e1 e7bc aa31 203d
000001d0: 2301 9dbd 78ef b73e 6f00 99bd ce30 8ebd
000001e0: 65a2 fbbc 0e92 d53e a7e8 c93e 036c 54bd
000001f0: 3204 c83e d3a6 593e 58db 91bc 6e6f 023e
0.20286828 0.07978532 0.45666972 -0.08274395 0.046389572 0.408535 0.34631285 -0.5416534
-0.22728191 0.18492056 -0.4012627 -0.11246161 -0.48838583 0.3576237 -0.14387092 -0.23371579
-0.5327595 0.49844906 -0.5826552 -0.4723736 -0.0066574006 -0.60857326 -0.12715319 -0.036575977
0.4602501 0.3947795 0.020529276 0.27182952 -0.57795155 0.54295707 -0.35648367 0.0513151
0.051153168 -0.053976912 -0.106586844 -0.123296365 0.35578635 -0.05893579 -0.49757496 0.025156155
-0.016804501 -0.6567354 -0.5337722 -0.07146887 -0.60102427 -0.0033484946 -0.03991966 -0.095625825
-0.36887345 -0.002870009 0.2117321 0.043442003 0.16467762 -0.055842474 -0.26626688 0.27539006
-0.06892621 0.13272639 0.097978406 0.50917405 -0.6736787 0.2891595 0.28320822 0.015435906
0.28915516 -0.13710251 -0.01257513 0.28646773 -0.31880724 -0.60394084 0.44195208 -0.12134206
-0.063694656 -0.013920691 -0.047838032 0.15595376 0.30806857 -0.6175219 -0.10343483 0.033896774
-0.04152907 -0.024366958 0.2539056 0.32513854 -0.00092653505 -0.6251819 0.03970923 0.27561352
0.5583359 0.4515206 -0.009706611 0.3880515 0.53524613 0.22763696 0.5101065 -0.112023115
-0.041243415 -0.048707962 -0.0725759 0.26925614 -0.48387283 0.21271688 -0.47770074 0.056113638
-0.3787657 -0.4766038 0.36473003 0.21454316 -0.40112936 -0.13982259 -0.044213224 0.4179979
-0.019574732 -0.053872213 -0.028305836 0.039109863 -0.076662324 0.35924888 -0.07470786 -0.069429025
-0.030717084 0.41712993 0.39435312 -0.05186082 0.390657 0.21255045 -0.017804787 0.1273782

layers.4.weight f4 [2, 128]
00000000: bc58 083f 93ac b63f 2ec7 dd3e 8f62 afbd
00000010: 14a1 91bc 4d5d b83e 3635 ca3e ade2 0ebf
00000020: 00ff 2bbf 16e4 fc3e ec89 b9be d3bb f4bb
00000030: 0583 33bf e998 e0bd 6f7f 13ba 2083 4dbf
00000040: 49ce 3cbf 4d46 ce3e 7178 7dbe 049c 5e3f
00000050: e4d4 64bd 3618 363f 7de8 a4bc 019f 2cbb
00000060: c7fc ce3e ea16 d43e 7354 7abd 57c6 ba3e
00000070: 213c 0b3e 026a c13e e9cf 7b3f 21a6 b9be
00000080: 0ba3 33bd aed6 a23d c7ed efbc aaa8 83bf
00000090: 0984 c33d a885 f03c 60fd 133b 59f6 a43f
000000a0: 0566 8f3b 2819 32bf 86c9 0abf 3398 01bd
000000b0: 7355 18bf 15ad ad3c 0d8f 19be 91f2 c03e
000000c0: 1586 16bf 16fe 763d 996c 02bf 646e 623b
000000d0: 53c0 f33e dbf7 543e 4a09 ddbe 4bec df3e
000000e0: b2b1 3ebd 0a6d ea3f b058 bbbe 656f e93e
000000f0: 1dd0 2bbf dcc3 c43e 2536 b3be ed90 05bf
00000100: 14fc 253d befa fe3d 62f5 c3ba 0ded d23e
00000110: 752c 69bf 3db7 0dbf a10d e73e 81c8 543d
00000120: b0ef af3b 76af 043d 52a5 acbd da8d 443f
00000130: 844e b03e d803 313f 9409 1bbf 2b33 ecbd
00000140: 5dd5 813d 866e 48bf a29e 9c3d 6683 b83e
00000150: 281e bb3d f042 5fbe 5f0d 1dbd 9aac e73c
00000160: fa55 b53e f6bb b43e d100 623c c6ee e23e
00000170: 3474 d83e beb1 433e f5b1 ec3e 7d27 51bd
00000180: 2704 cb3b 5846 15bd 4d3c 90bc 741d c13e
00000190: b63d 34bf 364e d03e 0bf5 43bf 9c08 fabe
000001a0: 1cae 413f bc8c 3dbf bfbd c03e b7f3 243e
000001b0: 1c0c d03c 45f4 49bf fc8a 88bd 30fb d43e
000001c0: e06a 8cbd f1d2 a53c 4e66 113d 9f3f 9b3c
000001d0: 04ad dc3c 5bf3 eb3e 10bd 8dbd 3700 703f
000001e0: da6e 64bd bc58 e63e fd6a e13e f338 933c
000001f0: 043b cf3e be44 a73f efcd a93d 0a74 ae3e
00000200: b6d0 e83d 0e7c 103f c129 d23e 47df 2dba
00000210: 9494 c63c 6485 0f3f 4180 883e f95f 3abf
00000220: 6493 d53d fe29 f53e 5cc0 393e fe38 b53b
00000230: f442 0dbf 7909 83bf 79ea b13c f9cd 003d
00000240: eb4c 0bbf 4dfa d43e ddef 103f 634f 4b3e
00000250: 0150 52bd a7dc 1bbf b354 54bd 029a 2cbc
00000260: 31bf db3e 7301 3d3e cf1d 7e3d abc6 db3e
00000270: 7f88 74bf ca85 163f b069 1b3e 7f7f 393f
00000280: c6c0 783a 3905 b0bc 3d04 01be f34f 5a3f
00000290: 4661 ce3e b1e8 31bd 30c7 7d3e 19f8 25bf
000002a0: 0296 41bd 896a 15bf b6b1 423f 63d4 abbc
000002b0: 7387 22bf 5264 debc 6b36 11bd 4801 5c3e
000002c0: 77b4 3e3f 10bc a83c f9ea 143f ec7b 0bbd
000002d0: fb37 ff3e 1915 a03d 7f34 2b3f 4209 58bf
000002e0: 2de8 4f3c 975b 573e 81ab da3e 6463 fe3e
000002f0: cd91 22bf efc1 783e 8f80 cbbf 6e96 313f
00000300: 7303 b03e a0a2 5ebf f548 7ebd 14c5 db3e
00000310: e9ef f6be ddd8 3cbf 4580 153f eec1 a4bd
00000320: 373e a2bd f3d4 82bc f046 7f3c fb9c 753e
00000330: 88b9 7b3e 0814 03bf 055c 2b3f dc46 513e
00000340: c5c5 0b3c 4c4f 55be d967 e83e a14a 9c3e
00000350: 1b8e cebd ea95 9bbf 6bea 6a3d d80e 083f
00000360: fd1e 193f 2f69 9a3e 0118 6b3d d75c e03e
00000370: 8755 fb3e 1bb4 bf3e ca09 093f 183d 983c
00000380: 5a0c e33b 9e86 82bd f120 01bd 5343 a33e
00000390: e287 8abe 9248 a43e 5357 403e 75ac 923f
000003a0: 033e ff3e f21c edbe 7535 a53e 84ec 863f
000003b0: 73d5 39bf 7385 03be b8c1 5e3d b7f5 9b3e
000003c0: 207c 2bbd 731d bebb 530d ac3d 352f 733c
000003d0: 7bd4 963d ed32 863e fc5e 833d 005d 03bf
000003e0: e0c4 4e3d ffef ea3e b6d8 fe3e 5d1b 98bd
000003f0: 82da ff3e 3587 253e e8f1 68bc f88a 8e3e
0.532604 1.4271415 0.43316025 -0.085637204 -0.017777003 0.36008683 0.39493722 -0.5581463
-0.67185974 0.49392766 -0.3623804 -0.0074686795 -0.70121795 -0.10966665 -0.0005626594 -0.80278206
-0.73752266 0.4028801 -0.24752976 0.8695681 -0.05586709 0.7113069 -0.02013039 -0.002633989
0.4042723 0.41423732 -0.061115693 0.36479446 0.13597156 0.3777619 0.9836412 -0.3625956
-0.04385666 0.07951103 -0.029288186 -1.0285847 0.09546668 0.029360607 0.0022581443 1.2887679
0.0043761753 -0.69569635 -0.5421375 -0.03163929 -0.59505385 0.021200696 -0.14995976 0.37685063
-0.5879834 0.06030091 -0.50946957 0.0034550661 0.4760767 0.20797674 -0.4317115 0.43734965
-0.046556182 1.8314526 -0.365911 0.455928 -0.6711443 0.3843068 -0.35002246 -0.52174264
0.040523604 0.12450169 -0.0014950449 0.4119648 -0.9108346 -0.55357724 0.45127586 0.051949028
0.005369149 0.032393895 -0.0842997 0.7677895 0.34434903 0.6914649 -0.6056149 -0.11533197
0.06339524 -0.78293645 0.07647444 0.3603775 0.09136611 -0.21802878 -0.03834283 0.028280545
0.35417157 0.35299653 0.01379414 0.44322795 0.42276156 0.19110772 0.4622952 -0.05106305
0.0061955634 -0.03644404 -0.017606879 0.37717783 -0.70406663 0.4068467 -0.7654578 -0.48834693
0.75656295 -0.7404287 0.37644765 0.16108595 0.0253964 -0.7888835 -0.06667134 0.4159789
-0.06856322 0.020242186 0.035497956 0.018951235 0.026937969 0.46084103 -0.069208264 0.9375033
-0.05576978 0.44989574 0.44026938 0.017971491 0.40474713 1.3067853 0.08291232 0.34072906
0.113679335 0.5643929 0.4104748 -0.0006632697 0.02424077 0.5606291 0.2666035 -0.7280269
0.10428503 0.478836 0.18139786 0.0055304756 -0.5518029 -1.0237266 0.02171825 0.03144643
-0.5441424 0.41597214 0.56616 0.19854502 -0.05134583 -0.60883564 -0.051838588 -0.010534765
0.42919305 0.18457584 0.062040146 0.4292501 -0.95520777 0.58797896 0.15177035 0.7246017
0.00094891747 -0.021486865 -0.12599273 0.8527824 0.4030859 -0.043434802 0.24783015 -0.6483169
-0.0472622 -0.58365685 0.76052415 -0.020975297 -0.6348793 -0.027147446 -0.035452288 0.21484864
0.7449412 0.020597488 0.5817104 -0.034053728 0.49847397 0.07816524 0.6687698 -0.84389126
0.012689632 0.21031033 0.42708972 0.49685204 -0.63503724 0.2429273 -1.5898608 0.6937016
0.34377632 -0.86966896 -0.062081296 0.42923796 -0.48229912 -0.7376841 0.5839885 -0.08044802
-0.07922023 -0.015970683 0.015580878 0.23985665 0.24582493 -0.5120244 0.66937286 0.20437187
0.008531039 -0.2083103 0.4539173 0.30525687 -0.10085698 -1.2155125 0.057352465 0.5314765
0.5981291 0.30158374 0.05739594 0.4382083 0.4908869 0.37442097 0.5353056 0.01858382
0.0069289627 -0.063733324 -0.031525556 0.31887302 -0.27056795 0.32086617 0.18783312 1.145888
0.49852 -0.46311146 0.32267347 1.0540929 -0.7259132 -0.12843876 0.054383963 0.30460903
-0.04186642 -0.0058018505 0.08400979 0.014842798 0.07364746 0.26210728 0.06414601 -0.5131378
0.050480723 0.45886227 0.49774712 -0.07427094 0.49971396 0.16164859 -0.014217831 0.278404

layers.4.bias f4 [2]
00000000: 6622 a33e aee5 c63e
0.3186218 0.38847107
