ddqn_models/whole/ddqn_700_1.0.pth (torch_old, 69813 bytes, 6 tensors)

layers.0.weight f4 [128, 2]
000000 40 0e ee 3b 12 c9 03 bf 57 58 a4 3f 41 1d 35 bf
       0.0072648823 -0.51478684 1.2839459 -0.7074776
000010 e8 64 9b 3d 60 99 17 be 3c eb 30 3f b4 ff b0 3e
       0.07587606 -0.14804602 0.6910894 0.34570086
000020 95 7c 2d 3f 4c 09 de 3f 9b 46 0e be f6 56 3a be
       0.6776822 1.7346587 -0.13894121 -0.18197235
000030 78 74 49 be cc 35 02 3e 3f f2 a2 3d 46 b6 83 3f
       -0.19673336 0.12715834 0.07956361 1.029
000040 f7 cb d1 bf f1 b6 8c be 7d 81 eb be 5b 70 74 bf
       -1.639037 -0.27483323 -0.4599723 -0.9548394
000050 82 6e 49 bf ae 44 9d bf 0f 59 13 bf a2 bb 91 3e
       -0.78684247 -1.2286584 -0.5755777 0.28463465
000060 91 94 24 bf 49 d9 f0 bc a1 cb ca bc d5 97 8d be
       -0.64289194 -0.029400485 -0.024755301 -0.276549
000070 71 51 28 bf d2 23 9d be 49 06 b2 bf 71 a7 af 3f
       -0.6574927 -0.3069139 -1.3908168 1.3722974
000080 1d 83 d2 3f fb 2f 8f 3f 80 7b ac bb 00 23 0f be
       1.6446263 1.1186517 -0.005263746 -0.13978195
000090 34 78 b6 3e 4e 04 9b bd 49 55 84 3e db 6d a4 3d
       0.35638583 -0.075691804 0.25846317 0.08028766
0000a0 dc 50 d7 bd 96 81 87 be 7b af 57 3f c5 5a 83 bf
       -0.105134696 -0.26466054 0.84252137 -1.0262076
0000b0 da 3b ab be 1b 04 e0 3e db ea b7 3e e7 dd 45 3d
       -0.334441 0.43753132 0.35921368 0.048307326
0000c0 4b a7 f1 bf 30 e5 0e 3f 47 8f 71 bf a6 54 94 be
       -1.8879179 0.5581846 -0.9435925 -0.28970832
0000d0 25 11 18 be 84 e9 43 be a4 cb 98 3d 65 a2 4e 3f
       -0.1485029 -0.19132048 0.07460716 0.80716544
0000e0 28 da ff bf f4 7a b3 3e 08 5e b5 3f 56 f1 3b be
       -1.9988451 0.35054743 1.4169321 -0.18353781
0000f0 00 69 c6 bd 44 02 76 bf 5e 10 9d bf 5f 17 42 bf
       -0.09687996 -0.9609721 -1.227062 -0.7581691
000100 0a 2a 8d 3c 06 db d7 3f ba 3b 58 be 06 9d d0 3c
       0.01723196 1.6863716 -0.21116534 0.0254655
000110 27 04 69 3f 70 7c 8b bf 0f 0e 87 3e d9 33 12 be
       0.9102196 -1.089735 0.26377913 -0.14277591
000120 80 ac 1f 3c e8 35 f6 bd fe 65 66 bf 3f be 3c bf
       0.009745717 -0.120220006 -0.8999938 -0.7372779
000130 df c4 a4 3f 2d d7 1f 3e 72 ea 08 be c2 94 7e be
       1.287258 0.15609427 -0.13370684 -0.24861434
000140 84 d7 1e bf 9a 5a 07 3f e8 ab 1b 3f 3e 9c 1b c0
       -0.620476 0.5287262 0.60809183 -2.4314113
000150 1c cf 5b be 05 e9 da 3e 15 75 17 3d 6a 14 34 3f
       -0.21465725 0.42755905 0.036976893 0.7034365
000160 9f b6 b3 3e 38 8c bd 3d 14 7b 23 3e 02 4b 1a 3e
       0.35100266 0.0925526 0.1596492 0.15067676
000170 41 bf 47 3f 66 b3 97 3f 44 5d 01 be 5c 8b e0 be
       0.78026205 1.1851623 -0.12633234 -0.43856323
000180 fa fa f5 bf a5 08 73 be 55 18 fe 3d 0e 47 b0 bf
       -1.9217217 -0.23733766 0.12406985 -1.3771684
000190 21 31 9a 3f 47 b7 44 bf fb 2a 75 3e 15 55 18 3d
       1.2046243 -0.7684216 0.23942177 0.037190516
0001a0 95 71 63 3f 59 a2 e2 bf e8 b3 35 bf 76 df 06 3f
       0.8884519 -1.7705795 -0.7097764 0.52684724
0001b0 a6 c5 06 3f f5 87 11 3f fd 1a d1 bb 26 4d 58 3e
       0.5264534 0.5684808 -0.006381391 0.2112318
0001c0 94 de fb bd d7 cd dd 3e ce cb 54 be c1 a2 ac bd
       -0.12298313 0.43321106 -0.2078087 -0.0842948
0001d0 db 6c 9e 3d 50 23 e9 3e 61 50 88 3e 66 0d 27 bf
       0.07735606 0.45534754 0.26623824 -0.6525482
0001e0 e9 7a 9b 3f f1 70 4c be 01 b0 23 3f 94 40 9d bc
       1.2146884 -0.19964959 0.63940436 -0.019195832
0001f0 11 2a 39 bf 24 8e ad 3e 25 6c 92 be 97 05 3e 3f
       -0.72329813 0.33897507 -0.28598133 0.7422728
000200 61 32 de 3e 3b a6 71 be cf 02 08 3f 37 43 8a 3f
       0.4339781 -0.23598568 0.53129286 1.0801762
000210 d1 72 e8 3e 89 a3 49 3d 7a 44 d4 be 90 63 86 3e
       0.45400098 0.049228225 -0.41458493 0.26247835
000220 15 01 f8 3e f1 30 4c 3e a3 87 1b 3f bf 13 1b 3f
       0.48438326 0.19940545 0.6075384 0.60577005
000230 ce e0 7f be a4 70 4b 3e 80 29 74 3f ee 5a cf 3e
       -0.249881 0.19867188 0.95375824 0.4049906
000240 cd 0c b6 3e bf aa 35 3d 67 ec 3f bf 59 90 60 bf
       0.3555664 0.04435229 -0.74970096 -0.8772026
000250 76 ee 86 3f a4 74 aa 3f 5b db 7b 3f f1 89 17 3f
       1.0541523 1.3316846 0.98381585 0.59194857
000260 48 5e a0 3f 3b 66 aa bd f6 fa 41 bf 22 15 7e bf
       1.2528772 -0.0832028 -0.7577356 -0.99250996
000270 12 3a a2 3f 4b 4f 86 3f 43 14 79 be 11 b4 5e 3d
       1.2673972 1.0492948 -0.24324135 0.054370943
000280 24 d4 2c 3f b1 ca a6 3f 52 bb b9 3e fe 39 7c 3f
       0.675112 1.3030607 0.36275727 0.9852599
000290 7f a3 53 be 05 4f d8 be ff 15 94 3f 31 cb 68 3f
       -0.20667838 -0.42247787 1.1569213 0.90935045
0002a0 c7 24 4c bf ef f9 b8 bc 04 40 c4 3f e7 66 c2 3f
       -0.7974362 -0.022580115 1.5332036 1.5187653
0002b0 58 fa 41 be 29 e3 2b 3d 0e b3 80 bf 71 e6 b4 3f
       -0.18943155 0.041964684 -1.0054643 1.4132825
0002c0 53 56 33 3e a8 20 35 3d e7 72 57 3e 28 39 be 3e
       0.17513399 0.044220597 0.21039926 0.37152982
0002d0 c3 fd 29 3e 33 44 1e 3d a6 87 c2 bf d7 ad a4 be
       0.16600709 0.03863926 -1.5197647 -0.3216388
0002e0 f8 1f 71 bf 57 44 a2 bf 6f f7 b4 bf 5d 63 bc 3f
       -0.94189405 -1.2677106 -1.4138011 1.4717823
0002f0 d6 11 a3 3f 66 d5 21 3f c7 17 36 3f 2a f0 93 3c
       1.2739818 0.63216245 0.7113003 0.018058855
000300 43 68 57 bf 0a e5 c7 be d6 f8 ec be f1 ca 24 be
       -0.84143466 -0.3904193 -0.46283597 -0.16093041
000310 90 20 bd bd 1e 19 8e be 9a dc f8 bd 2a c8 85 be
       -0.092347264 -0.27753538 -0.121514514 -0.26129276
000320 df fc 95 3e f5 f0 95 3f 09 e6 b5 3e f9 8c 91 3f
       0.29294488 1.1714159 0.35527065 1.1371146
000330 9b 31 01 3f 30 b7 32 3e a4 33 da 3f 82 99 bd 3f
       0.50466317 0.17452693 1.704701 1.4812472
000340 43 14 02 3f 08 40 88 3f 93 86 8f 3e d3 e4 a3 3f
       0.50812167 1.0644541 0.2803236 1.2804207
000350 dd 4b b4 bf fe be 31 bf 1f cb 80 3f 9e 65 f7 bc
       -1.4085652 -0.69432056 1.0061988 -0.030199822
000360 ef 68 7d 3e fc 47 b1 bf 4e fc 1c c0 d4 b4 2c bd
       0.2474706 -1.3850093 -2.4528995 -0.04216464
000370 56 7a c7 3f fc 7f 0a 3f c5 ad eb bf 6a 4c c3 3e
       1.5584209 0.5410154 -1.8412405 0.38144237
000380 9f 44 07 40 36 1f 2f 3f 0f fd 52 3e 86 86 6a 3e
       2.1135633 0.68407 0.20604347 0.22902879
000390 99 77 55 3f a0 8e 26 bf a5 6b 0d 40 93 65 a8 3f
       0.83385617 -0.6506138 2.209695 1.3155998
0003a0 a4 a0 82 be 38 89 ec bc f7 6d 2a be 72 a6 46 be
       -0.25513184 -0.028874025 -0.16643511 -0.19399431
0003b0 a2 50 9b 3f d1 32 02 3e ca 31 8c 3e ff 2e 53 bf
       1.2133982 0.12714697 0.27381736 -0.82493585
0003c0 a6 cf 43 bd ea 83 a2 be 64 df 58 3e 74 32 e6 3e
       -0.04780545 -0.31741267 0.21178967 0.44960368
0003d0 8b ed 22 3e e5 dd 55 bf a6 ae ed 3e 88 15 09 40
       0.15910928 -0.8354171 0.4642231 2.1419392
0003e0 3e 4d d8 3f 0f 3c 0f bf 48 e4 e1 3e 49 2c f0 bd
       1.6898572 -0.5595102 0.44119477 -0.11727197
0003f0 42 80 c4 bd 38 5b 2e 3e 87 be 8a bf a3 85 83 3f
       -0.09594776 0.17026985 -1.0839394 1.0275158

layers.0.bias f4 [128]
000000 6d 61 51 3f ac 9d 7c 3e 58 4b f1 be 9a 26 96 bf
       0.81789285 0.24669522 -0.47127795 -1.173053
000010 65 db 30 3d 18 27 3a bf c9 07 0f 3f 64 92 9a bf
       0.04317798 -0.727159 0.55871254 -1.2075925
000020 0f 22 a5 be 1b b8 5e bf 2e 12 b1 bd 72 7f 34 3f
       -0.32252547 -0.8699967 -0.086460456 0.70506966
000030 7b 99 a3 bf 77 fe 57 3f 00 50 48 bf 44 74 68 3c
       -1.2781214 0.8437266 -0.7824707 0.014187876
000040 e6 8c 06 3e 85 3a 23 bf 18 22 48 3f af 8f 01 3f
       0.13139686 -0.6376117 0.7817702 0.5060987
000050 6b ad 6e 3f 19 6a 8a 3e 92 6b aa bf 52 49 42 3f
       0.93233365 0.2703407 -1.3314078 0.7589313
000060 13 13 93 3d 5d 8c e3 3e 57 5c 41 bf 9f b3 8d bf
       0.071813725 0.44443026 -0.75531524 -1.1070441
000070 5f 16 e2 be 89 70 1f bf ce 3f 67 be ef fe 5b bf
       -0.44157693 -0.6228109 -0.22582933 -0.8593587
000080 9b 64 b3 3e 7d 8e 26 3f ae 5b 5c 3e a4 8f 4f bf
       0.35037693 0.6506117 0.21519348 -0.81078553
000090 0d 59 0c bf 9e 0e 26 bf 4c 54 a8 3e f1 ab 73 3f
       -0.5482338 -0.64866054 0.32876813 0.95184237
0000a0 67 37 33 3f 91 08 49 bd e6 eb a6 3d ca 52 cb bf
       0.7000641 -0.049080435 0.08150463 -1.588464
0000b0 56 fe 79 bf eb c4 02 3f ae f3 97 be b5 9e 03 3f
       -0.9765371 0.5108172 -0.296781 0.5141404
0000c0 8c ad cb 3a 10 e2 26 bf d5 4d 57 bf 4c d3 0a 3f
       0.0015539392 -0.65188694 -0.8410314 0.54228663
0000d0 f9 93 6a 3e f0 bd 14 3f e8 b8 08 3f 72 0c 0b 3f
       0.2290801 0.5810232 0.53407145 0.54315865
0000e0 02 fc 6c 3e 66 9d 1b bf e0 f2 81 bf bf 0b f4 bc
       0.23143008 -0.60787046 -1.0152245 -0.029790757
0000f0 f1 1e df bd e3 58 96 bf f5 f4 3b 3f 65 41 54 bf
       -0.108945735 -1.1745876 0.7342065 -0.82912284
000100 fa de a6 bf e7 00 8c 3d 48 64 56 3f 71 8e 5d 3f
       -1.3036797 0.068361096 0.8374677 0.86545473
000110 1e be b8 bf a2 b2 1e 3f b8 b9 16 3f 8c 98 19 3f
       -1.4433019 0.6199132 0.58877134 0.59998393
000120 09 20 47 3f 10 39 04 bf 3f 82 4d 3e 93 7c be 3e
       0.77783257 -0.5164957 0.20069216 0.37204418
000130 cb d6 ea be 36 9a ae 3e 3a 4b e8 be 82 84 31 3f
       -0.45867 0.3410203 -0.45369893 0.69342816
000140 df b6 e4 be 85 b5 5c bf 10 ca ca 3e 4b 52 a8 3e
       -0.4467077 -0.86214477 0.39607286 0.32875285
000150 f3 c9 5f bf 5c b3 1d 3e f0 8a 20 3f 44 af 86 3e
       -0.87417525 0.15400451 0.62712 0.26305592
000160 e1 11 97 3e fa 46 a4 bf d2 8e 91 3e 67 34 c2 be
       0.29505828 -1.283416 0.28429276 -0.37930605
000170 47 7b 5a bf 4b 1c 3e bc a0 ce 2f 3f bf b2 91 bf
       -0.85344356 -0.011603425 0.6867466 -1.1382674
000180 e1 5a ed 3d dc 04 9c bf 72 7e 6d 3f d2 b0 71 3f
       0.115895994 -1.2188983 0.92771065 0.9441043
000190 b5 39 93 bf 0c 16 85 bf 67 f5 b0 bf 32 07 29 3e
       -1.1501986 -1.0397353 -1.3824891 0.16506651
0001a0 d8 92 49 bf c0 b3 e1 be 48 f9 02 bd 4d 1f 0c 3e
       -0.7873969 -0.4408245 -0.031976014 0.13683815
0001b0 cf 95 da be 18 4c 4c 3d f4 55 10 bf 1f 8b f7 3d
       -0.4269242 0.049877256 -0.56381154 0.12087082
0001c0 b5 c7 b5 3c 1c 22 33 3f 85 3f 98 be 22 68 87 3d
       0.022189954 0.6997392 -0.29735962 0.06611659
0001d0 8d a0 13 bf 58 2c 6d 3f 9e 17 82 bf a6 25 84 bf
       -0.57666856 0.9264579 -1.0163457 -1.0323989
0001e0 ed 1f 65 3f 92 8e a6 bf b0 09 83 3e 03 32 ca be
       0.8950184 -1.3012259 0.25593328 -0.3949128
0001f0 1c 05 d9 be 27 86 82 bf e8 26 23 3f a2 63 09 3e
       -0.4238671 -1.019719 0.6373124 0.13416913

layers.2.weight f4 [128, 128]
000000 96 1f 54 bd fe 07 82 bd 94 d6 f6 bc b3 97 de bd
       -0.051787935 -0.06349181 -0.030131616 -0.10868778
000010 65 d5 87 3e cb af aa 3d 8a 05 b4 3d 92 8a 93 3e
       0.26529995 0.08334311 0.08790119 0.28816658
000020 75 46 e1 bf 4c 4a 4b bf 10 2a 62 bf 64 ca 06 3e
       -1.7599627 -0.79410243 -0.8834543 0.13163143
000030 46 8c 08 3e ef 8e b8 bd d1 ab 06 3f bf 67 9e bd
       0.1333476 -0.090116374 0.5260592 -0.07734632
000040 40 c7 2c be 34 df a7 bd 28 bb 13 3e d8 68 7a 3e
       -0.16872883 -0.081968695 0.14426863 0.24454057
000050 7a 1d e4 bc 27 2b 29 be c3 dc 6d 3f 8b 32 4b 3e
       -0.027846087 -0.16520368 0.9291498 0.198435
000060 9d 2a 15 bf 00 2c 44 be f0 5b 92 3c 9c 15 1a be
       -0.5826815 -0.1915741 0.017866105 -0.15047306
000070 28 29 57 3e 3b 94 30 3e fc b3 c5 be 97 bb 88 bf
       0.21011794 0.17244045 -0.3861388 -1.0682248
000080 15 4b 5f 3e ba 43 37 3e 9c 18 69 3c 25 b6 67 be
       0.21805985 0.1789693 0.014227059 -0.22628076
000090 2a 9f 9c bd 7c 8b 03 c0 a4 7c a9 3d de 22 cc 3d
       -0.07647546 -2.0553885 0.082757264 0.09967588
0000a0 4c e6 c7 3d c5 b8 17 c0 4f 56 61 3b 23 d4 4e be
       0.097607225 -2.3706524 0.003438372 -0.20198111
0000b0 fd 85 71 bd 7c 0e b5 3d a4 82 0e bf 19 0e 47 be
       -0.05896567 0.08840653 -0.5566809 -0.19438972
0000c0 fa d1 0b bf 1f 26 26 bf 11 bf 5f 3f 55 9a ab 3d
       -0.54617274 -0.6490192 0.8740092 0.08379046
0000d0 bc dd 7c bf 74 5d 0a 3e f4 a5 5a 3e d9 d0 50 3e
       -0.9877584 0.13512212 0.21352369 0.20392169
0000e0 ba 34 a7 bd 98 51 e4 bd 64 52 95 3d 0e f0 11 bf
       -0.08164354 -0.11148375 0.072911054 -0.5700692
0000f0 49 73 ec be 33 36 85 3e 59 7d 31 3e 6e 42 85 bf
       -0.46181706 0.26017913 0.17332973 -1.0410898
000100 48 ad ba 3e 77 74 e4 3d 7e 5e 76 3e 23 08 5b 3c
       0.36460328 0.111550264 0.24059483 0.013368639
000110 0e 72 75 bf d3 21 37 3e be db e4 3d 01 1e 60 3e
       -0.9587716 0.17883997 0.11174725 0.21886446
000120 11 a4 4b 3e d3 df 45 c0 de 4e c2 3e e5 86 42 3e
       0.19886805 -3.0917861 0.37950796 0.1899677
000130 6d da 68 3d 75 90 c5 be 65 a6 57 bf 90 c2 30 3e
       0.056848932 -0.38586774 -0.8423827 0.1726172
000140 79 91 df bc 74 71 1f 3e 1e e9 6b bd 0a 19 92 3e
       -0.027291046 0.15570623 -0.057595365 0.28534728
000150 22 dc b0 3f 6b 0a 36 3e ba 39 96 3d 02 44 11 3f
       1.3817179 0.17777412 0.07335229 0.56744397
000160 40 6c 84 3d 7f 5b 81 be 26 be 26 3e 19 67 af bf
       0.064659595 -0.25265118 0.16283473 -1.3703338
000170 c8 6b a4 bf 55 2f 8e 3f 74 28 08 3e 69 4e 98 be
       -1.2845392 1.1108195 0.13296682 -0.29747322
000180 07 e8 f3 be 13 26 1b 3f a7 f4 20 bd 03 ae 91 3c
       -0.4763796 0.6060497 -0.03929582 0.01778317
000190 d0 97 15 3e b0 91 35 3e 5e fe 2a bf 66 e7 0b 3c
       0.14608693 0.17731357 -0.66794384 0.008539056
0001a0 15 e7 1c 3d 86 8e db 3d d1 6e 1b 3e ea d9 73 be
       0.038306314 0.107205436 0.15178992 -0.23813596
0001b0 02 d6 45 bf 2e c1 56 bd 35 ba f5 3d eb 3e 4c 3f
       -0.77279675 -0.052430324 0.11998407 0.79783505
0001c0 3b 7f 56 bd 13 b0 42 3e 68 a8 da be b1 59 b1 bd
       -0.05236743 0.1901248 -0.4270661 -0.086596854
0001d0 15 25 f3 3e db 0e 80 3d cc b6 80 3f a1 c7 91 bf
       0.4748923 0.062528335 1.0055785 -1.1389047
0001e0 43 50 1c 3e 34 43 d7 3c 1d c8 01 be cf 51 c3 3e
       0.15264992 0.026277162 -0.12673993 0.38148353
0001f0 0a d9 aa bf 88 46 29 3d 5c ae fd 3d 19 5a 19 bf
       -1.3347485 0.04132703 0.12386772 -0.59903103
000200 e7 b7 9b 3d d6 2c 1c 3f 42 6e 11 3d 73 3b 78 be
       0.07603436 0.61005914 0.03550554 -0.24241428
000210 42 84 bf 3e 0f 74 ab 3d 5a 19 18 3d 15 07 3c 3e
       0.37405592 0.08371746 0.037133552 0.18362077
000220 16 29 ca bf d6 8a 2b bf c6 e6 97 bf 23 98 08 bc
       -1.5793788 -0.6700872 -1.1867301 -0.0083370535
000230 e5 5b 98 3d 6b 1d bb bc 2e d3 d9 3e 70 19 9d bf
       0.074394025 -0.022841176 0.4254393 -1.2273388
000240 b5 a9 f2 3d 20 98 1c bc c4 90 fe 3d a7 5f 51 3e
       0.11848775 -0.009557754 0.124299556 0.20446645
000250 db ea 96 bd 14 20 80 3e d0 ae a1 3d 1f 19 e9 3d
       -0.07369014 0.25024474 0.07894671 0.113817446
000260 22 8e d3 bf 74 12 cd be 11 c9 b0 3d 25 9c 4a bf
       -1.652775 -0.4005314 0.086321004 -0.7914451
000270 8d a0 59 3f 61 e9 b0 be 00 85 ff bd 56 5e 70 bf
       0.85010606 -0.34553054 -0.124765396 -0.93893945
000280 be 29 f0 3e 75 3b a0 bc 66 ee d0 3e ff ef 20 bf
       0.46906847 -0.019559601 0.40806884 -0.62866205
000290 f7 d9 4e bd fd f3 db bf 4f 86 d3 3e 3d 91 99 bd
       -0.050500836 -1.7183834 0.41313407 -0.07498405
0002a0 0c ed c1 3d e2 a2 be bf bd 18 fd bd 87 64 87 3c
       0.09469041 -1.4893458 -0.12358234 0.016527427
0002b0 ed cb 19 be c5 c6 c0 3d 60 d9 04 bf 0b a9 a5 bd
       -0.15019198 0.09412912 -0.5189419 -0.08088883
0002c0 f1 4e 54 c0 80 c4 94 bf f1 16 38 bd 28 10 64 3d
       -3.3173182 -1.1622467 -0.044943754 0.05567947
0002d0 cc 5e 97 be 01 2a 6c 3d 89 b8 71 3e 4e 9b 48 3d
       -0.29564512 0.057657246 0.23605551 0.048976235
0002e0 f9 f3 15 be 94 a1 20 3e 29 15 6c 3d 6e 12 e9 be
       -0.1464385 0.15686637 0.057637367 -0.45521873
0002f0 b9 46 8b bd 1b 3f 81 bf 05 26 84 bc 97 02 5f bf
       -0.06800599 -1.0097383 -0.01613141 -0.87113327
000300 2b 47 10 be 11 16 a2 3e 7b 37 28 3e 13 4a 82 bc
       -0.14089648 0.3165746 0.16427414 -0.015904462
000310 3d 16 83 bf a7 08 72 3e 4e 5b 39 bd 18 ad 27 3e
       -1.0241162 0.23636113 -0.04525309 0.16374624
000320 79 40 21 3e 00 b0 d0 bf 8f 97 1e 3f f1 24 ca 3e
       0.1574725 -1.6303711 0.6195001 0.3948131
000330 02 30 a6 be 38 07 e5 be 5f d3 15 bf 28 88 16 3e
       -0.32458502 -0.4473207 -0.5852565 0.14700377
000340 30 04 cc be 67 04 98 be 97 3a ae bd 04 86 bc 3e
       -0.39846945 -0.2969086 -0.08507269 0.36820996
000350 19 ed 3a 3f df 4d 27 3f 0a bf ed 3d f5 b3 fb bd
       0.7301803 0.65353197 0.116087034 -0.122901835
000360 28 07 3b 3e 9c df 3f be 5d 29 2a 3e fc e7 c7 bf
       0.18264449 -0.18737644 0.16617341 -1.5617671
000370 44 97 1a bf a5 9f 83 3e 55 e1 7c 3e 11 e7 1a bf
       -0.60387063 0.25707737 0.24695332 -0.6050883
000380 ea 26 1d bf eb 30 ae 3e 8a 70 53 bd ce 2d 03 be
       -0.61387503 0.34021696 -0.051620997 -0.12810442
000390 48 06 b2 bd e5 3e 01 3d da 43 5d bf 36 f0 39 3f
       -0.08692604 0.03155412 -0.8643166 0.7263216
0003a0 4b 9e 85 bd fd 04 a3 be 89 f0 d7 bf f4 fc 38 3e
       -0.065243326 -0.31839743 -1.687028 0.18065244
0003b0 44 0d 0a bf af c4 03 c0 12 9b 55 be 50 39 76 bf
       -0.5392649 -2.0588796 -0.20859936 -0.961812
0003c0 18 f4 70 3d c7 03 94 3d 0a fe 9c bf 10 5b a4 3e
       0.058826536 0.07227283 -1.2265027 0.32100725
0003d0 e7 65 69 3f 5d a2 f5 3d 9c 54 13 3f 18 c7 fe bf
       0.91171116 0.11993859 0.5755098 -1.9904509
0003e0 d8 00 a1 3d 40 c9 4c 3c c3 5f a3 bd f5 b2 0d 3e
       0.07861489 0.012499154 -0.079772495 0.13837798
0003f0 01 e0 83 bf d7 a7 b5 bf 69 99 c2 3d 01 58 b2 bf
       -1.0302736 -1.4191846 0.09501917 -1.3933107

layers.2.bias f4 [128]
000000 32 3c 47 3e 7c e4 9a 3d dd 37 d6 3e a9 75 a9 bd
       0.19456556 0.07563111 0.41839495 -0.08274395
000010 fe 02 3e 3d f6 9d c0 3e fd 7f 9f 3e cc a9 0a bf
       0.046389572 0.37620515 0.31152335 -0.5416534
000020 97 bc 68 be 9a a2 3e 3e 4e 72 cd be 46 52 e6 bd
       -0.22728191 0.18616715 -0.4012627 -0.11246161
000030 b5 0d fa be 7a 68 b9 3e e6 52 13 be 31 53 6f be
       -0.48838583 0.36212522 -0.14387092 -0.23371579
000040 ed 62 08 bf 4a 5c ed 3e e4 28 15 bf 7f 09 c7 be
       -0.5327595 0.46359473 -0.5826552 -0.38874432
000050 53 26 da bb 15 58 eb be 72 34 02 be b1 d0 15 bd
       -0.0066574006 -0.4596564 -0.12715319 -0.036575977
000060 d3 cb d8 3e 87 5c cb 3e 03 2d a8 3c 67 dc 74 3e
       0.42343006 0.3971903 0.020529276 0.23912202
000070 a2 f4 13 bf a1 b0 02 3f 76 4a 71 be 55 3c de 3d
       -0.57795155 0.51050764 -0.23563561 0.10851351
000080 fc 85 51 3d e5 16 5d bd 34 4a da bd 5f 52 4a be
       0.051153168 -0.053976912 -0.106586844 -0.19757985
000090 2d e1 b4 3e a8 66 71 bd 25 c2 fe be c9 bd e8 bc
       0.35328045 -0.05893579 -0.49757496 -0.02841081
0000a0 98 a9 89 bc d0 1f 28 bf a0 3c 05 bf 46 b1 22 bd
       -0.016804501 -0.6567354 -0.5204563 -0.039719842
0000b0 ba dc 19 bf 6b 72 5b bb cc 82 23 bd 79 d7 c3 bd
       -0.60102427 -0.0033484946 -0.03991966 -0.095625825
0000c0 ab b5 90 be c3 16 3c bb 0f 46 d6 3d 3e f0 31 3d
       -0.28263602 -0.002870009 0.10462581 0.043442003
0000d0 f2 9e 95 3d ca 93 c5 bc 22 54 88 be 13 12 2e 3e
       0.07305707 -0.024118323 -0.26626688 0.16999082
0000e0 2f 29 8d bd 96 2e ee 3c 24 c7 fd 3c 2d b3 ef 3e
       -0.06892621 0.029074948 0.030978747 0.46816388
0000f0 35 76 2c bf bc 94 84 3e 1b 81 fc 3d c9 8c ca 3a
       -0.6736787 0.25894725 0.123293124 0.0015453334
000100 38 03 97 3e a9 be d7 bd eb 07 4e bc e0 0b 8c 3e
       0.29494643 -0.105344124 -0.01257513 0.2735281
000110 53 82 3e be de 9b 1a bf 1f ac d0 3e 30 82 f8 bd
       -0.18604402 -0.60394084 0.40756318 -0.12134206
000120 58 72 82 bd 9c 13 64 bc d0 f1 43 bd 81 88 f2 3d
       -0.063694656 -0.013920691 -0.047838032 0.11842442
000130 ae d6 90 3e 36 b5 a1 be 02 f3 a3 bc 58 d7 0a 3d
       0.28288788 -0.31583565 -0.020013336 0.033896774
000140 63 1a 2a bd 37 9d c7 bc d4 c4 7b 3e 81 8d a4 3e
       -0.04152907 -0.024366958 0.24586803 0.3213921
000150 b7 e2 72 ba ec 0b 20 bf 25 a6 22 3d 4a c3 83 3e
       -0.00092653505 -0.6251819 0.03970923 0.2573493
000160 cb ef 06 3f b9 bb d6 3e 58 b5 b4 3c 44 ee b3 3e
       0.52709645 0.41940096 0.022059128 0.3514272
000170 e4 4f 00 3f 72 a8 61 3e fb c3 f1 3e 60 6c e5 bd
       0.50121903 0.22036913 0.47219834 -0.112023115
000180 db ee 28 bd 00 82 47 bd ac a2 94 bd 70 28 71 3e
       -0.041243415 -0.048707962 -0.0725759 0.23550582
000190 2e be f7 be f4 37 61 3e 31 95 f4 be fe 54 d0 bd
       -0.48387283 0.21994 -0.47770074 -0.10172461
0001a0 94 ed c1 be 6a 05 f4 be 48 89 a9 3e d5 43 f2 3d
       -0.3787657 -0.4766038 0.3311255 0.11829344
0001b0 d4 60 cd be d8 f8 e0 bd ed 18 35 bd 61 39 c3 3e
       -0.40112936 -0.10984963 -0.044213224 0.38129714
0001c0 30 5b a0 bc 1c a9 5c bd a4 e1 e7 bc aa 31 20 3d
       -0.019574732 -0.053872213 -0.028305836 0.039109863
0001d0 23 01 9d bd 00 f0 b4 3e 6f 00 99 bd 18 f3 01 be
       -0.076662324 0.35339355 -0.07470786 -0.12690389
0001e0 65 a2 fb bc 97 a1 c2 3e 4a 49 b5 3e 03 6c 54 bd
       -0.030717084 0.38013908 0.35407478 -0.05186082
0001f0 86 df b8 3e 20 99 6f 3e 58 db 91 bc fa 79 bd 3d
       0.36108035 0.23398256 -0.017804787 0.09251781

layers.4.weight f4 [2, 128]
000000 62 8c 08 3f f9 a8 eb 3f 40 8c cc 3e 8f 62 af bd
       0.5333921 1.8410941 0.39950752 -0.085637204
000010 14 a1 91 bc 3d a6 a4 3e 5d 21 c3 3e ad e2 0e bf
       -0.017777003 0.3215808 0.38111392 -0.5581463
000020 00 ff 2b bf fc 73 0b 3f ec 89 b9 be d3 bb f4 bb
       -0.67185974 0.54473853 -0.3623804 -0.0074686795
000030 05 83 33 bf 13 75 a0 bc 6f 7f 13 ba 20 83 4d bf
       -0.70121795 -0.019587075 -0.0005626594 -0.80278206
000040 49 ce 3c bf 75 4b bd 3e 71 78 7d be 3f 8a 57 3f
       -0.73752266 0.36971632 -0.24752976 0.8419532
000050 e4 d4 64 bd 79 05 8e 3e 7d e8 a4 bc 01 9f 2c bb
       -0.05586709 0.2773855 -0.02013039 -0.002633989
000060 db 1e bd 3e 90 b3 e7 3e 73 54 7a bd 48 07 d6 3e
       0.36937603 0.45254183 -0.061115693 0.4180243
000070 21 3c 0b 3e ec ea ad 3e 01 1e 93 3f ae 60 38 3e
       0.13597156 0.33968294 1.1493531 0.1800563
000080 0b a3 33 bd ae d6 a2 3d c7 ed ef bc 08 39 1b bf
       -0.04385666 0.07951103 -0.029288186 -0.606339
000090 c5 8a ea 3d a8 85 f0 3c 60 fd 13 3b 18 23 89 3f
       0.114522494 0.029360607 0.0022581443 1.0713835
0000a0 05 66 8f 3b 28 19 32 bf 86 c9 0a bf 33 98 01 bd
       0.0043761753 -0.69569635 -0.5421375 -0.03163929
0000b0 73 55 18 bf 15 ad ad 3c 0d 8f 19 be 91 f2 c0 3e
       -0.59505385 0.021200696 -0.14995976 0.37685063
0000c0 31 7c 86 be 16 fe 76 3d a1 42 b0 be 64 6e 62 3b
       -0.26266626 0.06030091 -0.34425834 0.0034550661
0000d0 3b 2a b9 3d db f7 54 3e 4a 09 dd be 53 c3 e7 3e
       0.09041258 0.20797674 -0.4317115 0.45266208
0000e0 b2 b1 3e bd 36 ee 02 40 9c ad a0 bd 08 74 d4 3e
       -0.046556182 2.0457892 -0.07845613 0.41494775
0000f0 1d d0 2b bf 78 74 c0 3e 51 05 73 be 60 57 8a be
       -0.6711443 0.3758886 -0.23732497 -0.27019787
000100 c8 22 ba 3d b2 74 1f 3e 62 f5 c3 ba 41 3c ef 3e
       0.09088665 0.1557186 -0.0014950449 0.46725658
000110 25 f7 6c bf 3d b7 0d bf d8 96 d3 3e 81 c8 54 3d
       -0.9256461 -0.55357724 0.41326022 0.051949028
000120 b0 ef af 3b 76 af 04 3d 52 a5 ac bd f9 d0 7a 3f
       0.005369149 0.032393895 -0.0842997 0.97975117
000130 8c 9c aa 3e 96 f3 1f 3f d2 45 b3 be 2b 33 ec bd
       0.3332256 0.6248106 -0.35014206 -0.11533197
000140 5d d5 81 3d 86 6e 48 bf 94 9f f1 3d 86 dc c6 3e
       0.06339524 -0.78293645 0.11798015 0.3884012
000150 28 1e bb 3d f0 42 5f be 5f 0d 1d bd 6b b5 39 3d
       0.09136611 -0.21802878 -0.03834283 0.04533903
000160 c6 0f a1 3e 09 c8 a7 3e b7 9c 3a 3d 91 cb cf 3e
       0.31457347 0.32769802 0.04555961 0.40584996
000170 a1 40 c5 3e 71 d7 82 3e b8 bf d7 3e 7d 27 51 bd
       0.3852587 0.25554994 0.42138457 -0.05106305
000180 27 04 cb 3b 58 46 15 bd 4d 3c 90 bc 6b 1d b6 3e
       0.0061955634 -0.03644404 -0.017606879 0.3556932
000190 b6 3d 34 bf 94 75 ed 3e 0b f5 43 bf a8 e4 d1 be
       -0.70406663 0.46378767 -0.7654578 -0.40994763
0001a0 1c ae 41 3f bc 8c 3d bf 11 75 b5 3e 5b f5 a0 3e
       0.75656295 -0.7404287 0.35440877 0.3143719
0001b0 1c 0c d0 3c 01 bf 46 bf fc 8a 88 bd 4b 97 cb 3e
       0.0253964 -0.776352 -0.06667134 0.39763865
0001c0 e0 6a 8c bd f1 d2 a5 3c 4e 66 11 3d 9f 3f 9b 3c
       -0.06856322 0.020242186 0.035497956 0.018951235
0001d0 04 ad dc 3c df 14 fb 3e 10 bd 8d bd 16 c8 29 3f
       0.026937969 0.4903936 -0.069208264 0.6632093
0001e0 da 6e 64 bd ae 65 d2 3e 04 5b cd 3e f3 38 93 3c
       -0.05576978 0.410932 0.40108502 0.017971491
0001f0 e9 0f d4 3e 08 b5 95 3f ef cd a9 3d ec c6 fd 3d
       0.41418388 1.1695871 0.08291232 0.12391457
000200 98 e6 ad 3d 2a d3 59 3e 60 d0 d5 3e 47 df 2d ba
       0.08491248 0.21271959 0.4176054 -0.0006632697
000210 94 94 c6 3c 87 ab 0f 3f 93 8f 8c 3e f9 5f 3a bf
       0.02424077 0.56121105 0.27453288 -0.7280269
000220 64 93 d5 3d c0 1e a4 3e 5c c0 39 3e fe 38 b5 3b
       0.10428503 0.3205471 0.18139786 0.0055304756
000230 f4 42 0d bf 13 c9 83 bf 79 ea b1 3c f9 cd 00 3d
       -0.5518029 -1.0295738 0.02171825 0.03144643
000240 eb 4c 0b bf 06 ef d7 3e dd ef 10 3f 8d 02 e0 3e
       -0.5441424 0.42174548 0.56616 0.43751946
000250 01 50 52 bd da 19 73 be b3 54 54 bd 02 9a 2c bc
       -0.05134583 -0.2374033 -0.051838588 -0.010534765
000260 79 2c dd 3e b7 c0 24 3e cf 1d 7e 3d 9e ee ca 3e
       0.43197992 0.1608914 0.062040146 0.39635175
000270 7f 88 74 bf 07 a0 17 3f 2f 25 0d 3e 6f e1 5c 3f
       -0.95520777 0.5922856 0.13783716 0.86281484
000280 c6 c0 78 3a 39 05 b0 bc 3d 04 01 be d4 fa 49 3f
       0.00094891747 -0.021486865 -0.12599273 0.7889836
000290 d7 cc c0 3e b1 e8 31 bd 30 c7 7d 3e 59 43 ee be
       0.3765628 -0.043434802 0.24783015 -0.46535757
0002a0 02 96 41 bd 89 6a 15 bf 48 1e 47 3f 5b dd 53 bd
       -0.0472622 -0.58365685 0.7778058 -0.051724773
0002b0 73 87 22 bf 52 64 de bc 6b 36 11 bd 48 01 5c 3e
       -0.6348793 -0.027147446 -0.035452288 0.21484864
0002c0 45 25 4d 3f 10 bc a8 3c 43 c7 14 3f ec 7b 0b bd
       0.80134994 0.020597488 0.5811655 -0.034053728
0002d0 50 9c 0b 3f d5 c8 df 3d 7f 34 2b 3f 37 23 6e bf
       0.5453539 0.109269775 0.6687698 -0.93022484
0002e0 2d e8 4f 3c 83 3f fc be a7 52 93 3d 36 dc fe 3e
       0.012689632 -0.49267206 0.07193499 0.49777383
0002f0 cd 91 22 bf 2a 41 81 3e 35 ba d9 bf 29 f1 36 3f
       -0.63503724 0.2524503 -1.7009951 0.7146173
000300 ec 91 8d 3e a0 a2 5e bf f5 48 7e bd 4b 13 9f 3e
       0.27650392 -0.86966896 -0.062081296 0.31069407
000310 5d 75 a1 be dd d8 3c bf 61 c8 15 3f ee c1 a4 bd
       -0.31534854 -0.7376841 0.5850888 -0.08044802
000320 37 3e a2 bd f3 d4 82 bc f0 46 7f 3c 72 06 62 3e
       -0.07922023 -0.015970683 0.015580878 0.22072771
000330 43 c7 85 3e c2 e3 d6 be 6c 69 7e 3e dc 46 51 3e
       0.26128587 -0.4197064 0.24844903 0.20437187
000340 c5 c5 0b 3c 4c 4f 55 be 3f 95 d4 3e 6e 1a 81 3e
       0.008531039 -0.2083103 0.41520116 0.25215477
000350 1b 8e ce bd ea 95 9b bf 6b ea 6a 3d b9 6d 12 3f
       -0.10085698 -1.2155125 0.057352465 0.57198673
000360 67 92 19 3f 55 67 99 3e 01 18 6b 3d 08 e5 e2 3e
       0.5998902 0.2996165 0.05739594 0.44315362
000370 c9 fc fc 3e ca cb a3 3e 80 ae 09 3f 18 3d 98 3c
       0.4941161 0.31991416 0.5378189 0.01858382
000380 5a 0c e3 3b 9e 86 82 bd f1 20 01 bd ed df a9 3e
       0.0069289627 -0.063733324 -0.031525556 0.33178654
000390 e2 87 8a be 8a 4e 57 3e 53 57 40 3e 3a 74 97 3f
       -0.27056795 0.21026054 0.18783312 1.1832345
0003a0 03 3e ff 3e f2 1c ed be 65 5f ab 3e e6 29 83 3f
       0.49852 -0.46311146 0.33471218 1.0247161
0003b0 73 d5 39 bf ba c4 09 bf b8 c1 5e 3d c7 fe 9e 3e
       -0.7259132 -0.53815806 0.054383963 0.31053755
0003c0 20 7c 2b bd 73 1d be bb 53 0d ac 3d 35 2f 73 3c
       -0.04186642 -0.0058018505 0.08400979 0.014842798
0003d0 7b d4 96 3d 16 f8 4e 3e fc 5e 83 3d 00 cc 15 bf
       0.07364746 0.20211825 0.06414601 -0.58514404
0003e0 e0 c4 4e 3d a2 e7 eb 3e d7 5f ff 3e 5d 1b 98 bd
       0.050480723 0.4607516 0.49877807 -0.07427094
0003f0 49 fc e7 3e a6 e2 6d 3e e8 f1 68 bc a4 31 a2 3e
       0.45309666 0.23230991 -0.014217831 0.31678498

layers.4.bias f4 [2]
000000 a7 98 92 3e eb 2f 9a 3e
       0.2863209 0.30114684
