ddqn_models/whole/ddqn_200_1.0.pth (torch_old, 69813 bytes, 6 tensors)

layers.0.weight f4 [128, 2]
00000000: a45b 643d 41e2 c2be c2ee 913f d6f0 82bf
00000010: e864 9b3d 6099 17be e908 9c3f 75e6 243e
00000020: 202c 873f d3d1 5d3f fa54 4fbe 5565 7bbe
00000030: ce1d a4be 42df 193e 91f0 e53e 1dd3 833f
00000040: 0b84 9ebf db81 a5bd f7a6 21bf a5db 62bf
00000050: 80cc 1bbf 60e5 16bf 16cb 35bf cd48 d23e
00000060: fe40 1abf 70f2 d53e c024 1abe d020 46be
00000070: e000 45bf 0531 003f 3d9a f6be 85a5 c43f
00000080: 9dc7 8d3f d5ea 263f 807b acbb 0023 0fbe
00000090: 5092 cd3e 1dad e9bc dc35 bc3e c94f 7c3e
000000a0: 48e1 49be 5f1a 47be 3e4d 883f d6a0 08bf
000000b0: 6737 05bf b474 3b3f c4f6 f93e f60c 3d3e
000000c0: 935f fabe 7b61 ad3f 250b 72bf 547e ffbc
000000d0: 7e1f 59be ef7b 82be 9928 733c 39d8 2b3f
000000e0: 3584 60bf 962b 173f 2245 9f3f 9aac 8bbe
000000f0: e574 323f be56 50bf 6ff7 97bf b711 72bd
00000100: 0694 273f 1604 a53f 85d0 a6be 804f 813d
00000110: a7a6 763f c6f6 88bf a546 0a3f d5de 09bf
00000120: 80ac 1f3c e835 f6bd dd28 87bf d00f c1be
00000130: 58a8 a23f b022 a83d a93f 55be 6d55 41be
00000140: f2a9 3bbf 18e9 d63e 0120 e0bd fde0 cdbf
00000150: 90ab 52be 0364 df3e 53de 063e 1903 613f
00000160: 9fb6 b33e 388c bd3d c753 b03d f26d 623e
00000170: 3842 983f efd4 043f 5e02 673e 8471 c4be
00000180: ca02 abbf cee6 9f3d 116d 3fbe c26c afbf
00000190: 3ed8 7b3f 5cc8 26bf 79b3 ac3e bc3b 9c3e
000001a0: 3360 0b3f bdc6 acbf 8238 05bf e498 133f
000001b0: 474e 0e3f 59c7 f53e c493 cbbd 9081 683e
000001c0: 54d4 aabe d3b2 803e c752 75be c1b0 edbd
000001d0: 2eef 053f b217 0b3f b72f 183e 4f71 bcbe
000001e0: eb57 7f3f 14ff d5be 35e4 403f 326c bdbe
000001f0: fff1 16bf d05a 063f a4b7 f0be 6fd5 933f
00000200: 06a1 9a3f 3adc 77bf 33ef 103f 85bf 243f
00000210: 520a 453f 1d8d e7bc 206b 1dbf 0862 813e
00000220: cd85 123f e3e9 0a3e c281 163f 1d5c 083f
00000230: a08b cebe c1de 283e 5d9e 8b3f 97cb 613e
00000240: c74c f83e 3144 713e efeb 9abf 5e25 c1be
00000250: f422 a33f b1ff 923f e3b4 8a3f 4bb6 8a3e
00000260: 0cff 863f f45b 5abe 47bb 45bf 5df9 20bf
00000270: fe34 a53f 8620 2f3f c4a1 abbe ac62 c43d
00000280: 05f4 2d3f fdff 843f 0938 2f3f f9c5 803f
00000290: a886 2e3c e792 1cbe 7850 a13f 6037 1a3f
000002a0: a95b 5cbf 7595 6a3f 520c a63f 6830 4d3f
000002b0: 913c 9abe 5e6f bf3d cb72 b43e eac7 b83f
000002c0: 0426 723e fca7 8a3e 7897 873e 1f8a 223f
000002d0: b531 603e 0741 583e 796d 99bf 6b71 c3bc
000002e0: 9cfd 78bf 8d23 b2bf 9af2 5ebf 1a1d 8c3f
000002f0: ce9f a43f 1574 103f 8c9d 603f d949 ffbe
00000300: df1e 40bf e044 dabe af63 1ebf 32aa d83e
00000310: 2feb 40be d88d 4dbe 28ea 57be 4761 43be
00000320: 18be 013f ea5b 893f 5076 e93e 02b4 803f
00000330: 77de 753f 878b b0bd 4759 be3f 83c3 413f
00000340: 9648 0a3f faa0 7e3f 7d95 2c3f b000 763f
00000350: 6b4f 44bf d391 c8bd ce18 183f 3018 32bd
00000360: a4c0 19bf 569d 4cbf b3d8 8fbf 6a49 933f
00000370: b8c9 c53f 2ce2 2bbe 18ff 65bf 47e9 3a3f
00000380: 257b d43f e28f c53e dad2 8c3e 1b38 d83e
00000390: 7f77 353f a2c0 90bf 3968 cc3f 1033 843f
000003a0: bbef 1bbf ba6e 513f ffdc 82be 3dc7 0abe
000003b0: 7d1b 893f 6136 c43d 82a6 a6bd da07 5ebf
000003c0: e578 06be db68 85be d053 a33e 5c6a 0a3f
000003d0: 3be9 8c3e 3ce3 dfbe cb5c a93f 3c15 7b3f
000003e0: 2d72 4a3f c25d 67bf 761f ba3e a349 25bf
000003f0: b001 4ebe 5f16 663e a589 bebe 8134 863f
0.055751458 -0.38063243 1.1400988 -1.0229747 0.07587606 -0.14804602 1.2190219 0.16103537
1.0560341 0.8664829 -0.2024726 -0.24550374 -0.3205399 0.15026572 0.449101 1.0298802
-1.2384046 -0.080814086 -0.63145393 -0.886164 -0.6085892 -0.5894375 -0.7101301 0.41071168
-0.6025542 0.41786528 -0.15053082 -0.19348454 -0.7695446 0.500748 -0.4816455 1.5363013
1.1076542 0.65202075 -0.005263746 -0.13978195 0.4015069 -0.02852493 0.3675984 0.2463981
-0.19714844 -0.19443654 1.0648572 -0.53370416 -0.5203766 0.7322495 0.4882108 0.18461975
-0.48901042 1.3545374 -0.94548255 -0.031188168 -0.2120342 -0.2548518 0.014841222 0.67126805
-0.8770173 0.5905088 1.2442973 -0.27280122 0.69709617 -0.8138236 -1.1872386 -0.059098925
0.6546024 1.2891872 -0.32580963 0.063139915 0.9634804 -1.0700309 0.54014045 -0.5385564
0.009745717 -0.120220006 -1.0559345 -0.37707376 1.2707624 0.08209741 -0.20825066 -0.18880244
-0.7330619 0.4197471 -0.10943604 -1.6084286 -0.20573258 0.4363099 0.13170747 0.8789535
0.35100266 0.0925526 0.08609729 0.22112253 1.1895208 0.5188741 0.22559497 -0.38367856
-1.3360226 0.078076944 -0.1869395 -1.3705065 0.98376834 -0.65149474 0.33730677 0.30514324
0.54443663 -1.349815 -0.5203935 0.5765517 0.5558819 0.48003653 -0.099402934 0.22705674
-0.33365119 0.25136432 -0.23957358 -0.11605979 0.52318084 0.5433303 0.14861952 -0.36805198
0.9974353 -0.41796172 0.75348216 -0.3699661 -0.58963007 0.5248232 -0.47015107 1.154951
1.208039 -0.96820414 0.5661499 0.64354736 0.7696887 -0.02826553 -0.61491585 0.25270104
0.57235414 0.13565783 0.58791745 0.53265554 -0.403409 0.16491224 1.0907704 0.2205032
0.48496076 0.23561169 -1.2103251 -0.3772382 1.2745042 1.1484281 1.0836452 0.27092203
1.0546584 -0.2132414 -0.7723889 -0.628805 1.2906797 0.68409 -0.33521855 0.09589133
0.6795047 1.0390621 0.6844488 1.0060416 0.010652222 -0.15290414 1.2602682 0.60240746
-0.8607736 0.91634303 1.297251 0.8015199 -0.30124334 0.093474135 0.3524383 1.4436009
0.23647314 0.27081287 0.2648275 0.63492006 0.21893962 0.21118556 -1.1986533 -0.023857793
-0.9726198 -1.3917099 -0.8708893 1.0946381 1.2861269 0.5642713 0.877404 -0.4986103
-0.75047106 -0.42630672 -0.61870855 0.4231735 -0.18839715 -0.2007364 -0.21085417 -0.19080077
0.50680685 1.0731175 0.45598078 1.0054934 0.9604258 -0.08620363 1.4870995 0.7568895
0.5401701 0.9946438 0.674156 0.960948 -0.7668368 -0.09793439 0.5941285 -0.0434801
-0.6005957 -0.79927576 -1.1238006 1.1506779 1.5452185 -0.16785496 -0.8984237 0.730122
1.6600081 0.38586336 0.27504617 0.42230305 0.7088546 -1.1308787 1.5969306 1.0328083
-0.60912675 0.8180958 -0.25559232 -0.13552566 1.0711514 0.095806845 -0.081372276 -0.8673073
-0.13132055 -0.2605656 0.3189988 0.5406854 0.2752169 -0.43728054 1.3231443 0.98079276
0.7908047 -0.9037744 0.36352128 -0.64565486 -0.20117831 0.22469471 -0.3721439 1.0484773

layers.0.bias f4 [128]
00000000: 2ade 503f 7d85 6e3e 584b f1be 0dda efbd
00000010: 1dc7 323d 92e3 29bf c615 1e3f 5e1a 2dbf
00000020: cf65 9bbd 0e5e 1bbf 03e6 79bc f4b3 3c3f
00000030: 7a77 30bf f864 5b3f 6cfe 97be 6d66 e33d
00000040: 0368 bc3c 853a 23bf c1a8 543f 4780 193f
00000050: 8ba5 703f e63a 0d3f 0757 17bf bb17 563f
00000060: 5906 e73d f493 0b3f d218 31bf 6ba7 57bf
00000070: 2ff6 0cbf e98b 5ebe fad1 993e 4018 8ebd
00000080: 18d2 d53d dd17 2c3f f6f4 843e e9b9 edbe
00000090: 0d59 0cbf 76b8 74ba 2f8d 083f 1e75 743f
000000a0: 8663 423f 3575 113b e861 aa3e 78b2 8bbf
000000b0: 56fe 79bf ca07 183f b828 3abe aac5 103f
000000c0: f92a 99bd c5b7 4fbe 3d63 58bf fa30 223f
000000d0: ce7c 403e 2d04 373f 0d00 273f 9aeb 1e3f
000000e0: 9d75 983e b57b 13bf 9c35 c6bd 4518 a83e
000000f0: 764e 053f e2d8 0fbf 1c6b 4e3f 4acd 9abd
00000100: d292 8dbe f00c 89be e677 613f 872a 5f3f
00000110: a97f a0bf 0db5 3c3f bb46 1d3f e1ed 213f
00000120: 9886 5b3f c7f5 d4bb 516b 3f3e 5238 ef3e
00000130: 6ed8 51be 0a40 ed3e 3f39 e8bd 34b8 3c3f
00000140: 0b7c 8fbe 515a 2bbe aafb dd3e 1a70 ce3e
00000150: 3c2b c9bc b2b7 b63d 9eaa 2e3f 3bdb ed3d
00000160: d79c e43e 17ef febe 6f5c df3e 4731 94bd
00000170: f1a1 13be 91cd cdbc c860 433f 72cd dbbe
00000180: 73c0 923e d0a5 a3be 06a2 703f c911 733f
00000190: 8f8e 01bf 41bd 0bbf f8d3 1ebf d0e5 b73c
000001a0: d1b5 acbe 01f0 04be ee64 82bd 5604 b73e
000001b0: fa26 b0be fc69 eb3d 0f96 3c3d e424 cebc
000001c0: 5511 80bc 09e4 493f 9dc0 e3be e7c9 df3d
000001d0: 18ee 3bbc 1a9f 733f 3d09 23bf 9315 5ebf
000001e0: 28e3 6b3f 020d 9abf e248 d23e 7aba b73d
000001f0: 85bb a4bc 185d 04bf ec83 363f f41c 0d3e
0.81588995 0.23293109 -0.47127795 -0.11711512 0.04364692 -0.6636287 0.61751974 -0.6761836
-0.07587778 -0.6069039 -0.015252593 0.73712087 -0.68932307 0.8570094 -0.29686296 0.111035205
0.022998815 -0.6376117 0.8307 0.5996136 0.940026 0.55167997 -0.5911717 0.8362996
0.112805076 0.54522634 -0.691785 -0.84239835 -0.55063146 -0.21733059 0.30043012 -0.06938219
0.10440463 0.6722391 0.2596814 -0.464309 -0.5482338 -0.0009335348 0.5334043 0.95491207
0.7593311 0.0022195105 0.33277822 -1.0913839 -0.9765371 0.59386885 -0.18179595 0.5655161
-0.074788995 -0.20284946 -0.84526426 0.6335598 0.18797609 0.71490747 0.6523445 0.6207825
0.29777232 -0.57610637 -0.09678194 0.32831016 0.52072847 -0.5619031 0.80632186 -0.07558687
-0.27651078 -0.26767683 0.88073575 0.87174267 -1.2538959 0.7371376 0.6143605 0.632536
0.8575225 -0.0064990255 0.18693282 0.46722656 -0.20492718 0.4633792 -0.11339044 0.7371857
-0.28024325 -0.16733672 0.43356067 0.40319902 -0.024556749 0.08921756 0.6822909 0.116140805
0.4465091 -0.49791786 0.4362521 -0.072359614 -0.14417244 -0.025122436 0.7631955 -0.4293018
0.28662452 -0.31962442 0.9399723 0.94949013 -0.5060815 -0.54585654 -0.6204219 0.02244845
-0.33732465 -0.12982179 -0.06366907 0.35745496 -0.34404737 0.11494824 0.046041545 -0.025164075
-0.015633265 0.7886358 -0.4448289 0.10927182 -0.01147034 0.95164645 -0.6368597 -0.8675167
0.9214349 -1.203522 0.4107123 0.089711145 -0.020108948 -0.5170455 0.71295047 0.13780576

layers.2.weight f4 [128, 128]
00000000: 1799 08be 2e3a ee3d 94d6 f6bc 7434 73bc
00000010: 49aa f43e cbaf aa3d 3dee 413c 5054 5e3e
00000020: d217 78bf 4c4a 4bbf f949 35bf 150d db3c
00000030: acaa b83e 628d 2fbe 5155 f53e 6493 21be
00000040: 26eb 243f 34df a7bd b5f8 803d af5a 383e
00000050: e1a1 ebbd 6ce6 9fbd 644a 253f a675 ec3d
00000060: a92e 57bf 1446 7dbe f05b 923c 1ef3 84be
00000070: ef0b 703f 4225 453e 553a 373d 3047 27bf
00000080: 8c89 853e 05da c93d eb85 293e 8544 e7bd
00000090: 2a9f 9cbd 9c86 9fbf 001e 643e e114 3a3c
000000a0: 7a26 1abc 937c b1bf c147 e7bc 235f cc3e
000000b0: fd85 71bd d0f5 bd3c db1a 53be d4b7 67be
000000c0: b8f8 80bf 77ab 3bbf 87b6 993e d0ab 843c
000000d0: 760e 7ebf c5be 8c3c 113c 173e ce42 063e
000000e0: 77e6 0abe 9851 e4bd 25ba f5bb 0e41 bfbe
000000f0: 2506 68bd 943b 953e 7fb1 7d3d 5e63 83bf
00000100: 13a4 7fbe c8a3 48be 2af7 1d3e 1de3 a0bd
00000110: 43cd c8be 45e9 dd3d efd3 0c3d dc2d 233e
00000120: 54e7 ea3d 9112 a0bf 0a21 f93e fde1 303e
00000130: d1f7 993d aff4 d9be b196 87be bec2 b33d
00000140: ad3f 4a3d 3d8e 253e c86a d4bd e958 8c3e
00000150: 2f9c 433f 1b84 363f f0fc e3bb 9c32 bf3e
00000160: 1916 fb3c 034e 163e 5b63 083e 43af 87bf
00000170: 3361 2bbf 38f5 443f 3db1 7c3d 80b1 dd3b
00000180: b791 d6be ace1 253f 3e4f 01be 41d9 8fbd
00000190: 15be 0f3e dced 1f3e cf68 5d3e 2872 083f
000001a0: 91d7 003e 190c 053e c07f dd3c b35a a8bc
000001b0: d070 89bf 2498 73be 66b7 1c3f 1921 003f
000001c0: e5d1 193f 58ce db3d 4265 93be 2468 393f
000001d0: cb3f 4b3f 86ad d8bc 25d0 e93e 97ab 35bf
000001e0: 2050 8a3d 17fd a3bb 0dc9 e5bd 8598 1f3f
000001f0: 184d 7cbe 4c8e 0ebf 9805 2c3d 8eab 44bf
00000200: dd58 963d b054 7a3e 426e 113d 7cbc d9bd
00000210: e52f d53e 0f74 ab3d 5347 713d 1846 463e
00000220: e56a ccbf e319 77bf 869d 74be 1cf1 363c
00000230: e55b 983d bd6b 69bc e1b6 fa3e aba7 12bf
00000240: 27e6 ec3e 2098 1cbc 0d9d ee3d 356a 5e3e
00000250: 19e3 95bd 2e26 153e aaab a93d 4f5a de3d
00000260: 0eaa aebf 1a63 4ebe 11c9 b03d 7075 f0be
00000270: d91e a73e c2a8 4fbc 4080 313e 10dc 5bbf
00000280: 051a 8b3e fd11 a0bb 9881 193e cae8 52bf
00000290: f7d9 4ebd 8721 d0bf b34a 9c3e b2ba 9bbd
000002a0: 6910 e83d d02f c8bf 6728 aa3b e4b0 df3e
000002b0: edcb 19be ca90 ea3d b3a6 4ebe 38ed c1bc
000002c0: 4751 97bf 3333 01c0 85dc 3bbd f546 8d3d
000002d0: 5bb8 5fbf deb5 8e3d 4209 6a3e db40 913d
000002e0: f05a 93bd 94a1 203e 10bc 193e c1ef 7bbe
000002f0: 1455 8c3d 72ef 48be 059e 59bc d2a8 95bf
00000300: d282 34bf 74de a1bd 0cec 173e cdf3 17bb
00000310: 2234 ebbe ebbf 683e b23d 9fbc 6344 fc3d
00000320: 2eec 1c3e add9 cbbf 24dc 883e d016 a13e
00000330: dd6f 34bb db6e 6ebe 4f77 44be 8e7c 213e
00000340: a887 a8bd 9e4d ee3c 9254 8cbc 6735 523e
00000350: 4b57 053f ae77 0d3f 6f32 063e 9cb4 8fbd
00000360: 42ee 673e a621 82bc 38fe 563e c194 bebf
00000370: f50c dfbf 6bad 033f 1203 3d3e 6758 12be
00000380: f35b 8abe 1481 af3e d432 52bd d9a1 03be
00000390: af42 353d 1e78 163e 8b34 57be ef3b f43e
000003a0: 26c0 1a3d d397 77bd 4476 f5bd c13c 1cbd
000003b0: ad18 afbf a2fe 52bf 0777 113f 966c 613e
000003c0: c817 1b3f 6284 a73d 5c54 53bf d5ef fe3e
000003d0: f8a2 213f 5160 f43d 9a03 143e 4384 b0bf
000003e0: ae5f a03d 00eb 34bc dafc 2bbd 0472 e43e
000003f0: f1ab 89bf ae18 c0bf b3c5 e23d 2acb 8ebf
-0.13339649 0.11632191 -0.030131616 -0.014844049 0.47786167 0.08334311 0.011836586 0.2171185
-0.96911347 -0.79410243 -0.70816 0.026739636 0.36067712 -0.17143777 0.47916654 -0.15778881
0.6442131 -0.081968695 0.06297437 0.18003343 -0.11505485 -0.07807621 0.64566636 0.11545877
-0.8405557 -0.24733764 0.017866105 -0.25966734 0.9376821 0.19252494 0.044733364 -0.65343
0.26081502 0.09856037 0.16554992 -0.11292366 -0.07647546 -1.2462955 0.22277069 0.011357517
-0.009408588 -1.3866142 -0.028232457 0.39916334 -0.05896567 0.023188502 -0.20615713 -0.22628719
-1.0075903 -0.7330851 0.3002207 0.016195208 -0.99240816 0.01718081 0.14769007 0.13111421
-0.13564478 -0.11148375 -0.007498997 -0.3735432 -0.056646485 0.29147017 0.06193685 -1.02647
-0.24964933 -0.19593728 0.15426317 -0.078558184 -0.39219102 0.10835508 0.034381803 0.15935463
0.114699036 -1.2505666 0.4865802 0.17273708 0.0751797 -0.4256949 -0.26482156 0.087773785
0.049377132 0.16167541 -0.103719294 0.27411583 0.7641019 0.71295327 -0.0069576427 0.373433
0.030650185 0.14678197 0.13319151 -1.0600361 -0.6694519 0.76936674 0.061692465 0.0067655444
-0.41908047 0.6479747 -0.12627885 -0.0702386 0.14037354 0.1561808 0.21622013 0.5329919
0.12582232 0.12992896 0.027038455 -0.020551061 -1.0737553 -0.23788506 0.61217344 0.50050503
0.600859 0.10732716 -0.2878819 0.7242453 0.79394215 -0.02644993 0.45666614 -0.7096495
0.06753564 -0.005004536 -0.11219988 0.623421 -0.24638784 -0.5568588 0.041997522 -0.7682427
0.07341168 0.24446368 0.03550554 -0.10631654 0.41638103 0.08371746 0.05890591 0.19362676
-1.5970122 -0.96523875 -0.23888215 0.011165883 0.074394025 -0.014246878 0.4896765 -0.5728709
0.46269342 -0.009557754 0.11651049 0.21720202 -0.07318706 0.14565346 0.082846954 0.10857069
-1.3645647 -0.20154992 0.086321004 -0.46964598 0.32640722 -0.012674512 0.1733408 -0.85882664
0.2716829 -0.004884957 0.14990842 -0.8238646 -0.050500836 -1.6260232 0.3052574 -0.07603969
0.11331255 -1.5639591 0.0051928046 0.43689644 -0.15019198 0.114533976 -0.20180778 -0.023672685
-1.1821679 -2.01875 -0.0458646 0.068982996 -0.8739068 0.06968282 0.22855094 0.07092448
-0.07195079 0.15686637 0.15013146 -0.24603178 0.06852165 -0.19622591 -0.013282304 -1.1692145
-0.70512116 -0.07903758 0.14836138 -0.0023186088 -0.45938212 0.22729461 -0.019438598 0.12317731
0.1532447 -1.5925804 0.26730454 0.31462717 -0.0027532496 -0.23284476 -0.19186138 0.1577017
-0.082289994 0.029089745 -0.01713017 0.20528184 0.52086323 0.5526074 0.13105176 -0.070168704
0.22649482 -0.015885185 0.20995414 -1.4889146 -1.7425829 0.5143649 0.18458202 -0.14291535
-0.27023277 0.34278166 -0.051318005 -0.12854709 0.044253048 0.14694259 -0.21016137 0.47701976
0.037780903 -0.060447525 -0.11985448 -0.038143877 -1.3679405 -0.8241979 0.56822246 0.22014078
0.6058316 0.08179547 -0.825506 0.49792352 0.63139296 0.119324334 0.14454499 -1.3790363
0.078307495 -0.0110423565 -0.041989185 0.44618237 -1.0755597 -1.5007532 0.110728644 -1.1155751

layers.2.bias f4 [128]
00000000: 063d 903d cac8 323d 307f aa3e 8b67 45bd
00000010: fe02 3e3d c8cd 973e 5248 763e bc61 bbbe
00000020: 1f4a b1bc d81d c03d 4370 33bd 264f a5bd
00000030: 68f1 01be d368 203e c781 abbd c314 853c
00000040: 27df b9be a088 c33e 42a6 52be 8197 5abd
00000050: 5326 dabb 0a6a 0a3e 7234 02be 0010 0fba
00000060: 7826 b03e 1b0b 9a3e 032d a83c 10a4 3b3e
00000070: 55b5 6bbe 217a d73e ee56 ec3c dcea a03d
00000080: fc85 513d c2a4 b6bc 0b98 21bd b332 daba
00000090: 16c8 b63e a866 71bd f2d6 68be 1f26 bcbc
000000a0: 98a9 89bc c29c ffbe c794 a1be 46b1 22bd
000000b0: 7891 e0be a338 e83c 20e6 ddbb 0700 613d
000000c0: 75c6 423d c316 3cbb 8b8b a1bd 3ef0 313d
000000d0: 7652 613d 087d 0a3d 8132 65bd 6035 073c
000000e0: 2f29 8dbd 462f e53b 24c7 fd3c 4174 c23e
000000f0: c0a1 05bf 46aa 3f3e 0520 8b3e 2cc2 d03d
00000100: a21a af3e 0edc d23c eb07 4ebc cfa7 463e
00000110: 7403 50be 9c90 a43d ef12 a03e 218b 40bd
00000120: 5872 82bd 9c13 64bc d0f1 43bd 0b7d b4bd
00000130: 0d54 603e b85f 633d 929c d63c 58d7 0a3d
00000140: c891 20bc d7f4 bf3d 1b07 783e f93f 683e
00000150: b7e2 72ba 5ee7 6abe 25a6 223d 142f 9c3e
00000160: 134a e23e 012e af3e 58b5 b43c b897 853e
00000170: a7ab d33e fe10 363e 0ffd c13e 2d11 bbbd
00000180: dbee 28bd 0082 47bd aca2 94bd dd96 223e
00000190: 7516 a0be b417 053e 3195 f4be 404a 0dbe
000001a0: c5d6 89bd 0415 9cbe 5983 823e bb4f 063e
000001b0: 5f68 b7be 5feb fd3c ed18 35bd 918c 9b3e
000001c0: 305b a0bc 619d 49bc a4e1 e7bc aa31 203d
000001d0: 2301 9dbd 96c4 7b3e 6f00 99bd c329 ec3d
000001e0: 65a2 fbbc 4772 933e 2162 883e a99f a4bc
000001f0: 6233 9b3e 5925 f53d 58db 91bc 84d7 9dbc
0.07042889 0.04364852 0.3330016 -0.04819445 0.046389572 0.29649186 0.24051026 -0.36598003
-0.021641789 0.09380692 -0.043808233 -0.08071737 -0.12689745 0.15664987 -0.083743624 0.016245252
-0.36303064 0.38190174 -0.20571235 -0.05336714 -0.0066574006 0.13517013 -0.12715319 -0.0005457401
0.3440435 0.30086598 0.020529276 0.18324304 -0.23018391 0.42085364 0.028850045 0.07857296
0.051153168 -0.02229536 -0.03945164 -0.001664719 0.35699528 -0.05893579 -0.22738245 -0.022967396
-0.016804501 -0.49924284 -0.3155882 -0.039719842 -0.43860984 0.028347319 -0.006771818 0.054931667
0.047552545 -0.002870009 -0.07887944 0.043442003 0.05501028 0.033810645 -0.055956367 0.008252472
-0.06892621 0.006994161 0.030978747 0.3797932 -0.52199936 0.18717298 0.27172866 0.10193285
0.34200007 0.025739696 -0.01257513 0.19399951 -0.20313817 0.080353945 0.31264445 -0.047007684
-0.063694656 -0.013920691 -0.047838032 -0.088129126 0.21907063 0.055511206 0.026197705 0.033896774
-0.009800382 0.09372871 0.2422146 0.22680654 -0.00092653505 -0.22939822 0.03970923 0.30504668
0.4419714 0.34214786 0.022059128 0.26092315 0.41341898 0.1777992 0.3788838 -0.091341354
-0.041243415 -0.048707962 -0.0725759 0.15877862 -0.31267133 0.12997323 -0.47770074 -0.13797855
-0.06730417 -0.30484784 0.25490835 0.13116352 -0.35821816 0.030996023 -0.044213224 0.3038068
-0.019574732 -0.012305588 -0.028305836 0.039109863 -0.076662324 0.2458671 -0.07470786 0.11531403
-0.030717084 0.28798124 0.26637366 -0.020095663 0.3031264 0.11970014 -0.017804787 -0.019267805

layers.4.weight f4 [2, 128]
00000000: d3e1 463d 118a 9f3e 71fc c93e 14c3 5cbd
00000010: 14a1 91bc 6b49 9c3e bbc9 c33e cbd3 68be
00000020: 9481 04bf 6bf2 cc3e fdaa b2be cc61 c63c
00000030: 66ea 57bf 55bc 893e 004d 24ba b4a8 16bf
00000040: 7d38 b6be 9e90 bc3e da13 27be 8dbf 1dbf
00000050: e4d4 64bd 658d 21be 7de8 a4bc d0c4 65bc
00000060: bec6 a83e c4d9 b43e 7354 7abd 4d71 b53e
00000070: aa1d a83e d117 953e bfdf 30be ad65 203d
00000080: 0ba3 33bd aed6 a23d accb 56bd c2ba 8ebe
00000090: bb88 de3d a885 f03c 97d5 0cbe 80bc 8c3f
000000a0: 0566 8f3b 396d 95be fa3d 34bf 3398 01bd
000000b0: 3a3e 79be 15ad ad3c 63a3 b4bd c1ff 943e
000000c0: e14e d9bd 16fe 763d 8361 b1be 646e 623b
000000d0: a50e da3c 968b c83e 8151 e4be 889c 013f
000000e0: b2b1 3ebd bf04 833e 9cad a0bd 3a91 bd3e
000000f0: 6244 abbe 29e4 be3e cf94 a63d c23a 4d3d
00000100: 0b72 e33d 6c72 f13c 62f5 c3ba a04d d23e
00000110: 14f6 1abf 7801 05bf 8101 bc3e e58a f83a
00000120: b0ef af3b 76af 043d 52a5 acbd 9ee0 683f
00000130: 799b ae3e 69c0 653d 0da1 efbe 2b33 ecbd
00000140: 5dd5 813d c1a7 1ebf afde f43d 6b1b ab3e
00000150: 281e bb3d 1735 f9be 5f0d 1dbd 0594 d33d
00000160: 8f1c 8c3e f0b2 933e b79c 3a3d a841 cb3e
00000170: 01b2 af3e 48ef ad3e 0828 c53e 7d27 51bd
00000180: 2704 cb3b 5846 15bd 4d3c 90bc 03b1 af3e
00000190: 8786 90be 4f37 af3e 0bf5 43bf 736b cfbe
000001a0: 3aa0 12bc 98d5 bbbe c777 ad3e 2a18 013f
000001b0: 210f 753d c775 01bf fc8a 88bd 9c71 c83e
000001c0: e06a 8cbd 1be1 5abb 4e66 113d 9f3f 9b3c
000001d0: 04ad dc3c 4608 c63e 10bd 8dbd b32d bd3e
000001e0: da6e 64bd 869b d23e e877 b43e beb7 4b3d
000001f0: 66dd d13e c1da d43e efcd a93d 1e87 a23e
00000200: 57b7 a83e bf53 323e e56c a43e 3a15 4abd
00000210: 9494 c63c 2465 f63e 17bc 543e f95f 3abf
00000220: 528a 313e ff9b 673e 2b64 843e fe38 b53b
00000230: bc7b 9fbe 17a6 45bf 1e0f 5b3d 63e8 24be
00000240: eb4c 0bbf c150 ac3e cfa7 e23e a3ff 0a3d
00000250: 0150 52bd 5efe 09bf b354 54bd 24ab 8dbd
00000260: e260 a13e 1f86 9b3e cf1d 7e3d 4375 533e
00000270: e549 d6be 1ee8 fb3e 908a 6f3e dbb3 2d3f
00000280: c6c0 783a 786c 243c 0e16 28bd 8870 b63e
00000290: 547c cc3e b1e8 31bd f48e ea3e fafa 373e
000002a0: 0296 41bd 896a 15bf 14ba 973e 5bdd 53bd
000002b0: 7387 22bf d992 733b 0c7e 9dbd e338 393e
000002c0: 68d7 163e 10bc a83c da46 663d ec7b 0bbd
000002d0: b5d0 253e 3a3e 9c3e d88a 063f d3d5 b6be
000002e0: 2de8 4f3c 1531 3f3e a752 933d f018 c03e
000002f0: cd91 22bf 58f9 5c3e e167 8a3e c76a df3e
00000300: ca73 b73e d8a3 a3bf f548 7ebd bbcc 743e
00000310: 328d c73c 825b dbbe 1270 ee3e 63a9 3bbd
00000320: 373e a2bd f3d4 82bc f046 7f3c abcd 0c3f
00000330: 30c6 633e 8ce9 fcbe 0b3d 60be dc46 513e
00000340: 6c6a bcbc 0217 75be 33fe b63e 5ed6 a03e
00000350: 1b8e cebd 6f3f 19bf 6bea 6a3d 7531 913e
00000360: c6e9 fb3e 3db6 cb3e 0118 6b3d 6291 b53e
00000370: b3db c13e 0a7c 913e 68c4 d23e 8297 23bc
00000380: 5a0c e33b 9e86 82bd f120 01bd 8ec5 873e
00000390: e287 8abe 7143 753e 5357 403e 0bba e03e
000003a0: dccb 483e f21c edbe 78b2 893e 8865 9cbf
000003b0: 73d5 39bf 3469 fdbe b8c1 5e3d 14b8 823e
000003c0: 207c 2bbd b1d8 aa3b 530d ac3d 352f 733c
000003d0: 7bd4 963d 3cb9 833e fc5e 833d f547 633e
000003e0: e0c4 4e3d 00e1 b73e df7a c23e 5d1b 98bd
000003f0: 2bbf 9e3e 30fa 3b3e e8f1 68bc c4a0 ae3e
0.048555207 0.31160024 0.3945041 -0.05389698 -0.017777003 0.30524763 0.38239846 -0.22737043
-0.5176022 0.400287 -0.3489608 0.024216555 -0.8434204 0.26901498 -0.00062675774 -0.5885117
-0.35589972 0.36829084 -0.16316167 -0.6162041 -0.05586709 -0.15776594 -0.02013039 -0.014023975
0.32964128 0.35322392 -0.061115693 0.35438004 0.32835132 0.29119733 -0.17272852 0.039159466
-0.04385666 0.07951103 -0.05244033 -0.2787686 0.10865923 0.029360607 -0.13753353 1.0995026
0.0043761753 -0.29184893 -0.7040707 -0.03163929 -0.24340144 0.021200696 -0.08820226 0.29101375
-0.10610748 0.06030091 -0.34644708 0.0034550661 0.026618311 0.39168996 -0.44593433 0.5062947
-0.046556182 0.25589558 -0.07845613 0.37024862 -0.3345061 0.37283447 0.08133852 0.050104864
0.11105736 0.029473506 -0.0014950449 0.41074848 -0.60531735 -0.51955366 0.36719897 0.0018962292
0.005369149 0.032393895 -0.0842997 0.9096774 0.3410299 0.0560917 -0.4680256 -0.11533197
0.06339524 -0.6197472 0.11956536 0.33419356 0.09136611 -0.48673317 -0.03834283 0.10330967
0.27365538 0.28847456 0.04555961 0.3969853 0.34315494 0.3397162 0.38507104 -0.05106305
0.0061955634 -0.03644404 -0.017606879 0.34314737 -0.28227636 0.34221885 -0.7654578 -0.40511665
-0.008949334 -0.36686397 0.33880445 0.50427496 0.05982888 -0.5057034 -0.06667134 0.39149177
-0.06856322 -0.0033398333 0.035497956 0.018951235 0.026937969 0.38678187 -0.069208264 0.36948928
-0.05576978 0.4113428 0.3524773 0.049735777 0.40989226 0.41573146 0.08291232 0.3174371
0.32952377 0.17414759 0.3211433 -0.04933665 0.02424077 0.4812404 0.20774876 -0.7280269
0.17337921 0.22618102 0.25857672 0.0055304756 -0.3114909 -0.7720656 0.053481214 -0.16104273
-0.5441424 0.3365536 0.44268653 0.0339352 -0.05134583 -0.5390376 -0.051838588 -0.06917408
0.31519228 0.30375764 0.062040146 0.206502 -0.41853252 0.4920053 0.23392701 0.6785256
0.00094891747 0.010035627 -0.041036658 0.3563273 0.39938605 -0.043434802 0.4581219 0.17966834
-0.0472622 -0.58365685 0.29634154 -0.051724773 -0.6348793 0.0037166385 -0.07690057 0.18088107
0.14730608 0.020597488 0.056219913 -0.034053728 0.16192897 0.30516225 0.5255561 -0.3571001
0.012689632 0.18671067 0.07193499 0.37519026 -0.63503724 0.21579492 0.27032378 0.43636152
0.35830528 -1.2784376 -0.062081296 0.23906223 0.02435932 -0.42843252 0.46569878 -0.045815837
-0.07922023 -0.015970683 0.015580878 0.55001324 0.22243571 -0.49396932 -0.21898286 0.20437187
-0.022999965 -0.23934558 0.35740814 0.3141355 -0.10085698 -0.59862417 0.057352465 0.28358045
0.49201792 0.39787474 0.05739594 0.3546248 0.3786293 0.28414947 0.4116547 -0.009984853
0.0069289627 -0.063733324 -0.031525556 0.2651791 -0.27056795 0.23951508 0.18783312 0.4389194
0.19609016 -0.46311146 0.26893973 -1.2218485 -0.7259132 -0.49494326 0.054383963 0.25531065
-0.04186642 0.00521382 0.08400979 0.014842798 0.07364746 0.2572726 0.06414601 0.22195418
0.050480723 0.3591385 0.37984368 -0.07427094 0.31005225 0.18357158 -0.014217831 0.3410703

layers.4.bias f4 [2]
00000000: 8245 333e 9588 9e3e
0.17506984 0.3096358
