ddqn_models/whole/ddqn_500_1.0.pth (torch_old, 69813 bytes, 6 tensors)

layers.0.weight f4 [128, 2]
000000 af 5b e1 bd c4 db 07 bf cc b9 96 3f 31 ea 89 bf
       -0.110038154 -0.5306971 1.1775451 -1.0774595
000010 e8 64 9b 3d 60 99 17 be b4 17 6c 3f a5 b3 27 3f
       0.07587606 -0.14804602 0.9222367 0.6550849
000020 d1 cb cb 3e b6 4b ad 3f 9b 46 0e be f6 56 3a be
       0.39803937 1.353873 -0.13894121 -0.18197235
000030 b0 ed 65 be 4a 59 09 3e 02 20 06 3f 53 8f 81 3f
       -0.22453952 0.13412967 0.5239259 1.0121864
000040 36 2b b7 bf ee a2 cf be 87 40 85 be 5f 93 79 bf
       -1.4310062 -0.40553993 -0.26025793 -0.97490495
000050 10 20 30 bf 0a c8 4b bf aa fc 19 bf c7 fc 03 3f
       -0.68798923 -0.7960211 -0.6015116 0.5155758
000060 91 94 24 bf 49 d9 f0 bc c7 2f 82 be 9d f1 da be
       -0.64289194 -0.029400485 -0.25427076 -0.4276246
000070 e9 05 78 bf 24 94 a9 3e c0 98 6c bf 83 5e c7 3f
       -0.9688402 0.33120835 -0.9242058 1.5575718
000080 06 a7 ab 3f c2 4c 3f 3f 80 7b ac bb 00 23 0f be
       1.3410347 0.747265 -0.005263746 -0.13978195
000090 97 1e a6 3e 06 d7 f6 bd d9 f8 4f 3e 00 24 44 3c
       0.32445213 -0.12052731 0.20309772 0.011971474
0000a0 0f b2 89 be 0b 07 b9 be 6f af 2e 3f 84 79 69 bf
       -0.2689366 -0.36138186 0.6823644 -0.91201043
0000b0 d9 e0 80 be 2c 12 e7 3e 7e 33 a2 3e 26 be e8 3a
       -0.25171545 0.45131052 0.3167991 0.0017756864
0000c0 60 d2 8e bf be c6 ad 3f ac b5 6a bf ca b4 16 be
       -1.1157951 1.3576276 -0.9168346 -0.14717403
0000d0 25 11 18 be 84 e9 43 be 9b a3 0d be a0 7e 31 3f
       -0.1485029 -0.19132048 -0.13831942 0.6933384
0000e0 0d fb b8 bf 81 29 f2 3e c8 ba b3 3f eb 59 50 be
       -1.4451615 0.4729729 1.4041376 -0.20346801
0000f0 b8 5f 94 3e 8d 81 b1 bf 6a 87 cc bf 5c 73 c3 be
       0.28979278 -1.3867661 -1.5978825 -0.3817395
000100 36 34 f7 3e 44 59 ed 3f 87 d3 86 be 71 ba 91 3d
       0.4828202 1.8542867 -0.26333258 0.07115639
000110 ba 84 50 3f d4 dc 99 bf 0f 0e 87 3e d9 33 12 be
       0.81452525 -1.2020516 0.26377913 -0.14277591
000120 80 ac 1f 3c e8 35 f6 bd ec 4e 88 bf b9 c5 2c bf
       0.009745717 -0.120220006 -1.0649085 -0.674892
000130 8c d7 8d 3f e1 24 73 3e 6b 21 94 be 96 bc b2 be
       1.1081405 0.23744537 -0.28931746 -0.34909505
000140 26 2c 1f bf f6 c9 18 3f 13 9c 0f 3f 6e 24 06 c0
       -0.6217674 0.5968317 0.56097525 -2.0959735
000150 be a3 54 be 80 a6 eb 3e c0 4b da 3d 1b d2 43 3f
       -0.20765588 0.46025467 0.106589794 0.7649247
000160 9f b6 b3 3e 38 8c bd 3d 63 fe fd 3d 87 b9 2a 3e
       0.35100266 0.0925526 0.12402036 0.16672336
000170 de f2 71 3f 2e 6e 87 3f cd 84 07 be eb 41 ec be
       0.9451121 1.0580499 -0.13234253 -0.4614404
000180 b0 14 cf bf 56 14 ec bd 88 c1 71 3d 73 37 b8 bf
       -1.6178188 -0.11527316 0.059022456 -1.4391922
000190 82 40 82 3f 9b 74 4b bf ef 5b 57 3e da 4a 3b 3c
       1.0175936 -0.794748 0.21031164 0.01143142
0001a0 4a e6 f5 3e 07 4f cb bf 98 e1 3d bf f8 f7 12 3f
       0.4802726 -1.5883492 -0.74172354 0.5740962
0001b0 3a b5 03 3f b7 c1 06 3f 6f 42 23 bd e1 2e 5d 3e
       0.51448405 0.52639335 -0.039858278 0.21599914
0001c0 bf 7e 44 be 43 84 1a 3f ce cb 54 be c1 a2 ac bd
       -0.19188975 0.60358065 -0.2078087 -0.0842948
0001d0 f3 42 9f 3e 2a b4 50 3f 6b 1e 35 3e 00 0b 12 bf
       0.31105766 0.8152491 0.17687385 -0.57048035
0001e0 84 c9 82 3f bb 9c dd be f3 b6 30 3f 58 4a 98 be
       1.0217748 -0.43283638 0.6902916 -0.2974422
0001f0 d4 42 3b bf a1 b9 cb 3e 80 d7 b8 be 9b 3d 90 3f
       -0.73148847 0.3979006 -0.36101913 1.12688
000200 3a 91 20 3f c0 bf ce be 89 64 3a 3f 5a 4f 7e 3f
       0.627216 -0.4038067 0.72809654 0.9933983
000210 e7 35 d7 3e 71 5c 22 bd 6f be fb be 71 da 85 3e
       0.42033312 -0.03963894 -0.49168727 0.2614322
000220 ea 26 20 3f db 04 0a 3e 90 ac 18 3f b3 ee 0e 3f
       0.6255938 0.13478415 0.5963831 0.55832976
000230 80 8e 8b be c3 6d 6a 3e fa f8 6b 3f e0 76 ae 3e
       -0.27257156 0.22893433 0.92176783 0.3407507
000240 af 47 9e 3e 5e 04 9a ba 5a d7 84 bf a7 70 58 bf
       0.30914065 -0.0011750569 -1.037822 -0.84546894
000250 54 ae 98 3f 90 6b 9b 3f e0 07 69 3f 51 76 06 3f
       1.1928201 1.21422 0.9102764 0.52524287
000260 d6 20 9f 3f a0 3c e2 bd 17 98 5c bf 11 16 50 bf
       1.2431896 -0.110467196 -0.8616957 -0.8128367
000270 9c b7 90 3f fd bc 8f 3f 14 bf 96 be d5 6e a6 3d
       1.1306033 1.122955 -0.29442656 0.08126608
000280 19 07 38 3f 87 ca a8 3f 8e e0 f8 3e 6d 40 a0 3f
       0.7188583 1.3186806 0.48608822 1.2519661
000290 3e 53 43 be 5a 43 cd be 02 fe 8f 3f d9 e8 4f 3f
       -0.19074723 -0.40090448 1.1249392 0.8121467
0002a0 f0 8e 3f bf 6b fd 8d 3e 8f c2 cc 3f d8 61 a2 3f
       -0.7482748 0.27732405 1.5996875 1.268611
0002b0 c9 a0 7e be 60 b0 a2 3d 8a a1 98 be 5a 7b f9 3f
       -0.24866022 0.07943797 -0.29810745 1.9490769
0002c0 08 dc 00 3e 62 31 17 3a df 72 b2 3e ba 88 f1 3e
       0.12583935 0.00057675515 0.34853265 0.47174627
0002d0 11 b9 00 3e 2f be 1b bc 7a e7 c7 bf d8 55 31 bd
       0.12570597 -0.0095057925 -1.5617516 -0.043294758
0002e0 74 6f 59 bf d0 bc a3 bf e2 55 83 bf b8 7e a6 3f
       -0.8493569 -1.2791996 -1.0260584 1.3007421
0002f0 75 1c 9f 3f 8b fe 1f 3f 93 73 38 3f 05 34 be be
       1.2430559 0.62497777 0.7205135 -0.37149063
000300 8b 5a 29 bf b1 ec ac be 17 3c fd be f0 51 45 be
       -0.6615378 -0.3377433 -0.49459907 -0.19269538
000310 8a d8 84 be 6a ae be be 61 fb 91 be 44 b4 b2 be
       -0.25946456 -0.37242442 -0.285121 -0.34903157
000320 c1 e2 d2 3e e4 05 97 3f 69 39 e3 3e e1 ab 96 3f
       0.41188625 1.1798673 0.44379738 1.1771203
000330 84 f6 1b 3f f6 40 73 3d 65 e8 d9 3f 3e 0b a8 3f
       0.6092303 0.059388123 1.7024046 1.3128431
000340 f8 34 00 3f 28 ab 93 3f 51 c9 e6 3e 75 6b 9c 3f
       0.50080824 1.1536608 0.45075467 1.2220293
000350 83 49 9f bf 1b b9 ad be bd 08 47 3f 69 53 07 be
       -1.2444309 -0.33930287 0.7774771 -0.13215412
000360 8f ce 64 3e 63 f2 bc bf 7a 33 ce bf fc fa a6 3f
       0.22344421 -1.476147 -1.6109459 1.3045344
000370 da e8 e7 3f 1e 2d a0 3e a5 ec a2 bf 07 fe 6a 3f
       1.8117936 0.31284422 -1.2728468 0.91793865
000380 e6 1a e1 3f 1d b8 bd 3e d6 f7 39 3e ed 63 64 3e
       1.7586334 0.3705453 0.18160948 0.22303744
000390 60 a0 46 3f 91 7b 5c bf 35 8e fe 3f 8e bc a4 3f
       0.7758846 -0.8612605 1.9887148 1.2870042
0003a0 a4 a0 82 be 38 89 ec bc 7f 60 9a be eb 7c 88 be
       -0.25513184 -0.028874025 -0.30151746 -0.26657805
0003b0 01 50 9b 3f 22 4c d0 3d 38 9c 12 3e 25 f1 50 bf
       1.213379 0.10170771 0.14317405 -0.8161796
0003c0 2b 34 5c be 35 aa d9 be 16 a2 79 3e cd 93 f6 3e
       -0.21504276 -0.4251267 0.24378237 0.48159638
0003d0 b3 ea 03 3e 80 b2 49 bf 8c 99 6e 3f 72 bf 0b 40
       0.128825 -0.78787994 0.93203044 2.18356
0003e0 5e 4a cd 3f df 71 94 bf 48 e4 e1 3e 49 2c f0 bd
       1.603832 -1.1597251 0.44119477 -0.11727197
0003f0 0d 5d 14 be a7 68 41 3e f6 1a 31 bf e3 38 a1 3f
       -0.14488621 0.18887578 -0.69181764 1.2595485

layers.0.bias f4 [128]
000000 35 1a 55 3f 4f 23 e4 3d 58 4b f1 be e8 00 33 bf
       0.83243114 0.11139547 -0.47127795 -0.6992326
000010 11 5a 21 bd 18 27 3a bf e4 d5 15 3f c5 2b 7d bf
       -0.039392535 -0.727159 0.58529496 -0.9889491
000020 be 05 33 be 11 2e 56 bf 32 c8 b5 3c 7f 86 36 3f
       -0.17482659 -0.8366404 0.022190187 0.71298975
000030 7b 99 a3 bf e1 a2 57 3f 5e fa c4 be 75 9f aa 3d
       -1.2781214 0.8423291 -0.38472265 0.08331195
000040 d0 4d d2 3c 85 3a 23 bf 78 db 4d 3f 32 2b 0a 3f
       0.02567187 -0.6376117 0.8041301 0.5397216
000050 90 50 6d 3f b6 e1 cb 3e ef 30 a9 bf 7c a6 48 3f
       0.92701054 0.3982064 -1.3218058 0.78379035
000060 10 60 9a 3d e6 be f8 3e 57 5c 41 bf e7 ac 95 bf
       0.07537854 0.48583144 -0.75531524 -1.1693391
000070 51 9a a1 be ea 56 03 bf 40 7b fe 3d 87 12 83 be
       -0.31563047 -0.51304495 0.12425852 -0.25600073
000080 56 c3 8f 3d e7 3d 29 3f 23 d0 53 3e a4 8f 4f bf
       0.07019679 0.6611008 0.20684867 -0.81078553
000090 0d 59 0c bf 6a 74 8b be 3a 55 cd 3e 60 2a 72 3f
       -0.5482338 -0.27237254 0.40104085 0.9459591
0000a0 61 10 39 3f f8 ab 0b 3d ae e9 4f 3e cb 86 b5 bf
       0.7229062 0.03409955 0.20303985 -1.418176
0000b0 56 fe 79 bf a3 3c 0b 3f 37 e5 39 be 43 be 0d 3f
       -0.9765371 0.543894 -0.18153845 0.5536844
0000c0 9d 64 28 3d e4 bb 30 bf 29 9b 4f bf ba aa 12 3f
       0.041111577 -0.690367 -0.8109613 0.5729176
0000d0 53 ff 9c 3e c9 f3 1e 3f cf 5a 11 3f 1a e8 12 3f
       0.30663547 0.62090737 0.5677919 0.5738541
0000e0 31 a1 7e 3e 66 9d 1b bf 4d fd e0 be d4 f6 5a 3e
       0.24866177 -0.60787046 -0.43943253 0.2138322
0000f0 37 f2 88 3e ea a7 84 bf db d3 43 3f 57 08 b4 be
       0.26747295 -1.0363743 0.7649514 -0.35162613
000100 a1 31 8e bf 8f 34 e8 bb 41 32 5c 3f e4 ac 5e 3f
       -1.1108896 -0.0070863436 0.8601418 0.8698256
000110 24 3c a0 bf da b8 26 3f 9f a0 1b 3f 95 02 1c 3f
       -1.2518353 0.6512581 0.60791963 0.6094144
000120 95 06 4e 3f 9a 75 3c be 2b f2 46 3e 7f 64 ce 3e
       0.80478793 -0.18404236 0.19428317 0.40311047
000130 bf 84 f9 be ad 7d cc 3e 49 e4 6b be 68 e5 35 3f
       -0.4873409 0.39939633 -0.23036303 0.7105317
000140 0d 1a a9 be 14 6e ba be 3a 33 e0 3e 34 2a b1 3e
       -0.33027688 -0.36412108 0.43789083 0.3460251
000150 90 7b 0b bf d9 47 c2 3d 4f 8e 26 3f 2f c9 95 3d
       -0.54485416 0.0948636 0.65060896 0.07313763
000160 e2 9b b5 3e 67 4d 85 bf 2b 65 b0 3e 25 26 b4 be
       0.35470492 -1.0414246 0.34452185 -0.35185352
000170 47 24 66 bf 48 13 68 3d 17 a9 35 3f 19 77 65 bf
       -0.89899105 0.056659013 0.70961136 -0.89634854
000180 81 eb 5c 3e 12 f4 97 bf 00 bd 6c 3f 76 30 70 3f
       0.21574213 -1.1871359 0.9247589 0.93823946
000190 07 48 74 bf d1 cf 53 bf 50 f2 9c bf 2a 0c d0 3d
       -0.95422405 -0.8273898 -1.2261448 0.1015857
0001a0 20 62 1b bf 6a 81 95 be e8 88 d3 3c 7b af 74 3d
       -0.606966 -0.29200298 0.025822118 0.059737664
0001b0 2b e9 a1 bd c1 70 20 3d 46 f2 54 be 55 0f 33 3d
       -0.079058014 0.03917003 -0.20795545 0.043715794
0001c0 18 d2 d0 bc ff 3a 3b 3f a2 0d 9f be 9e 05 fa 3d
       -0.025490806 0.73136896 -0.3106509 0.12208103
0001d0 8d a0 13 bf 41 7d 6d 3f f9 14 63 bf 23 20 85 bf
       -0.57666856 0.9276925 -0.88703877 -1.0400432
0001e0 44 e4 65 3f 3f 76 a2 bf be 81 ae 3e 14 5c 2f bd
       0.8980143 -1.2692336 0.3408336 -0.042812422
0001f0 c4 da 2f be 27 86 82 bf e9 c1 2a 3f cf 3b 84 3d
       -0.17173296 -1.019719 0.66702133 0.0645672

layers.2.weight f4 [128, 128]
000000 a0 ee 56 bd d5 e6 a5 3d 94 d6 f6 bc 1a 9b 06 be
       -0.052473664 0.08100668 -0.030131616 -0.13145104
000010 fa 06 bc 3e cb af aa 3d e3 aa ab 3d b0 d6 95 3e
       0.36724073 0.08334311 0.083822034 0.29265356
000020 fe e1 cf bf 4c 4a 4b bf 30 5d 61 bf 89 ef ec 3d
       -1.6240842 -0.79410243 -0.8803282 0.11569125
000030 46 8c 08 3e 60 76 bb bd f4 95 77 3e d2 f3 7a bd
       0.1333476 -0.091534376 0.24178296 -0.06126768
000040 6a 31 83 3d 34 df a7 bd d5 5e 18 3e 6c 52 83 3e
       0.06405909 -0.081968695 0.14879926 0.2564882
000050 17 a8 08 bd 1d f9 c0 bd 06 0b 34 3f 14 b1 4f 3e
       -0.033363428 -0.094225146 0.7032932 0.20282394
000060 de d2 26 bf 4f 4b 4c be f0 5b 92 3c 26 e4 f3 bc
       -0.6516551 -0.19950603 0.017866105 -0.029771876
000070 b1 17 07 3f 3e 05 58 3e 31 b3 9b 3d a9 bb d7 bf
       0.52770525 0.2109575 0.076025374 -1.6854144
000080 a6 a9 57 3e 46 40 31 3e 2a 18 dd 3d 25 b6 67 be
       0.2106081 0.17309675 0.107956246 -0.22628076
000090 2a 9f 9c bd bf c2 e7 bf ab ef 1d 3e fd 58 bf 3d
       -0.07647546 -1.8106307 0.15423457 0.09343145
0000a0 27 77 a4 3d 80 c5 e4 bf 40 59 e1 3c d7 8f 63 3e
       0.08030539 -1.7872772 0.027508378 0.2222284
0000b0 fd 85 71 bd 3c 07 c3 3d 73 88 02 bf c6 b1 37 be
       -0.05896567 0.09522864 -0.50989455 -0.17938909
0000c0 20 09 20 bf 1f 26 26 bf 48 20 ea 3e dd 48 bf 3d
       -0.62513924 -0.6490192 0.45727754 0.093400694
0000d0 e9 eb 60 bf f0 ab e9 3d f0 e5 67 3e ed a1 51 3e
       -0.8785997 0.114097476 0.22646308 0.20471926
0000e0 f5 e5 96 bd 98 51 e4 bd b3 7f 50 3e ed fe be be
       -0.073680796 -0.11148375 0.20361213 -0.37303868
0000f0 4d 70 b4 bd e0 a6 3f 3f b2 82 1d 3e a6 03 87 bf
       -0.08810482 0.74864006 0.15381888 -1.0547988
000100 c0 49 d0 3e e8 e0 48 3e a5 c0 7a 3e 3c 4c 1b 3a
       0.40681267 0.19617045 0.2448755 0.00059241406
000110 5c e0 28 bf 0a 07 42 3e 8d ce d8 3d d5 bd 75 3e
       -0.65967345 0.18947998 0.105862714 0.23998196
000120 cd 65 4f 3e 95 b8 38 c0 ea f4 dd 3e f9 3c 6c 3e
       0.20253678 -2.886266 0.43350917 0.23070134
000130 55 77 02 3e 6f 05 be be 01 b2 3e bf 25 0e 29 3e
       0.12740834 -0.3711352 -0.7449036 0.16509302
000140 7d c9 cb 3c 55 2c 81 3e 3c 06 2a bd b6 c0 a9 3e
       0.02487635 0.25229135 -0.04150985 0.3315484
000150 27 56 ec 3e 8e 5a 57 3e 86 7f 8b 3d 2e 48 03 3f
       0.4615948 0.21030638 0.068114325 0.5128201
000160 48 a2 ba 3d f2 0e 2a bc f4 7f 43 3e 1e f7 d1 bf
       0.09112984 -0.01037954 0.19091779 -1.6403539
000170 c8 6b a4 bf 69 b2 88 3f 57 d9 1b 3e 1c ee ff 3d
       -1.2845392 1.0679446 0.15219627 0.12496588
000180 11 7c e5 be 13 26 1b 3f 80 39 36 bd fe 89 40 3c
       -0.44821218 0.6060497 -0.04448843 0.01175165
000190 5a 24 3b 3e 01 27 39 3e 4e e9 83 be 8d 92 f0 3c
       0.18275586 0.18081285 -0.25763935 0.029366756
0001a0 2f 79 08 3e d6 6d 67 3e 2d 6d 30 3e dd 78 70 bd
       0.13327478 0.22600493 0.17229147 -0.058709014
0001b0 1d e3 7d bf 1f 8c 15 bd 8e 18 82 3e 6f 4f 40 3f
       -0.9917467 -0.036510583 0.2540936 0.75121206
0001c0 f8 54 b7 3e 4c 5d 43 3e bd d6 b0 be 3e 47 ce 3d
       0.35807014 0.19078559 -0.34538832 0.10072182
0001d0 15 25 f3 3e cc cf 61 3d fe b9 60 3f a1 c7 91 bf
       0.4748923 0.05512981 0.877838 -1.1389047
0001e0 38 88 18 3e c5 9d 6e 3d 4f c5 7e bd e3 3d 03 3f
       0.14895713 0.05825593 -0.062199887 0.51266307
0001f0 8b 6c ae bf 88 46 29 3d 4a 56 f5 3d 64 9d 1c bf
       -1.3626875 0.04132703 0.11979349 -0.6117766
000200 d1 76 8d 3d ec cf 29 3f 42 6e 11 3d b4 59 55 be
       0.06907428 0.6633289 0.03550554 -0.20835
000210 59 12 74 3e 0f 74 ab 3d 34 60 71 3c 35 13 9e 3e
       0.23835124 0.08371746 0.014732409 0.3087403
000220 0e 4b d6 bf 9f 10 25 bf db ed 24 bf 0b 47 2c bd
       -1.6741655 -0.64478487 -0.6442544 -0.04205994
000230 e5 5b 98 3d 7f b3 f1 bc 2e d3 d9 3e 33 ff 90 bf
       0.074394025 -0.029504536 0.4254393 -1.1327881
000240 8e 5d d7 3e 20 98 1c bc da 4e f9 3d fa fa 52 3e
       0.42063564 -0.009557754 0.12173243 0.20603552
000250 f6 8a b6 bd 09 41 7c 3e d0 ae a1 3d 1a ca df 3d
       -0.089132234 0.24634184 0.07894671 0.1092722
000260 7a 58 e4 bf e4 e7 b8 be 11 c9 b0 3d b5 cd ce be
       -1.7839501 -0.36114419 0.086321004 -0.40391317
000270 fb 33 66 3e 25 50 28 be 2e 93 ed 3e 56 5e 70 bf
       0.22480766 -0.16436823 0.46401352 -0.93893945
000280 f7 a3 85 3e 68 44 2e bd 33 c0 d4 3e ff ef 20 bf
       0.26101658 -0.042545706 0.41552886 -0.62866205
000290 f7 d9 4e bd de 15 c7 bf 6f ac c5 3e 46 69 bc bd
       -0.050500836 -1.5553548 0.3860812 -0.09199767
0002a0 7e 94 77 3d ad ee 71 bf d7 04 fe bd 72 e4 e9 3e
       0.060444348 -0.94504815 -0.12403267 0.45682102
0002b0 ed cb 19 be 80 05 b3 3d fc 96 b8 be e8 9c 12 bd
       -0.15019198 0.087412834 -0.36052692 -0.03579417
0002c0 11 fb 2c c0 d7 96 8d bf 43 ea ee bd fc 87 5e 3d
       -2.7028239 -1.1061658 -0.116657756 0.054328904
0002d0 3a 71 0e be e0 3b 90 3c ef b1 5b 3e d9 fe 0c 3d
       -0.1391038 0.017606676 0.21454595 0.03442273
0002e0 cc 3d 2a be 94 a1 20 3e 17 ce 50 3d 03 7a 8c be
       -0.16625136 0.15686637 0.050977793 -0.27436838
0002f0 ba 4b 32 3e a7 b5 80 be ce be 7a bd dd 2f e8 be
       0.174117 -0.2513859 -0.06121712 -0.45349017
000300 5a 7c 53 3d c4 e2 83 3e f2 a7 24 3e 64 e6 43 bd
       0.051632263 0.25758946 0.16079691 -0.04782714
000310 17 44 3a bf 39 a8 5c 3e cd 40 8c bd 27 39 17 3e
       -0.72760147 0.21548547 -0.06848297 0.14767896
000320 6d 11 1c 3e 62 d4 d2 bf 0e 85 d6 3e b5 d5 b1 3e
       0.15241022 -1.6471064 0.41898388 0.34733358
000330 3e 08 df bd d0 23 b1 be 99 29 bf be 70 ab f8 3d
       -0.10890244 -0.34597635 -0.37336424 0.12142074
000340 5e af 70 be f2 f5 68 be 90 3b 24 bd 65 99 85 3e
       -0.23504397 -0.2275007 -0.040095866 0.26093593
000350 19 ed 3a 3f f1 0c 1a 3f 1a 8f bf 3d f9 c4 9f be
       0.7301803 0.60175997 0.09353466 -0.31204966
000360 27 73 49 3e 4e 47 4d 3d e9 b2 3a 3e fc e7 c7 bf
       0.19672833 0.05011683 0.18232311 -1.5617671
000370 44 97 1a bf e0 38 ea 3d 0d 42 5d 3e 79 ad 3d bc
       -0.60387063 0.11436629 0.21607228 -0.011577004
000380 7f f5 eb be eb 30 ae 3e a0 3c 88 bd 96 21 14 be
       -0.46085736 0.34021696 -0.06652188 -0.14465937
000390 b1 0f 17 3c 2f 1a 92 3d 7f 96 e8 be 3e e3 23 3f
       0.00922005 0.071339004 -0.4542732 0.6401862
0003a0 20 a0 e9 bc 98 49 a8 be 1f 2c 95 bf 67 06 51 3c
       -0.028518736 -0.32868648 -1.165409 0.012757874
0003b0 78 f9 2e bf 84 50 cc bf 84 e2 3c 3d 72 00 5a bf
       -0.6834941 -1.5962071 0.04611446 -0.8515693
0003c0 ce 31 0c 3f 5d 0c 76 3d 44 65 8b bf df 34 20 3f
       0.54763496 0.060070384 -1.0890279 0.62580675
0003d0 e7 65 69 3f 42 66 cc 3d 27 36 16 3f 13 6e e3 bf
       0.91171116 0.09980442 0.5867638 -1.7767967
0003e0 39 47 88 3d 80 2e 36 3d 64 1f 17 3d 8b 5b 33 3e
       0.0665421 0.04447794 0.03689517 0.1751539
0003f0 b8 04 6e bf d7 a7 b5 bf 0d ed 98 3d 15 fe b7 bf
       -0.9297595 -1.4191846 0.07467089 -1.4374415

layers.2.bias f4 [128]
000000 c0 a3 33 3e 13 50 38 3d 57 72 c4 3e a9 75 a9 bd
       0.17542934 0.04499824 0.38368484 -0.08274395
000010 fe 02 3e 3d 2f 3c af 3e 73 87 90 3e 36 3d e6 be
       0.046389572 0.34225604 0.2822834 -0.44968575
000020 97 bc 68 be 2f 03 0c 3e 4f 96 8b be 46 52 e6 bd
       -0.22728191 0.1367309 -0.27263114 -0.11246161
000030 b5 0d fa be f5 c2 84 3e 9a 97 e5 bd 31 53 6f be
       -0.48838583 0.2592999 -0.11210556 -0.23371579
000040 64 52 e7 be 1d 99 dc 3e 10 4f af be ee 30 4b be
       -0.45180047 0.43085566 -0.34240007 -0.19842884
000050 53 26 da bb f9 c7 90 be 72 34 02 be b1 d0 15 bd
       -0.0066574006 -0.28277567 -0.12715319 -0.036575977
000060 fb 98 c8 3e 0f 08 bc 3e 03 2d a8 3c c4 50 63 3e
       0.39179215 0.36724898 0.020529276 0.22198778
000070 50 86 f6 be aa 45 f3 3e 47 fa 87 be 2a b7 fb 3d
       -0.48149347 0.47514087 -0.26558134 0.12290795
000080 fc 85 51 3d e5 16 5d bd 34 4a da bd f4 cb 93 be
       0.051153168 -0.053976912 -0.106586844 -0.2886654
000090 20 80 b7 3e a8 66 71 bd 9c 7e ee be 2c 34 17 bc
       0.3583994 -0.05893579 -0.4658097 -0.009228747
0000a0 98 a9 89 bc 09 1d 13 bf 5c e4 d0 be 46 b1 22 bd
       -0.016804501 -0.5746618 -0.40799224 -0.039719842
0000b0 38 cf 04 bf 6b 72 5b bb 20 e6 dd bb 79 d7 c3 bd
       -0.5187869 -0.0033484946 -0.006771818 -0.095625825
0000c0 24 91 84 bc c3 16 3c bb 88 9f c2 3d 3e f0 31 3d
       -0.01618249 -0.002870009 0.095030844 0.043442003
0000d0 60 61 29 3c ca 93 c5 bc 22 54 88 be 65 ed 2c 3e
       0.010338157 -0.024118323 -0.26626688 0.16887434
0000e0 2f 29 8d bd 77 84 b4 3c 24 c7 fd 3c 44 2f dd 3e
       -0.06892621 0.02203582 0.030978747 0.43200123
0000f0 15 83 18 bf 44 22 6c 3e 90 e5 14 3e 65 a4 c0 bc
       -0.59575015 0.23059946 0.14540696 -0.02351589
000100 b8 2c a6 3e a9 be d7 bd eb 07 4e bc 26 6e 67 3e
       0.32455993 -0.105344124 -0.01257513 0.22600612
000110 15 20 dd bd a3 96 fb be a3 ab bc 3e 30 82 f8 bd
       -0.10797135 -0.49138364 0.36849698 -0.12134206
000120 58 72 82 bd 9c 13 64 bc d0 f1 43 bd 34 49 b3 3d
       -0.063694656 -0.013920691 -0.047838032 0.08754197
000130 80 4a 84 3e 76 27 e0 be 6e fe 6e be 58 d7 0a 3d
       0.2583809 -0.43780106 -0.23339245 0.033896774
000140 63 1a 2a bd 37 9d c7 bc eb f9 7b 3e 38 1e 93 3e
       -0.04152907 -0.024366958 0.24607055 0.28733993
000150 b7 e2 72 ba 9c e0 c3 be 25 a6 22 3d aa 1b 87 3e
       -0.00092653505 -0.382573 0.03970923 0.26388294
000160 98 90 fc 3e 4d a8 ca 3e 58 b5 b4 3c 31 8a a1 3e
       0.49329066 0.39581528 0.022059128 0.31550744
000170 01 4c ee 3e f6 84 40 3e 5b 7a de 3e 60 6c e5 bd
       0.4654236 0.1880072 0.43452725 -0.112023115
000180 db ee 28 bd 00 82 47 bd ac a2 94 bd 9f 7a 54 3e
       -0.041243415 -0.048707962 -0.0725759 0.20749901
000190 ee f6 c8 be e6 af 3a 3e 31 95 f4 be 66 29 f5 3b
       -0.39250892 0.18231162 -0.47770074 0.0074817417
0001a0 4f e6 a5 be 09 5c c7 be cf 0d 9b 3e d0 30 b7 3d
       -0.32402274 -0.38937405 0.30283973 0.08944857
0001b0 d4 60 cd be 9a 9a ad bd ed 18 35 bd 7d 64 b3 3e
       -0.40112936 -0.084767535 -0.044213224 0.35037604
0001c0 30 5b a0 bc 61 9d 49 bc a4 e1 e7 bc aa 31 20 3d
       -0.019574732 -0.012305588 -0.028305836 0.039109863
0001d0 23 01 9d bd d7 54 a2 3e 6f 00 99 bd f2 8a c6 3b
       -0.076662324 0.31705353 -0.07470786 0.006059044
0001e0 65 a2 fb bc 7f a4 af 3e 29 25 a3 3e 03 6c 54 bd
       -0.030717084 0.34305188 0.31864288 -0.05186082
0001f0 71 3c a5 3e 91 1a 56 3e 58 db 91 bc d9 7c d7 bc
       0.32272676 0.20908572 -0.017804787 -0.02630465

layers.4.weight f4 [2, 128]
000000 9a cc 13 3f c3 3f 81 3f be e7 cc 3e 8f 62 af bd
       0.5773407 1.0097584 0.40020555 -0.085637204
000010 14 a1 91 bc 34 17 a1 3e 5b 71 c9 3e 44 31 ab be
       -0.017777003 0.31463015 0.39344296 -0.33436024
000020 00 ff 2b bf 09 e5 0b 3f 60 16 95 be d3 bb f4 bb
       -0.67185974 0.54646355 -0.29118633 -0.0074686795
000030 05 83 33 bf b9 6b 86 3d 6d 6a 04 bd 20 83 4d bf
       -0.70121795 0.06563515 -0.032328058 -0.80278206
000040 76 1e fb be da 45 bd 3e 5a 41 66 bd 46 bb dc 3e
       -0.49046677 0.36967355 -0.056214668 0.43111628
000050 e4 d4 64 bd 09 15 87 3e 7d e8 a4 bc 01 9f 2c bb
       -0.05586709 0.26383236 -0.02013039 -0.002633989
000060 c8 0e be 3e f6 7c e9 3e 73 54 7a bd de f6 df 3e
       0.37120652 0.4560315 -0.061115693 0.43743032
000070 1a 92 34 3e cd 1f aa 3e ad 0e 3b 3f 7f 78 19 3e
       0.17633858 0.33227387 0.7306927 0.14987372
000080 0b a3 33 bd ae d6 a2 3d c7 ed ef bc 13 a8 b4 be
       -0.04385666 0.07951103 -0.029288186 -0.3528448
000090 42 57 f2 3d a8 85 f0 3c e7 b9 f1 bc ef a1 89 3f
       0.11833049 0.029360607 -0.02950759 1.0752543
0000a0 05 66 8f 3b 4d 2c da be ec ea 12 bf 33 98 01 bd
       0.0043761753 -0.42611924 -0.5738971 -0.03163929
0000b0 0e 64 b1 be 15 ad ad 3c 63 a3 b4 bd 91 f2 c0 3e
       -0.34646648 0.021200696 -0.08820226 0.37685063
0000c0 98 12 49 be 16 fe 76 3d 8b 66 d5 be 64 6e 62 3b
       -0.19635999 0.06030091 -0.41679797 0.0034550661
0000d0 92 0d 23 3e db f7 54 3e 4a 09 dd be 8b c2 f8 3e
       0.15923145 0.20797674 -0.4317115 0.48585925
0000e0 b2 b1 3e bd 16 91 b8 3f 9c ad a0 bd ea cb d2 3e
       -0.046556182 1.4419277 -0.07845613 0.411712
0000f0 a9 c2 de be 6e e6 c6 3e d0 d5 02 3c 5a 0d 8e bb
       -0.4350789 0.3884768 0.007985547 -0.0043350877
000100 5b 9a c9 3d b2 74 1f 3e 62 f5 c3 ba c4 ae f2 3e
       0.09843894 0.1557186 -0.0014950449 0.4739896
000110 2a 81 5a bf f7 4b 93 be 41 27 d0 3e 81 c8 54 3d
       -0.8535334 -0.28768894 0.40654948 0.051949028
000120 b0 ef af 3b 76 af 04 3d 52 a5 ac bd 6d c6 8d 3f
       0.005369149 0.032393895 -0.0842997 1.107618
000130 48 fe b1 3e a9 8f 36 3f 92 a2 8f be 2b 33 ec bd
       0.34764314 0.7131296 -0.2805372 -0.11533197
000140 5d d5 81 3d 86 6e 48 bf 83 a6 01 3e 01 06 c9 3e
       0.06339524 -0.78293645 0.12661175 0.39262393
000150 28 1e bb 3d bb 53 9e be 5f 0d 1d bd 61 72 9d 3d
       0.09136611 -0.30923256 -0.03834283 0.07687832
000160 ea b8 9b 3e a8 e6 a8 3e b7 9c 3a 3d 7a c2 ce 3e
       0.30414516 0.32988477 0.04555961 0.4038275
000170 83 34 c3 3e a6 9a 89 3e c0 8f d5 3e 7d 27 51 bd
       0.38126 0.268758 0.41711235 -0.05106305
000180 27 04 cb 3b 58 46 15 bd 4d 3c 90 bc 27 4d ba 3e
       0.0061955634 -0.03644404 -0.017606879 0.36386988
000190 57 be d8 be c9 2b ef 3e 0b f5 43 bf c1 c7 df be
       -0.42332718 0.46713093 -0.7654578 -0.43707088
0001a0 45 4d 48 3f 57 85 00 bf 24 4c b9 3e dc ee be 3e
       0.78242904 -0.5020346 0.36190903 0.3729161
0001b0 1c 0c d0 3c 5a 56 35 bf fc 8a 88 bd 3f ff cf 3e
       0.0253964 -0.7083489 -0.06667134 0.40624425
0001c0 e0 6a 8c bd 1b e1 5a bb 4e 66 11 3d 9f 3f 9b 3c
       -0.06856322 -0.0033398333 0.035497956 0.018951235
0001d0 04 ad dc 3c aa da fa 3e 10 bd 8d bd c3 c9 4a 3f
       0.026937969 0.48994952 -0.069208264 0.79214114
0001e0 da 6e 64 bd fd 77 d0 3e a2 53 cb 3e f3 38 93 3c
       -0.05576978 0.40716544 0.39712244 0.017971491
0001f0 c5 11 d3 3e f0 82 90 3f ef cd a9 3d 87 9b bf 3d
       0.41224495 1.1289959 0.08291232 0.09355836
000200 37 ce 1b 3e a0 ad 98 3d 95 a4 cf 3e 47 df 2d ba
       0.15215383 0.07454991 0.40555254 -0.0006632697
000210 94 94 c6 3c e4 ae 0a 3f b3 b6 8f 3e f9 5f 3a bf
       0.02424077 0.5417311 0.28069076 -0.7280269
000220 64 93 d5 3d 8a 3e 48 3e 5c c0 39 3e fe 38 b5 3b
       0.10428503 0.19555107 0.18139786 0.0055304756
000230 f4 42 0d bf e7 3d 8d bf 79 ea b1 3c f9 cd 00 3d
       -0.5518029 -1.1034516 0.02171825 0.03144643
000240 eb 4c 0b bf 01 61 d1 3e 61 12 15 3f ec 95 32 3f
       -0.5441424 0.4089432 0.5823117 0.6976001
000250 01 50 52 bd c1 e6 e3 be b3 54 54 bd 02 9a 2c bc
       -0.05134583 -0.4451199 -0.051838588 -0.010534765
000260 a9 41 d1 3e 62 13 16 3e cf 1d 7e 3d c8 33 91 3e
       0.40870407 0.14655831 0.062040146 0.28359818
000270 7f 88 74 bf b7 09 11 3f bc 4d 98 3e 0f a1 70 3f
       -0.95520777 0.5665545 0.29746807 0.93995756
000280 c6 c0 78 3a 39 05 b0 bc 3d 04 01 be c8 41 2d 3f
       0.00094891747 -0.021486865 -0.12599273 0.676785
000290 17 d7 d0 3e b1 e8 31 bd 30 c7 7d 3e 08 56 95 be
       0.407891 -0.043434802 0.24783015 -0.291672
0002a0 02 96 41 bd 89 6a 15 bf 8b 39 5f 3f 5b dd 53 bd
       -0.0472622 -0.58365685 0.8719718 -0.051724773
0002b0 73 87 22 bf 52 64 de bc 0c 7e 9d bd 48 01 5c 3e
       -0.6348793 -0.027147446 -0.07690057 0.21484864
0002c0 d3 3b 29 3f 10 bc a8 3c 11 fa 2e 3f ec 7b 0b bd
       0.6610691 0.020597488 0.6835032 -0.034053728
0002d0 20 71 3f 3f d5 c8 df 3d 7f 34 2b 3f be af a7 be
       0.7478199 0.109269775 0.6687698 -0.32751268
0002e0 2d e8 4f 3c 8e 5d d5 be a7 52 93 3d c5 94 ef 3e
       0.012689632 -0.4167294 0.07193499 0.4679319
0002f0 cd 91 22 bf a6 3d 82 3e 6a da 45 bd 9f d7 b0 3e
       -0.63503724 0.2543766 -0.048304 0.34539506
000300 71 29 b4 3e a0 a2 5e bf f5 48 7e bd 30 41 23 3e
       0.35187867 -0.86966896 -0.062081296 0.15942836
000310 4d f8 00 bf dd d8 3c bf 9e 5e 0d 3f ee c1 a4 bd
       -0.50378877 -0.7376841 0.552225 -0.08044802
000320 37 3e a2 bd f3 d4 82 bc f0 46 7f 3c 9d c6 c0 3e
       -0.07922023 -0.015970683 0.015580878 0.3765153
000330 40 4f 88 3e 85 b6 bd be f9 c3 07 3e dc 46 51 3e
       0.26622963 -0.37053314 0.13258351 0.20437187
000340 c5 c5 0b 3c 4c 4f 55 be 31 75 c1 3e c8 88 0a 3e
       0.008531039 -0.2083103 0.37784722 0.1352874
000350 1b 8e ce bd ea 95 9b bf 6b ea 6a 3d a2 45 84 3e
       -0.10085698 -1.2155125 0.057352465 0.25834376
000360 bc ba 12 3f dc b9 8f 3e 01 18 6b 3d be 1b db 3e
       0.57316184 0.28071487 0.05739594 0.42794603
000370 13 b9 ee 3e bf ec 54 3e ca fc 01 3f 18 3d 98 3c
       0.46625575 0.20793436 0.5077635 0.01858382
000380 5a 0c e3 3b 9e 86 82 bd f1 20 01 bd 0d 79 aa 3e
       0.0069289627 -0.063733324 -0.031525556 0.3329548
000390 e2 87 8a be e8 82 02 3e 53 57 40 3e c4 4c 65 3f
       -0.27056795 0.1274525 0.18783312 0.8957026
0003a0 9d 3f 07 3f f2 1c ed be da 5e aa 3e c1 0f 16 c0
       0.5283144 -0.46311146 0.3327549 -2.3447115
0003b0 73 d5 39 bf 15 35 15 bf b8 c1 5e 3d a0 71 9d 3e
       -0.7259132 -0.5828412 0.054383963 0.30750751
0003c0 20 7c 2b bd b1 d8 aa 3b 53 0d ac 3d 35 2f 73 3c
       -0.04186642 0.00521382 0.08400979 0.014842798
0003d0 7b d4 96 3d 62 14 bf 3d fc 5e 83 3d c6 45 e5 be
       0.07364746 0.093300596 0.06414601 -0.44779795
0003e0 e0 c4 4e 3d 48 fc e1 3e 30 7f f0 3e 5d 1b 98 bd
       0.050480723 0.44137788 0.46972036 -0.07427094
0003f0 b6 f2 d4 3e 43 1a 91 3e e8 f1 68 bc 01 8a e3 3e
       0.41591424 0.2834035 -0.014217831 0.44441226

layers.4.bias f4 [2]
000000 0f 61 6b 3e 7e 52 49 3e
       0.22986244 0.19660375
