ddqn_models/whole/ddqn_400_1.0_good.pth (torch_old, 69813 bytes, 6 tensors)

layers.0.weight f4 [128, 2]
00000000: 7b00 3c3c 5573 debe b9ee 973f 39d8 65bf
00000010: e864 9b3d 6099 17be 13e6 b03f b20e 163e
00000020: e48d 423f 20e9 983f cacd 2ebe 25de 5abe
00000030: d372 a1be b950 4e3c 3e98 0b3f a335 6d3f
00000040: 1137 aabf c424 dbbe ec29 1dbf 88c7 8bbf
00000050: 30e1 3abf 3cad 47bf 29d9 32bf eaf5 053f
00000060: 10bb 19bf cade 173e ec96 2dbe 5024 b4be
00000070: 5865 77bf 1e12 c03e 5170 13bf b666 c33f
00000080: fa97 933f 13d4 fe3e 807b acbb 0023 0fbe
00000090: e4a0 e43e 0ac4 91bd 3795 d53e 6c32 373e
000000a0: e950 71be 8b05 b1be 28e9 8d3f 6a95 25bf
000000b0: a4c3 9dbe dcac 023f 1f87 0a3f 6d24 173e
000000c0: 7acc 49bf f3c3 a83f 0b78 80bf 719a 6abe
000000d0: 4e98 38be ae70 64be 4797 22be 1d1e 2b3f
000000e0: afc6 b4bf 1b0f d83e f40e b03f bbb4 8fbe
000000f0: ed96 123f 6e70 8abf 2b3c c1bf 0054 b6be
00000100: cec5 263f b625 c63f 52d6 a5be 7617 fdbc
00000110: 8c11 5f3f 81b4 91bf 0f0e 873e d933 12be
00000120: 80ac 1f3c e835 f6bd 265e 91bf e0cf 48bf
00000130: 9715 993f 8a7f 81bc 8807 7bbe 450b a9be
00000140: aa27 38bf 7df3 0a3f 02e6 2c3f 237a e3bf
00000150: b9a3 55be 0108 bd3e 7f56 bc3d c4ce 503f
00000160: 9fb6 b33e 388c bd3d a5f3 173e bf3c 023e
00000170: 9e0a 843f b234 873f bb77 793a eae8 a3be
00000180: 5187 ccbf eae7 b43b 32ec 0f3e a636 bfbf
00000190: 9ec2 913f 9340 5bbf 5bb7 cd3e e6a9 5c3e
000001a0: 8e03 613f bae2 c3bf 6a1e 35bf c9bd 1c3f
000001b0: 4989 093f 848e d23e 98ef 90bd 8b71 f73d
000001c0: 1f48 bebe 5e9a ba3e cecb 54be c1a2 acbd
000001d0: 8019 c93e 22da 353f 145f 103e e206 4bbe
000001e0: 9999 853f 5f91 f9be ee90 303f ca45 a1be
000001f0: f889 32bf ef86 f33e ebf5 35be e0b2 8f3f
00000200: 2fa6 5d3f ce11 38bf 67be 5c3f 34b7 3b3f
00000210: 736b 3a3f d6c7 a43d 25db 11bf f01c 453e
00000220: 7e74 2f3f 2703 4d3e 5e1a 1a3f 4a14 e93e
00000230: 7c1a d3be 64cc 1e3e a6ac 773f 556d 933e
00000240: bd5a 0c3f 9fba 303e 7a26 99bf b07f 59bf
00000250: 7c8f a73f 27e2 893f 09b8 733f dd4e eb3e
00000260: efb8 973f c8fe 23be a3b1 49bf 2aab 36bf
00000270: f658 b03f 9c26 6f3f dccc b4be bcee cebc
00000280: a13f 5f3f bffa 8b3f ea15 2d3f 7a59 903f
00000290: 0b30 47bc 63f6 78be 489a 973f f405 3f3f
000002a0: 191d 3ebf 0562 6a3e 5f76 bc3f 6adc 8c3f
000002b0: 3873 9ebe f472 efbc 141b 13be e5b3 ca3f
000002c0: 8fb6 983e 5026 303e 0752 f63e a2b5 163f
000002d0: c47b 943e 12f9 023e cc47 bcbf 04ac a1bd
000002e0: 0f60 79bf f3a5 acbf 9bb3 5bbf a63b a73f
000002f0: bbf4 a13f 8b92 113f 6920 6c3f 413e e4be
00000300: 9153 51bf 6f01 f2be aa4d 12bf 39fa 27bd
00000310: 9f7b 63be d719 b2be 6f88 80be ff62 abbe
00000320: 7604 f33e b8ca 903f 33ea 063f b9d8 933f
00000330: b363 4c3f b3de b63d a744 c73f eac5 953f
00000340: a1b2 163f 3f3e 853f bff7 223f 4cdd 8a3f
00000350: 582e 87bf cc1a cfbd d138 263f 4673 6ebe
00000360: 08b7 fb3d 4b7c aabf ec2c bfbf 5150 833f
00000370: 141b e13f 2021 4e3e f2da 85bf 89ed 583f
00000380: 63d0 c13f 4862 7f3f 63e6 ae3e 9360 ac3e
00000390: 7127 813f 4403 52bf fc33 ef3f e73e 903f
000003a0: 62cc dabe 7969 f23c 8412 93be 1948 8cbe
000003b0: 7a7d 883f 5c69 27be 8e28 973d 75d8 5ebf
000003c0: bcb3 1cbe 29a0 c7be 16a2 793e cd93 f63e
000003d0: c42e 813e 440b 31bf 08ee 5a3f 764e f53f
000003e0: 9e5a 8e3f 8837 83bf 7dce 0f3f 421d 78be
000003f0: 023e 39be 1a34 d63d 4ac2 2ebf 8075 7f3f
0.011474724 -0.43447366 1.1869727 -0.89783055 0.07587606 -0.14804602 1.3820213 0.14654043
0.7599776 1.1946144 -0.1707069 -0.21373804 -0.31532916 0.012592488 0.5452918 0.9265997
-1.3298055 -0.42801487 -0.6139209 -1.0920267 -0.7299986 -0.7799871 -0.6986261 0.5232836
-0.6005106 0.14831081 -0.16952103 -0.35183954 -0.96639013 0.37513822 -0.57593256 1.526572
1.1530755 0.49771175 -0.005263746 -0.13978195 0.44654 -0.071174696 0.41715404 0.17890328
-0.23566021 -0.3457454 1.1086779 -0.6468111 -0.30813324 0.5104501 0.5411243 0.14759989
-0.7882763 1.3184799 -1.0036634 -0.22910477 -0.1802685 -0.22308609 -0.1587802 0.66842824
-1.4123133 0.42199025 1.3754563 -0.28067574 0.57261544 -1.0815561 -1.5096487 -0.35610962
0.65145576 1.5480258 -0.32390076 -0.030894976 0.8713615 -1.138321 0.26377913 -0.14277591
0.009745717 -0.120220006 -1.1356857 -0.7844219 1.1959714 -0.015807886 -0.24514592 -0.3301641
-0.7193552 0.54277784 0.67538464 -1.7771648 -0.20863236 0.3692017 0.09196185 0.815655
0.35100266 0.0925526 0.14839037 0.12718485 1.031574 1.0562956 0.00095164374 -0.32013637
-1.5978795 0.0055208104 0.14054945 -1.4938552 1.1387517 -0.8564541 0.40178952 0.21549186
0.8789605 -1.5303566 -0.70749533 0.6122709 0.53725106 0.41124356 -0.07076949 0.120822035
-0.371644 0.36445898 -0.2078087 -0.0842948 0.39277267 0.7103597 0.1409877 -0.19826844
1.0437499 -0.48743722 0.68971145 -0.31498557 -0.69741774 0.47563884 -0.17769592 1.1226463
0.865817 -0.7190217 0.8622803 0.7332642 0.72820204 0.08045928 -0.56975013 0.1924932
0.6853713 0.20020734 0.60196483 0.45523292 -0.41231143 0.15507656 0.96747816 0.2879435
0.54825956 0.1725869 -1.1964867 -0.8496046 1.3090663 1.0772141 0.9520269 0.45958605
1.1853312 -0.1601516 -0.7878668 -0.71354926 1.3777149 0.9341829 -0.35312545 -0.025260322
0.87206465 1.0935897 0.67611563 1.1277306 -0.01215745 -0.24312739 1.1843958 0.7461846
-0.7426315 0.22888954 1.4723624 1.1004765 -0.3094728 -0.029229619 -0.14365798 1.583615
0.2982678 0.17202115 0.48109457 0.588709 0.29000676 0.12790325 -1.4709411 -0.078941375
-0.974122 -1.3488144 -0.8582093 1.3065078 1.2652811 0.5686423 0.92236954 -0.44578746
-0.8176814 -0.4726672 -0.57149756 -0.041010115 -0.22215126 -0.3478534 -0.2510409 -0.33473966
0.4746434 1.1311865 0.5270111 1.1550514 0.7983963 0.08929195 1.5567826 1.1701024
0.58866316 1.0409621 0.6365928 1.0848784 -1.0561018 -0.10112533 0.64930445 -0.23286161
0.1229077 -1.3319181 -1.4935584 1.0258886 1.7586389 0.20129824 -1.0457442 0.8473745
1.514172 0.9975934 0.34160146 0.3366743 1.0090162 -0.8203623 1.8687739 1.1269196
-0.42734057 0.029591309 -0.28725064 -0.27398756 1.0663292 -0.16348785 0.07380782 -0.8704904
-0.15302938 -0.3898938 0.24378237 0.48159638 0.25230992 -0.69157815 0.85519457 1.9164569
1.1121404 -1.0251322 0.5617445 -0.24229911 -0.1809006 0.10459156 -0.6826521 0.99788666

layers.0.bias f4 [128]
00000000: 13fb 573f ecba a53e 584b f1be 3ed8 8ebe
00000010: 8c2e a3bd 5705 32bf d9a2 1b3f 3f7d 8fbf
00000020: f5bd d7be 5ef2 cfbe e933 513d d85f 393f
00000030: 3ca1 93bf 9566 5b3f 2799 dabe 1998 b13d
00000040: ac9b 1f3d 853a 23bf 0b61 523f 8713 113f
00000050: 0587 703f 1565 f23e f4cf a1bf 26a6 4e3f
00000060: fdc2 463e b7ad 003f 973a 39bf d649 95bf
00000070: a803 febe 446e 01bf e77e 703e cb39 75be
00000080: b8ab 293e 0244 2d3f 5361 863e a48f 4fbf
00000090: 0d59 0cbf e7fa 9cbe 14a1 ea3e 5cb9 743f
000000a0: b2a0 3d3f a9be 163d e809 863e b27f aebf
000000b0: 56fe 79bf bb2a 103f 8629 e7bd 7412 113f
000000c0: d5f7 1d3d b19f b3be 00c4 22bf afde 183f
000000d0: 5077 2e3e e18c 263f 3d83 1c3f 8a4f 183f
000000e0: f6fa 913e 669d 1bbf 3d78 0bbf 6189 8f3e
000000f0: 5581 df3e 7dfd 80bf 677d 483f c86c f7bd
00000100: ded2 5cbf e173 533d 56ea 613f 802a 613f
00000110: ba82 98bf 6e29 323f 28d6 1e3f fa21 213f
00000120: 7b76 533f 3fa9 eabd f004 5a3e 8599 de3e
00000130: ee36 0dbf 6d0c d73e 6817 e4bd d07b 3a3f
00000140: 1d19 29bf fc88 0dbf 961d e63e 0400 bd3e
00000150: fce9 f6be 55b1 f73d f1ec 2b3f f0e8 e73d
00000160: 6f60 ca3e 68cb 61bf a2d1 c33e 64d3 8abe
00000170: e370 1abf 0072 643d 33b4 3e3f 1a23 2fbf
00000180: 8016 7b3e 8130 6fbf aa38 703f 30f1 723f
00000190: 390f 7abf 42ec 4cbf eaa0 82bf 80e1 023e
000001a0: 1c28 3dbf a41c 09bf 66ac 4c3d c468 873e
000001b0: 09a6 973c ee5a 043e 6edf 84bd 900f ccbb
000001c0: 7e5c fabd 2e41 3f3f 7d50 d1be 225f 193e
000001d0: 3234 c3be 564d 713f 2660 49bf 2d06 81bf
000001e0: f0d2 693f 3f76 a2bf 239e b83e d757 c63d
000001f0: 4d27 d4bd 23b7 54bf fe48 303f 3e71 3d3e
0.84367484 0.32369173 -0.47127795 -0.27899355 -0.079678625 -0.695394 0.6079536 -1.1210097
-0.42137113 -0.406146 0.051074896 0.7241187 -1.153358 0.857034 -0.4269497 0.086715885
0.03896682 -0.6376117 0.82179326 0.5667042 0.93956023 0.47342744 -1.2641587 0.8072227
0.1941032 0.5026507 -0.72355026 -1.1663158 -0.49612164 -0.50558877 0.2348591 -0.23947828
0.16569412 0.67681897 0.26246127 -0.81078553 -0.5482338 -0.30660173 0.45826018 0.95595336
0.74073327 0.03680292 0.26179433 -1.363272 -0.9765371 0.563152 -0.11287217 0.5666878
0.03856643 -0.35082772 -0.6358032 0.5971479 0.17037702 0.65058714 0.61137754 0.59496367
0.2851178 -0.60787046 -0.54480344 0.280345 0.4365336 -1.0077358 0.7831635 -0.12081295
-0.8625926 0.051624183 0.88248193 0.87955475 -1.1914895 0.69594467 0.62045527 0.6294247
0.8260266 -0.114580624 0.21290946 0.434765 -0.5516194 0.42001668 -0.11137277 0.7284517
-0.66053945 -0.55287147 0.44944447 0.36914074 -0.4822539 0.1209437 0.6715842 0.11323726
0.39526698 -0.88201 0.38245875 -0.27114403 -0.603285 0.05577278 0.7449371 -0.68412936
0.24520302 -0.93433386 0.9383646 0.9489927 -0.9767948 -0.80048 -1.0205357 0.12781334
-0.7388933 -0.5355933 0.0499691 0.26447117 0.018511789 0.12925312 -0.06487928 -0.006227441
-0.12224673 0.7470883 -0.4088172 0.14977697 -0.3812576 0.9425863 -0.78662336 -1.008001
0.9133749 -1.2692336 0.3605815 0.09684723 -0.103590585 -0.83091944 0.6886138 0.1850023

layers.2.weight f4 [128, 128]
00000000: 8a63 8abd b8e0 0b3e 94d6 f6bc cef3 3bbe
00000010: 6191 d43e cbaf aa3d 2bbf 813d cf32 5b3e
00000020: e5a6 afbf 4c4a 4bbf e850 6fbf cec4 a83d
00000030: 468c 083e 1f18 e1bd c555 563e 9596 e7bd
00000040: 7f57 a03e 34df a7bd 81ba 0d3e 3d7c 7e3e
00000050: c92a 59bd e4ff 67bd 060b 343f e229 443e
00000060: 114a 39bf 501c 6fbe f05b 923c f9f5 cbbe
00000070: 36ac 093f 10f4 013d 1c8e 8f3d 3a57 b7bf
00000080: fbaa 7b3e c454 1b3e fa4c 043e 25b6 67be
00000090: 2a9f 9cbd ede6 b6bf 8b2c 483e 7b46 963d
000000a0: e87b 3f3d 9941 aebf 4a21 a63b d573 823e
000000b0: fd85 71bd e4c9 a93d 7e2b 1cbf 7506 44be
000000c0: 07e3 4cbf 2cbe 72bf b7ba 3f3e 8c37 ac3d
000000d0: 68be 60bf 3c5e 9e3d 8f8f 623e 1dfe 3f3e
000000e0: c541 cdbd 9851 e4bd 0db4 003e d808 babe
000000f0: cbdf 07bd f898 263f ae55 f73d 6927 98bf
00000100: d9cb 6a3e f62e 113e c64c 713e ae33 d9bc
00000110: bc0a 38bf 891f 3b3e 3972 a83d a27b 7b3e
00000120: 7321 433e 23bc 16c0 5185 0c3f 354a 803e
00000130: eba3 a0bd 5cba cabe 9391 46bf b453 123e
00000140: 665a 04bd 85a9 173e b984 57bd 9139 bc3e
00000150: a0bd 013f 5e80 c13e 88c0 403d d402 e43e
00000160: 735c b43d 3506 0ebc 105b 413e 7e8a bebf
00000170: c86b a4bf d2b5 813f 9130 213e 6b1b 9cbd
00000180: 5f05 f4be 1326 1b3f 7d0b 83bd 727c 07bc
00000190: c5ac e13d de93 023e aa99 b0be ffdc 4f3e
000001a0: b68a c93d 43bf f53d 651e c43d bffd 0dbd
000001b0: ac40 fbbe d640 17be ad75 d13e 8879 1d3f
000001c0: ba3b a63e 2e7e 333e 9189 9abe 940b ba3e
000001d0: 98d8 f33e 40f8 0c3d 617c b73e a1c7 91bf
000001e0: 31f1 053e c59d 6e3d 886e 54bd 8b31 113f
000001f0: f6d3 14bf 9fd2 3e3d a5f7 cb3d 98d9 28bf
00000200: caa8 953d 4d7f 163f 426e 113d 659b 97be
00000210: 66df 823e 0f74 ab3d 6ece d43c 01ba 5c3e
00000220: 0e4b d6bf 9371 84bf 2c2f 0cbf a2ad cbbc
00000230: e55b 983d af52 bcbc 2ed3 d93e 69f0 79bf
00000240: b334 c13e 2098 1cbc d166 f23d f3a0 4f3e
00000250: a81c a9bd a54c 613e d0ae a13d a18f d63d
00000260: c897 d3bf f19a abbe 11c9 b03d dae3 debe
00000270: fb33 663e d692 95be f125 df3e 565e 70bf
00000280: b2b9 873e 04f9 02bd 0dd8 bb3e ffef 20bf
00000290: f7d9 4ebd 200e d6bf e3a2 b53e 06f3 aebd
000002a0: de2f 9f3d b2ae 7fbf e256 c0bd aeb3 fc3e
000002b0: edcb 19be 686e b73d 40dd b9be 001f f3bc
000002c0: a016 21c0 6b8a dbbf bd60 80be 0836 523d
000002d0: e423 75be 1daf 1d3d 280e 553e d195 283d
000002e0: 2fef 08be 94a1 203e c716 3b3d b577 88be
000002f0: dbe6 0e3e 5735 77be 671a 39bd 7741 d6be
00000300: 727d 5cbe 5ab7 843e 2926 1d3e d793 14bd
00000310: 5864 49bf 835a 553e 5d45 65bd 399c 063e
00000320: 16ab 173e 5688 1bc0 d040 ad3e 782e a63e
00000330: de40 85be 9af0 a1be 5888 c0be 89fb 063e
00000340: e4eb 4ebe 4614 1dbe 1786 02bd 4409 683e
00000350: 19ed 3a3f 417d 1a3f 72e4 d43d 17c1 82be
00000360: fb36 493e 8d32 4c3d 3ae3 3a3e fce7 c7bf
00000370: 4497 1abf 79d9 a53e 10f2 483e 9738 8abe
00000380: 8bfe d4be eb30 ae3e 923b 76bd bd52 0dbe
00000390: 684f 7cbc 56b1 573d 1776 0bbf 913f 213f
000003a0: 838d 81bc 210e 81be ac4b 7bbf b318 70bc
000003b0: eb2d 39bf 976c b2bf 3fb6 133e 9a30 0fbf
000003c0: a401 163f f2ad 713d 5c4b 98bf 5e19 1a3f
000003d0: e765 693f 3f57 db3d badf f73d 98b6 f3bf
000003e0: 2406 943d 802e 363d c3c9 153d 1159 6f3e
000003f0: 3463 3ebf af27 a9bf 221d a93d bb5e a8bf
-0.06757267 0.13659942 -0.030131616 -0.18354723 0.41517165 0.08334311 0.063352905 0.214061
-1.3722807 -0.79410243 -0.9348283 0.082406625 0.1333476 -0.10990929 0.20931156 -0.11308018
0.31316754 -0.081968695 0.13840677 0.2485208 -0.05301932 -0.05664052 0.7032932 0.19156602
-0.7237864 -0.23350644 0.017866105 -0.398361 0.537784 0.031726897 0.07009527 -1.4323494
0.24576943 0.15169054 0.12919989 -0.22628076 -0.07647546 -1.4289223 0.19548242 0.07337662
0.046749026 -1.3613769 0.0050698863 0.25478998 -0.05896567 0.08290461 -0.61003864 -0.19143088
-0.80033916 -0.9482143 0.1872357 0.08409032 -0.87790537 0.077328175 0.22125076 0.1874928
-0.1002231 -0.11148375 0.12568684 -0.36334872 -0.03317241 0.6507716 0.12076889 -1.1887027
0.22929324 0.1417807 0.23564443 -0.0265139 -0.7189138 0.18273748 0.08224911 0.24558881
0.19055729 -2.355233 0.54890925 0.25056615 -0.07843765 -0.39595306 -0.7756588 0.14289743
-0.032312773 0.1481076 -0.05261681 0.3676267 0.5067997 0.3779325 0.047058612 0.44533408
0.08806696 -0.008668472 0.18882394 -1.4886014 -1.2845392 1.0133612 0.15741183 -0.07622417
-0.47660348 0.6060497 -0.063986756 -0.008269416 0.11019281 0.1275172 -0.34492236 0.20299147
0.0984091 0.11999371 0.0957611 -0.03466582 -0.49072778 -0.14770827 0.40910092 0.61513567
0.32467443 0.17528602 -0.3018308 0.36336958 0.47626185 0.034416437 0.3583708 -1.1389047
0.13080288 0.05825593 -0.051863223 0.5671622 -0.58135927 0.046587583 0.09959344 -0.6595702
0.073075846 0.58787996 0.03550554 -0.29610744 0.25561064 0.08371746 0.02597734 0.2155533
-1.6741655 -1.034716 -0.5475948 -0.024863068 0.074394025 -0.022988645 0.4254393 -0.9763246
0.3773552 -0.009557754 0.11836017 0.20276241 -0.08257419 0.22001894 0.07894671 0.10476614
-1.6530695 -0.33516648 0.086321004 -0.43533212 0.22480766 -0.2921359 0.43583634 -0.93893945
0.26508862 -0.03197576 0.3668827 -0.62866205 -0.050500836 -1.6723061 0.35475835 -0.08542447
0.07772802 -0.9987594 -0.093915716 0.49355835 -0.15019198 0.08956605 -0.36301613 -0.029677868
-2.517006 -1.7151617 -0.25073805 0.05132106 -0.23939472 0.03849708 0.20806181 0.0411585
-0.13372491 0.15686637 0.04567602 -0.2665383 0.13955252 -0.24141441 -0.045191195 -0.4184682
-0.21532229 0.25921136 0.15346588 -0.036273804 -0.7866874 0.20835309 -0.055974353 0.13145532
0.14811358 -2.4301963 0.3383851 0.32457328 -0.26026052 -0.31628877 -0.37604022 0.1318189
-0.20207173 -0.15339765 -0.03186616 0.22659785 0.7301803 0.6034737 0.10395135 -0.2553794
0.1964988 0.049852896 0.18250743 -1.5617671 -0.60387063 0.3239248 0.1962359 -0.269963
-0.4160045 0.34021696 -0.060115404 -0.13801093 -0.015399791 0.052659355 -0.54477066 0.6298762
-0.015814548 -0.25206092 -0.9816234 -0.014654326 -0.7233569 -1.3939389 0.1442499 -0.55933535
0.58596253 0.059003778 -1.1897998 0.6019496 0.91171116 0.1071 0.12103219 -1.9040098
0.07227734 0.04447794 0.036569368 0.2337382 -0.7437012 -1.3215235 0.0825751 -1.315391

layers.2.bias f4 [128]
00000000: 080d 1a3e a5b1 363d 2f91 bf3e a975 a9bd
00000010: fe02 3e3d 53e8 aa3e f8d0 8b3e fddc 9bbe
00000020: 5f35 48be 74e9 ef3d 6f78 88be 4652 e6bd
00000030: b50d fabe 6e93 a33d 9a97 e5bd 33cc 4ebe
00000040: fdb4 8cbe e3d9 d83e d138 a1be a89b 39be
00000050: 5326 dabb 9a40 a8be 7234 02be 33e8 9dbb
00000060: 6450 c33e 9d40 ba3e 032d a83c 8eca 633e
00000070: b160 edbe 6920 ed3e cfd9 3abe 3f1e 563d
00000080: fc85 513d e516 5dbd 344a dabd 32fe 5bbe
00000090: ae0b bd3e a866 71bd 223b debe 971c 673b
000000a0: 98a9 89bc 65ef c8be f32d e5be 46b1 22bd
000000b0: 9607 b2be a338 e83c 20e6 ddbb 05cc 82bd
000000c0: 3126 0b3d c316 3cbb 7ae4 a13c 3ef0 313d
000000d0: 667e 633d ca93 c5bc 6b03 dfbd d1da 063e
000000e0: 2f29 8dbd 8785 843b 24c7 fd3c a039 d73e
000000f0: 6ef0 d8be a66e 633e c835 723e 361d d43d
00000100: 38f6 ae3e c4b1 96bd eb07 4ebc a952 583e
00000110: 7595 6fbe f401 99be a1ae b53e 3082 f8bd
00000120: 5872 82bd 9c13 64bc d0f1 43bd f3ae a73d
00000130: cece 803e 7d36 cbbe aafc bcbe 58d7 0a3d
00000140: 631a 2abd 379d c7bc 7c40 823e dd76 8d3e
00000150: b7e2 72ba c5ca ccbe 25a6 223d 45f3 963e
00000160: 6edf f63e 8da0 c63e 58b5 b43c 275a 9c3e
00000170: b40d e83e 7229 423e 215d d73e 606c e5bd
00000180: dbee 28bd 0082 47bd aca2 94bd 785e 4b3e
00000190: 701b 90be f827 283e 3195 f4be 74ea 41bd
000001a0: 0cb0 0ebe d42c 77be f486 963e 6c3b 0c3e
000001b0: d460 cdbe cb22 c4ba ed18 35bd d34e ae3e
000001c0: 305b a0bc 619d 49bc a4e1 e7bc aa31 203d
000001d0: 2301 9dbd d715 9d3e 6f00 99bd 383d 143d
000001e0: 65a2 fbbc 7c94 aa3e 89b4 9c3e a99f a4bc
000001f0: 176d 9d3e f01e 343e 58db 91bc 4543 c93b
0.15044034 0.04460301 0.37415454 -0.08274395 0.046389572 0.33380374 0.27307868 -0.30442038
-0.1955161 0.117144495 -0.26654384 -0.11246161 -0.48838583 0.07987104 -0.11210556 -0.20195083
-0.27481833 0.42353734 -0.3148866 -0.18125784 -0.0066574006 -0.32861787 -0.12715319 -0.00481894
0.3814727 0.3637742 0.020529276 0.22245237 -0.46362832 0.4631379 -0.1824715 0.05227494
0.051153168 -0.053976912 -0.106586844 -0.21483687 0.36922973 -0.05893579 -0.4340449 0.0035264844
-0.016804501 -0.39245144 -0.4476162 -0.039719842 -0.34771413 0.028347319 -0.006771818 -0.0638657
0.03397197 -0.002870009 0.019762266 0.043442003 0.055540465 -0.024118323 -0.10889324 0.1316941
-0.06892621 0.004044238 0.030978747 0.42036152 -0.42370933 0.22210178 0.23653328 0.10357134
0.34172225 -0.07358125 -0.01257513 0.21125282 -0.23396857 -0.29884303 0.35484794 -0.12134206
-0.063694656 -0.013920691 -0.047838032 0.08187666 0.2515778 -0.3969001 -0.36911517 0.033896774
-0.04152907 -0.024366958 0.25439823 0.27629748 -0.00092653505 -0.3999845 0.03970923 0.29482475
0.48217338 0.38794366 0.022059128 0.3053753 0.45322955 0.18961123 0.4206324 -0.112023115
-0.041243415 -0.048707962 -0.0725759 0.19860256 -0.28145933 0.16421497 -0.47770074 -0.047342733
-0.13934344 -0.24138194 0.29399836 0.13694543 -0.40112936 -0.0014963982 -0.044213224 0.34044513
-0.019574732 -0.012305588 -0.028305836 0.039109863 -0.076662324 0.30680725 -0.07470786 0.036191195
-0.030717084 0.3331641 0.30606487 -0.020095663 0.3074729 0.17589927 -0.017804787 0.0061420524

layers.4.weight f4 [2, 128]
00000000: 0a50 283f 3a74 5d3f b45f d23e 8f62 afbd
00000010: 14a1 91bc a06b a43e 5799 d13e 10ad e4be
00000020: c820 34bf 5fe8 0a3f b827 a6be d3bb f4bb
00000030: 0583 33bf 87a3 603e 6d6a 04bd d3a1 55bf
00000040: 6372 18bf 396d c23e 229d 98be d5d4 edbe
00000050: e4d4 64bd 9f75 cd3d 7de8 a4bc 019f 2cbb
00000060: 7002 c33e 4c3a ea3e 7354 7abd f989 e53e
00000070: 21d3 403e 4962 ad3e 1b2d 253f f168 743e
00000080: 0ba3 33bd aed6 a23d c7ed efbc 98f3 fbbe
00000090: f871 0a3e a885 f03c 68f9 7abd daed 8e3f
000000a0: 0566 8f3b bced 06bf bc20 82bf 3398 01bd
000000b0: d811 eebe 15ad ad3c 63a3 b4bd 3fbe d03e
000000c0: 3119 d5bd 16fe 763d 74df 733d 646e 623b
000000d0: 1c29 a03c dbf7 543e ab57 09bf 9364 003f
000000e0: b2b1 3ebd 4e7e a63f 9cad a0bd 5dc2 d63e
000000f0: 59ba 10bf b9ef ce3e 8810 8e3d 2092 223d
00000100: 4446 ed3d b274 1f3e 62f5 c3ba 2c97 f23e
00000110: 9fa5 29bf 086b eabe aa63 d33e 81c8 543d
00000120: b0ef af3b 76af 043d 52a5 acbd a20e 933f
00000130: 6291 ba3e 7012 083f 6c6c f4be 2b33 ecbd
00000140: 5dd5 813d 866e 48bf 067e 153e 3820 c83e
00000150: 281e bb3d cd43 82be 5f0d 1dbd bd34 e23d
00000160: 9e71 9e3e 157e ad3e b79c 3a3d a977 d33e
00000170: 6dee c63e ad10 8a3e 3d39 d93e 7d27 51bd
00000180: 2704 cb3b 5846 15bd 4d3c 90bc 1b15 c23e
00000190: 40e0 f3be 629d ed3e 0bf5 43bf 11a3 e8be
000001a0: 640a 553f bbab 18bf 054c c03e 5627 cd3e
000001b0: 1c0c d03c 7d8e 4dbf fc8a 88bd 3a24 d73e
000001c0: e06a 8cbd 1be1 5abb 4e66 113d 9f3f 9b3c
000001d0: 04ad dc3c d233 f83e 10bd 8dbd ede2 643f
000001e0: da6e 64bd 7258 d43e 841b cf3e beb7 4b3d
000001f0: 5e71 d73e d9d7 a43f efcd a93d f7dd 9e3e
00000200: a710 323e f740 debc e0d0 b43e 47df 2dba
00000210: 9494 c63c f278 003f c10a 663e f95f 3abf
00000220: 6493 d53d 90c4 943e 5cc0 393e fe38 b53b
00000230: f442 0dbf 3f74 40bf 79ea b13c f9cd 003d
00000240: eb4c 0bbf db8e bc3e 8806 0f3f 5bc4 043f
00000250: 0150 52bd 2dd6 0abf b354 54bd 369a 2cbd
00000260: af2d b03e a5fc a13e cf1d 7e3d 15ae 913e
00000270: 7f88 74bf 66d4 053f 86aa 033f 17c2 343f
00000280: c6c0 783a 3905 b0bc 3d04 01be 1028 393f
00000290: 234f cf3e b1e8 31bd 30c7 7d3e 516e 1d3e
000002a0: 0296 41bd 896a 15bf d3da f43e 5bdd 53bd
000002b0: 7387 22bf d992 733b 0c7e 9dbd 4801 5c3e
000002c0: 4a3f df3d 10bc a83c a21f a73e ec7b 0bbd
000002d0: 08bc f43e d5c8 df3d 2fc1 3c3f e6d4 3dbe
000002e0: 2de8 4f3c 675e 0fbf a752 933d 96ce d13e
000002f0: cd91 22bf 641f 6c3e 1683 6d3e 1937 c53e
00000300: c2cf b43e fdc0 66bf f548 7ebd 7c1d 9d3e
00000310: bf2d 61be ddd8 3cbf fcee ff3e eec1 a4bd
00000320: 373e a2bd f3d4 82bc f046 7f3c f4b5 013f
00000330: 8e3e 723e 8bb7 13bf 35bd 673d dc46 513e
00000340: c5c5 0b3c 4c4f 55be 3381 b93e d511 a23e
00000350: 1b8e cebd ea95 9bbf 6bea 6a3d 8477 8a3e
00000360: 9382 063f 9d8f cf3e 0118 6b3d 3d70 c63e
00000370: 6013 d33e 8c75 c83e 730c e53e 183d 983c
00000380: 5a0c e33b 9e86 82bd f120 01bd 3f54 923e
00000390: e287 8abe 0e1e 8c3e 5357 403e 70be 733f
000003a0: 7020 0f3f f21c edbe 406a 953e b913 f1bf
000003b0: 73d5 39bf a8e9 c3be b8c1 5e3d 54e7 8e3e
000003c0: 207c 2bbd b1d8 aa3b 530d ac3d 352f 733c
000003d0: 7bd4 963d e47d 8b3e fc5e 833d 390c 05be
000003e0: e0c4 4e3d cf95 ca3e 3f10 d43e 5d1b 98bd
000003f0: 6cbd b83e 282c 943e e8f1 68bc 8a89 fe3e
0.6574713 0.8650547 0.4108864 -0.085637204 -0.017777003 0.3211336 0.40937302 -0.44663286
-0.7036252 0.5426082 -0.32452178 -0.0074686795 -0.70121795 0.2193738 -0.032328058 -0.8345005
-0.5954954 0.37973955 -0.29807383 -0.4645144 -0.05586709 0.100322 -0.02013039 -0.002633989
0.38087797 0.45747602 -0.061115693 0.44831827 0.1883054 0.33864048 0.6452195 0.23868157
-0.04385666 0.07951103 -0.029288186 -0.49209285 0.13520038 0.029360607 -0.06127301 1.1166337
0.0043761753 -0.52706504 -1.016624 -0.03163929 -0.4649799 0.021200696 -0.08820226 0.40770146
-0.104051955 0.06030091 0.059539273 0.0034550661 0.019550852 0.20797674 -0.53649396 0.50153464
-0.046556182 1.3007295 -0.07845613 0.41945162 -0.56534344 0.4041727 0.06936747 0.039690137
0.11585668 0.1557186 -0.0014950449 0.4738096 -0.6626834 -0.45784783 0.41286975 0.051949028
0.005369149 0.032393895 -0.0842997 1.148884 0.36439043 0.53153133 -0.4773897 -0.11533197
0.06339524 -0.78293645 0.14598855 0.3908708 0.09136611 -0.25442353 -0.03834283 0.11045215
0.30946058 0.33885255 0.04555961 0.4130223 0.3885378 0.26965848 0.42426482 -0.05106305
0.0061955634 -0.03644404 -0.017606879 0.37906727 -0.47632027 0.46409136 -0.7654578 -0.4543691
0.8321898 -0.5963704 0.37557998 0.40069073 0.0253964 -0.80295545 -0.06667134 0.42019826
-0.06856322 -0.0033398333 0.035497956 0.018951235 0.026937969 0.48477036 -0.069208264 0.8940876
-0.05576978 0.41473728 0.4045068 0.049735777 0.4207868 1.2878371 0.08291232 0.3102872
0.17389165 -0.027130587 0.3531561 -0.0006632697 0.02424077 0.5018455 0.2246504 -0.7280269
0.10428503 0.29056215 0.18139786 0.0055304756 -0.5518029 -0.7517738 0.02171825 0.03144643
-0.5441424 0.3682774 0.5586934 0.51862115 -0.05134583 -0.54233056 -0.051838588 -0.042139255
0.34409854 0.31638065 0.062040146 0.28453127 -0.95520777 0.5227722 0.51432073 0.7060866
0.00094891747 -0.021486865 -0.12599273 0.72326756 0.40490064 -0.043434802 0.24783015 0.15374114
-0.0472622 -0.58365685 0.478232 -0.051724773 -0.6348793 0.0037166385 -0.07690057 0.21484864
0.10900743 0.020597488 0.3264132 -0.034053728 0.47799706 0.109269775 0.73732275 -0.18538246
0.012689632 -0.5600342 0.07193499 0.40977925 -0.63503724 0.2305885 0.23194537 0.385186
0.35314757 -0.90138227 -0.062081296 0.30686557 -0.21990107 -0.7376841 0.49987018 -0.08044802
-0.07922023 -0.015970683 0.015580878 0.50668263 0.23656675 -0.5770194 0.056576926 0.20437187
0.008531039 -0.2083103 0.36231384 0.3165423 -0.10085698 -1.2155125 0.057352465 0.27044308
0.5254299 0.40539256 0.05739594 0.38757506 0.4122572 0.3915218 0.4473606 0.01858382
0.0069289627 -0.063733324 -0.031525556 0.285799 -0.27056795 0.2736668 0.18783312 0.9521246
0.5590887 -0.46311146 0.29182625 -1.8834144 -0.7259132 -0.38264203 0.054383963 0.27910864
-0.04186642 0.00521382 0.08400979 0.014842798 0.07364746 0.27244484 0.06414601 -0.12992944
0.050480723 0.3956742 0.41418645 -0.07427094 0.36082017 0.2893994 -0.014217831 0.4971431

layers.4.bias f4 [2]
00000000: 7f63 543e 7224 c13e
0.2074108 0.37723118
