OS/ddqn_models/whole/ddqn_1000_1.0.pth (torch_old, 69813 bytes, 6 tensors)

layers.0.weight f4 [128, 2]
0	0x3e1422dd	0.14466424
1	0xbf310bd7	-0.6915869
2	0x3fb237ea	1.3923314
3	0xbf985796	-1.1901729
4	0x3d9b64e8	0.07587606
5	0xbe179960	-0.14804602
6	0x3f3f1cfa	0.7465359
7	0x3e51accf	0.20476077
8	0x3f196c5b	0.5993096
9	0x3fdac778	1.7092123
10	0xbe0e469b	-0.13894121
11	0xbe3a56f6	-0.18197235
12	0xbe563a16	-0.20920596
13	0x3e3e7fed	0.18603487
14	0x3ea96ff2	0.3309322
15	0x3f58cfd3	0.84692115
16	0xbf9fd379	-1.2486411
17	0xbf04a27b	-0.51810426
18	0xbe9cc7a3	-0.3062106
19	0xbedbe6a2	-0.42949396
20	0xbf1e65f1	-0.618743
21	0xbf2f9030	-0.6857939
22	0xbef99074	-0.4874302
23	0x3ee554a0	0.44791126
24	0xbf3b0d11	-0.7306681
25	0xbd6db532	-0.05803413
26	0x3d1f1573	0.038838815
27	0xbe8540f5	-0.2602612
28	0xbf2e4b0e	-0.68083274
29	0xbe8b266e	-0.27177757
30	0xbfe81d65	-1.813397
31	0x3fd205ea	1.6408055
32	0x3fe953ae	1.8228662
33	0x3fa322a5	1.2744948
34	0xbbac7b80	-0.005263746
35	0xbe0f2300	-0.13978195
36	0x3ecd0a13	0.4004675
37	0xbdc8d742	-0.09806682
38	0x3e5c8028	0.21533263
39	0x3dc25be4	0.09490183
40	0xbd92edbb	-0.0717425
41	0xbe7a964a	-0.24471393
42	0x3f6cd326	0.92509687
43	0xbfa5f812	-1.296633
44	0xbe9af843	-0.30267534
45	0x3ecfc084	0.40576565
46	0x3eb12679	0.34599665
47	0x3dc059e6	0.09392147
48	0xc0149702	-2.3217168
49	0x3ef8cf42	0.48595625
50	0xbf75358f	-0.9578485
51	0xbe50e862	-0.20401147
52	0xbe181125	-0.1485029
53	0xbe43e984	-0.19132048
54	0xbbb9eb8c	-0.0056738313
55	0x3f6637e8	0.89929056
56	0xc03299f2	-2.790646
57	0xbdad32b5	-0.08456937
58	0x3fd78817	1.6838406
59	0x3e1aa28c	0.15101069
60	0x3f17bed6	0.5927557
61	0xbf770731	-0.9649535
62	0xbf855a5c	-1.04182
63	0xbf17fd29	-0.59370667
64	0xbd2d6d88	-0.042340785
65	0x3fa5cb10	1.2952595
66	0xbe3ddea4	-0.18541962
67	0x3d6d947b	0.05800293
68	0x3f8eaa9f	1.114582
69	0xbfaa37b9	-1.3298255
70	0x3e870e0f	0.26377913
71	0xbe1233d9	-0.14277591
72	0x3c1fac80	0.009745717
73	0xbdf635e8	-0.120220006
74	0xbf67b95d	-0.90517217
75	0xbf732b0a	-0.9498755
76	0x3fb5c2b8	1.4200048
77	0x3f09bd51	0.538045
78	0xbdb9fa4a	-0.09080942
79	0xbe47c13b	-0.19507305
80	0xbf1e70d1	-0.61890894
81	0x3f289398	0.6585021
82	0x3c3f7432	0.011685418
83	0xc0077da4	-2.1170435
84	0xbefe6845	-0.49688926
85	0x3f20cb0c	0.62809825
86	0x3d177515	0.036976893
87	0x3f34146a	0.7034365
88	0x3eb3b69f	0.35100266
89	0x3dbd8c38	0.0925526
90	0x3e1abcf9	0.1511115
91	0x3e44d34a	0.19221225
92	0x3f374cef	0.71601766
93	0x3f9cdc04	1.2254643
94	0x3ddaa360	0.106756926
95	0xbf0a3bc1	-0.5399743
96	0xbffcc94d	-1.9748932
97	0xbf2d449d	-0.6768282
98	0x3d2064cc	0.039158627
99	0xbfab12c3	-1.3365101
100	0x3f76bc2f	0.96380895
101	0xbf34a591	-0.70565134
102	0x3e71c22e	0.2360923
103	0x3dc5510a	0.096345976
104	0x3faa2385	1.329209
105	0xbfd3d7db	-1.6550249
106	0xbf074920	-0.52845955
107	0x3f754f85	0.9582446
108	0x3efe82b8	0.49709105
109	0x3f0af02c	0.54272723
110	0x3d133b1c	0.035945043
111	0x3ea256fa	0.31706983
112	0xbeb7e72f	-0.35918567
113	0x3f0f051c	0.5586717
114	0xbe54cbce	-0.2078087
115	0xbdaca2c1	-0.0842948
116	0x3d9e6cdb	0.07735606
117	0x3ee92350	0.45534754
118	0x3f6f063b	0.9336888
119	0xbc8592d0	-0.016305357
120	0x3fb4c1ff	1.4121703
121	0x3d76fd6a	0.06030027
122	0x3f7ae228	0.9800134
123	0x3e930de9	0.2872155
124	0xbf0f7b53	-0.5604755
125	0x3f1ee354	0.62065625
126	0xbe7e0fa8	-0.2481066
127	0x3f534723	0.8253042
128	0x3ede3261	0.4339781
129	0xbe71a63b	-0.23598568
130	0x3ed17dfd	0.40916434
131	0x3fb05642	1.3776324
132	0x3ed3b88f	0.41351745
133	0x3d9517cb	0.07279929
134	0xbec51d45	-0.38498893
135	0x3e7b5ff1	0.24548317
136	0x3ef80115	0.48438326
137	0x3e4c30f1	0.19940545
138	0x3f106205	0.56399566
139	0x3f22228d	0.6333397
140	0xbe6ee80a	-0.23330703
141	0x3e569fe8	0.20959437
142	0x3f7c1c4c	0.9848068
143	0x3eff2736	0.49834603
144	0x3eb59839	0.354677
145	0x3dc3cf89	0.095610686
146	0xbf4adbcf	-0.7924165
147	0xbef46288	-0.47731423
148	0x3f9df974	1.2341752
149	0x3f90c4b8	1.1310034
150	0x3f870838	1.0549383
151	0x3f33605b	0.700689
152	0x3f5e1ec7	0.8676571
153	0x3e6730ae	0.22577164
154	0xbf621bf1	-0.88323885
155	0xbf813277	-1.0093526
156	0x3f85cb15	1.0452601
157	0x3fa8460d	1.3146378
158	0xbe524bfb	-0.20536797
159	0x3ddb4340	0.10706186
160	0x3f359df3	0.70944136
161	0x3fa0d481	1.2564851
162	0x3f1811be	0.5940207
163	0x3fa68d97	1.301196
164	0xbd594345	-0.05304267
165	0xbefe6786	-0.49688357
166	0x3f9ed742	1.2409441
167	0x3f661ce8	0.8988786
168	0xbf3f5f9a	-0.7475525
169	0xbedbdacc	-0.42940366
170	0x3fb91290	1.445879
171	0x3fd71ed5	1.6806284
172	0xbe22f826	-0.15914974
173	0x3d8370d6	0.06418006
174	0xbfa026d8	-1.2511854
175	0x3f58b8db	0.8465707
176	0x3e0e8eda	0.13921681
177	0x3dcc3086	0.099701926
178	0x3e5772e7	0.21039926
179	0x3ebe3928	0.37152982
180	0x3e01608b	0.12634484
181	0x3dce9163	0.10086324
182	0xbf9dc12a	-1.2324574
183	0xbf27bbb5	-0.65520793
184	0xbf6bf397	-0.92168564
185	0xbf9326fd	-1.1496273
186	0xbf1972c7	-0.5994076
187	0x3fded2f2	1.7408125
188	0x3faf1579	1.3678428
189	0x3f2f6568	0.6851411
190	0x3f4e9da5	0.80709296
191	0x3c2ee142	0.010673823
192	0xbf535efc	-0.8256681
193	0xbee162cc	-0.4402069
194	0xbeecf8d6	-0.46283597
195	0xbe24caf1	-0.16093041
196	0xbd2eb9dc	-0.042657718
197	0xbe860297	-0.2617385
198	0xbdaedf5b	-0.085386954
199	0xbe6b6e28	-0.2299124
200	0x3ee72dd7	0.4515216
201	0x3fabc4a2	1.3419383
202	0x3ec291e7	0.3800194
203	0x3f7ad401	0.9797974
204	0x3f01319b	0.50466317
205	0x3e32b730	0.17452693
206	0x3ffc02d7	1.9688367
207	0x3fd4cf19	1.6625701
208	0x3f1ad56f	0.60481924
209	0x3fa347cf	1.2756289
210	0x3e48a324	0.19593483
211	0x3fba2e29	1.4545337
212	0xbfdd1085	-1.7270666
213	0xbf890e54	-1.0707498
214	0x3f8d6870	1.1047497
215	0x3dfb64d9	0.122750945
216	0x3e902701	0.28154758
217	0xbfa62b80	-1.2982025
218	0xc0314c11	-2.7702677
219	0xbe00e7c1	-0.12588407
220	0x3fb1a4e4	1.3878446
221	0x3f9fc994	1.2483392
222	0xbffa08ba	-1.9533913
223	0xbe754489	-0.23951925
224	0x401c5121	2.4424517
225	0x3f0b4b60	0.5441189
226	0x3e3cb22b	0.1842734
227	0x3e8d9482	0.27652365
228	0x3fa3bcec	1.2792029
229	0x3e893e01	0.26805118
230	0x400094d5	2.009084
231	0x3fa2b57c	1.2711635
232	0xbe82a0a4	-0.25513184
233	0xbcec8938	-0.028874025
234	0xbdf3257a	-0.118723825
235	0xbe1ba8e5	-0.15201147
236	0x3fa01525	1.2506453
237	0x3e3164ac	0.1732356
238	0x3ee00da2	0.437604
239	0xbf385cb8	-0.7201648
240	0x3c003f6b	0.00782762
241	0xbe8dc775	-0.27691236
242	0x3e58df64	0.21178967
243	0x3ee63274	0.44960368
244	0x3f26cf7b	0.6516034
245	0xbf6ceeb6	-0.92551744
246	0x3f3038eb	0.6883685
247	0x40160a32	2.3443723
248	0x3fe830e2	1.8139918
249	0xbf0125d3	-0.5044834
250	0x3ed1a0e9	0.40943077
251	0xbdaf1edf	-0.0855081
252	0xbd88d922	-0.0668204
253	0x3e66cf00	0.22539902
254	0xbfda8b97	-1.707385
255	0x3f66cda0	0.9015751

layers.0.bias f4 [128]
0	0x3f47ca03	0.7804262
1	0x3e323d17	0.17406116
2	0xbef14b58	-0.47127795
3	0xbfa3949a	-1.2779725
4	0x3e453bca	0.19261089
5	0xbf3a2718	-0.727159
6	0x3f0559a9	0.52089936
7	0xbfd2dfc0	-1.6474533
8	0xbf8e3c88	-1.1112223
9	0xbfaa2c26	-1.3294723
10	0xbf31239c	-0.6919496
11	0x3f338653	0.7012684
12	0xbfb259e8	-1.3933687
13	0x3f4f0b81	0.8087693
14	0xbf902b23	-1.1263164
15	0xbeb12b07	-0.3460314
16	0xbea1867b	-0.31547913
17	0xbf233a85	-0.6376117
18	0x3f3fce75	0.74924403
19	0x3ee3023d	0.44337645
20	0x3f67fb21	0.9061757
21	0x3de1018b	0.109866224
22	0xbfae7c71	-1.3631727
23	0x3f36d775	0.7142251
24	0xbc8c121c	-0.017098479
25	0x3ed976a8	0.4247334
26	0xbf415c57	-0.75531524
27	0xbf9536eb	-1.1657385
28	0xbf24dd00	-0.6439972
29	0xbee517ed	-0.44744816
30	0xbeb6d9fb	-0.3571318
31	0xbfd0ba50	-1.6306858
32	0x3e89caff	0.26912686
33	0x3f21fe33	0.632785
34	0x3e25e19f	0.16199349
35	0xbf4f8fa4	-0.81078553
36	0xbf0c590d	-0.5482338
37	0xbf4c078d	-0.7969902
38	0x3e139886	0.14413652
39	0x3f6d185d	0.926153
40	0x3f2f8f5f	0.6857814
41	0xbf66ab11	-0.90104777
42	0xbc8e245e	-0.017351326
43	0xbfcb52ca	-1.588464
44	0xbf79fe56	-0.9765371
45	0x3ef7606e	0.48315758
46	0xbe8cb64e	-0.27482837
47	0x3ef01383	0.46889886
48	0xbcaed846	-0.021343362
49	0xbf03d8b2	-0.51502526
50	0xbf79a97b	-0.9752423
51	0x3efbd663	0.49187002
52	0x3e941cd7	0.28928253
53	0x3f07ecb2	0.53095543
54	0x3eea3fa3	0.45751676
55	0x3f015493	0.50519675
56	0x3e55af27	0.20867597
57	0xbf1b9d66	-0.60787046
58	0xbf81f2e0	-1.0152245
59	0x3d74d5dc	0.059774265
60	0xbe5ea4d8	-0.2174257
61	0xbf6d2e43	-0.92648715
62	0x3f32fa30	0.69913006
63	0xbf5d37f1	-0.86413485
64	0xbfa6defa	-1.3036797
65	0x3d93247d	0.07184694
66	0x3f4b1f5f	0.79344743
67	0x3f5900f8	0.84767103
68	0xbfb8be1e	-1.4433019
69	0x3f0bfd4d	0.5468338
70	0x3f130283	0.5742571
71	0x3f08ab89	0.5338674
72	0x3f3aa0aa	0.72901404
73	0xbf90426c	-1.127027
74	0x3e39007e	0.18066594
75	0x3e79e587	0.24403964
76	0xbf9018c6	-1.125756
77	0x3e587e91	0.21142031
78	0xbeb760a9	-0.35815933
79	0x3f2a584d	0.66540986
80	0xbf4f74cd	-0.810376
81	0xbf4653f7	-0.7747187
82	0x3eb470cd	0.3524231
83	0x3e4fac5f	0.20280598
84	0xbf655d92	-0.895959
85	0x3db77d0c	0.08959398
86	0x3f18faa6	0.5975746
87	0x3ced6299	0.02897768
88	0x3e44a742	0.19204429
89	0xbfa446fa	-1.283416
90	0x3e3c5f0b	0.18395631
91	0xbf86e580	-1.0538788
92	0xbf74df55	-0.9565328
93	0xbeb42cb3	-0.35190353
94	0x3f18d3b2	0.5969802
95	0xbf9f2525	-1.2433211
96	0x3d68cd53	0.056836437
97	0xbf9c04dc	-1.2188983
98	0x3f656b1b	0.89616555
99	0x3f6bc0d1	0.9209109
100	0xbf8e1dfb	-1.1102899
101	0xbfbacbcb	-1.4593443
102	0xbfb0f567	-1.3824891
103	0x3e024984	0.12723356
104	0xbf4e8856	-0.8067678
105	0xbe9df06e	-0.30847496
106	0xbddbd0d9	-0.10733194
107	0x3dcffda7	0.10155802
108	0xbedb31a1	-0.428113
109	0xbde1a716	-0.11018197
110	0xbe8e7852	-0.27826172
111	0xbcce5806	-0.025188457
112	0x3d5fdcb2	0.05465383
113	0x3f2b2a8b	0.6686179
114	0xbe3c3226	-0.18378505
115	0x3e8315ed	0.25602666
116	0xbf13a08d	-0.57666856
117	0x3f640b27	0.8907952
118	0xbf7cd744	-0.9876597
119	0xbf9c24b8	-1.2198706
120	0x3f5aac2c	0.85418963
121	0xbfa68e92	-1.3012259
122	0x3dc596ed	0.096479274
123	0xbf01240f	-0.50445646
124	0xbf0eeccd	-0.5583008
125	0xbf8696ec	-1.0514808
126	0x3f1b5336	0.60673845
127	0xbd607887	-0.054802444

layers.2.weight f4 [128, 128]
0	0xbd68b467	-0.05681267
1	0xbe8b037a	-0.2715109
2	0xbcf6d694	-0.030131616
3	0xbdf4416d	-0.119265415
4	0x3eb7a02b	0.35864386
5	0x3daaafcb	0.08334311
6	0x3dd41fdd	0.1035764
7	0x3f4150d6	0.7551397
8	0xbfab50a1	-1.3383981
9	0xbf4b4a4c	-0.79410243
10	0xbf67cf8e	-0.9055108
11	0x3e2ad922	0.16684392
12	0x3e92e200	0.2868805
13	0xbdb13634	-0.086529166
14	0x3ecdbff3	0.40185508
15	0xbedf8405	-0.4365541
16	0xbe6b78d4	-0.22995311
17	0xbda7df34	-0.081968695
18	0x3e12e76f	0.14346097
19	0x3e6f43c6	0.23365697
20	0xbc9b2888	-0.018940225
21	0xbec8adc1	-0.39195064
22	0x3f75facb	0.96085805
23	0x3e4d399e	0.2004151
24	0xbef0e0b9	-0.4704645
25	0xbe3aed81	-0.18254663
26	0x3c925bf0	0.017866105
27	0xbe414f30	-0.18877864
28	0xbed884f1	-0.42288926
29	0xbcf5d8ce	-0.030010607
30	0xbf3cbe2f	-0.737277
31	0xbf9b4006	-1.2128913
32	0x3ea2fbc6	0.31832713
33	0x3e4535c2	0.19258788
34	0xbe16382f	-0.1466987
35	0xbe67b625	-0.22628076
36	0xbd9c9f2a	-0.07647546
37	0xc009d2d7	-2.1534936
38	0xbe179d74	-0.14806157
39	0x3de1d404	0.11026767
40	0x3e115bfb	0.14195244
41	0xbfdaa853	-1.7082618
42	0xbc746f99	-0.014919185
43	0xbe4ed423	-0.20198111
44	0xbd7185fd	-0.05896567
45	0x3db7496d	0.08949552
46	0xbe57acbd	-0.21061988
47	0xbe582112	-0.21106365
48	0xbea34735	-0.31890264
49	0xbf782306	-0.9692844
50	0x3f925b7d	1.143417
51	0x3d9c804e	0.0764166
52	0xbf909781	-1.1296235
53	0x3e3875e2	0.18013719
54	0x3e60e5b8	0.21962631
55	0x3e5bfcf3	0.21483211
56	0xbd77fe41	-0.06054521
57	0xbde45198	-0.11148375
58	0x3d955264	0.072911054
59	0xbfa61484	-1.2975011
60	0xbf38abaf	-0.7213697
61	0x3ee04bc7	0.43807814
62	0x3e57eaf1	0.21085717
63	0xbf9f1d25	-1.2430769
64	0x3ebaad48	0.36460328
65	0x3e203a24	0.15647179
66	0x3e796f99	0.24358977
67	0x3d30ea98	0.043192476
68	0xbf75720e	-0.9587716
69	0x3e41d323	0.18928199
70	0x3e08b913	0.1335185
71	0x3e52d3fd	0.2058868
72	0x3e4e9566	0.20174178
73	0xc05366a2	-3.3031392
74	0x3edc528d	0.4303173
75	0x3e111e53	0.14171724
76	0x3e9c39b8	0.30512786
77	0xbecfb2f4	-0.40566218
78	0xbf4bcc13	-0.7960827
79	0x3e41ea3a	0.18937007
80	0xbd017eef	-0.031615194
81	0x3e3327c8	0.17495644
82	0xbda72e2a	-0.08163102
83	0x3e734cf4	0.23759824
84	0x3fb5893d	1.4182507
85	0x3ebbea30	0.36702108
86	0x3db0374a	0.086042956
87	0x3f3599f4	0.7093804
88	0x3c966fd5	0.018363873
89	0xbe815b7f	-0.25265118
90	0x3dea9dc3	0.11455872
91	0xbf9bd8aa	-1.2175496
92	0xbfa46bc8	-1.2845392
93	0x3f968afa	1.1761162
94	0x3e01ab56	0.12663016
95	0xbee373c8	-0.44424272
96	0xbeeb70dc	-0.45984542
97	0x3f1b2613	0.6060497
98	0xbd009158	-0.03138861
99	0x3ce23bc6	0.027616393
100	0x3e8dd077	0.2769811
101	0x3e9671de	0.2938375
102	0xbf2afe5e	-0.66794384
103	0xbe5629b5	-0.20914347
104	0x3d86dd9e	0.06585239
105	0x3ec8ba3e	0.39204592
106	0xbde42443	-0.11139729
107	0xbebad01f	-0.3648691
108	0xbf0b2e82	-0.5436784
109	0xbe285adc	-0.1644091
110	0x3e57545e	0.21028277
111	0x3f75cccd	0.96015626
112	0xbf1f98b7	-0.623424
113	0x3e4ed19c	0.20197147
114	0xbed931a0	-0.42420673
115	0x3d04ca0a	0.032419242
116	0x3ef32515	0.4748923
117	0x3d989148	0.07449585
118	0x3f8eb84e	1.1149995
119	0xbf91c7a1	-1.1389047
120	0x3e216258	0.15760171
121	0x3cd74334	0.026277162
122	0xbe9ad296	-0.3023879
123	0x3f15b4cc	0.58479
124	0xbf952f68	-1.1655092
125	0x3d294688	0.04132703
126	0x3e0ee860	0.13955832
127	0xbf2721f0	-0.6528616
128	0x3df0c6d3	0.11756673
129	0x3f532209	0.8247381
130	0x3d116e42	0.03550554
131	0xbf026438	-0.5093417
132	0x3daee004	0.08538821
133	0x3dab740f	0.08371746
134	0x3cee3d1d	0.029081875
135	0x3f17304e	0.5905808
136	0xbfca2916	-1.5793788
137	0xbf2b8ad6	-0.6700872
138	0xbf971674	-1.1803727
139	0x3c8670b0	0.016411155
140	0x3d985be5	0.074394025
141	0xbc0cdb56	-0.008597216
142	0x3ed9d32e	0.4254393
143	0xbfd23467	-1.6422242
144	0xbd842b95	-0.06453625
145	0xbc1c9820	-0.009557754
146	0x3dd063db	0.10175296
147	0x3e22be7a	0.15892974
148	0xbd6326fc	-0.0554571
149	0x3effc045	0.49951378
150	0x3da1aed0	0.07894671
151	0x3da765ce	0.081737146
152	0xbff1c91b	-1.8889498
153	0xbeceeaad	-0.40413418
154	0x3db0c911	0.086321004
155	0xbf152bdf	-0.58270067
156	0x3ff8ba05	1.9431769
157	0xbfe9eb45	-1.8274924
158	0xbe5535d9	-0.20821323
159	0xbf705e56	-0.93893945
160	0x3e2cd907	0.16879664
161	0xbc4ff833	-0.012693453
162	0x3f35a977	0.7096171
163	0xbf20efff	-0.62866205
164	0xbd4ed9f7	-0.050500836
165	0xbfdbf3fd	-1.7183834
166	0x3ea673fc	0.32510364
167	0xbd69a265	-0.057039637
168	0x3e048337	0.1294068
169	0xbeb40333	-0.3515869
170	0xbef69533	-0.48160705
171	0x3c876487	0.016527427
172	0xbe19cbed	-0.15019198
173	0x3d445c35	0.047939498
174	0x3f0ddc33	0.5541412
175	0xbc06a58c	-0.00821818
176	0xc0555cc6	-3.3337874
177	0xbf4a9e95	-0.79148227
178	0xbf33eee1	-0.70286375
179	0x3c8ea21a	0.01741128
180	0x3d939a34	0.07207146
181	0x3d7a9510	0.061177313
182	0x3e0b3c85	0.13597305
183	0x3c14ead8	0.009089194
184	0xbe9492c3	-0.2901822
185	0x3e20a194	0.15686637
186	0x3d6c1529	0.057637367
187	0xbf343d79	-0.704063
188	0xbff0eb87	-1.8821877
189	0xbfb0bea0	-1.3808174
190	0x3bab6717	0.005230795
191	0xbfc17141	-1.5112687
192	0xbe10472b	-0.14089648
193	0xbed7bb98	-0.4213531
194	0x3e07e90c	0.13272494
195	0xbc0133aa	-0.007885853
196	0xbf83163d	-1.0241162
197	0x3e1201f0	0.14258552
198	0xbd4ae288	-0.049532443
199	0x3d982b49	0.07430131
200	0x3e01882d	0.12649603
201	0xbfd0b000	-1.6303711
202	0x3eab67b5	0.3347756
203	0x3e7482a9	0.23877968
204	0xbf2f6bd6	-0.6852392
205	0xbec17111	-0.37781575
206	0xbecc0bed	-0.3985285
207	0x3e1d3fb8	0.15356338
208	0xbf1cfb76	-0.613212
209	0xbf716366	-0.94292295
210	0x3b663b35	0.0035130505
211	0x3e2ff717	0.17184101
212	0x3f3aed19	0.7301803
213	0x3ed1596f	0.40888545
214	0x3df47090	0.11935532
215	0xbe6d4ee9	-0.23174633
216	0x3de41a3e	0.11137818
217	0xbe3fdf9c	-0.18737644
218	0x3dbb7aee	0.09154306
219	0xbfc7e7fc	-1.5617671
220	0xbf1a9744	-0.60387063
221	0x3f957d44	1.1678853
222	0x3e208233	0.15674667
223	0xbf53ac8d	-0.82685167
224	0xbef549e6	-0.47907943
225	0x3eae30eb	0.34021696
226	0xbd0903c0	-0.033450842
227	0xbddff1f4	-0.10934821
228	0xbf54c18f	-0.83107847
229	0xbe522c0e	-0.20524618
230	0xbf5d43da	-0.8643166
231	0x3ed8c4ba	0.4233759
232	0xbf11d3ff	-0.56964105
233	0x3f230850	0.6368456
234	0xc011e692	-2.279698
235	0x3ec9652c	0.39335
236	0xbe942371	-0.2893329
237	0xc034198e	-2.8140597
238	0xbf385a60	-0.720129
239	0xbf83af71	-1.0287915
240	0xbf3594e0	-0.7093029
241	0x3cfa25d4	0.030535616
242	0xc01b14ba	-2.42314
243	0x3e676fe5	0.22601278
244	0x3f6965e7	0.91171116
245	0x3e0c8c0a	0.13725296
246	0x3db68d27	0.089136414
247	0xbffd1c0c	-1.9774184
248	0x3dc3e3c8	0.0956493
249	0x3c4cc940	0.012499154
250	0x3ea48cc4	0.32138646
251	0x3f242295	0.6411527
252	0xc007c11e	-2.121162
253	0xbfb5a7d7	-1.4191846
254	0x3d9ae108	0.075624526
255	0xc00b5b58	-2.1774502

layers.2.bias f4 [128]
0	0x3e6ac83f	0.2292795
1	0x3da8a3f2	0.08234395
2	0x3ef45f1e	0.4772882
3	0xbda975a9	-0.08274395
4	0x3d3e02fe	0.046389572
5	0x3ed9580b	0.42449984
6	0x3ebb06c2	0.36528593
7	0xbf0aa9cc	-0.5416534
8	0xbe68bc97	-0.22728191
9	0x3e58f8d2	0.21188667
10	0xbecd724e	-0.4012627
11	0xbde65246	-0.11246161
12	0xbefa0db5	-0.48838583
13	0x3eb41210	0.3517003
14	0xbe1352e6	-0.14387092
15	0xbe6f5331	-0.23371579
16	0xbf0862ed	-0.5327595
17	0x3f045a82	0.51700604
18	0xbf1528e4	-0.5826552
19	0xbea1f89c	-0.31634986
20	0xbbda2653	-0.0066574006
21	0xbf1bcb75	-0.60857326
22	0xbe023472	-0.12715319
23	0xbd15d0b1	-0.036575977
24	0x3ef492a7	0.47768137
25	0x3ed4903f	0.415163
26	0x3ca82d03	0.020529276
27	0x3e9352c7	0.28774092
28	0xbf13f4a2	-0.57795155
29	0x3f0f50c8	0.5598264
30	0xbe7b1ed8	-0.24523485
31	0x3e224431	0.15846325
32	0x3d5185fc	0.051153168
33	0xbd5d16e5	-0.053976912
34	0xbdda4a34	-0.106586844
35	0x3cd35cb2	0.025801037
36	0x3eb50e8e	0.35362667
37	0xbd7166a8	-0.05893579
38	0xbefec225	-0.49757496
39	0x3d2206be	0.03955721
40	0xbc89a998	-0.016804501
41	0xbf281fd0	-0.6567354
42	0xbf08a54b	-0.5337722
43	0xbd925e45	-0.07146887
44	0xbf19dcba	-0.60102427
45	0xbb5b726b	-0.0033484946
46	0xbd2382cc	-0.03991966
47	0xbdc3d779	-0.095625825
48	0xbeb60d50	-0.35557032
49	0xbb3c16c3	-0.002870009
50	0x3e166435	0.14686663
51	0x3d31f03e	0.043442003
52	0x3e617c61	0.22020103
53	0xbd64bb14	-0.055842474
54	0xbe885422	-0.26626688
55	0x3e9aabb9	0.3020914
56	0xbd8d292f	-0.06892621
57	0x3dd4da2e	0.10393177
58	0x3dcde253	0.100529335
59	0x3f07eaae	0.5309247
60	0xbf2c7635	-0.6736787
61	0x3e9d8c4b	0.30771098
62	0x3ea9d363	0.33169088
63	0x3b9c1791	0.0047635515
64	0x3e8aef8d	0.27135888
65	0xbe0c649a	-0.13710251
66	0xbc4e07eb	-0.01257513
67	0x3e9e582b	0.30926642
68	0xbec9c590	-0.3940854
69	0xbf1a9bde	-0.60394084
70	0x3eecb7f4	0.46234095
71	0xbdf88230	-0.12134206
72	0xbd827258	-0.063694656
73	0xbc64139c	-0.013920691
74	0xbd43f1d0	-0.047838032
75	0x3e40fe39	0.18846978
76	0x3ea5ffb2	0.32421643
77	0xbf1e15ea	-0.6175219
78	0xbe05ba8c	-0.13059443
79	0x3d0ad758	0.033896774
80	0xbd2a1a63	-0.04152907
81	0xbcc79d37	-0.024366958
82	0x3e7944f6	0.24342713
83	0x3eb17d33	0.34665832
84	0xba72e2b7	-0.00092653505
85	0xbf200bec	-0.6251819
86	0x3d22a625	0.03970923
87	0x3e70abca	0.23503032
88	0x3f12d7f1	0.5736075
89	0x3eefa362	0.4680434
90	0xbc1f087a	-0.009706611
91	0x3ed1680b	0.4089969
92	0x3f0e0977	0.5548319
93	0x3e6c6011	0.23083521
94	0x3f082434	0.5318024
95	0xbde56c60	-0.112023115
96	0xbd28eedb	-0.041243415
97	0xbd478200	-0.048707962
98	0xbd94a2ac	-0.0725759
99	0x3e92ee11	0.28697255
100	0xbef7be2e	-0.48387283
101	0x3e6e9c49	0.23301806
102	0xbef49531	-0.47770074
103	0x3d79f193	0.0610214
104	0xbec1ed94	-0.3787657
105	0xbef4056a	-0.4766038
106	0x3ec39644	0.3820058
107	0x3e8fc5f5	0.28080717
108	0xbecd60d4	-0.40112936
109	0xbe8ec928	-0.27887845
110	0xbd3518ed	-0.044213224
111	0x3ee0972d	0.43865338
112	0xbca05b30	-0.019574732
113	0xbd5ca91c	-0.053872213
114	0xbce7e1a4	-0.028305836
115	0x3d2031aa	0.039109863
116	0xbd9d0123	-0.076662324
117	0x3ec529d9	0.3850849
118	0xbd99006f	-0.07470786
119	0xbafdc39d	-0.0019360665
120	0xbcfba265	-0.030717084
121	0x3ee0639c	0.43825996
122	0x3ed44c65	0.41464534
123	0xbd546c03	-0.05186082
124	0x3ece7b37	0.4032838
125	0x3e04bbb3	0.12962227
126	0xbc91db58	-0.017804787
127	0x3e3d06dc	0.18459648

layers.4.weight f4 [2, 128]
0	0x3f00f2b0	0.5037031
1	0x400d9796	2.212377
2	0x3ee3de37	0.44505474
3	0xbdaf628f	-0.085637204
4	0xbc91a114	-0.017777003
5	0x3ec0072f	0.3750548
6	0x3ecd831f	0.401391
7	0xbf0ee2ad	-0.5581463
8	0xbf2bff00	-0.67185974
9	0x3f001272	0.50028145
10	0xbeb989ec	-0.3623804
11	0xbbf4bbd3	-0.0074686795
12	0xbf338305	-0.70121795
13	0xbdfaa4eb	-0.12238487
14	0xba137f6f	-0.0005626594
15	0xbf4d8320	-0.80278206
16	0xbf3cce49	-0.73752266
17	0x3ed48c4d	0.4151329
18	0xbe7d7871	-0.24752976
19	0x3f5e9c04	0.8695681
20	0xbd64d4e4	-0.05586709
21	0x3f361836	0.7113069
22	0xbca4e87d	-0.02013039
23	0xbb2c9f01	-0.002633989
24	0x3ed54811	0.41656545
25	0x3ed5b469	0.41739205
26	0xbd7a5473	-0.061115693
27	0x3ebf62bc	0.37380016
28	0x3e0b3c21	0.13597156
29	0x3ec9709e	0.39343733
30	0x3f7bcfe9	0.9836412
31	0xbeb3eb87	-0.3514063
32	0xbd33a30b	-0.04385666
33	0x3da2d6ae	0.07951103
34	0xbcefedc7	-0.029288186
35	0xbf995f12	-1.1982138
36	0x3dcdaa39	0.10042233
37	0x3cf085a8	0.029360607
38	0x3b13fd60	0.0022581443
39	0x3ffa9f01	1.9579774
40	0x3b8f6605	0.0043761753
41	0xbf321928	-0.69569635
42	0xbf0ac986	-0.5421375
43	0xbd019833	-0.03163929
44	0xbf185573	-0.59505385
45	0x3cadad15	0.021200696
46	0xbe198f0d	-0.14995976
47	0x3ec0f291	0.37685063
48	0xbf168615	-0.5879834
49	0x3d76fe16	0.06030091
50	0xbf2614bc	-0.6487539
51	0x3b626e64	0.0034550661
52	0x3ef2bfea	0.47412044
53	0x3e54f7db	0.20797674
54	0xbedd094a	-0.4317115
55	0x3ef16204	0.47145092
56	0xbd3eb1b2	-0.046556182
57	0x3fcffd9c	1.624927
58	0xbea81be3	-0.32833776
59	0x3ef11744	0.47088063
60	0xbf2bd01d	-0.6711443
61	0x3ec730c6	0.389044
62	0xbeadb0af	-0.3392386
63	0xbf042521	-0.51619154
64	0x3d2d44cd	0.04230194
65	0x3dfefabe	0.12450169
66	0xbac3f562	-0.0014950449
67	0x3ed46539	0.41483477
68	0xbf34b11d	-0.70582753
69	0xbf0db73d	-0.55357724
70	0x3eef7968	0.46772313
71	0x3d54c881	0.051949028
72	0x3bafefb0	0.005369149
73	0x3d04af76	0.032393895
74	0xbdaca552	-0.0842997
75	0x3f5322c5	0.8247493
76	0x3eb257b9	0.34832552
77	0x3f3103d8	0.6914649
78	0xbf305629	-0.6888147
79	0xbdec332b	-0.11533197
80	0x3d81d55d	0.06339524
81	0xbf486e86	-0.78293645
82	0x3dac5c24	0.08416012
83	0x3ebb2341	0.36550334
84	0x3dbb1e28	0.09136611
85	0xbe5f42f0	-0.21802878
86	0xbd1d0d5f	-0.03834283
87	0x3d1bbc84	0.03802158
88	0x3ebe1358	0.37124133
89	0x3eb9ea54	0.3631159
90	0x3c6200d1	0.01379414
91	0x3ee9a3c2	0.4563275
92	0x3ee0516b	0.43812117
93	0x3e45bbc0	0.19309902
94	0x3ef4bed4	0.4780184
95	0xbd51277d	-0.05106305
96	0x3bcb0427	0.0061955634
97	0xbd154658	-0.03644404
98	0xbc903c4d	-0.017606879
99	0x3ec4ad7a	0.38413602
100	0xbf343db6	-0.70406663
101	0x3ed25878	0.4108312
102	0xbf43f50b	-0.7654578
103	0xbed0fecf	-0.40819404
104	0x3f41ae1c	0.75656295
105	0xbf3d8cbc	-0.7404287
106	0x3ec4cced	0.38437596
107	0x3e42c085	0.19018753
108	0x3cd00c1c	0.0253964
109	0xbf1e4d16	-0.61836374
110	0xbd888afc	-0.06667134
111	0x3ed97e29	0.42479065
112	0xbd8c6ae0	-0.06856322
113	0x3ca5d2f1	0.020242186
114	0x3d11664e	0.035497956
115	0x3c9b3f9f	0.018951235
116	0x3cdcad04	0.026937969
117	0x3eef83c3	0.46780214
118	0xbd8dbd10	-0.069208264
119	0x3f808d0b	1.0043043
120	0xbd646eda	-0.05576978
121	0x3eed8642	0.46391493
122	0x3ee9480d	0.45562783
123	0x3c9338f3	0.017971491
124	0x3ed34299	0.41261747
125	0x3f9a6756	1.2062786
126	0x3da9cdef	0.08291232
127	0x3eaeb9c6	0.3412611
128	0x3e0d8ceb	0.13823287
129	0x3f267225	0.6501792
130	0x3eccdfeb	0.40014586
131	0xba2ddf47	-0.0006632697
132	0x3cc69494	0.02424077
133	0x3f0c08d5	0.54700977
134	0x3e83d91b	0.25751576
135	0xbf3a5ff9	-0.7280269
136	0x3dd59364	0.10428503
137	0x3efd823c	0.49513423
138	0x3e39c05c	0.18139786
139	0x3bb538fe	0.0055304756
140	0xbf0d42f4	-0.5518029
141	0xbf7f4865	-0.9971984
142	0x3cb1ea79	0.02171825
143	0x3d00cdf9	0.03144643
144	0xbf0b4ceb	-0.5441424
145	0x3ecfa8dc	0.40558517
146	0x3f10efdd	0.56616
147	0x3e7ca9d8	0.24674165
148	0xbd525001	-0.05134583
149	0xbf1bdca7	-0.60883564
150	0xbd5454b3	-0.051838588
151	0xbc2c9a02	-0.010534765
152	0x3edaf8e0	0.42768002
153	0x3e3c7709	0.18404783
154	0x3d7e1dcf	0.062040146
155	0x3ec84f09	0.391228
156	0xbf74887f	-0.95520777
157	0x3f1307d2	0.5743381
158	0x3ea0564b	0.31315836
159	0x3f4e4574	0.8057473
160	0x3a78c0c6	0.00094891747
161	0xbcb00539	-0.021486865
162	0xbe01043d	-0.12599273
163	0x3f3d28a7	0.73890156
164	0x3ec83127	0.391
165	0xbd31e8b1	-0.043434802
166	0x3e7dc730	0.24783015
167	0xbf41cc44	-0.7570231
168	0xbd419602	-0.0472622
169	0xbf156a89	-0.58365685
170	0x3f42b1b6	0.76052415
171	0xbcabd463	-0.020975297
172	0xbf228773	-0.6348793
173	0xbcde6452	-0.027147446
174	0xbd11366b	-0.035452288
175	0x3e5c0148	0.21484864
176	0x3f4b66ca	0.7945372
177	0x3ca8bc10	0.020597488
178	0x3f351d8a	0.707482
179	0xbd0b7bec	-0.034053728
180	0x3f0001c9	0.50002724
181	0x3da01519	0.07816524
182	0x3f2b347f	0.6687698
183	0xbf4b5cfb	-0.7943875
184	0x3c4fe82d	0.012689632
185	0x3f1784fe	0.59187305
186	0x3ecf061b	0.40434346
187	0x3ef8659f	0.4851503
188	0xbf2291cd	-0.63503724
189	0x3e6d640c	0.23182696
190	0xbfc0eada	-1.5071671
191	0x3f3b27f0	0.73107815
192	0x3e9fdc0f	0.3122258
193	0xbf5ea2a0	-0.86966896
194	0xbd7e48f5	-0.062081296
195	0x3ee0cc1b	0.4390572
196	0xbf1623d4	-0.5864842
197	0xbf3cd8dd	-0.7376841
198	0x3f124698	0.5713897
199	0xbda4c1ee	-0.08044802
200	0xbda23e37	-0.07922023
201	0xbc82d4f3	-0.015970683
202	0x3c7f46f0	0.015580878
203	0x3fa36938	1.2766485
204	0x3e6fd38f	0.23420547
205	0xbf031408	-0.5120244
206	0x3f227891	0.6346522
207	0x3e5146dc	0.20437187
208	0x3c0bc5c5	0.008531039
209	0xbe554f4c	-0.2083103
210	0x3ede9199	0.43470457
211	0x3e9eab17	0.30989906
212	0xbdce8e1b	-0.10085698
213	0xbf9b95ea	-1.2155125
214	0x3d6aea6b	0.057352465
215	0x3efdac9e	0.4954576
216	0x3f15edd6	0.58566034
217	0x3e953908	0.29145074
218	0x3d6b1801	0.05739594
219	0x3edb50ba	0.42835027
220	0x3ef4ae7c	0.4778937
221	0x3eccfb93	0.40035686
222	0x3f05b710	0.52232456
223	0x3c983d18	0.01858382
224	0x3be30c5a	0.0069289627
225	0xbd82869e	-0.063733324
226	0xbd0120f1	-0.031525556
227	0x3e9d39f7	0.30708286
228	0xbe8a87e2	-0.27056795
229	0x3ea9046e	0.33011192
230	0x3e405753	0.18783312
231	0x3f9e807d	1.2382962
232	0x3eff3e03	0.49852
233	0xbeed1cf2	-0.46311146
234	0x3e9f6178	0.3112905
235	0x3f728b31	0.9474364
236	0xbf39d573	-0.7259132
237	0xbe293e85	-0.16527756
238	0x3d5ec1b8	0.054383963
239	0x3e96c948	0.2945044
240	0xbd2b7c20	-0.04186642
241	0xbbbe1d73	-0.0058018505
242	0x3dac0d53	0.08400979
243	0x3c732f35	0.014842798
244	0x3d96d47b	0.07364746
245	0x3e8b7c74	0.27243388
246	0x3d835efc	0.06414601
247	0xbf104e00	-0.5636902
248	0x3d4ec4e0	0.050480723
249	0x3ee58827	0.44830438
250	0x3ef86107	0.48511526
251	0xbd981b5d	-0.07427094
252	0x3efc4501	0.49271396
253	0x3e84e6f2	0.25957447
254	0xbc68f1e8	-0.014217831
255	0x3e8dc9c7	0.27693006

layers.4.bias f4 [2]
0	0x3eb97f9a	0.36230165
1	0x3ecb03df	0.3965139
