OS/ddqn_models/whole/ddqn_600_1.0.pth (torch_old, 69813 bytes, 6 tensors)

layers.0.weight f4 [128, 2]
000000 99 a0 0a 3d b0 e5 03 bf 7a 6c 98 3f 25 0b 58 bf
       0.033844564 -0.5152235 1.1908104 -0.84392005
000010 e8 64 9b 3d 60 99 17 be 5f f7 54 3f 44 4a cf 3e
       0.07587606 -0.14804602 0.8318996 0.40486348
000020 c8 1f 10 3f 1e 49 d1 3f 9b 46 0e be f6 56 3a be
       0.56298494 1.6350439 -0.13894121 -0.18197235
000030 46 ab 78 be e2 7b be 3d 9b 12 6a 3e 0a ac 8a 3f
       -0.24284086 0.093009725 0.2285866 1.0833752
000040 d9 cf c1 bf ca 5d be be b2 70 cb be c5 64 58 bf
       -1.5141555 -0.3718093 -0.39734417 -0.8452876
000050 76 7c 48 bf b2 4a 7d bf 92 3e 1e bf ec ba b8 3e
       -0.7831491 -0.989421 -0.61814225 0.3608011
000060 91 94 24 bf 49 d9 f0 bc bb c2 8e bd d9 75 ba be
       -0.64289194 -0.029400485 -0.06970736 -0.36418036
000070 86 31 3f bf 3e 5d f1 bc 31 41 90 bf 3b f4 c5 3f
       -0.7468494 -0.029463407 -1.1269895 1.5465158
000080 9b 8b d7 3f 4d 83 83 3f 80 7b ac bb 00 23 0f be
       1.6839479 1.0274445 -0.005263746 -0.13978195
000090 7f c6 bd 3e 46 8d ea bd b1 20 80 3e d3 81 1d 3d
       0.37065503 -0.11452727 0.25024942 0.03845389
0000a0 70 b8 1b be 9b 7b af be 5b 50 4b 3f fa df 86 bf
       -0.15207076 -0.3427399 0.7941949 -1.0537102
0000b0 aa f0 c1 be 07 5b f5 3e 7e a6 bd 3e 6e 4e ab 3c
       -0.37878925 0.4792101 0.37041086 0.020911422
0000c0 2b 9c bb bf cd 72 6d 3f a6 23 68 bf 57 38 7a be
       -1.4657034 0.927533 -0.90679395 -0.24435554
0000d0 25 11 18 be 84 e9 43 be 49 3d 22 be 89 21 1f 3f
       -0.1485029 -0.19132048 -0.15843691 0.62160546
0000e0 cc 4d d9 bf 8b 7f e7 3e 1c 99 b8 3f ce cd 80 be
       -1.6976867 0.45214495 1.4421725 -0.25157017
0000f0 f0 41 30 3e 7b c4 a2 bf 91 c2 aa bf 6f a9 6f bf
       0.17212653 -1.2716211 -1.3340627 -0.9361791
000100 3a 0a e0 3e 4f 2a d6 3f 65 99 82 be 1b 09 8f bc
       0.43757802 1.6731662 -0.25507656 -0.017460397
000110 95 a9 58 3f 11 79 8e bf 0f 0e 87 3e d9 33 12 be
       0.8463376 -1.1130697 0.26377913 -0.14277591
000120 80 ac 1f 3c e8 35 f6 bd 7a b7 66 bf ee 44 3f bf
       0.009745717 -0.120220006 -0.90123713 -0.74714553
000130 57 c0 a4 3f 77 a6 1e 3e 48 cc 34 be 96 d6 a6 be
       1.2871197 0.15493189 -0.17656052 -0.3258559
000140 f7 a1 1e bf a9 e8 f2 3e 93 25 33 3f 0c da 15 c0
       -0.6196589 0.4744313 0.6997921 -2.3414335
000150 c7 67 61 be d7 91 e6 3e a2 bc 27 3e 41 9a 57 3f
       -0.22012244 0.45033142 0.16380551 0.8421975
000160 9f b6 b3 3e 38 8c bd 3d fe 13 29 3e c1 5f 26 3e
       0.35100266 0.0925526 0.16511533 0.16247465
000170 86 a3 72 3f 31 46 90 3f 86 6b ce bd 21 cb ec be
       0.94780767 1.1271421 -0.10079102 -0.46248725
000180 32 7d d7 bf 5d 53 36 be c6 16 09 3e 8a 0c b9 bf
       -1.6835082 -0.17805238 0.13387594 -1.4456952
000190 fd 97 94 3f 5b 1c 4e bf 7f ec 80 3e cf 39 d9 3c
       1.1608883 -0.80512017 0.25180432 0.026516823
0001a0 bb 66 4c 3f ac 3e f7 bf b1 51 3a bf 69 27 0a 3f
       0.79844254 -1.9316001 -0.727809 0.53966385
0001b0 9e a9 08 3f c5 d5 15 3f 88 76 2f bc 9f 5e 4a 3e
       0.53383815 0.5852931 -0.010709412 0.19762658
0001c0 d9 ec 45 be 8d 71 e9 3e ce cb 54 be c1 a2 ac bd
       -0.19328631 0.45594445 -0.2078087 -0.0842948
0001d0 1e fc 89 3e 6e 83 3e 3f cb c5 96 3e a9 f1 1a bf
       0.26950163 0.74419296 0.2944778 -0.60524994
0001e0 33 ca a6 3f 26 57 f7 be 52 c7 41 3f f7 8a b9 be
       1.3030456 -0.48308676 0.75694764 -0.36238834
0001f0 61 2c 3f bf 6b 6a d2 3e fe 4a 8a be 5a d9 5f 3f
       -0.7467709 0.41096815 -0.2701034 0.8744103
000200 20 9e ea 3e ed 71 85 be b2 7b 1e 3f a4 f1 7c 3f
       0.45823765 -0.2606348 0.61907494 0.98806214
000210 1a 1e ef 3e 64 90 84 bc 58 b4 d8 be 10 ec 0c 3e
       0.46702653 -0.016182132 -0.4232509 0.13761926
000220 13 70 1a 3f fe a6 a6 3e 5c 00 1f 3f 98 19 1c 3f
       0.6032726 0.3254928 0.62109923 0.6097655
000230 ed 8b 7c be d8 9a da 3d 61 8f 70 3f e5 f9 c2 3e
       -0.24662752 0.10674065 0.9396878 0.3808128
000240 9e 9d ba 3e 3f fa 6c 3c b6 52 54 bf 72 95 5e bf
       0.36448377 0.01446396 -0.82938707 -0.86946785
000250 65 a4 96 3f 3d 9f 93 3f f3 55 7b 3f ac a9 0d 3f
       1.1768919 1.1532971 0.98178023 0.55337024
000260 a0 78 99 3f b0 6a 00 bd c2 b5 55 bf 32 9b 6f bf
       1.1989937 -0.031351745 -0.83480465 -0.93596184
000270 c5 37 9c 3f fc 37 72 3f 0e 5d 90 be ec bb 61 3c
       1.220452 0.94616675 -0.28195995 0.013777714
000280 9b a6 5a 3f 0a ac 94 3f 83 f4 0c 3f 2e c2 90 3f
       0.8541047 1.1615002 0.55060595 1.1309259
000290 5b 2d 56 be 4d f4 df be 73 14 9c 3f 9b dc 54 3f
       -0.20915739 -0.43741074 1.2193741 0.8314912
0002a0 2e 9b 34 bf 1e 3d b0 3d 0f a6 ce 3f a7 55 be 3f
       -0.70549285 0.08605407 1.6144427 1.4869889
0002b0 49 1e 69 be a4 74 86 3b 45 4f 44 bf d0 f9 fa 3f
       -0.22765459 0.00410326 -0.76683456 1.9607487
0002c0 cb 66 38 3e c0 fc 60 3c 39 1d b0 3e a9 f8 03 3f
       0.18007962 0.013732135 0.34397295 0.515513
0002d0 59 61 3b 3e 4f 53 e5 ba 7f a6 c3 bf 1a 92 30 be
       0.18298854 -0.0017496141 -1.5285186 -0.17243233
0002e0 22 db 70 bf 96 28 a2 bf 4f f4 bc bf 2c 59 c7 3f
       -0.9408437 -1.2668636 -1.4762057 1.5574088
0002f0 15 f0 9d 3f ff fd 23 3f fe eb 4c 3f 35 15 38 be
       1.2338892 0.6405944 0.80047596 -0.1797684
000300 f9 10 2b bf 8b c4 c7 be d6 f8 ec be f1 ca 24 be
       -0.66822773 -0.39017138 -0.46283597 -0.16093041
000310 36 69 0e be ce ed b6 be 4f 0d 29 be 55 24 ab be
       -0.13907322 -0.35728306 -0.16508983 -0.33426157
000320 6e 23 95 3e 9e 88 9b 3f 9f 4f b6 3e 17 42 97 3f
       0.29128593 1.2151067 0.3560762 1.1817044
000330 83 85 13 3f 56 5a 80 3e 9f da da 3f a2 a3 c7 3f
       0.576256 0.2506892 1.7097968 1.5596812
000340 85 ad 03 3f 61 09 89 3f 07 52 68 3e f0 60 ab 3f
       0.51436645 1.0705987 0.22687541 1.3388958
000350 0f 6b ad bf 59 56 b1 be 94 66 80 3f 58 bd 30 be
       -1.3548297 -0.3463619 1.0031304 -0.17259729
000360 de 12 99 3e b0 6c b6 bf dd fb 04 c0 ab eb 29 3f
       0.29897207 -1.4251919 -2.0778725 0.66375226
000370 6c 15 e8 3f 8a 61 99 3e 9d ac cd bf 6b 33 38 3f
       1.8131537 0.2995723 -1.6068302 0.7195346
000380 97 97 ec 3f fe 73 24 3f 25 69 5c 3e 31 33 72 3e
       1.8483762 0.6423949 0.21524484 0.2365234
000390 81 ac 66 3f 57 65 54 bf 6c 5e 08 40 9f da ac 3f
       0.9010697 -0.8296713 2.130763 1.3504218
0003a0 a4 a0 82 be 38 89 ec bc 6c 36 5b be 54 78 8b be
       -0.25513184 -0.028874025 -0.21407479 -0.2724024
0003b0 e9 44 94 3f 4c cc a1 3d 44 cd 49 3e 81 5e 59 bf
       1.158353 0.07900295 0.19707209 -0.84909827
0003c0 87 95 bb bd cc 75 c9 be 64 df 58 3e 74 32 e6 3e
       -0.091593795 -0.39347684 0.21178967 0.44960368
0003d0 98 16 38 3e 02 c1 58 bf db 5b 18 3f 8e 89 0a 40
       0.17977369 -0.84669507 0.5951516 2.1646457
0003e0 13 34 e2 3f fa c7 52 bf 48 e4 e1 3e 49 2c f0 bd
       1.7672142 -0.8233639 0.44119477 -0.11727197
0003f0 8d 26 e3 bd 0c 85 1b 3e dd 43 54 bf 9b 22 95 3f
       -0.11091337 0.15187472 -0.8291605 1.1651186

layers.0.bias f4 [128]
000000 c4 ba 55 3f ca 7b 83 3e 58 4b f1 be ac 77 8a bf
       0.83488107 0.2568038 -0.47127795 -1.0817771
000010 df df a9 3c 18 27 3a bf c2 3f 13 3f 94 94 8d bf
       0.020736633 -0.727159 0.5751916 -1.1060967
000020 31 16 28 be 8d 16 86 bf e1 44 e8 bb 02 77 36 3f
       -0.16414715 -1.0475632 -0.007088289 0.7127534
000030 7b 99 a3 bf f5 5c 5a 3f fe c2 44 bf 11 0d a0 3d
       -1.2781214 0.8529809 -0.76860034 0.07814992
000040 0f 96 01 3e 85 3a 23 bf 2f b0 4b 3f d5 41 07 3f
       0.12654899 -0.6376117 0.7956571 0.52834827
000050 27 55 70 3f 09 69 a6 3e 78 b0 a4 bf aa 7f 46 3f
       0.9387993 0.3250201 -1.2866354 0.7753855
000060 4f a5 40 3c e8 df ec 3e 57 5c 41 bf 9b d2 a0 bf
       0.011758163 0.46264577 -0.75531524 -1.2564272
000070 2e 9a ca be 90 59 11 bf 38 96 78 ba 14 05 fc be
       -0.39570755 -0.56777287 -0.00094828336 -0.49222624
000080 3d 1f 6b 3e 8b 27 29 3f bf 39 a0 3e a4 8f 4f bf
       0.22961135 0.6607596 0.31294057 -0.81078553
000090 0d 59 0c bf f5 4c 09 bf ad d3 be 3e a0 2d 75 3f
       -0.5482338 -0.5363305 0.3727087 0.95772743
0000a0 4e cf 37 3f 6e ff fb 3c 40 db 1c 3e 1a 8d ba bf
       0.71800697 0.030761447 0.15318012 -1.4574311
0000b0 56 fe 79 bf 8d c2 07 3f 8c 8d 35 be d1 2f 09 3f
       -0.9765371 0.53031236 -0.17729777 0.5358859
0000c0 1e 2b e0 3c 3f a1 16 bf 16 2b 48 bf 61 fb 0f 3f
       0.02736431 -0.5883979 -0.78190744 0.5624295
0000d0 66 1a 50 3e 06 47 1b 3f 24 54 0e 3f 92 ea 0f 3f
       0.2032257 0.6065525 0.5559714 0.562173
0000e0 22 5d 78 3e 66 9d 1b bf 38 96 26 bf 7d 43 29 3e
       0.24254277 -0.60787046 -0.65072966 0.16529651
0000f0 bc 3f 2f 3e 74 ff 6e bf b8 57 3f 3f 5d 8f 46 bf
       0.17114156 -0.9335854 0.74743223 -0.77562505
000100 1b bf a3 bf cb 1f 9f bd df 42 5a 3f 8a 3f 60 3f
       -1.2792696 -0.07769736 0.8525829 0.8759695
000110 1d 48 a9 bf de ec 23 3f f4 5a 1a 3f c1 b8 1d 3f
       -1.3225132 0.64033306 0.60295033 0.6161004
000120 10 a8 4b 3f d0 11 de be 0d 39 94 3e 59 99 ca 3e
       0.7955332 -0.43372965 0.28949776 0.3957012
000130 f9 47 16 bf d8 2a bb 3e dd e3 12 bf c3 c1 34 3f
       -0.5870357 0.36556125 -0.5737894 0.70608157
000140 c3 fb 1d bf 8e 8e 1d bf a5 26 d4 3e 46 5e b0 3e
       -0.6171228 -0.61545646 0.41435733 0.34446925
000150 52 58 41 bf 7d 4e fc 3d ab 40 24 3f 2e cb cf 3d
       -0.7552539 0.12319658 0.64161175 0.10146175
000160 64 61 a9 3e 37 e7 92 bf e5 19 a4 3e 33 3e 07 bf
       0.33082116 -1.1476811 0.32051006 -0.52829283
000170 9d eb 60 bf f8 24 11 3e 5f 69 35 3f ca a3 7c bf
       -0.8785952 0.14174259 0.7086391 -0.9868742
000180 cb 03 2e 3e dc 04 9c bf c9 ab 6f 3f 5a 3e 73 3f
       0.16993634 -1.2188983 0.936215 0.95017016
000190 b1 c9 8c bf 23 25 7e bf b8 aa a7 bf 2d 8b 05 3e
       -1.0999051 -0.99275416 -1.3098974 0.13041373
0001a0 3b 69 4c bf 86 14 91 be 5d ba 7c 3b 22 82 e2 3d
       -0.7984807 -0.2833597 0.003856323 0.11059977
0001b0 7f f2 c1 be 99 d0 d4 3d 3a ad ad be 10 9c 23 3e
       -0.37880322 0.10391349 -0.33921224 0.15977502
0001c0 86 f8 38 bc d4 29 38 3f 85 8f 82 be 31 3d 8d 3d
       -0.011289721 0.71938825 -0.25500122 0.06896437
0001d0 8d a0 13 bf 67 73 6f 3f aa 3a 66 bf 0c d1 7e bf
       -0.57666856 0.93535465 -0.89933264 -0.9953773
0001e0 26 8f 67 3f 92 8e a6 bf 8b 4c 97 3e 16 92 dd be
       0.904528 -1.3012259 0.29550585 -0.43275517
0001f0 ac a9 86 be 27 86 82 bf 2b b9 27 3f ce 4a 37 3d
       -0.26301324 -1.019719 0.6551692 0.044749074

layers.2.weight f4 [128, 128]
000000 08 b2 fa bc 84 96 87 3c 94 d6 f6 bc 6b 5b 8d be
       -0.03060247 0.016551264 -0.030131616 -0.2760881
000010 07 02 86 3e cb af aa 3d 34 90 da 3d 63 06 67 3e
       0.26173422 0.08334311 0.10672036 0.2256103
000020 ef a9 d3 bf 4c 4a 4b bf 13 b2 69 bf 5e 11 15 3e
       -1.6536235 -0.79410243 -0.91287345 0.14557406
000030 46 8c 08 3e b2 81 8f bd 99 07 5f 3e 18 9a b6 bc
       0.1333476 -0.07007159 0.21780242 -0.022290275
000040 bd 02 22 be 34 df a7 bd ef 91 2a 3e f3 39 8a 3e
       -0.15821357 -0.081968695 0.16657232 0.26997337
000050 9d 77 16 bc dc 68 b6 bd 9e c3 5c 3f 54 9f 61 3e
       -0.0091837915 -0.08906719 0.8623599 0.22033435
000060 47 dc 07 bf c6 e1 33 be f0 5b 92 3c 19 91 2d 3e
       -0.5307049 -0.17566594 0.017866105 0.16949882
000070 62 61 ba 3e 00 4d 0a 3e 5b a1 90 bd ea d7 ae bf
       0.36402422 0.13505936 -0.07062026 -1.3659642
000080 49 77 61 3e fb 20 4a 3e 0f e5 b5 3d 25 b6 67 be
       0.2201816 0.19739144 0.0888158 -0.22628076
000090 2a 9f 9c bd ce 0e 00 c0 78 5f 07 3e 34 ad f1 3d
       -0.07647546 -2.0009036 0.13220012 0.11800614
0000a0 84 34 e2 3d 93 7d 03 c0 75 9e 09 3d a5 e5 9d be
       0.11045173 -2.0545394 0.033598382 -0.30839267
0000b0 fd 85 71 bd 0f 12 e4 3d 4a 4f 0d bf 30 94 2e be
       -0.05896567 0.11136257 -0.5519911 -0.17048717
0000c0 b6 0d 02 bf 1f 26 26 bf 98 23 68 3f 42 bb dd 3d
       -0.5080217 -0.6490192 0.9067931 0.10826732
0000d0 87 2e 6b bf 99 f3 16 3e a2 8b 72 3e 15 c7 65 3e
       -0.9186787 0.14741363 0.23686078 0.22439225
0000e0 50 76 6f bd 98 51 e4 bd c6 16 14 3d 07 4c d3 be
       -0.05846244 -0.11148375 0.03615453 -0.41268942
0000f0 1a af 1d be 00 ab 0a 3f e4 c0 3e 3e ec 3e ae bf
       -0.15398827 0.54167175 0.1862827 -1.3612952
000100 48 ad ba 3e a7 51 ba 3d ae 4e 86 3e ae 48 e8 3c
       0.36460328 0.09097605 0.26231903 0.028354969
000110 a8 70 85 bf 4c 13 4e 3e f4 c6 04 3e b7 de 7a 3e
       -1.0425005 0.20124549 0.1296652 0.24499021
000120 c0 c4 61 3e 77 ae 3f c0 a6 da cc 3e cd 16 65 3e
       0.2204771 -2.9950235 0.40010566 0.22371979
000130 17 5d 88 3d 81 f1 b7 be 0e fc 3f bf 07 d4 42 3e
       0.066583805 -0.3592644 -0.7499398 0.19026195
000140 b7 4b 18 bd c8 8e 1b 3e 30 5f 09 bd 2d a5 a4 3e
       -0.037181582 0.15191185 -0.033538043 0.3215727
000150 51 da 23 3f e6 81 d0 3d 0a 81 bc 3d 7b 20 14 3f
       0.64005 0.10181026 0.092043 0.5786206
000160 8f da c7 3d 1c 7d b3 be 31 46 49 3e 00 0d d7 bf
       0.097584836 -0.35056388 0.19655682 -1.6800842
000170 c8 6b a4 bf d0 6d 95 3f 75 54 21 3e 25 20 22 be
       -1.2845392 1.1674137 0.15754874 -0.15832575
000180 54 e7 df be 13 26 1b 3f 86 79 a7 bc 1a 5c 14 3d
       -0.43731177 0.6060497 -0.02044369 0.036220647
000190 a7 cb 0c 3e d3 0e 22 3e b4 36 3a bf 4c 20 ad bd
       0.13749562 0.15825967 -0.7273972 -0.08453426
0001a0 0e 64 ef bc ba 25 91 3d 3b 62 55 3e a4 44 13 be
       -0.029222514 0.07087274 0.20838253 -0.14381653
0001b0 74 2d 51 bf 33 73 5e 3c 23 cf 6a 3e 75 00 4e 3f
       -0.8170998 0.01357727 0.22930579 0.8046945
0001c0 30 60 1d 3e f4 1f 57 3e b3 ad 93 bd c6 20 9a bd
       0.15368724 0.21008283 -0.07210865 -0.07525782
0001d0 15 25 f3 3e 76 f8 a4 3d de f2 4c 3f a1 c7 91 bf
       0.4748923 0.08055203 0.80058086 -1.1389047
0001e0 e5 53 30 3e 34 43 d7 3c 2f e2 a1 bd 56 a0 d3 3e
       0.17219503 0.026277162 -0.07904469 0.41333264
0001f0 b6 ee a3 bf 88 46 29 3d 66 e8 11 3e fc 67 11 bf
       -1.2807224 0.04132703 0.14248809 -0.5679929
000200 ec 5c a0 3d 8f f6 0e 3f 42 6e 11 3d 9c ce c3 be
       0.078302234 0.5584497 0.03550554 -0.38243568
000210 5d 00 9d 3e 0f 74 ab 3d 4a 88 18 3d f2 32 76 3e
       0.3066434 0.08371746 0.03723935 0.24042872
000220 23 00 cf bf d6 8a 2b bf 0a b9 7e bf 07 8c 07 bc
       -1.6171917 -0.6700872 -0.995011 -0.008273131
000230 e5 5b 98 3d c8 eb b0 bc 2e d3 d9 3e e5 52 88 bf
       0.074394025 -0.021596804 0.4254393 -1.0650297
000240 b3 a9 18 3e 20 98 1c bc 1a c4 f2 3d 30 47 4c 3e
       0.14908485 -0.009557754 0.1185381 0.19949031
000250 66 77 95 bd 7b e3 83 3e d0 ae a1 3d 21 c2 d9 3d
       -0.07298164 0.2575949 0.07894671 0.1063273
000260 b2 a3 b6 bf dd d6 c3 be 11 c9 b0 3d 85 ac 16 bf
       -1.4268706 -0.38249865 0.086321004 -0.58856994
000270 a3 e8 f3 bd 61 62 b8 be 93 87 85 3e 56 5e 70 bf
       -0.11909606 -0.36012557 0.26079997 -0.93893945
000280 d2 2f d1 3e ff 41 9b bc 5f 80 cc 3e ff ef 20 bf
       0.40856797 -0.018952368 0.3994169 -0.62866205
000290 f7 d9 4e bd fd f3 db bf d3 7a c2 3e e0 72 98 bd
       -0.050500836 -1.7183834 0.37984332 -0.07443786
0002a0 19 f4 bf 3d 12 f9 97 bf 3a 7a fd bd e0 e1 ba bd
       0.0937273 -1.1872885 -0.123768285 -0.091251135
0002b0 ed cb 19 be 28 49 b3 3d ac 86 bf be ba 9e 97 bd
       -0.15019198 0.08754188 -0.37407434 -0.074033216
0002c0 ec 56 3a c0 ac b1 ac bf 37 3f af bd 79 09 4e 3d
       -2.9115553 -1.3491721 -0.08556979 0.050302003
0002d0 90 c0 9f be 72 2a 6c 3d 38 c7 5c 3e cf ed 34 3d
       -0.312016 0.057657667 0.21560371 0.044172104
0002e0 1e 95 1c be 94 a1 20 3e 66 e4 03 3c 98 d4 cc be
       -0.15291259 0.15686637 0.00805006 -0.40005946
0002f0 76 30 08 3e 7f c0 32 bf d2 cc 81 bc 67 60 21 bf
       0.13299736 -0.69824976 -0.015844736 -0.63037723
000300 2b 47 10 be 29 5f 8c 3e fc 04 20 3e 89 55 8f bc
       -0.14089648 0.2741635 0.15626901 -0.017496841
000310 e4 f4 8d bf 97 3d 5d 3e 2c fb 39 bd ea e5 10 3e
       -1.109036 0.21605526 -0.04540555 0.14150205
000320 d2 b4 19 3e 00 b0 d0 bf fa 00 0b 3f ed b0 b8 3e
       0.15010384 -1.6303711 0.54298365 0.36072484
000330 be 0a 93 be f0 4a cf be 1a d5 d6 be 33 97 16 3e
       -0.28719133 -0.4048686 -0.4195946 0.14706115
000340 26 fa 8f be 74 89 8b be 25 60 99 bd 45 2c a2 3e
       -0.28120536 -0.27253306 -0.07489041 0.316744
000350 19 ed 3a 3f c8 f2 02 3f dd 8e ee 3d e0 13 f9 bd
       0.7301803 0.51151705 0.11648343 -0.12161994
000360 27 5d 3b 3e e7 ee 92 be 0e 68 2b 3e fc e7 c7 bf
       0.18297254 -0.28697893 0.16738912 -1.5617671
000370 44 97 1a bf 50 e2 f0 3e a4 a0 5f 3e 29 75 dc be
       -0.60387063 0.47047663 0.21838623 -0.43058136
000380 d6 86 08 bf eb 30 ae 3e cd 1e 50 bd 1a a1 02 be
       -0.53330743 0.34021696 -0.050810624 -0.12756768
000390 49 1a 27 bd a6 a8 79 3d 15 9c 6c bf 2c 46 0b 3f
       -0.04079655 0.06095185 -0.9242566 0.5440395
0003a0 57 1c 73 bd fd 7c a5 be be 60 b5 bf e8 3d 81 3d
       -0.0593532 -0.3232192 -1.4170148 0.06310636
0003b0 f1 64 84 bf 7c 7b d7 bf 34 32 98 bd f5 97 5c bf
       -1.0343305 -1.683456 -0.074314505 -0.8616937
0003c0 b3 b0 91 3e 40 f9 81 3d 8f 20 9b bf af b2 c4 3e
       0.28455123 0.06346369 -1.2119311 0.38417575
0003d0 e7 65 69 3f 2b e9 f6 3d 3d 29 d5 3e ab 76 06 c0
       0.91171116 0.12056192 0.41633025 -2.100993
0003e0 15 6c a3 3d 40 c9 4c 3c b0 e6 62 bd cc d5 51 3e
       0.079795994 0.012499154 -0.055395782 0.20491713
0003f0 ec 03 84 bf d7 a7 b5 bf a7 a1 bb 3d 9a b6 ad bf
       -1.0313697 -1.4191846 0.09161692 -1.357135

layers.2.bias f4 [128]
000000 30 3d 53 3e 76 b7 88 3d f0 58 d0 3e a9 75 a9 bd
       0.2062881 0.066756174 0.40692854 -0.08274395
000010 fe 02 3e 3d 67 c5 ba 3e 9a 16 9b 3e 40 8e ec be
       0.046389572 0.3647873 0.3029068 -0.46202278
000020 97 bc 68 be 22 12 23 3e cb 06 a3 be 46 52 e6 bd
       -0.22728191 0.15924886 -0.3184112 -0.11246161
000030 b5 0d fa be 7d 90 a8 3e 9a 97 e5 bd 31 53 6f be
       -0.48838583 0.32922736 -0.11210556 -0.23371579
000040 d2 2e e8 be e1 f2 e7 3e 42 4f fd be 8e c7 a3 be
       -0.4534822 0.4530249 -0.4947453 -0.31988186
000050 53 26 da bb 9e 48 91 be 72 34 02 be b1 d0 15 bd
       -0.0066574006 -0.28375715 -0.12715319 -0.036575977
000060 01 90 d3 3e 53 5f c8 3e 03 2d a8 3c c6 ce 61 3e
       0.41320804 0.39135227 0.020529276 0.22051534
000070 a2 f4 13 bf c1 f9 fe 3e 66 32 81 be ed 25 c5 3d
       -0.57795155 0.49799922 -0.25233763 0.096263744
000080 fc 85 51 3d e5 16 5d bd 34 4a da bd cd b2 53 be
       0.051153168 -0.053976912 -0.106586844 -0.20673676
000090 8e 29 b9 3e a8 66 71 bd 9c 7e ee be 47 c7 f0 bc
       0.36164516 -0.05893579 -0.4658097 -0.029391898
0000a0 98 a9 89 bc a1 c3 13 bf 83 e3 ff be 46 b1 22 bd
       -0.016804501 -0.5772038 -0.49978265 -0.039719842
0000b0 47 83 05 bf 6b 72 5b bb 20 e6 dd bb 79 d7 c3 bd
       -0.5215344 -0.0033484946 -0.006771818 -0.095625825
0000c0 84 f1 d4 bd c3 16 3c bb c3 48 5b 3e 3e f0 31 3d
       -0.10397628 -0.002870009 0.21414475 0.043442003
0000d0 a9 ce 45 3d ca 93 c5 bc 22 54 88 be 8f 04 08 3e
       0.04829279 -0.024118323 -0.26626688 0.13282989
0000e0 2f 29 8d bd d7 d7 28 3d 24 c7 fd 3c e2 5b e9 3e
       -0.06892621 0.041221466 0.030978747 0.45577914
0000f0 fd 2e 14 bf 1b 7f 80 3e 47 b0 e2 3d 1b 6b 0a 3d
       -0.578842 0.25096974 0.110687785 0.03379355
000100 55 ab a3 3e a9 be d7 bd eb 07 4e bc 76 59 81 3e
       0.31966653 -0.105344124 -0.01257513 0.25263566
000110 c9 eb 13 be 1f 1d 06 bf 91 54 c9 3e 30 82 f8 bd
       -0.14445414 -0.52388185 0.39322332 -0.12134206
000120 58 72 82 bd 9c 13 64 bc d0 f1 43 bd 97 a0 03 3e
       -0.063694656 -0.013920691 -0.047838032 0.12854229
000130 21 bc 8d 3e bf 71 57 be 78 71 b1 be 58 d7 0a 3d
       0.27682593 -0.21039484 -0.34656882 0.033896774
000140 63 1a 2a bd 37 9d c7 bc ba e2 73 3e b0 7e 9d 3e
       -0.04152907 -0.024366958 0.23816958 0.30760717
000150 b7 e2 72 ba 21 c2 d8 be 25 a6 22 3d dd 4d 7c 3e
       -0.00092653505 -0.4233561 0.03970923 0.24639077
000160 80 e9 03 3f a0 d3 d3 3e 58 b5 b4 3c db bb ad 3e
       0.5152817 0.41372395 0.022059128 0.33932385
000170 ce 53 fa 3e 8a c0 52 3e c1 f9 ea 3e 60 6c e5 bd
       0.48892063 0.2058126 0.45893672 -0.112023115
000180 db ee 28 bd 00 82 47 bd ac a2 94 bd 82 68 69 3e
       -0.041243415 -0.048707962 -0.0725759 0.22793773
000190 f8 ae ce be 4a dc 4e 3e 31 95 f4 be a1 a0 81 bd
       -0.40367866 0.20201221 -0.47770074 -0.06329466
0001a0 94 ed c1 be 6b 70 cb be a8 5e a5 3e a0 8b 9c 3d
       -0.3787657 -0.39734206 0.3229878 0.07643819
0001b0 d4 60 cd be 0b 22 01 be ed 18 35 bd 9c 63 be 3e
       -0.40112936 -0.12610643 -0.044213224 0.3718537
0001c0 30 5b a0 bc 1c a9 5c bd a4 e1 e7 bc aa 31 20 3d
       -0.019574732 -0.053872213 -0.028305836 0.039109863
0001d0 23 01 9d bd 24 4f ae 3e 6f 00 99 bd 7d af 9c bd
       -0.076662324 0.34044755 -0.07470786 -0.07650659
0001e0 65 a2 fb bc 33 3d bc 3e 1a 2b af 3e 03 6c 54 bd
       -0.030717084 0.3676544 0.3421257 -0.05186082
0001f0 b2 1d b0 3e 6a 80 5f 3e 58 db 91 bc cb f6 3b 3d
       0.34397656 0.2182633 -0.017804787 0.045889657

layers.4.weight f4 [2, 128]
000000 87 c7 13 3f ae b5 88 3f 2e 39 cf 3e 8f 62 af bd
       0.5772633 1.0680444 0.40473312 -0.085637204
000010 14 a1 91 bc c6 54 a5 3e 2b ca c8 3e 80 1f 20 bf
       -0.017777003 0.3229124 0.39216742 -0.62548065
000020 00 ff 2b bf 15 24 0f 3f 1a 14 de be d3 bb f4 bb
       -0.67185974 0.5591443 -0.4337471 -0.0074686795
000030 05 83 33 bf 7c f3 8b bd 6d 6a 04 bd 20 83 4d bf
       -0.70121795 -0.0683355 -0.032328058 -0.80278206
000040 5e 7e 4e bf 99 85 bf 3e fa c1 a1 be ae a7 55 3f
       -0.8066157 0.37406614 -0.31593305 0.83458984
000050 e4 d4 64 bd 2e 27 e3 3d 7d e8 a4 bc 01 9f 2c bb
       -0.05586709 0.11091457 -0.02013039 -0.002633989
000060 9b 1e bf 3e 43 8a ec 3e 73 54 7a bd 45 07 e0 3e
       0.37328038 0.46199235 -0.061115693 0.43755546
000070 21 3c 0b 3e 66 5b ae 3e af bf 9e 3f 9d 1c 50 3d
       0.13597156 0.34054106 1.2402247 0.050808538
000080 0b a3 33 bd ae d6 a2 3d c7 ed ef bc 3b 71 2a bf
       -0.04385666 0.07951103 -0.029288186 -0.66579026
000090 08 4e f4 3d a8 85 f0 3c e7 b9 f1 bc e0 ab 82 3f
       0.11928946 0.029360607 -0.02950759 1.0208702
0000a0 05 66 8f 3b 65 95 43 bf ec ea 12 bf 33 98 01 bd
       0.0043761753 -0.7639983 -0.5738971 -0.03163929
0000b0 f3 1a 2a bf 15 ad ad 3c 63 a3 b4 bd 91 f2 c0 3e
       -0.6644737 0.021200696 -0.08820226 0.37685063
0000c0 5e 43 c6 be 16 fe 76 3d 65 80 ee be 64 6e 62 3b
       -0.38723272 0.06030091 -0.46582332 0.0034550661
0000d0 b3 ef c6 3d db f7 54 3e 4a 09 dd be 74 f5 07 3f
       0.09713688 0.20797674 -0.4317115 0.53108907
0000e0 b2 b1 3e bd fc b0 02 40 9c ad a0 bd ff b0 d5 3e
       -0.046556182 2.0420523 -0.07845613 0.417366
0000f0 9a d2 3e bf 79 90 c6 3e 91 6c 5b be a4 b8 95 bd
       -0.745401 0.387821 -0.21428134 -0.07310608
000100 37 a0 c1 3d b2 74 1f 3e 62 f5 c3 ba 24 bb f5 3e
       0.09454387 0.1557186 -0.0014950449 0.4799434
000110 ae eb 65 bf 4b f8 1e bf c6 41 d4 3e 81 c8 54 3d
       -0.89812744 -0.62097615 0.4145643 0.051949028
000120 b0 ef af 3b 76 af 04 3d 52 a5 ac bd ec 7e 8e 3f
       0.005369149 0.032393895 -0.0842997 1.1132483
000130 74 9a b0 3e 57 ab 0f 3f b8 16 d4 be 2b 33 ec bd
       0.34492838 0.5612082 -0.41423583 -0.11533197
000140 5d d5 81 3d 86 6e 48 bf 67 56 f7 3d f0 e2 cb 3e
       0.06339524 -0.78293645 0.12077027 0.39821577
000150 28 1e bb 3d 33 36 aa be 5f 0d 1d bd 81 a9 21 3d
       0.09136611 -0.33244476 -0.03834283 0.039468292
000160 0e d5 a0 3e f5 9b aa 3e b7 9c 3a 3d 29 08 d2 3e
       0.31412548 0.3332211 0.04555961 0.4102185
000170 a6 90 c6 3e 93 81 88 3e b2 e8 d8 3e 7d 27 51 bd
       0.38782233 0.26661357 0.42365032 -0.05106305
000180 27 04 cb 3b 58 46 15 bd 4d 3c 90 bc 6c 2d bb 3e
       0.0061955634 -0.03644404 -0.017606879 0.36558092
000190 44 ff 45 bf df 08 f2 3e 0b f5 43 bf 68 ab d2 be
       -0.7734263 0.47272393 -0.7654578 -0.41146398
0001a0 1c ae 41 3f 7d 65 4e bf 7e 75 b9 3e ba d0 a5 3e
       0.75656295 -0.8062361 0.36222452 0.32385808
0001b0 1c 0c d0 3c cd 02 34 bf fc 8a 88 bd c1 8f d0 3e
       0.0253964 -0.70316774 -0.06667134 0.40734676
0001c0 e0 6a 8c bd f1 d2 a5 3c 4e 66 11 3d 9f 3f 9b 3c
       -0.06856322 0.020242186 0.035497956 0.018951235
0001d0 04 ad dc 3c 0b d4 fd 3e 10 bd 8d bd 69 16 26 3f
       0.026937969 0.49575838 -0.069208264 0.64877945
0001e0 da 6e 64 bd 3f 2b d4 3e 44 a7 ce 3e f3 38 93 3c
       -0.05576978 0.41439244 0.4036199 0.017971491
0001f0 17 2b d6 3e 0c 74 9c 3f ef cd a9 3d 41 43 31 3e
       0.4182975 1.2222915 0.08291232 0.17310812
000200 78 c9 b2 3d bb fd 20 3e 4f 9d d5 3e 47 df 2d ba
       0.08729833 0.1572179 0.4172158 -0.0006632697
000210 94 94 c6 3c 54 e8 0d 3f 8a c9 90 3e f9 5f 3a bf
       0.02424077 0.5543263 0.28278762 -0.7280269
000220 64 93 d5 3d 58 09 5c 3e 5c c0 39 3e fe 38 b5 3b
       0.10428503 0.2148794 0.18139786 0.0055304756
000230 f4 42 0d bf 0b c4 86 bf 79 ea b1 3c f9 cd 00 3d
       -0.5518029 -1.0528578 0.02171825 0.03144643
000240 eb 4c 0b bf b5 89 d7 3e dd ef 10 3f 23 27 eb 3e
       -0.5441424 0.4209725 0.56616 0.45928296
000250 01 50 52 bd 81 e6 a8 be b3 54 54 bd 02 9a 2c bc
       -0.05134583 -0.3298836 -0.051838588 -0.010534765
000260 1b a2 da 3e 85 41 27 3e cf 1d 7e 3d 44 6d cd 3e
       0.42701802 0.16333587 0.062040146 0.40122426
000270 7f 88 74 bf 02 d3 14 3f bd 3e a2 3d e2 29 5a 3f
       -0.95520777 0.5813447 0.07922123 0.8522016
000280 c6 c0 78 3a 39 05 b0 bc 3d 04 01 be 92 6e 4a 3f
       0.00094891747 -0.021486865 -0.12599273 0.79074967
000290 4d 09 cf 3e b1 e8 31 bd 30 c7 7d 3e 2e ab f9 be
       0.40436783 -0.043434802 0.24783015 -0.48763412
0002a0 02 96 41 bd 89 6a 15 bf b7 50 47 3f 5b dd 53 bd
       -0.0472622 -0.58365685 0.77857536 -0.051724773
0002b0 73 87 22 bf 52 64 de bc 0c 7e 9d bd 48 01 5c 3e
       -0.6348793 -0.027147446 -0.07690057 0.21484864
0002c0 65 39 49 3f 10 bc a8 3c 09 60 24 3f ec 7b 0b bd
       0.786032 0.020597488 0.6420904 -0.034053728
0002d0 dc fc 24 3f d5 c8 df 3d 7f 34 2b 3f 57 d0 2f bf
       0.6444833 0.109269775 0.6687698 -0.68677276
0002e0 2d e8 4f 3c 43 85 04 bf a7 52 93 3d 88 37 f8 3e
       0.012689632 -0.5176584 0.07193499 0.48479867
0002f0 cd 91 22 bf bf 64 85 3e b7 8f 85 bf fb 41 06 3f
       -0.63503724 0.26053426 -1.0434483 0.5244443
000300 53 2c af 3e a0 a2 5e bf f5 48 7e bd 41 70 7e 3e
       0.34213504 -0.86966896 -0.062081296 0.24847509
000310 48 a5 b5 be dd d8 3c bf cf eb 11 3f ee c1 a4 bd
       -0.35477662 -0.7376841 0.5700044 -0.08044802
000320 37 3e a2 bd f3 d4 82 bc f0 46 7f 3c 56 c2 7a 3d
       -0.07922023 -0.015970683 0.015580878 0.06122049
000330 b4 ae 89 3e 1b 43 db be 5a c9 07 3f dc 46 51 3e
       0.268911 -0.42824635 0.53041613 0.20437187
000340 c5 c5 0b 3c 4c 4f 55 be fc 30 cf 3e 21 f8 48 3e
       0.008531039 -0.2083103 0.4046706 0.19625904
000350 1b 8e ce bd ea 95 9b bf 6b ea 6a 3d 00 05 c5 3e
       -0.10085698 -1.2155125 0.057352465 0.38480377
000360 2d 66 16 3f 87 52 96 3e 01 18 6b 3d a7 bc e0 3e
       0.5874966 0.29359838 0.05739594 0.4389393
000370 58 d5 f6 3e 7d 2b 87 3e eb 09 06 3f 18 3d 98 3c
       0.48209643 0.26400366 0.52358884 0.01858382
000380 5a 0c e3 3b 9e 86 82 bd f1 20 01 bd bb 99 ac 3e
       0.0069289627 -0.063733324 -0.031525556 0.33711037
000390 e2 87 8a be 17 70 1c 3e 53 57 40 3e 63 78 59 3f
       -0.27056795 0.15277134 0.18783312 0.8494932
0003a0 03 3e ff 3e f2 1c ed be 7d 1c af 3e 89 a6 9d bf
       0.49852 -0.46311146 0.34201422 -1.2316447
0003b0 73 d5 39 bf 4c b8 1b bf b8 c1 5e 3d 00 c0 a0 3e
       -0.7259132 -0.6082809 0.054383963 0.31396484
0003c0 20 7c 2b bd 73 1d be bb 53 0d ac 3d 35 2f 73 3c
       -0.04186642 -0.0058018505 0.08400979 0.014842798
0003d0 7b d4 96 3d 61 3e 16 3e fc 5e 83 3d 97 b0 ac be
       0.07364746 0.14672233 0.06414601 -0.33728477
0003e0 e0 c4 4e 3d 6f f5 e7 3e f8 c8 f8 3e 5d 1b 98 bd
       0.050480723 0.45304438 0.48590827 -0.07427094
0003f0 3e d4 df 3e af ad 24 3e e8 f1 68 bc ea b0 ad 3e
       0.43716615 0.1608188 -0.014217831 0.33924037

layers.4.bias f4 [2]
000000 27 ee 85 3e ec af 80 3e
       0.26158258 0.25134218
