OS/ddqn_models/whole/ddqn_300_1.0.pth (torch_old, 69813 bytes, 6 tensors)

layers.0.weight f4 [128, 2]
0	0x3d895c10	0.06707013
1	0xbec6887a	-0.38775998
2	0x3f8a73a3	1.081654
3	0xbf7e5500	-0.9934845
4	0x3d9b64e8	0.07587606
5	0xbe179960	-0.14804602
6	0x3fa640bd	1.2988507
7	0x3e50aeb4	0.20379144
8	0x3f544dc1	0.82931143
9	0x3fa998d2	1.3249762
10	0xbe2ecdca	-0.1707069
11	0xbe5ade25	-0.21373804
12	0xbe812ed8	-0.2523105
13	0x3da110f8	0.07864565
14	0x3ef9b358	0.4876964
15	0x3f8635da	1.0485184
16	0xbfb7df6e	-1.436506
17	0xbe18c1ba	-0.14917651
18	0xbeda81f0	-0.4267726
19	0xbf6f8a72	-0.93570626
20	0xbf40c8b8	-0.7530627
21	0xbf149435	-0.58038646
22	0xbf09c6b7	-0.5381884
23	0x3f06b3c9	0.5261808
24	0xbf22f100	-0.63648987
25	0x3e65baa8	0.22434485
26	0xbdb34af1	-0.08754528
27	0xbe93437b	-0.2876242
28	0xbf80f6d0	-1.0075321
29	0x3efa40db	0.48877606
30	0xbebf480b	-0.37359652
31	0x3fc657a0	1.5495491
32	0x3f88f326	1.0699203
33	0x3f39be42	0.72555935
34	0xbbac7b80	-0.005263746
35	0xbe0f2300	-0.13978195
36	0x3ee5c65d	0.44877902
37	0xbd3c45bb	-0.045964938
38	0x3ed4681e	0.41485685
39	0x3e644287	0.22291003
40	0xbe1667e8	-0.14688075
41	0xbe8faae8	-0.2806008
42	0x3f78bf81	0.9716721
43	0xbf078714	-0.5294049
44	0xbeb19831	-0.34686425
45	0x3f035841	0.5130654
46	0x3f079086	0.529549
47	0x3e286b8e	0.16447279
48	0xbee8b8b4	-0.45453417
49	0x3fa50bd4	1.2894235
50	0xbf8295fd	-1.0202023
51	0xbc913e80	-0.017729998
52	0xbe38984e	-0.1802685
53	0xbe6470ae	-0.22308609
54	0xbe0e66fd	-0.13906474
55	0x3f167be5	0.587828
56	0xbf9ce761	-1.2258111
57	0x3f08dbab	0.53460187
58	0x3fa9e3fa	1.3272698
59	0xbe51448f	-0.2043631
60	0x3f236c63	0.6383726
61	0xbf6c0494	-0.92194486
62	0xbfad5d21	-1.3544046
63	0xbe32c1a0	-0.17456675
64	0x3f1ef588	0.620934
65	0x3fba8cb8	1.4574194
66	0xbe9475ad	-0.2899603
67	0xbc9604d1	-0.018312844
68	0x3f63cc2a	0.88983405
69	0xbf8f116e	-1.1177194
70	0x3e91143a	0.28335744
71	0xbe33a44f	-0.17543148
72	0x3c1fac80	0.009745717
73	0xbdf635e8	-0.120220006
74	0xbf7abeab	-0.97947186
75	0xbf272af6	-0.6529993
76	0x3f9007e9	1.1252414
77	0x3e199fca	0.15002361
78	0xbe242949	-0.16031374
79	0xbe894751	-0.26812223
80	0xbf0ec4e1	-0.55769163
81	0x3f0afecd	0.54295045
82	0x3f0c0f8d	0.5471123
83	0xbfc6c53a	-1.5528939
84	0xbe12fb10	-0.14353585
85	0x3ecdecd8	0.4021976
86	0xbcc58508	-0.024111286
87	0x3f4b08e9	0.7931047
88	0x3eb3b69f	0.35100266
89	0x3dbd8c38	0.0925526
90	0x3e0f2748	0.13979828
91	0x3e378342	0.17921165
92	0x3f81c97e	1.0139616
93	0x3f752479	0.9575878
94	0x3d7bef53	0.061507534
95	0xbe81d9a7	-0.25361368
96	0xbfb4436f	-1.4083079
97	0x3e25b980	0.16184044
98	0xbdb25cfb	-0.08709141
99	0xbfbcebfd	-1.4759518
100	0x3f8c53d6	1.0963085
101	0xbf4d5a7c	-0.80216193
102	0x3ec853a1	0.39126304
103	0x3e884a2c	0.2661909
104	0x3f2912d4	0.66044354
105	0xbf9fd897	-1.2487973
106	0xbf07aefb	-0.53001374
107	0x3f0c454f	0.54793257
108	0x3f0a01b9	0.5390888
109	0x3eef672c	0.467584
110	0xbd76882c	-0.060188457
111	0x3e351547	0.17683898
112	0xbe727618	-0.23677862
113	0x3e9e7093	0.30945262
114	0xbe54cbce	-0.2078087
115	0xbdaca2c1	-0.0842948
116	0x3eca55e2	0.39518648
117	0x3f35e55f	0.7105312
118	0x3d943d58	0.07238263
119	0xbdc27974	-0.094958216
120	0x3f696a46	0.91177785
121	0xbed0238b	-0.40652117
122	0x3f0ca8c6	0.5494503
123	0xbeb57282	-0.35438925
124	0xbf0fd986	-0.5619129
125	0x3f0082a3	0.50199336
126	0xbe8c2ed0	-0.27379465
127	0x3f6c4984	0.92299676
128	0x3f8af0b5	1.0854708
129	0xbf353a37	-0.70791954
130	0x3f4c6b78	0.79851484
131	0x3f420587	0.75789684
132	0x3f35144e	0.7073411
133	0x3dc6c355	0.097052254
134	0xbefa56c1	-0.48894313
135	0x3e5f89ef	0.21829961
136	0x3f1285cd	0.57235414
137	0x3e0ae9e3	0.13565783
138	0x3f1b073e	0.60557926
139	0x3f049805	0.51794463
140	0xbea99001	-0.3311768
141	0x3e17a6a1	0.14809658
142	0x3f786839	0.9703403
143	0x3ec2b2d1	0.3802705
144	0x3f0b1278	0.54325056
145	0x3e458542	0.19289115
146	0xbf8f3bdf	-1.1190146
147	0xbf38d9bc	-0.72207236
148	0x3fa272f4	1.2691331
149	0x3f8f84d4	1.1212411
150	0x3f75471a	0.9581162
151	0x3ef4c638	0.4780748
152	0x3f92489d	1.142841
153	0xbdef7347	-0.11691909
154	0xbf3ba398	-0.732965
155	0xbf29d364	-0.6633818
156	0x3fb215e7	1.3912934
157	0x3f5cb62e	0.86215484
158	0xbe942707	-0.28936026
159	0x3c95cea9	0.01828702
160	0x3f59e132	0.85109246
161	0x3f89a1bb	1.0752481
162	0x3f3981cd	0.72463685
163	0x3f8bcd76	1.0922077
164	0x3d4330d8	0.047654003
165	0xbe407be8	-0.18797266
166	0x3f9a105a	1.203624
167	0x3f41ba2c	0.756747
168	0xbf7b007e	-0.98047626
169	0x3f11a822	0.56897175
170	0x3fbbe7c9	1.468011
171	0x3f618e8b	0.8810813
172	0xbe80b2cf	-0.2513642
173	0x3cbc3963	0.022976583
174	0x3e5e628e	0.21717283
175	0x3fc2cd5a	1.5218918
176	0x3e8dc4a9	0.27689102
177	0x3e68386d	0.22677775
178	0x3ed38069	0.41308907
179	0x3f3026f9	0.6880947
180	0x3e8561a0	0.26051044
181	0x3e2d0eba	0.16900149
182	0xbfb3b78b	-1.4040388
183	0xbcf92432	-0.030412767
184	0xbf78789d	-0.9705904
185	0xbfb75063	-1.4321407
186	0xbf54ef94	-0.8317807
187	0x3f8df3eb	1.1090063
188	0x3fa57949	1.2927638
189	0x3f16a34f	0.5884294
190	0x3f61da78	0.8822398
191	0xbf09829f	-0.53714937
192	0xbf4e6bbf	-0.8063316
193	0xbec6474e	-0.38726276
194	0xbf014522	-0.50496113
195	0x3e164650	0.1467526
196	0xbe09b44d	-0.13447686
197	0xbe91a1a1	-0.28443626
198	0xbe249631	-0.16072918
199	0xbe8bdb98	-0.27315974
200	0x3f089044	0.5334513
201	0x3f8ddf96	1.1083858
202	0x3ef4e8e5	0.47833934
203	0x3f87e2ba	1.0616066
204	0x3f465116	0.7746748
205	0x3d1ae5a9	0.037816677
206	0x3fcd51f9	1.6040641
207	0x3f626e2e	0.8844937
208	0x3f146cb0	0.57978344
209	0x3f85253b	1.0401987
210	0x3f2f4833	0.6846954
211	0x3f8776cf	1.0583133
212	0xbf8250b3	-1.0180877
213	0xbcc4c2d0	-0.024018675
214	0x3f0071e6	0.50173795
215	0xbc8b5ba4	-0.017011471
216	0xbe853ea8	-0.26024365
217	0xbf9863bd	-1.1905438
218	0xbf889882	-1.0671542
219	0x3f8cfb2d	1.1014153
220	0x3fcc883b	1.5979074
221	0x3ea132fc	0.3148421
222	0xbf4448e1	-0.76673704
223	0x3f4e26fa	0.80528224
224	0x3fc65b57	1.5496625
225	0x3f8f8839	1.1213447
226	0x3ea1070c	0.3145069
227	0x3ec22a3e	0.37922853
228	0x3f50e0e0	0.8159313
229	0xbf6d82d7	-0.9277777
230	0x3fe9506b	1.8227667
231	0x3f8575de	1.0426595
232	0xbf25fc72	-0.64838326
233	0x3f032117	0.51222366
234	0xbe5313d9	-0.2061304
235	0xbe5e427c	-0.2170505
236	0x3f888fd4	1.0668893
237	0xbdd98b5c	-0.10622284
238	0xbc9739e2	-0.018460218
239	0xbf5c9b37	-0.8617434
240	0xbd9fff41	-0.07812358
241	0xbeaba83d	-0.33526793
242	0x3e79a216	0.24378237
243	0x3ef693cd	0.48159638
244	0x3e787457	0.2426313
245	0xbf08cb3b	-0.53435105
246	0x3f8f5e4a	1.120065
247	0x3facdeb6	1.3505466
248	0x3f70271f	0.93809694
249	0xbf5aa8ef	-0.8541402
250	0x3e2b6f2c	0.16741627
251	0xbf04a03b	-0.5180699
252	0xbe24f00b	-0.16107194
253	0x3e23d120	0.15997744
254	0xbee3aeae	-0.44469208
255	0x3f78dc06	0.9721073

layers.0.bias f4 [128]
0	0x3f57da8a	0.8431784
1	0x3e412129	0.18860306
2	0xbef14b58	-0.47127795
3	0xbeb90398	-0.36135554
4	0xbc5fc770	-0.013658389
5	0xbf320557	-0.695394
6	0x3f1b0668	0.6055665
7	0xbf65e309	-0.89799553
8	0xbe2ce494	-0.1688407
9	0xbf1ff5b0	-0.62484264
10	0x3d60fc41	0.054928068
11	0x3f3a5a9d	0.72794515
12	0xbf8805fb	-1.0626825
13	0x3f5b1262	0.85574925
14	0xbead6da7	-0.3387272
15	0x3de5079d	0.11183093
16	0xbcfc76d2	-0.030818377
17	0xbf233a85	-0.6376117
18	0x3f52d222	0.8235189
19	0x3f1398c3	0.5765497
20	0x3f6fe181	0.93703467
21	0x3f01a9cf	0.5064973
22	0xbf92da5f	-1.1472892
23	0x3f507638	0.8143039
24	0x3e5e9265	0.21735533
25	0x3f03379e	0.5125674
26	0xbf393a97	-0.72355026
27	0xbf940409	-1.1563731
28	0xbf09db73	-0.5385048
29	0xbec895ba	-0.39176732
30	0x3e632c72	0.22184923
31	0xbe80f9ea	-0.2519067
32	0x3dc9c152	0.09851326
33	0x3f2a291b	0.6646897
34	0x3e67a2a7	0.2262064
35	0xbf4808e0	-0.7813854
36	0xbf0c590d	-0.5482338
37	0xbecba2c7	-0.39772627
38	0x3efacd82	0.48984915
39	0x3f73db20	0.95256233
40	0x3f3f76fa	0.7479092
41	0x3d5b4db8	0.053540915
42	0x3e95198f	0.29121062
43	0xbfb10b8e	-1.3831651
44	0xbf79fe56	-0.9765371
45	0x3f12331d	0.5710924
46	0xbd179e20	-0.037016034
47	0x3f1311c0	0.5744896
48	0xbd1c61d9	-0.038179252
49	0xbe33c127	-0.1755415
50	0xbf2fe65d	-0.6871088
51	0x3f1b7b6e	0.60735214
52	0x3e1c30ed	0.15253039
53	0x3f2da36d	0.6782749
54	0x3f2009c5	0.6251491
55	0x3f19c370	0.6006384
56	0x3e925f0b	0.28588137
57	0xbf1b9d66	-0.60787046
58	0xbebd31d3	-0.36952075
59	0x3eabf160	0.33582592
60	0x3eef7c59	0.46774557
61	0xbf57d89e	-0.84314907
62	0x3f488401	0.7832642
63	0xbee65dc1	-0.44993404
64	0xbf2b3f8f	-0.6689386
65	0xbd88d825	-0.06681851
66	0x3f632d4d	0.88741
67	0x3f5ee189	0.8706289
68	0xbfa07fa9	-1.2538959
69	0x3f3568be	0.7086295
70	0x3f1cf4b6	0.613109
71	0x3f225c0c	0.634217
72	0x3f55d0af	0.8352155
73	0xbe1d9e48	-0.15392411
74	0x3e52bd1a	0.20579949
75	0x3ee6a02f	0.45044085
76	0xbec9f274	-0.3944279
77	0x3ee077f9	0.43841532
78	0xbd756175	-0.059907395
79	0x3f39f49d	0.72638875
80	0xbf0aebdb	-0.54266137
81	0xbe91ca70	-0.2847476
82	0x3ee6fb3f	0.4511356
83	0x3ec3577e	0.3815269
84	0xbe936dd9	-0.28794745
85	0x3e0dd839	0.13852014
86	0x3f2b95b6	0.67025316
87	0x3e1a9938	0.15097511
88	0x3ed3aad2	0.41341263
89	0xbf32e6da	-0.698835
90	0x3ece4703	0.40288553
91	0xbe372770	-0.17886138
92	0xbe8301eb	-0.255874
93	0x3d940e9e	0.072293505
94	0x3f40dbef	0.7533559
95	0xbeee2abd	-0.46516982
96	0x3e87815f	0.2646589
97	0xbf5a35c2	-0.8523828
98	0x3f701014	0.93774533
99	0x3f7233d4	0.94610333
100	0xbf53c6d6	-0.82725275
101	0xbf4d1858	-0.8011527
102	0xbf58140e	-0.844056
103	0x3dcdde42	0.10052158
104	0xbf138a63	-0.57633036
105	0xbe900857	-0.28131363
106	0x3d12eda2	0.035871156
107	0x3e9b645a	0.3035
108	0xbd58b44c	-0.05290632
109	0x3e27a8c6	0.16372976
110	0xbc27ccf5	-0.010241737
111	0x3d02aadd	0.03190123
112	0xbd2ffca2	-0.04296554
113	0x3f42c8ae	0.7608746
114	0xbec6eb5b	-0.38851437
115	0x3e2d6988	0.16934788
116	0xbe9da109	-0.30786923
117	0x3f714e50	0.9426012
118	0xbf346786	-0.70470464
119	0xbf72c894	-0.9483731
120	0x3f69fd0f	0.9140176
121	0xbfa2763f	-1.2692336
122	0x3ebd5397	0.36977836
123	0x3d6a790a	0.057244338
124	0xbd5b4a2f	-0.053537544
125	0xbf37fcff	-0.71870416
126	0x3f318cd5	0.6935552
127	0x3e5a4fe4	0.21319538

layers.2.weight f4 [128, 128]
0	0xbda1b7cd	-0.07896385
1	0x3df61ef4	0.120176226
2	0xbcf6d694	-0.030131616
3	0xbd99f5cd	-0.07517586
4	0x3f1086ec	0.56455874
5	0x3daaafcb	0.08334311
6	0x3d60bd8b	0.054868262
7	0x3e5b7295	0.21430428
8	0xbf9072e1	-1.1285058
9	0xbf4b4a4c	-0.79410243
10	0xbf5c3ff1	-0.86035067
11	0x3d8d5afc	0.069021195
12	0x3da137fa	0.07872005
13	0xbdf9c3ff	-0.121955864
14	0x3ec2e623	0.38066205
15	0xbdb6017a	-0.088870004
16	0x3ed1fb11	0.4101186
17	0xbda7df34	-0.081968695
18	0x3e075832	0.13217238
19	0x3e7f359e	0.24922797
20	0xbd86eeaa	-0.0658849
21	0xbd44009d	-0.047852147
22	0x3f22cb14	0.6359112
23	0x3e40036a	0.18751302
24	0xbf404d57	-0.7511801
25	0xbe686fd1	-0.22698905
26	0x3c925bf0	0.017866105
27	0xbee9880f	-0.45611617
28	0x3f4a868d	0.7911156
29	0x3e01f5cf	0.12691425
30	0x3d607689	0.054800544
31	0xbf5aa1a4	-0.85402894
32	0x3e93bf70	0.28856993
33	0x3e10c7da	0.14138737
34	0x3e311301	0.17292406
35	0xbe67b625	-0.22628076
36	0xbd9c9f2a	-0.07647546
37	0xbfb6e6ed	-1.4289223
38	0x3e553b26	0.20823345
39	0x3d778498	0.060429186
40	0x3d07bc02	0.033138283
41	0xbfba0bd4	-1.453486
42	0x3c7c2e3c	0.0153918825
43	0x3ea746ff	0.32671353
44	0xbd7185fd	-0.05896567
45	0x3da45090	0.080231786
46	0xbefe759f	-0.49699113
47	0xbe4b78ef	-0.19870351
48	0xbf528d71	-0.8224707
49	0xbf7f38b8	-0.9969592
50	0x3ea24eca	0.31700736
51	0x3dabac0e	0.08382426
52	0xbf7c9696	-0.98667276
53	0x3d82298a	0.06355579
54	0x3e64e85e	0.22354266
55	0x3e3a40f7	0.18188845
56	0xbdcf27ae	-0.1011499
57	0xbde45198	-0.11148375
58	0x3d9d542c	0.0768207
59	0xbeb7c249	-0.35890415
60	0xbcd749b7	-0.026280267
61	0x3e7234f8	0.23653018
62	0x3ddadb98	0.106864154
63	0xbf839531	-1.0279905
64	0xbe850848	-0.2598288
65	0x3e4088b1	0.18802144
66	0x3e6cfd58	0.23143518
67	0xbd1de850	-0.03855163
68	0xbec8cd43	-0.39219102
69	0x3e3c075a	0.1836218
70	0x3d95bcf7	0.07311433
71	0x3e806ab6	0.25081414
72	0x3e3ef0c6	0.18646535
73	0xbfa5a606	-1.2941291
74	0x3f1845fc	0.5948179
75	0x3e882e88	0.26598
76	0x3bf5923b	0.0074942387
77	0xbec89773	-0.39178047
78	0xbf28cce6	-0.6593765
79	0x3e0777f1	0.13229348
80	0x3d6341e7	0.05548277
81	0x3e80df98	0.25170588
82	0xbd68242d	-0.056675125
83	0x3ec92c9f	0.39291856
84	0x3f31b6ed	0.6941975
85	0x3ecfb6e6	0.40569228
86	0x3d18e83e	0.03733086
87	0x3ee29a45	0.44258323
88	0x3dc08022	0.093994394
89	0x3d27ad6b	0.04093687
90	0x3e47357a	0.19453993
91	0xbf95be0f	-1.1698626
92	0xbf83d9ea	-1.0300877
93	0x3f6bc9f0	0.9210501
94	0x3e26fd7c	0.16307634
95	0x3d1969bb	0.037454348
96	0xbeeba468	-0.4602387
97	0x3f1b1971	0.60585696
98	0xbd9d4789	-0.0767966
99	0xbcae098d	-0.021244789
100	0x3db592e6	0.08865909
101	0x3ddc525a	0.10757895
102	0xbc5acfe2	-0.013355227
103	0x3e766ae7	0.24064218
104	0x3dbdb4bf	0.0926299
105	0x3e6503ad	0.22364683
106	0x3e40800b	0.18798845
107	0xbcec309b	-0.02883177
108	0xbf2530aa	-0.6452738
109	0xbdf88e94	-0.121365696
110	0x3f0d682b	0.5523707
111	0x3f294bf8	0.66131544
112	0x3ee8827e	0.45412058
113	0x3e2ff9d3	0.17185144
114	0xbe2203c9	-0.15821756
115	0x3ecd5138	0.40101027
116	0x3f3bd693	0.7337429
117	0x3cb0762a	0.02154072
118	0x3ed2383d	0.4105853
119	0xbf96f0b4	-1.1792207
120	0x3df2176b	0.11820873
121	0x3d6e9dc5	0.05825593
122	0xbd956f78	-0.072966516
123	0x3f3620e5	0.71143943
124	0xbece90a4	-0.40344727
125	0xbf172996	-0.5904783
126	0x3dbb2519	0.09137935
127	0xbf2ef509	-0.68342644
128	0x3d785ab2	0.06063337
129	0x3ee30ba3	0.44344816
130	0x3d116e42	0.03550554
131	0xbdfb7cf0	-0.12279689
132	0x3e9c69c0	0.3054943
133	0x3dab740f	0.08371746
134	0x3c6754b5	0.014119317
135	0x3dc844b1	0.09778727
136	0xbfd64b0e	-1.6741655
137	0xbf7719e3	-0.96523875
138	0xbe93ce54	-0.28868353
139	0xbd5d1076	-0.053970776
140	0x3d985be5	0.074394025
141	0xbd1456a8	-0.036215454
142	0x3ef9e358	0.48806262
143	0xbf4e6c3d	-0.8063391
144	0x3f0435e3	0.51644725
145	0xbc1c9820	-0.009557754
146	0x3ddd95be	0.10819577
147	0x3e4d3e8c	0.20043391
148	0xbdc68801	-0.096939094
149	0x3e47df50	0.1951878
150	0x3da1aed0	0.07894671
151	0x3dc6faad	0.09715781
152	0xbfcf0856	-1.6174419
153	0xbe89d85d	-0.26922885
154	0x3db0c911	0.086321004
155	0xbedee3da	-0.43533212
156	0x3e85f122	0.26160532
157	0xbde25e3c	-0.1105313
158	0x3e8fc5fe	0.28080744
159	0xbf705e56	-0.93893945
160	0x3e4b40ed	0.19848986
161	0xbd3bf23a	-0.045885302
162	0x3e9f920b	0.3116611
163	0xbf20df5b	-0.62840813
164	0xbd4ed9f7	-0.050500836
165	0xbfd60e20	-1.6723061
166	0x3eab7cee	0.3349375
167	0xbdcd30c1	-0.10019065
168	0x3d45cb5f	0.048289653
169	0xbf995e49	-1.1981899
170	0xbda0e0a0	-0.07855344
171	0x3f10f75d	0.56627446
172	0xbe19cbed	-0.15019198
173	0x3daec4bf	0.0853362
174	0xbe661810	-0.22470117
175	0xbd15c6be	-0.03656649
176	0xbfeef2a6	-1.86678
177	0xbfa8a81e	-1.3176305
178	0x3dae1bfe	0.08501433
179	0x3d47ab30	0.04874724
180	0xbf0dc848	-0.5538373
181	0x3b344424	0.0027506435
182	0x3e55aa60	0.20865774
183	0x3d05a0d2	0.032624073
184	0xbe1c7725	-0.15279825
185	0x3e20a194	0.15686637
186	0x3dcd7f89	0.10034091
187	0xbe83b7be	-0.25726122
188	0x3de9ae53	0.11410203
189	0xbe1a66b2	-0.15078238
190	0xbd973200	-0.073825836
191	0xbf4d6fb3	-0.80248564
192	0xbf28b7f3	-0.65905684
193	0x3dea6bfa	0.11446376
194	0x3e1403fb	0.14454643
195	0xbd57a54f	-0.052647885
196	0xbeeb3422	-0.45938212
197	0x3e54b37e	0.20771596
198	0xbd9023cb	-0.07038077
199	0x3dffbd40	0.124872684
200	0x3e101e4d	0.14074059
201	0xc00dff20	-2.2186966
202	0x3e86eac6	0.26350993
203	0x3ea2de98	0.3181045
204	0xbde0ee87	-0.109829955
205	0xbe85f1b7	-0.26160976
206	0xbe6a94d0	-0.2290833
207	0x3df0a2c1	0.11749793
208	0xbdd7d4d9	-0.10538644
209	0xbceb5161	-0.028725328
210	0xbd126de8	-0.035749346
211	0x3e588ea9	0.2114817
212	0x3f49f9af	0.7889661
213	0x3edb51b0	0.4283576
214	0x3dba0852	0.09083618
215	0xbe487fc6	-0.19579992
216	0x3e4d4c9b	0.20048754
217	0xbda43651	-0.080181725
218	0x3e3df3ce	0.18550035
219	0xbfc7e7fc	-1.5617671
220	0xbf69eb6c	-0.9137485
221	0x3e07424a	0.13208881
222	0x3e408a13	0.18802671
223	0xbda5121a	-0.08060093
224	0xbea40b96	-0.3204009
225	0x3eae30eb	0.34021696
226	0xbd989ccf	-0.07451784
227	0xbe1c6f88	-0.15276921
228	0xbd53cf23	-0.051711213
229	0x3d0b484a	0.034004487
230	0xbe6a3a49	-0.22873797
231	0x3eebf939	0.4608858
232	0x3d1143ed	0.03546517
233	0xbe02a6d3	-0.12758951
234	0xbeff1839	-0.49823168
235	0xbccedfc7	-0.02525319
236	0xbf79ede9	-0.9762865
237	0xbf8e2a4a	-1.1106656
238	0x3edcc719	0.4312065
239	0xbdfd3d40	-0.12365198
240	0x3f37ae5d	0.7175043
241	0x3d61fd67	0.055173304
242	0xbf239a27	-0.6390709
243	0x3ebec79b	0.37261662
244	0x3f7707ed	0.9649647
245	0x3dbcb95e	0.092150435
246	0x3e635f7b	0.22204392
247	0xbfc3dd4d	-1.5301911
248	0x3d6e9113	0.058243822
249	0x3d362e80	0.04447794
250	0xbcd1e1ef	-0.025620429
251	0x3e9cb024	0.30603135
252	0xbed576cf	-0.41692206
253	0xbfb028ea	-1.3762486
254	0x3d90b0dd	0.07064984
255	0xbfa9998a	-1.3249981

layers.2.bias f4 [128]
0	0x3e083060	0.13299704
1	0x3cc45c6f	0.023969857
2	0x3eaf61aa	0.342542
3	0xbd45678b	-0.04819445
4	0x3d3e02fe	0.046389572
5	0x3e9fb9b4	0.31196368
6	0x3e79ca05	0.2439347
7	0xbebb61bc	-0.36598003
8	0xbe48355f	-0.1955161
9	0x3dbddbbc	0.09270427
10	0xbe7069ae	-0.23477814
11	0xbde65246	-0.11246161
12	0xbecaa47c	-0.39578617
13	0x3d8ead71	0.06966675
14	0xbdab81c7	-0.083743624
15	0xbe300a27	-0.17191373
16	0xbeb9df27	-0.36303064
17	0x3ec901e4	0.39259255
18	0xbebfd96b	-0.37470564
19	0xbe8b38a0	-0.2719164
20	0xbbda2653	-0.0066574006
21	0xbe1b155a	-0.15144864
22	0xbe023472	-0.12715319
23	0xba0f1000	-0.0005457401
24	0x3eb5804d	0.35449448
25	0x3ea985be	0.3310985
26	0x3ca82d03	0.020529276
27	0x3e4a43e3	0.19752459
28	0xbea7f812	-0.3280645
29	0x3edfbd32	0.43699032
30	0xbe3b4da0	-0.1829133
31	0x3caa5cf1	0.020796271
32	0x3d5185fc	0.051153168
33	0xbcb6a4c2	-0.02229536
34	0xbd21980b	-0.03945164
35	0xbdab0ec5	-0.083524264
36	0x3ebbaf33	0.36657104
37	0xbd7166a8	-0.05893579
38	0xbec9befe	-0.39403528
39	0x3afe820a	0.0019417417
40	0xbc89a998	-0.016804501
41	0xbeff9cc2	-0.49924284
42	0xbf0940ca	-0.53614485
43	0xbd22b146	-0.039719842
44	0xbee09178	-0.43860984
45	0x3ce838a3	0.028347319
46	0xbbdde620	-0.006771818
47	0xbd29ac92	-0.04142434
48	0x3c221c82	0.009894492
49	0xbb3c16c3	-0.002870009
50	0xbd3c3a9e	-0.04595434
51	0x3d31f03e	0.043442003
52	0x3c27a384	0.010231856
53	0xbcc593ca	-0.024118323
54	0xbd5b067b	-0.053472977
55	0x3dcadfa1	0.09905935
56	0xbd8d292f	-0.06892621
57	0xbd6df7d6	-0.058097683
58	0x3cfdc724	0.030978747
59	0x3ec7bedc	0.39012802
60	0xbf05a1c0	-0.52199936
61	0x3e44d6d0	0.1922257
62	0x3e888a64	0.26668084
63	0x3df309e7	0.11867123
64	0x3eb26b36	0.3484742
65	0xbd96b1c4	-0.07358125
66	0xbc4e07eb	-0.01257513
67	0x3e3dfc89	0.18553366
68	0xbe138380	-0.14405632
69	0xbe6084b8	-0.21925628
70	0x3ea75f52	0.3268991
71	0xbdf88230	-0.12134206
72	0xbd827258	-0.063694656
73	0xbc64139c	-0.013920691
74	0xbd43f1d0	-0.047838032
75	0x3dba1e41	0.09087802
76	0x3e653ce0	0.22386503
77	0xbe489c3e	-0.19590852
78	0xbe8e5d79	-0.2780569
79	0x3d0ad758	0.033896774
80	0xbd2a1a63	-0.04152907
81	0x3bf27124	0.0073987413
82	0x3e7e8459	0.24855174
83	0x3e7abade	0.24485347
84	0xba72e2b7	-0.00092653505
85	0xbe91b9f8	-0.28462195
86	0x3d22a625	0.03970923
87	0x3e9b0e2b	0.30284247
88	0x3eea92aa	0.4581502
89	0x3eba1691	0.36345342
90	0x3cb4b558	0.022059128
91	0x3e8b8ae1	0.27254394
92	0x3ed8aebd	0.42320815
93	0x3e25cb6b	0.16190879
94	0x3ec7a749	0.38994816
95	0xbdbb112d	-0.091341354
96	0xbd28eedb	-0.041243415
97	0xbd478200	-0.048707962
98	0xbd94a2ac	-0.0725759
99	0x3e2dbb91	0.16966082
100	0xbea01675	-0.31267133
101	0x3e12f7ca	0.14352337
102	0xbef49531	-0.47770074
103	0xbc6da738	-0.0145052
104	0xbd80f67f	-0.062970154
105	0xbe9c1504	-0.30484784
106	0x3e870358	0.2636974
107	0x3df241d9	0.11828966
108	0xbeb7685f	-0.35821816
109	0x3d8e191e	0.069383845
110	0xbd3518ed	-0.044213224
111	0x3e9f1585	0.31071106
112	0xbca05b30	-0.019574732
113	0xbc499d61	-0.012305588
114	0xbce7e1a4	-0.028305836
115	0x3d2031aa	0.039109863
116	0xbd9d0123	-0.076662324
117	0x3e8cc870	0.27496672
118	0xbd99006f	-0.07470786
119	0x3dafcad2	0.08583607
120	0xbcfba265	-0.030717084
121	0x3e999983	0.29999933
122	0x3e8d984b	0.27655253
123	0xbca49fa9	-0.020095663
124	0x3e936a74	0.28792155
125	0x3e029263	0.12751155
126	0xbc91db58	-0.017804787
127	0xbb1c133b	-0.0023815173

layers.4.weight f4 [2, 128]
0	0x3f463957	0.77431244
1	0x3f1a5cd6	0.60297906
2	0x3ecb0d62	0.39658648
3	0xbd5cc314	-0.05389698
4	0xbc91a114	-0.017777003
5	0x3e9b01cc	0.30274808
6	0x3ecf1c50	0.40451288
7	0xbe68d3cb	-0.22737043
8	0xbf3420c8	-0.7036252
9	0x3f0c03f8	0.54693556
10	0xbeb66b44	-0.35628712
11	0xbbf4bbd3	-0.0074686795
12	0xbf473afc	-0.7782438
13	0x3eb09744	0.34490407
14	0xba244d00	-0.00062675774
15	0xbf55a1d3	-0.8345005
16	0xbeb6387d	-0.35589972
17	0x3eba7bac	0.3642248
18	0xbdfd2991	-0.12361444
19	0xbf4053ed	-0.7512806
20	0xbd64d4e4	-0.05586709
21	0xbc3df7fe	-0.0115947705
22	0xbca4e87d	-0.02013039
23	0xbc65c4d0	-0.014023975
24	0x3ebc2a7f	0.36751172
25	0x3ee47321	0.44619086
26	0xbd7a5473	-0.061115693
27	0x3ee71cad	0.45139065
28	0x3df91512	0.12162222
29	0x3ea31794	0.31853926
30	0xbe4a808a	-0.19775596
31	0xbd12402d	-0.035705734
32	0xbd33a30b	-0.04385666
33	0x3da2d6ae	0.07951103
34	0xbd56cbac	-0.05244033
35	0xbef0c510	-0.47025347
36	0x3dec8f27	0.11550742
37	0x3cf085a8	0.029360607
38	0xbdc71f1b	-0.0972273
39	0x3f9708e1	1.1799585
40	0x3b8f6605	0.0043761753
41	0xbe956d39	-0.29184893
42	0xbf8ece6b	-1.1156744
43	0xbd019833	-0.03163929
44	0xbe793e3a	-0.24340144
45	0x3cadad15	0.021200696
46	0xbdb4a363	-0.08820226
47	0x3ee376e7	0.44426653
48	0xbe1de9e2	-0.1542125
49	0x3d76fe16	0.06030091
50	0xbe44d40e	-0.19221517
51	0x3b626e64	0.0034550661
52	0xbd0421b9	-0.032258723
53	0x3e54f7db	0.20797674
54	0xbec62f6b	-0.38708052
55	0x3f0f1f73	0.5590736
56	0xbd3eb1b2	-0.046556182
57	0x3f1e33f1	0.61798006
58	0xbda0ad9c	-0.07845613
59	0x3ece287e	0.40265268
60	0xbeab4462	-0.3345061
61	0x3eccf160	0.40027905
62	0x3d8313ae	0.06400238
63	0x3c0818d2	0.008306699
64	0x3dcd6ab2	0.10030116
65	0x3e1f74b2	0.1557186
66	0xbac3f562	-0.0014950449
67	0x3ef4f4c0	0.4784298
68	0xbf39250d	-0.7232216
69	0xbf3fdf44	-0.7495005
70	0x3ec95212	0.39320427
71	0x3d54c881	0.051949028
72	0x3bafefb0	0.005369149
73	0x3d04af76	0.032393895
74	0xbdaca552	-0.0842997
75	0x3fa4ca8d	1.2874314
76	0x3eb87dd9	0.36033514
77	0x3efbcfae	0.49181885
78	0xbf2aa0e8	-0.66651773
79	0xbdec332b	-0.11533197
80	0x3d81d55d	0.06339524
81	0xbf509034	-0.81470037
82	0x3e04e70c	0.12978762
83	0x3ec1787c	0.37787235
84	0x3dbb1e28	0.09136611
85	0xbea22150	-0.3166604
86	0xbd1d0d5f	-0.03834283
87	0x3dd009d4	0.101581246
88	0x3e938273	0.28810462
89	0x3ea59908	0.32343316
90	0x3d3a9cb7	0.04555961
91	0x3ecb058c	0.3965267
92	0x3ebe0f1d	0.37120906
93	0x3e898eaf	0.2686667
94	0x3ed02886	0.40655917
95	0xbd51277d	-0.05106305
96	0x3bcb0427	0.0061955634
97	0xbd154658	-0.03644404
98	0xbc903c4d	-0.017606879
99	0x3ebd7a64	0.3700744
100	0xbe908687	-0.28227636
101	0x3eee8ec2	0.4659329
102	0xbf43f50b	-0.7654578
103	0xbed4ecda	-0.41586953
104	0x3dc64615	0.09681336
105	0xbebbd598	-0.36686397
106	0x3ebb5bd5	0.365935
107	0x3f005ae4	0.5013869
108	0x3d750f21	0.05982888
109	0xbf47c09e	-0.78028286
110	0xbd888afc	-0.06667134
111	0x3ed31527	0.41227075
112	0xbd8c6ae0	-0.06856322
113	0xbb5ae11b	-0.0033398333
114	0x3d11664e	0.035497956
115	0x3c9b3f9f	0.018951235
116	0x3cdcad04	0.026937969
117	0x3ef3056b	0.4746507
118	0xbd8dbd10	-0.069208264
119	0x3f9566fc	1.1672053
120	0xbd646eda	-0.05576978
121	0x3ecb9e8c	0.397694
122	0x3ec68e28	0.38780332
123	0x3d4bb7be	0.049735777
124	0x3ed5a610	0.41728258
125	0x3f8bf06f	1.093275
126	0x3da9cdef	0.08291232
127	0x3e6bf76f	0.23043607
128	0x3e548edb	0.2075762
129	0x3da58f5d	0.08083985
130	0x3eac85f6	0.33695954
131	0xbd4a153a	-0.04933665
132	0x3cc69494	0.02424077
133	0x3efb279e	0.49053663
134	0x3e5ccfe0	0.21563673
135	0xbf3a5ff9	-0.7280269
136	0x3dd59364	0.10428503
137	0x3e6963e6	0.22792014
138	0x3e39c05c	0.18139786
139	0x3bb538fe	0.0055304756
140	0xbf0d42f4	-0.5518029
141	0xbf4e0e3f	-0.8049049
142	0x3d5b0f1e	0.053481214
143	0x3d814847	0.06312614
144	0xbf0b4ceb	-0.5441424
145	0x3eb41be8	0.3517754
146	0x3e767630	0.24068522
147	0x3ee34dc0	0.44395256
148	0xbd525001	-0.05134583
149	0xbeed87e6	-0.46392745
150	0xbd5454b3	-0.051838588
151	0xbd8dab24	-0.06917408
152	0x3ea71bfc	0.32638538
153	0x3e9c780d	0.3056034
154	0x3d7e1dcf	0.062040146
155	0x3e5f1614	0.21785766
156	0xbf23b185	-0.6394275
157	0x3f00f2b8	0.5037036
158	0x3f04c902	0.51869214
159	0x3f2dab23	0.6783926
160	0x3a78c0c6	0.00094891747
161	0x3c246c78	0.010035627
162	0xbd28160e	-0.041036658
163	0x3f13aa61	0.5768185
164	0x3ecca259	0.3996761
165	0xbd31e8b1	-0.043434802
166	0x3e7dc730	0.24783015
167	0x3e791da2	0.2432771
168	0xbd419602	-0.0472622
169	0xbf156a89	-0.58365685
170	0x3f21a950	0.63148975
171	0xbd53dd5b	-0.051724773
172	0xbf228773	-0.6348793
173	0x3b7392d9	0.0037166385
174	0xbd9d7e0c	-0.07690057
175	0x3e605aba	0.2190961
176	0x3dd2a0e0	0.10284591
177	0x3ca8bc10	0.020597488
178	0x3e421938	0.18954933
179	0xbd0b7bec	-0.034053728
180	0x3e9a6ecf	0.30162665
181	0x3ddfc8d5	0.109269775
182	0x3ee28dbb	0.44248757
183	0xbe7dd00b	-0.24786393
184	0x3c4fe82d	0.012689632
185	0xbe155ec9	-0.14586939
186	0x3d9352a7	0.07193499
187	0x3ec714db	0.388831
188	0xbf2291cd	-0.63503724
189	0x3e625bbb	0.22105305
190	0x3e831ab3	0.25606307
191	0x3ec3ef50	0.38268518
192	0x3eb61e3a	0.35569936
193	0xbf66c0fd	-0.90138227
194	0xbd7e48f5	-0.062081296
195	0x3e7b682e	0.2455146
196	0x3dbcf6a7	0.09226733
197	0xbf007652	-0.5018054
198	0x3ef55177	0.47913715
199	0xbda4c1ee	-0.08044802
200	0xbda23e37	-0.07922023
201	0xbc82d4f3	-0.015970683
202	0x3c7f46f0	0.015580878
203	0x3edd9a87	0.43281958
204	0x3e68c96c	0.22733086
205	0xbf0a40fe	-0.5400542
206	0xbe98945b	-0.29800686
207	0x3e5146dc	0.20437187
208	0x3c0bc5c5	0.008531039
209	0xbe554f4c	-0.2083103
210	0x3eb6efdb	0.3572987
211	0x3e9eb08a	0.30994064
212	0xbdce8e1b	-0.10085698
213	0xbf60cffc	-0.8781736
214	0x3d6aea6b	0.057352465
215	0x3e8d410d	0.27588692
216	0x3f01616c	0.5053928
217	0x3ecac063	0.39599904
218	0x3d6b1801	0.05739594
219	0x3ebdf46c	0.37100542
220	0x3ec89d8e	0.39182705
221	0x3e98d7ef	0.29852244
222	0x3eda0422	0.42581278
223	0xbc239782	-0.009984853
224	0x3be30c5a	0.0069289627
225	0xbd82869e	-0.063733324
226	0xbd0120f1	-0.031525556
227	0x3e8c303a	0.27380544
228	0xbe8a87e2	-0.27056795
229	0x3e6ac60d	0.22927113
230	0x3e405753	0.18783312
231	0x3f1b0714	0.60557675
232	0x3f07afd7	0.53002685
233	0xbeed1cf2	-0.46311146
234	0x3e8e25c6	0.27763194
235	0xbf9bd8dc	-1.2175555
236	0xbf39d573	-0.7259132
237	0xbeaa784f	-0.33294913
238	0x3d5ec1b8	0.054383963
239	0x3e879ade	0.26485342
240	0xbd2b7c20	-0.04186642
241	0x3baad8b1	0.00521382
242	0x3dac0d53	0.08400979
243	0x3c732f35	0.014842798
244	0x3d96d47b	0.07364746
245	0x3e8577c9	0.2606795
246	0x3d835efc	0.06414601
247	0x3d0fb2c2	0.035082586
248	0x3d4ec4e0	0.050480723
249	0x3ec119da	0.37715036
250	0x3ec921c9	0.3928359
251	0xbd981b5d	-0.07427094
252	0x3e9cca30	0.30623007
253	0x3e3c0875	0.18362601
254	0xbc68f1e8	-0.014217831
255	0x3ecabc7f	0.39596936

layers.4.bias f4 [2]
0	0x3e28ae53	0.1647275
1	0x3eb2f0c2	0.3494931
