OS/ddqn_models/whole/ddqn_800_1.0.pth (torch_old, 69813 bytes, 6 tensors)

layers.0.weight f4 [128, 2]
0	0x3bef388e	0.007300443
1	0xbf2d2a95	-0.676431
2	0x3f985285	1.1900183
3	0xbfa7f8ce	-1.3122804
4	0x3d9b64e8	0.07587606
5	0xbe179960	-0.14804602
6	0x3f3e8155	0.74416095
7	0x3ee46320	0.44606876
8	0x3f33d15b	0.70241326
9	0x3ff2f511	1.8981038
10	0xbe0e469b	-0.13894121
11	0xbe3a56f6	-0.18197235
12	0xbe5c0ee3	-0.21490054
13	0x3e249251	0.1607144
14	0x3e650af3	0.22367458
15	0x3f8265fb	1.0187372
16	0xbfddbfce	-1.7324159
17	0xbe5587be	-0.20852563
18	0xbf019fc1	-0.5063439
19	0xbf349a87	-0.7054829
20	0xbec1085d	-0.37701693
21	0xbf6c41bb	-0.92287797
22	0xbf024842	-0.50891507
23	0x3ee3a85f	0.44464394
24	0xbf4d1067	-0.80103153
25	0xbe2955bd	-0.16536613
26	0x3c3db134	0.011577893
27	0xbe9ccbf5	-0.30624357
28	0xbf10e794	-0.5660336
29	0xbea4e2b9	-0.32204226
30	0xbfd261d9	-1.6436111
31	0x3fac1942	1.3445208
32	0x3fde86de	1.7384908
33	0x3f985d1f	1.1903418
34	0xbbac7b80	-0.005263746
35	0xbe0f2300	-0.13978195
36	0x3ea7273c	0.3264712
37	0xbdcc52da	-0.0997674
38	0x3e4d8e46	0.20073804
39	0x3cbcbc24	0.023038931
40	0xbdc7978e	-0.09745704
41	0xbe91ff6a	-0.28515178
42	0x3f5d88ae	0.8653668
43	0xbfb94266	-1.4473388
44	0xbeab3bda	-0.334441
45	0x3ee0041b	0.43753132
46	0x3ea1a181	0.3156853
47	0x3b9770da	0.0046216073
48	0xbff74ab4	-1.9319673
49	0x3f2a1710	0.6644144
50	0xbf76023b	-0.96097153
51	0xbe723b36	-0.236554
52	0xbe181125	-0.1485029
53	0xbe43e984	-0.19132048
54	0xbddd25ac	-0.10798201
55	0x3f495ba2	0.78655446
56	0xc01a8899	-2.4145873
57	0x3ed00362	0.4062758
58	0x3fcb1ed0	1.5868778
59	0xbdbdd02e	-0.09268223
60	0x3e898890	0.26862
61	0xbf5a4bae	-0.8527173
62	0xbfa12cf7	-1.2591847
63	0xbf1c87a5	-0.6114448
64	0x3e28722a	0.164498
65	0x3fe0eab3	1.7571625
66	0xbe4a4c0d	-0.19755574
67	0x3d007a8f	0.03136688
68	0x3f674db2	0.9035293
69	0xbfbd0f05	-1.4770209
70	0x3e870e0f	0.26377913
71	0xbe1233d9	-0.14277591
72	0x3c1fac80	0.009745717
73	0xbdf635e8	-0.120220006
74	0xbf696f9d	-0.91185933
75	0xbf36f10b	-0.7146155
76	0x3fbac861	1.4592401
77	0x3e1cfcd6	0.15330824
78	0xbdf04fa4	-0.1173394
79	0xbe7b8502	-0.24562457
80	0xbf0c252e	-0.5474423
81	0x3f1dc26c	0.6162479
82	0x3ecd66c1	0.40117458
83	0xc01a9587	-2.4153764
84	0xbea93363	-0.33047017
85	0x3efa93da	0.48940927
86	0x3d177515	0.036976893
87	0x3f34146a	0.7034365
88	0x3eb3b69f	0.35100266
89	0x3dbd8c38	0.0925526
90	0x3e0691c3	0.13141541
91	0x3e079a17	0.13242374
92	0x3f55a69b	0.83457345
93	0x3fa096ea	1.2546055
94	0xbc8d5349	-0.017251628
95	0xbefe1712	-0.49626976
96	0xbff39bb6	-1.9031894
97	0xbeba0b03	-0.36336526
98	0x3cb044dc	0.02151721
99	0xbfac4904	-1.3459783
100	0x3f8997ea	1.0749485
101	0xbf61b082	-0.88159955
102	0x3e4deb18	0.20109212
103	0x3bd3efeb	0.0064678094
104	0x3f8d3371	1.1031324
105	0xbfe216e6	-1.7663238
106	0xbee95dc3	-0.45579347
107	0x3f697b07	0.9120335
108	0x3f07a5ba	0.52987254
109	0x3f17a0ca	0.5922972
110	0x3c647adb	0.013945307
111	0x3e80646c	0.25076616
112	0xbe3dbac3	-0.18528275
113	0x3ec327a5	0.38116184
114	0xbe54cbce	-0.2078087
115	0xbdaca2c1	-0.0842948
116	0x3d9e6cdb	0.07735606
117	0x3ee92350	0.45534754
118	0x3eff47e0	0.49859524
119	0xbf15b870	-0.58484554
120	0x3f9c1821	1.2194864
121	0xbd9676c5	-0.07346872
122	0x3f598bb8	0.8497882
123	0x3e70244a	0.23451343
124	0xbf04c48d	-0.5186241
125	0x3f16a095	0.5883878
126	0xbec19537	-0.37809154
127	0x3f697222	0.9118978
128	0x3ede3261	0.4339781
129	0xbe71a63b	-0.23598568
130	0x3f080993	0.5313961
131	0x3f92ff2a	1.148412
132	0x3eca3597	0.3949401
133	0xbc842fc2	-0.016136054
134	0xbed0c9cc	-0.4077896
135	0x3e562d74	0.20915776
136	0x3ef80115	0.48438326
137	0x3e4c30f1	0.19940545
138	0x3f198bb5	0.599788
139	0x3f2ce7fa	0.6754147
140	0xbe6e551d	-0.23274656
141	0x3e2f5914	0.17123824
142	0x3f6ce784	0.92540765
143	0x3f0bf94f	0.5467729
144	0x3ea49504	0.3214494
145	0x3baf57e1	0.005351052
146	0xbf593297	-0.8484282
147	0xbf1250a9	-0.5715433
148	0x3f9c5950	1.2214756
149	0x3f9dc8d2	1.232691
150	0x3f879db1	1.0594999
151	0x3f1c5c7d	0.61078626
152	0x3f89ae3a	1.0756295
153	0x3e92dfd4	0.28686392
154	0xbf6100c5	-0.878918
155	0xbf7236f0	-0.9461508
156	0x3fa14ae1	1.2600976
157	0x3f9ba3b9	1.2159339
158	0xbe651282	-0.22370341
159	0x3db23a22	0.08702494
160	0x3f3b95eb	0.7327563
161	0x3fc0b371	1.5054761
162	0x3f25fbb9	0.64837223
163	0x3f97b1b8	1.185111
164	0xbdf8dd0b	-0.121515356
165	0xbf003204	-0.5007632
166	0x3f9c2dca	1.2201474
167	0x3f62a690	0.88535404
168	0xbf6eaf41	-0.93236166
169	0x3d5ed162	0.0543989
170	0x3fb9a70c	1.4504104
171	0x3fb32d27	1.3998154
172	0xbe322ad0	-0.17399144
173	0x3d41edf5	0.047346074
174	0xbf7ad10e	-0.9797524
175	0x3fac1835	1.3444887
176	0x3de41d75	0.11138431
177	0x3c836e62	0.016043846
178	0x3e5772e7	0.21039926
179	0x3ebe3928	0.37152982
180	0x3dd0d277	0.10196393
181	0x3ca9522a	0.020669062
182	0xbfc4b301	-1.5367128
183	0xbef44835	-0.4771134
184	0xbf39177f	-0.7230148
185	0xbf804541	-1.0021135
186	0xbf59494e	-0.8487748
187	0x3fffbfe0	1.9980431
188	0x3fa82069	1.3134891
189	0x3f2d9a1f	0.67813295
190	0x3f5b3c59	0.8563896
191	0x3e8925a4	0.2678653
192	0xbf577954	-0.8416951
193	0xbf1a4d1d	-0.60273916
194	0xbeecf8d6	-0.46283597
195	0xbe24caf1	-0.16093041
196	0xbd84af1b	-0.06478711
197	0xbe982e0b	-0.29722628
198	0xbddb45c2	-0.107066646
199	0xbe8deb83	-0.27718744
200	0x3f07a2fe	0.5298308
201	0x3faca1a5	1.348683
202	0x3ea6fd94	0.3261534
203	0x3fb5bf62	1.419903
204	0x3f01319b	0.50466317
205	0x3e32b730	0.17452693
206	0x3fdf2cc9	1.7435542
207	0x3fcb6aff	1.5892028
208	0x3f2437c9	0.6414762
209	0x3f9fccd6	1.2484386
210	0x3ed40899	0.4141281
211	0x3fb26d19	1.3939544
212	0xbfac72d9	-1.3472549
213	0xbf5ce15d	-0.8628138
214	0x3f940281	1.1563264
215	0xbebfd796	-0.37469167
216	0x3e691e7a	0.22765532
217	0xbfb0ca5d	-1.3811756
218	0xc01bee6d	-2.4364274
219	0xbe313ce6	-0.17308387
220	0x3fd1405b	1.6347765
221	0x3f3e58ad	0.7435406
222	0xbfe7497b	-1.80693
223	0x3e97fb62	0.29683977
224	0x400362e0	2.0529099
225	0x3f3cb0d7	0.73707336
226	0x3e2090ea	0.1568028
227	0x3e57e763	0.21084361
228	0x3f83740e	1.0269792
229	0xbf1482a9	-0.5801187
230	0x4007d31a	2.1222596
231	0x3fac974a	1.348367
232	0xbe82a0a4	-0.25513184
233	0xbcec8938	-0.028874025
234	0xbe137631	-0.14400555
235	0xbe41b1f0	-0.18915534
236	0x3f8d900e	1.1059587
237	0x3e4045b7	0.18776594
238	0x3ea2fca7	0.31833383
239	0xbf392958	-0.7232871
240	0xbc97ae1d	-0.01851564
241	0xbea5217f	-0.32252118
242	0x3e58df64	0.21178967
243	0x3ee63274	0.44960368
244	0x3eca9504	0.39566815
245	0xbf8d75e6	-1.1051605
246	0x3eb8c152	0.36084992
247	0x4022fd8f	2.546726
248	0x3fdbb759	1.7165328
249	0xbf1bb046	-0.60815847
250	0x3ed1a0e9	0.40943077
251	0xbdaf1edf	-0.0855081
252	0xbdaaeee8	-0.08346349
253	0x3e44456a	0.19167104
254	0xbfa37bfe	-1.2772214
255	0x3f8ce190	1.1006336

layers.0.bias f4 [128]
0	0x3f4d001f	0.8007831
1	0x3e607304	0.21918875
2	0xbef14b58	-0.47127795
3	0xbf8f367b	-1.1188501
4	0x3cee4de4	0.029089876
5	0xbf3a2718	-0.727159
6	0x3f0e8e94	0.55686307
7	0xbfb9efc8	-1.45263
8	0xbf1f57c4	-0.62243295
9	0xbf859e41	-1.043892
10	0xbf007656	-0.50180566
11	0x3f3805ea	0.71884024
12	0xbf9c652e	-1.2218378
13	0x3f53b944	0.8270457
14	0xbf823947	-1.017373
15	0x3d2c7657	0.042105045
16	0x3df831e2	0.121188894
17	0xbf233a85	-0.6376117
18	0x3f463e64	0.7743895
19	0x3ef812b0	0.48451757
20	0x3f6b7167	0.91969913
21	0x3e12ef92	0.14349201
22	0xbfaa6b92	-1.3314078
23	0x3f3e80e6	0.74415433
24	0x3db1b843	0.08677723
25	0x3ee72af6	0.45149964
26	0xbf415c57	-0.75531524
27	0xbf94f40f	-1.1636981
28	0xbef9c606	-0.48783892
29	0xbf0521ed	-0.5200489
30	0xbe041ffa	-0.12902823
31	0xbf8d9605	-1.1061407
32	0x3e895bdd	0.268279
33	0x3f2705da	0.65243304
34	0x3e403e15	0.18773682
35	0xbf4f8fa4	-0.81078553
36	0xbf0c590d	-0.5482338
37	0xbf51e56a	-0.81990683
38	0x3e48b683	0.19600873
39	0x3f70bd6f	0.9403905
40	0x3f37e755	0.7183736
41	0xbebdecfd	-0.3709487
42	0x3dc79113	0.097444676
43	0xbfcb52ca	-1.588464
44	0xbf79fe56	-0.9765371
45	0x3f030d0f	0.511918
46	0xbe5b3db8	-0.21410263
47	0x3efd3eb1	0.49461892
48	0x3c0fd500	0.0087788105
49	0xbf4adf9c	-0.7924745
50	0xbf5b8066	-0.85742795
51	0x3f07d89e	0.53064907
52	0x3e8b8036	0.27246255
53	0x3f10411c	0.5634935
54	0x3f00b447	0.5027508
55	0x3f09e3f5	0.5386346
56	0x3e80bfb6	0.25146264
57	0xbf1b9d66	-0.60787046
58	0xbf81f2e0	-1.0152245
59	0x3d8e7ac3	0.06957009
60	0xbef97b75	-0.48727003
61	0xbf861f0c	-1.0478225
62	0x3f3c7e6f	0.7363042
63	0xbf334f3c	-0.7004278
64	0xbfa6defa	-1.3036797
65	0x3db2ab7b	0.087241136
66	0x3f526286	0.82181585
67	0x3f5d6f5e	0.8649806
68	0xbfb8be1e	-1.4433019
69	0x3f15eb06	0.5856174
70	0x3f1914eb	0.59797543
71	0x3f11a578	0.5689311
72	0x3f43081d	0.76184255
73	0xbf5b81b0	-0.8574476
74	0x3e48d26f	0.19611524
75	0x3ea177af	0.31536624
76	0xbf548749	-0.8301893
77	0x3e9b7880	0.30365372
78	0xbe84d798	-0.25945735
79	0x3f316198	0.6928954
80	0xbf13337a	-0.5750042
81	0xbf589f16	-0.84617746
82	0x3ec3ba37	0.38228008
83	0x3e8f4604	0.27983105
84	0xbf0d2088	-0.55127764
85	0x3e4844a4	0.19557434
86	0x3f203355	0.62578326
87	0x3e3e00b8	0.18554962
88	0x3e8b96a8	0.2726338
89	0xbfa446fa	-1.283416
90	0x3e86c925	0.26325336
91	0xbf30753a	-0.68928874
92	0xbf95daa4	-1.1707349
93	0xbd566eef	-0.05235189
94	0x3f25e5c4	0.6480372
95	0xbf70ceb1	-0.94065386
96	0x3e0b084f	0.13577388
97	0xbf9c04dc	-1.2188983
98	0x3f6967c2	0.91173947
99	0x3f6ec664	0.9327147
100	0xbf85ea8a	-1.0462201
101	0xbf76702b	-0.96264905
102	0xbfb0f567	-1.3824891
103	0x3e05c18f	0.13062118
104	0xbf4c9a79	-0.79923207
105	0xbf026de1	-0.5094891
106	0xbd2fa0f2	-0.0428781
107	0x3df03bf2	0.11730184
108	0xbefef17e	-0.4979362
109	0xbca1a689	-0.01973273
110	0xbf1944bb	-0.598705
111	0x3dc9e134	0.09857407
112	0x3cfa6be0	0.030569017
113	0x3f32ce67	0.69846195
114	0xbe8607d0	-0.26177835
115	0x3e763ac9	0.24045862
116	0xbf13a08d	-0.57666856
117	0x3f6993be	0.9124106
118	0xbf98ee04	-1.1947637
119	0xbf967bff	-1.1756591
120	0x3f60ae2a	0.87765753
121	0xbfa68e92	-1.3012259
122	0x3e33c3e7	0.175552
123	0x3cbadb08	0.02280952
124	0xbf2e552d	-0.6809872
125	0xbf8696ec	-1.0514808
126	0x3f220920	0.63295174
127	0x3d9f7522	0.07786013

layers.2.weight f4 [128, 128]
0	0xbd669281	-0.05629206
1	0xbe3d5e11	-0.18492915
2	0xbcf6d694	-0.030131616
3	0xbd9c451e	-0.076303706
4	0x3e9407fe	0.28912348
5	0x3daaafcb	0.08334311
6	0x3dd2cfa1	0.10293508
7	0x3f418702	0.7559663
8	0xbfefa5ac	-1.8722434
9	0xbf4b4a4c	-0.79410243
10	0xbf6ff13f	-0.9372749
11	0x3e24127e	0.16022679
12	0xbd9d9726	-0.07694845
13	0xbdb5f19a	-0.088839725
14	0x3e9b2016	0.30297917
15	0xbdb68c1c	-0.089134425
16	0xbe6bb4c2	-0.23018172
17	0xbda7df34	-0.081968695
18	0x3e128897	0.14309917
19	0x3e787c52	0.24266174
20	0xbcbf8b8d	-0.023381973
21	0xbe9fef32	-0.3123718
22	0x3f6ddcc3	0.9291498
23	0x3e4cd782	0.20004085
24	0xbf003f9d	-0.50097066
25	0xbe39219e	-0.1807923
26	0x3c925bf0	0.017866105
27	0xbe0ec4ac	-0.13942212
28	0xbdb424c7	-0.08796077
29	0x3e7380e2	0.23779634
30	0x3ec5b9f2	0.38618428
31	0xbf659362	-0.89678013
32	0x3ea0aecc	0.3138336
33	0x3e437d48	0.1909076
34	0xbddf7ef9	-0.1091289
35	0xbe67b625	-0.22628076
36	0xbd9c9f2a	-0.07647546
37	0xc00758f7	-2.114805
38	0xbc769b88	-0.01505173
39	0x3dd79f6e	0.10528456
40	0x3e09517b	0.13409989
41	0xc00610f9	-2.094786
42	0x3db56f61	0.088591345
43	0xbe4ed423	-0.20198111
44	0xbd7185fd	-0.05896567
45	0x3dc0cffc	0.0941467
46	0xbefa29a7	-0.48859903
47	0xbe4d81ee	-0.20069095
48	0xbef76d0e	-0.4832539
49	0xbf26261f	-0.6490192
50	0x3f883601	1.0641481
51	0x3da99174	0.08279696
52	0xbf8d843e	-1.1055982
53	0x3e31e301	0.17371751
54	0x3e668ba4	0.22514206
55	0x3e5e6376	0.21717629
56	0xbd403cdb	-0.046933036
57	0xbde45198	-0.11148375
58	0x3d955264	0.072911054
59	0xbf44a507	-0.7681431
60	0xbeb678c2	-0.35639006
61	0x3e98f1b4	0.29871905
62	0x3e506218	0.2034992
63	0xbfb579de	-1.4177816
64	0x3ebaad48	0.36460328
65	0x3e28439b	0.1643204
66	0x3e778fd1	0.24175955
67	0x3d10a234	0.03531094
68	0xbf75720e	-0.9587716
69	0x3e431e52	0.19054535
70	0x3e05f880	0.13083076
71	0x3e5b1f53	0.21398668
72	0x3e4da46f	0.20082258
73	0xc04cf6ec	-3.202571
74	0x3eca8998	0.395581
75	0x3e35958b	0.17732827
76	0x3dd06613	0.10175719
77	0xbec63fac	-0.38720453
78	0xbf4801e4	-0.78127885
79	0x3e3eea61	0.18644096
80	0xbc2e32b5	-0.010632207
81	0x3e49f535	0.19722445
82	0xbd85146a	-0.06498034
83	0x3e8f66de	0.2800817
84	0x3fb1b7c9	1.3884212
85	0x3e893e51	0.26805356
86	0x3dae8c8c	0.08522901
87	0x3f2ecd95	0.68282443
88	0x3d5323c1	0.05154777
89	0xbe815b7f	-0.25265118
90	0x3e18f283	0.14936261
91	0xbfbe0356	-1.4844768
92	0xbfa46bc8	-1.2845392
93	0x3fa869c0	1.3157272
94	0x3e0555fd	0.13021083
95	0xbe9bfbe8	-0.30465627
96	0xbeec240c	-0.46121252
97	0x3f1b2613	0.6060497
98	0xbd117d62	-0.035519965
99	0x3cba7229	0.022759514
100	0x3e6391b5	0.22223552
101	0x3e63db09	0.22251524
102	0xbf2afe5e	-0.66794384
103	0xbc89651d	-0.016771847
104	0x3d5dfa00	0.054193497
105	0x3e6335b9	0.22188462
106	0x3dd2b07b	0.10287567
107	0xbea132cf	-0.31484076
108	0xbe447cba	-0.19188204
109	0x3d5bf205	0.053697605
110	0x3ddf2e1c	0.108974665
111	0x3f5f120c	0.8713691
112	0x3d9180b2	0.07104625
113	0x3e4d0611	0.20021845
114	0xbef5b061	-0.4798613
115	0xbe0db145	-0.13837154
116	0x3ef32515	0.4748923
117	0x3d8e7a39	0.06956906
118	0x3f87ad14	1.0599694
119	0xbf91c7a1	-1.1389047
120	0x3e1e17eb	0.15438811
121	0x3cd74334	0.026277162
122	0xbe3629aa	-0.17789331
123	0x3eff1dd3	0.49827442
124	0xbf970896	-1.1799495
125	0x3d294688	0.04132703
126	0x3e0d6d2d	0.13811179
127	0xbf1223a6	-0.57085645
128	0x3de769e8	0.11299497
129	0x3f2cdcc4	0.6752436
130	0x3d116e42	0.03550554
131	0xbefb8274	-0.49122965
132	0x3dc8021b	0.097660266
133	0x3dab740f	0.08371746
134	0x3d5f86cd	0.054571915
135	0x3f127f24	0.5722525
136	0xbfca2916	-1.5793788
137	0xbf2b8ad6	-0.6700872
138	0xbf97f3c8	-1.1871271
139	0x3d3486dd	0.04407393
140	0x3d985be5	0.074394025
141	0xbae2b981	-0.0017297716
142	0x3ed9d32e	0.4254393
143	0xbfcfbd5e	-1.6229665
144	0x3dae376f	0.08506667
145	0xbc1c9820	-0.009557754
146	0x3de966c2	0.113965526
147	0x3e3b9890	0.18319917
148	0xbd46f8b7	-0.048577037
149	0x3eb274e8	0.34854817
150	0x3da1aed0	0.07894671
151	0x3dc8de3c	0.09808013
152	0xbfd6627f	-1.6748809
153	0xbec88ce2	-0.39169985
154	0x3db0c911	0.086321004
155	0xbf3d20f9	-0.7387844
156	0x3ff8ba05	1.9431769
157	0xbf38823b	-0.72073716
158	0x3d8c5f19	0.06854076
159	0xbf705e56	-0.93893945
160	0x3ebbf9cb	0.36714014
161	0x3ba2888b	0.004960125
162	0x3f04abe4	0.51824784
163	0xbf20efff	-0.62866205
164	0xbd4ed9f7	-0.050500836
165	0xbfdbf3fd	-1.7183834
166	0x3ecfe1f9	0.4060209
167	0xbd49cd0f	-0.049267825
168	0x3e25139d	0.16120763
169	0xbf883513	-1.0641197
170	0x3dc88254	0.09790483
171	0x3c876487	0.016527427
172	0xbe19cbed	-0.15019198
173	0x3d995d27	0.074884705
174	0xbf1f888a	-0.6231772
175	0xbc293efd	-0.010329959
176	0xc061f918	-3.5308285
177	0xbfa2ccf0	-1.2718792
178	0xbf419ac6	-0.7562679
179	0x3d20c676	0.039251767
180	0xbde96c66	-0.113976285
181	0x3dfbf7a4	0.12303093
182	0x3e3b89b9	0.18314256
183	0x3d2464e4	0.04013528
184	0xbe40f4dd	-0.18843408
185	0x3e20a194	0.15686637
186	0x3d6c1529	0.057637367
187	0xbe7c7960	-0.24655676
188	0xbed45188	-0.41468453
189	0xbfa6bcec	-1.3026404
190	0x3d15e13a	0.036591746
191	0xbfc60ac3	-1.5472034
192	0xbe10472b	-0.14089648
193	0x3d5054f2	0.05086226
194	0x3e16b816	0.1471866
195	0x3c2cd393	0.01054849
196	0xbf83163d	-1.0241162
197	0x3e3f1223	0.18659262
198	0xbcce7949	-0.025204318
199	0x3ded9365	0.11600379
200	0x3e121647	0.1426631
201	0xbfd0b000	-1.6303711
202	0x3f0b1a95	0.54337436
203	0x3eab3436	0.3343827
204	0xbef1dc32	-0.47238308
205	0xbed0d911	-0.4079061
206	0xbf38a487	-0.7212605
207	0x3e303da4	0.17211014
208	0xbf013cda	-0.5048348
209	0xbf18ca2d	-0.59683496
210	0x3b90b19b	0.0044157035
211	0x3e9cc664	0.3062011
212	0x3f3aed19	0.7301803
213	0x3f23e038	0.64014006
214	0x3e0dacc8	0.13835442
215	0x3d724720	0.05914986
216	0x3e1e67d2	0.15469292
217	0xbe3fdf9c	-0.18737644
218	0x3e0ca999	0.13736571
219	0xbfc7e7fc	-1.5617671
220	0xbf1a9744	-0.60387063
221	0x3ee00b1e	0.43758482
222	0x3e497108	0.19672024
223	0xbf5fa01b	-0.87353677
224	0xbf0e97f9	-0.5570064
225	0x3eae30eb	0.34021696
226	0xbcdc122d	-0.026864136
227	0xbdd193a2	-0.10233237
228	0xbec970f8	-0.39344
229	0xbe8e3014	-0.27771056
230	0xbf5d43da	-0.8643166
231	0x3f1dfa24	0.6170981
232	0xbea7b2d9	-0.32753637
233	0xbee2580d	-0.44207802
234	0xc006eaf3	-2.1080902
235	0x3e8e9351	0.27846768
236	0xbe8dfe7b	-0.27733216
237	0xc005a664	-2.0882807
238	0xbede3d62	-0.43406206
239	0xbf7a158c	-0.9768913
240	0xbdd81bc4	-0.10552171
241	0x3d5b90d5	0.05360492
242	0xbfb56470	-1.4171276
243	0x3e9e29c0	0.30891228
244	0x3f6965e7	0.91171116
245	0x3e15f3be	0.14643762
246	0x3ecb39f0	0.3969264
247	0xbffdaee7	-1.9819001
248	0x3dd0df1d	0.101988055
249	0x3c4cc940	0.012499154
250	0x3e2e7422	0.17036489
251	0xbe6f2279	-0.23352994
252	0xbfc152e7	-1.5103425
253	0xbfb5a7d7	-1.4191846
254	0x3dcb9c6a	0.09941943
255	0xbfd875fe	-1.6911008

layers.2.bias f4 [128]
0	0x3e57deb6	0.21081051
1	0x3daf68ba	0.08564897
2	0x3ee18bdc	0.44052017
3	0xbda975a9	-0.08274395
4	0x3d3e02fe	0.046389572
5	0x3ec95f0b	0.39330325
6	0x3eaae28c	0.33375967
7	0xbf0aa9cc	-0.5416534
8	0xbe68bc97	-0.22728191
9	0x3e36144f	0.17781185
10	0xbecd724e	-0.4012627
11	0xbde65246	-0.11246161
12	0xbefa0db5	-0.48838583
13	0x3ea64b57	0.32479355
14	0xbe1352e6	-0.14387092
15	0xbe6f5331	-0.23371579
16	0xbf0862ed	-0.5327595
17	0x3ef76594	0.48319685
18	0xbf1528e4	-0.5826552
19	0xbedf805e	-0.43652624
20	0xbbda2653	-0.0066574006
21	0xbf0d3f76	-0.5517496
22	0xbe023472	-0.12715319
23	0xbd15d0b1	-0.036575977
24	0x3ee53640	0.44767952
25	0x3ecafda5	0.3964664
26	0x3ca82d03	0.020529276
27	0x3e857fa8	0.26073956
28	0xbf13f4a2	-0.57795155
29	0x3f06cca2	0.52655995
30	0xbe9c8f15	-0.30577913
31	0x3d5b1345	0.053485174
32	0x3d5185fc	0.051153168
33	0xbd5d16e5	-0.053976912
34	0xbdda4a34	-0.106586844
35	0xbe48d4c1	-0.19612409
36	0x3eb1a900	0.3469925
37	0xbd7166a8	-0.05893579
38	0xbefec225	-0.49757496
39	0x3b6892e2	0.003548794
40	0xbc89a998	-0.016804501
41	0xbf281fd0	-0.6567354
42	0xbf053ca0	-0.5204563
43	0xbd22b146	-0.039719842
44	0xbf19dcba	-0.60102427
45	0xbb5b726b	-0.0033484946
46	0xbd2382cc	-0.03991966
47	0xbdc3d779	-0.095625825
48	0xbebffda0	-0.37498188
49	0xbb3c16c3	-0.002870009
50	0x3e0d1c8e	0.13780424
51	0x3d31f03e	0.043442003
52	0x3dffa073	0.12481775
53	0xbd64bb14	-0.055842474
54	0xbe885422	-0.26626688
55	0x3e6c37d7	0.23068176
56	0xbd8d292f	-0.06892621
57	0x3da9cb6a	0.08290751
58	0x3cfdc724	0.030978747
59	0x3efc30b6	0.49255913
60	0xbf2c7635	-0.6736787
61	0x3e8e34e8	0.2777474
62	0x3e96ec70	0.29477262
63	0x3c7fb348	0.015606709
64	0x3e94ec10	0.2908635
65	0xbdd7bea9	-0.105344124
66	0xbc4e07eb	-0.01257513
67	0x3e88dd25	0.2673122
68	0xbe991d7d	-0.2990531
69	0xbf1a9bde	-0.60394084
70	0x3ed92118	0.4240806
71	0xbdf88230	-0.12134206
72	0xbd827258	-0.063694656
73	0xbc64139c	-0.013920691
74	0xbd43f1d0	-0.047838032
75	0x3e087c3a	0.13328639
76	0x3e9941da	0.29933053
77	0xbf1a5191	-0.6028071
78	0xbe8aa5ad	-0.27079526
79	0x3d0ad758	0.033896774
80	0xbd2a1a63	-0.04152907
81	0xbcc79d37	-0.024366958
82	0x3e7aaf10	0.24480844
83	0x3ea37bec	0.31930482
84	0xba72e2b7	-0.00092653505
85	0xbf200bec	-0.6251819
86	0x3d22a625	0.03970923
87	0x3e92e143	0.28687486
88	0x3f0adb19	0.54240566
89	0x3ee135f6	0.4398648
90	0xbc1f087a	-0.009706611
91	0x3ebdf740	0.371027
92	0x3f04b47b	0.5183789
93	0x3e51d7e8	0.20492518
94	0x3efc7c27	0.4931347
95	0xbde56c60	-0.112023115
96	0xbd28eedb	-0.041243415
97	0xbd478200	-0.048707962
98	0xbd94a2ac	-0.0725759
99	0x3e83838c	0.256863
100	0xbef7be2e	-0.48387283
101	0x3e543915	0.207249
102	0xbef49531	-0.47770074
103	0xbc7c7b33	-0.015410232
104	0xbec1ed94	-0.3787657
105	0xbef4056a	-0.4766038
106	0x3eb45329	0.35219696
107	0x3e4f7a46	0.20261487
108	0xbecd60d4	-0.40112936
109	0xbe61069c	-0.21975178
110	0xbd3518ed	-0.044213224
111	0x3ecef122	0.40418345
112	0xbca05b30	-0.019574732
113	0xbd5ca91c	-0.053872213
114	0xbce7e1a4	-0.028305836
115	0x3d2031aa	0.039109863
116	0xbd9d0123	-0.076662324
117	0x3eb5668d	0.35429803
118	0xbd99006f	-0.07470786
119	0xbe4587e2	-0.19290116
120	0xbcfba265	-0.030717084
121	0x3ecd2357	0.40066025
122	0x3ec0f017	0.37683174
123	0xbd546c03	-0.05186082
124	0x3ebccff3	0.36877403
125	0x3e78d1ff	0.24298857
126	0xbc91db58	-0.017804787
127	0x3dcacb68	0.09902078

layers.4.weight f4 [2, 128]
0	0x3f16178c	0.5862968
1	0x400bb65b	2.183005
2	0x3ed65394	0.4186064
3	0xbdaf628f	-0.085637204
4	0xbc91a114	-0.017777003
5	0x3eb023ac	0.34402215
6	0x3ec5f799	0.38665465
7	0xbf0ee2ad	-0.5581463
8	0xbf2bff00	-0.67185974
9	0x3f0624b6	0.52399766
10	0xbeb989ec	-0.3623804
11	0xbbf4bbd3	-0.0074686795
12	0xbf338305	-0.70121795
13	0xbe16345f	-0.14668415
14	0xba137f6f	-0.0005626594
15	0xbf4d8320	-0.80278206
16	0xbf3cce49	-0.73752266
17	0x3ec65047	0.38733122
18	0xbe7d7871	-0.24752976
19	0x3f5e9c04	0.8695681
20	0xbd64d4e4	-0.05586709
21	0x3f361836	0.7113069
22	0xbca4e87d	-0.02013039
23	0xbb2c9f01	-0.002633989
24	0x3ec76e54	0.3895136
25	0x3eddde6b	0.43333754
26	0xbd7a5473	-0.061115693
27	0x3eca6cd0	0.39536142
28	0x3e0b3c21	0.13597156
29	0x3eb928e7	0.3616402
30	0x3f7f8f80	0.9982834
31	0xbdeaee04	-0.11471179
32	0xbd33a30b	-0.04385666
33	0x3da2d6ae	0.07951103
34	0xbcefedc7	-0.029288186
35	0xbf80971e	-1.0046117
36	0x3db99062	0.09060742
37	0x3cf085a8	0.029360607
38	0x3b13fd60	0.0022581443
39	0x3f96e756	1.1789348
40	0x3b8f6605	0.0043761753
41	0xbf321928	-0.69569635
42	0xbf0ac986	-0.5421375
43	0xbd019833	-0.03163929
44	0xbf185573	-0.59505385
45	0x3cadad15	0.021200696
46	0xbe198f0d	-0.14995976
47	0x3ec0f291	0.37685063
48	0xbea5f884	-0.32416165
49	0x3d76fe16	0.06030091
50	0xbe8b4f71	-0.27209046
51	0x3b626e64	0.0034550661
52	0x3ecd9712	0.4015432
53	0x3e54f7db	0.20797674
54	0xbedd094a	-0.4317115
55	0x3eee7bcd	0.46578828
56	0xbd3eb1b2	-0.046556182
57	0x3fedaf69	1.8569156
58	0xbda0ad9c	-0.07845613
59	0x3ee139a8	0.439893
60	0xbf2bd01d	-0.6711443
61	0x3ec19371	0.378078
62	0xbeabfeb9	-0.33592775
63	0xbeedee40	-0.46470833
64	0x3cf75e15	0.030196229
65	0x3e1f74b2	0.1557186
66	0xbac3f562	-0.0014950449
67	0x3ee193ca	0.44058067
68	0xbf6a93b3	-0.9163162
69	0xbf0db73d	-0.55357724
70	0x3edef2e0	0.43544674
71	0x3d54c881	0.051949028
72	0x3bafefb0	0.005369149
73	0x3d04af76	0.032393895
74	0xbdaca552	-0.0842997
75	0x3f5ffaa4	0.8749182
76	0x3eacc00b	0.33740267
77	0x3f3103d8	0.6914649
78	0xbf2daf5c	-0.678457
79	0xbdec332b	-0.11533197
80	0x3d81d55d	0.06339524
81	0xbf486e86	-0.78293645
82	0x3d8d3154	0.06894174
83	0x3ebfce3d	0.37462035
84	0x3dbb1e28	0.09136611
85	0xbe5f42f0	-0.21802878
86	0xbd1d0d5f	-0.03834283
87	0x3c8aa370	0.016923636
88	0x3eacb05d	0.33728305
89	0x3eaf92da	0.34291726
90	0x3c6200d1	0.01379414
91	0x3edac846	0.42730922
92	0x3ed082a3	0.40724668
93	0x3e5a5314	0.21320754
94	0x3ee4bc09	0.4467471
95	0xbd51277d	-0.05106305
96	0x3bcb0427	0.0061955634
97	0xbd154658	-0.03644404
98	0xbc903c4d	-0.017606879
99	0x3ebbd97c	0.36689365
100	0xbf343db6	-0.70406663
101	0x3edefdcc	0.43553007
102	0xbf43f50b	-0.7654578
103	0xbe910fec	-0.2833246
104	0x3f41ae1c	0.75656295
105	0xbf3d8cbc	-0.7404287
106	0x3ebad827	0.36493036
107	0x3e503870	0.20334029
108	0x3cd00c1c	0.0253964
109	0xbf6b08ba	-0.9181019
110	0xbd888afc	-0.06667134
111	0x3ed0145b	0.4064053
112	0xbd8c6ae0	-0.06856322
113	0x3ca5d2f1	0.020242186
114	0x3d11664e	0.035497956
115	0x3c9b3f9f	0.018951235
116	0x3cdcad04	0.026937969
117	0x3ef3ffe2	0.4765616
118	0xbd8dbd10	-0.069208264
119	0x3f80114e	1.0005281
120	0xbd646eda	-0.05576978
121	0x3ede00bb	0.43359932
122	0x3ed9b763	0.42522725
123	0x3c9338f3	0.017971491
124	0x3ecbb86a	0.39789134
125	0x3faebc0d	1.3651139
126	0x3da9cdef	0.08291232
127	0x3e8666a0	0.26250172
128	0x3dd79261	0.105259664
129	0x3eacf745	0.33782402
130	0x3ed9def0	0.425529
131	0xba2ddf47	-0.0006632697
132	0x3cc69494	0.02424077
133	0x3f13863b	0.57626694
134	0x3e8f3730	0.27971792
135	0xbf3a5ff9	-0.7280269
136	0x3dd59364	0.10428503
137	0x3ed2b35c	0.41152465
138	0x3e39c05c	0.18139786
139	0x3bb538fe	0.0055304756
140	0xbf0d42f4	-0.5518029
141	0xbf7b7d87	-0.98238415
142	0x3cb1ea79	0.02171825
143	0x3d00cdf9	0.03144643
144	0xbf0b4ceb	-0.5441424
145	0x3edd2533	0.43192443
146	0x3f10efdd	0.56616
147	0x3e994915	0.2993857
148	0xbd525001	-0.05134583
149	0xbf17b942	-0.59267056
150	0xbd5454b3	-0.051838588
151	0xbc2c9a02	-0.010534765
152	0x3ee32b43	0.44368944
153	0x3e36ee98	0.17864454
154	0x3d7e1dcf	0.062040146
155	0x3ecca217	0.39967415
156	0xbf74887f	-0.95520777
157	0x3f1a4d87	0.6027455
158	0x3deb201e	0.11480735
159	0x3f50acb3	0.8151352
160	0x3a78c0c6	0.00094891747
161	0xbcb00539	-0.021486865
162	0xbe01043d	-0.12599273
163	0x3f4d6d51	0.8024493
164	0x3ed4a51f	0.41532227
165	0xbd31e8b1	-0.043434802
166	0x3e7dc730	0.24783015
167	0xbf2c77e9	-0.6737047
168	0xbd419602	-0.0472622
169	0xbf156a89	-0.58365685
170	0x3f471e48	0.7778058
171	0xbd53dd5b	-0.051724773
172	0xbf228773	-0.6348793
173	0xbcde6452	-0.027147446
174	0xbd11366b	-0.035452288
175	0x3e5c0148	0.21484864
176	0x3f1e59ff	0.61856073
177	0x3ca8bc10	0.020597488
178	0x3ee0c4c1	0.4390011
179	0xbd0b7bec	-0.034053728
180	0x3ef9beb7	0.48778316
181	0x3da01519	0.07816524
182	0x3f2b347f	0.6687698
183	0xbf9989db	-1.1995195
184	0x3c4fe82d	0.012689632
185	0x3e848924	0.2588588
186	0x3d9352a7	0.07193499
187	0x3f024263	0.5088255
188	0xbf2291cd	-0.63503724
189	0x3e83660e	0.256638
190	0xbfbf3028	-1.4936571
191	0x3f64a799	0.89318234
192	0x3ebf64dc	0.37381637
193	0xbf5ea2a0	-0.86966896
194	0xbd7e48f5	-0.062081296
195	0x3ec3c211	0.38233998
196	0xbf136418	-0.57574606
197	0xbf3cd8dd	-0.7376841
198	0x3f18a3f0	0.5962515
199	0xbda4c1ee	-0.08044802
200	0xbda23e37	-0.07922023
201	0xbc82d4f3	-0.015970683
202	0x3c7f46f0	0.015580878
203	0xbd86e2af	-0.06586205
204	0x3e868c4b	0.2627891
205	0xbf038cc3	-0.5138666
206	0x3f4159f5	0.7552789
207	0x3e5146dc	0.20437187
208	0x3c0bc5c5	0.008531039
209	0xbe554f4c	-0.2083103
210	0x3eefe0f5	0.46851316
211	0x3e92bf02	0.28661352
212	0xbdce8e1b	-0.10085698
213	0xbf9b95ea	-1.2155125
214	0x3d6aea6b	0.057352465
215	0x3f16cc7a	0.58905756
216	0x3f1c95fd	0.61166364
217	0x3ea05664	0.3131591
218	0x3d6b1801	0.05739594
219	0x3ee78f57	0.45226547
220	0x3f0111c1	0.50417715
221	0x3eb3c0ca	0.35108024
222	0x3f0c362c	0.5477016
223	0x3c983d18	0.01858382
224	0x3be30c5a	0.0069289627
225	0xbd82869e	-0.063733324
226	0xbd0120f1	-0.031525556
227	0x3eab8236	0.3349778
228	0xbe8a87e2	-0.27056795
229	0x3e88bce6	0.26706618
230	0x3e405753	0.18783312
231	0x3f821ff3	1.0166
232	0x3eff3e03	0.49852
233	0xbeed1cf2	-0.46311146
234	0x3eae057b	0.33988556
235	0x3f9603a9	1.1719867
236	0xbf39d573	-0.7259132
237	0xbdb1b881	-0.086777695
238	0x3d5ec1b8	0.054383963
239	0x3ea29086	0.31750888
240	0xbd2b7c20	-0.04186642
241	0xbbbe1d73	-0.0058018505
242	0x3dac0d53	0.08400979
243	0x3c732f35	0.014842798
244	0x3d96d47b	0.07364746
245	0x3e71b1b5	0.23602946
246	0x3d835efc	0.06414601
247	0xbf1835a2	-0.5945684
248	0x3d4ec4e0	0.050480723
249	0x3ef1a871	0.47198823
250	0x3f025eb0	0.5092573
251	0xbd981b5d	-0.07427094
252	0x3f026dca	0.50948775
253	0x3e3f8327	0.18702374
254	0xbc68f1e8	-0.014217831
255	0x3e828fc5	0.25500312

layers.4.bias f4 [2]
0	0x3e9522ee	0.29128212
1	0x3eb93151	0.36170438
