OS/ddqn_models/whole/ddqn_1200_1.0.pth (torch_old, 69813 bytes, 6 tensors)

layers.0.weight f4 [128, 2]
0	0x3e2bc14a	0.16772953
1	0xbf497514	-0.7869427
2	0x3fc09dab	1.5048116
3	0xbfb606bb	-1.4220804
4	0x3d9b64e8	0.07587606
5	0xbe179960	-0.14804602
6	0x3f64bcb4	0.8935044
7	0x3e5eb104	0.21747214
8	0x3f24a5a6	0.6431526
9	0x3fb89a47	1.4422082
10	0xbe0e469b	-0.13894121
11	0xbe3a56f6	-0.18197235
12	0xbe5b8cdb	-0.21440451
13	0x3e531c69	0.20616306
14	0x3eeb1754	0.45916235
15	0x3f838fab	1.0278219
16	0xbf3e9923	-0.7445242
17	0xbe92e77b	-0.2869223
18	0xbf2e07e2	-0.6798078
19	0xbf673622	-0.90316975
20	0xbf283175	-0.65700465
21	0xbf5aaf7b	-0.8542401
22	0xbec60775	-0.38677564
23	0x3e98b2da	0.29823953
24	0xbf37e1e4	-0.71829057
25	0xbe37752a	-0.17915788
26	0xbbe549f7	-0.0069973427
27	0xbe9fa919	-0.311837
28	0xbf0d484a	-0.5518843
29	0xbe901267	-0.2813904
30	0xc0121e92	-2.2831159
31	0x3fc6a0b3	1.5517792
32	0x3ffe7daa	1.98821
33	0x3fbc5116	1.4712245
34	0xbbac7b80	-0.005263746
35	0xbe0f2300	-0.13978195
36	0x3e79cb58	0.24393976
37	0xbe329eba	-0.17443362
38	0x3de5d439	0.11222119
39	0x38fb900c	0.000119954435
40	0xbdba1a4c	-0.09087047
41	0xbe85ab0b	-0.26107058
42	0x3fa021a8	1.2510271
43	0xbf94ed16	-1.1634853
44	0xbe9af843	-0.30267534
45	0x3ecfc084	0.40576565
46	0x3e7b67e6	0.24551353
47	0x3caec93f	0.021336196
48	0xc027fa79	-2.6246626
49	0xbdfc2be3	-0.12313058
50	0xbf8ce2b0	-1.100668
51	0xbe9f816b	-0.31153426
52	0xbe181125	-0.1485029
53	0xbe43e984	-0.19132048
54	0x3e446e30	0.19182658
55	0x3f87d880	1.0612946
56	0xc01c5889	-2.4429038
57	0xbee2a0c7	-0.44263288
58	0x3fad2cea	1.3529332
59	0x3e8aa67b	0.2708014
60	0x3ec2d044	0.3804952
61	0xbf88c3e1	-1.0684777
62	0xbf418c5d	-0.756048
63	0xbf0a4e81	-0.5402604
64	0x3e21a414	0.15785247
65	0x3ffaa559	1.958171
66	0xbe4d23e1	-0.20033218
67	0x3d1bdc65	0.03805198
68	0x3faaa02d	1.3330132
69	0xbf9c39e6	-1.2205169
70	0x3e870e0f	0.26377913
71	0xbe1233d9	-0.14277591
72	0x3c1fac80	0.009745717
73	0xbdf635e8	-0.120220006
74	0xbf01cae9	-0.5070024
75	0xbf1a93d0	-0.60381794
76	0x4001301c	2.0185614
77	0x3f172f64	0.5905669
78	0xbdf8dc9f	-0.12151455
79	0xbe6f4ac9	-0.23368372
80	0xbf2f047f	-0.68366235
81	0x3f0474fe	0.51741016
82	0x3e084caa	0.13310495
83	0xbfecf8cc	-1.8513427
84	0xbf785ee8	-0.97019815
85	0x3fb1721f	1.3862952
86	0x3d177515	0.036976893
87	0x3f34146a	0.7034365
88	0x3eb3b69f	0.35100266
89	0x3dbd8c38	0.0925526
90	0x3d9d5bdb	0.07683536
91	0x3e0c7d23	0.13719611
92	0x3f154b86	0.58318365
93	0x3f929d48	1.1454248
94	0x3df50029	0.11962921
95	0xbefb4d75	-0.49082533
96	0xc01c5a86	-2.443025
97	0xbf159fac	-0.58446765
98	0x3ed46ca1	0.41489127
99	0xbfb1b307	-1.388276
100	0x3fa61c3c	1.2977366
101	0xbeff8709	-0.4990771
102	0x3e177935	0.1479233
103	0x3c8f1e3d	0.017470473
104	0x3fc91324	1.5708966
105	0xbfdb94ac	-1.7154746
106	0xbf13ff77	-0.57811683
107	0x3f8b8ce6	1.0902374
108	0x3f185cce	0.5951661
109	0x3f249177	0.6428446
110	0xbda27ccd	-0.0793396
111	0x3e7b43a3	0.2453752
112	0xbf153236	-0.5827974
113	0x3f39e8a1	0.7262059
114	0xbe54cbce	-0.2078087
115	0xbdaca2c1	-0.0842948
116	0x3d9e6cdb	0.07735606
117	0x3ee92350	0.45534754
118	0x3faed51a	1.3658783
119	0xbd41fa8d	-0.047358084
120	0x3f9d07a7	1.226796
121	0x3eac817e	0.33692545
122	0x3f1bd3d2	0.6087009
123	0x3edc54b4	0.43033373
124	0xbeff67c5	-0.49883857
125	0x3f043472	0.51642525
126	0xbf0d065e	-0.5508784
127	0x3f42d269	0.7610231
128	0x3ede3261	0.4339781
129	0xbe71a63b	-0.23598568
130	0x3f2f7a09	0.68545586
131	0x3fa61924	1.2976422
132	0x3e854ca8	0.26035047
133	0xbd96f7ce	-0.07371484
134	0xbed92ef8	-0.42418647
135	0x3e8c4a63	0.27400503
136	0x3ef80115	0.48438326
137	0x3e4c30f1	0.19940545
138	0x3f2cee5e	0.6755122
139	0x3f3f8994	0.748193
140	0xbe8dd7f0	-0.2770381
141	0x3e3d64a6	0.18495426
142	0x3f7a6462	0.9780942
143	0x3f0e107f	0.5549392
144	0x3e857031	0.26062158
145	0x3c6e71a4	0.014553461
146	0xbf0c01c8	-0.5469022
147	0xbefa6ae4	-0.48909676
148	0x3f8e93f2	1.1138899
149	0x3ffe6fbe	1.9877851
150	0x3fa1b906	1.263459
151	0x3f45a137	0.7719912
152	0x3f554da4	0.83321595
153	0x3ea67c4f	0.32516715
154	0xbf66aaca	-0.90104353
155	0xbf82d233	-1.0220398
156	0x3f5309d3	0.82436866
157	0x3f964ab5	1.1741549
158	0xbe5f0e90	-0.21782899
159	0x3dc6388b	0.096787535
160	0x3ed66959	0.4187725
161	0x3f9d14a3	1.2271923
162	0x3ee92a15	0.4553992
163	0x3fa039c1	1.2517625
164	0x3dbdf375	0.09274951
165	0xbebcee7b	-0.36900696
166	0x3fc2d2ba	1.5220559
167	0x3f76bdb1	0.96383196
168	0xbf82ddba	-1.0223916
169	0xbdee1563	-0.11625173
170	0x3fdd9166	1.7309997
171	0x3fe8bb9c	1.8182254
172	0xbe351b0f	-0.17686103
173	0x3d3080b9	0.04309151
174	0xbfb8606a	-1.4404423
175	0x3f605815	0.876344
176	0x3e8b5d80	0.27219772
177	0x3e2aa5e3	0.16664843
178	0x3e5772e7	0.21039926
179	0x3ebe3928	0.37152982
180	0x3e8f1371	0.2794452
181	0x3e2cc92e	0.16873619
182	0xbf06cd4f	-0.52657026
183	0xbf2e58bb	-0.6810414
184	0xbf5d0ee3	-0.8635084
185	0xbfa96e4a	-1.3236783
186	0xbf1d6836	-0.6148714
187	0x3fe0b02c	1.7553763
188	0x3fb53bd1	1.415888
189	0x3f4e1e0a	0.80514586
190	0x3f666c53	0.9000904
191	0x3e490918	0.19632375
192	0xbf98666c	-1.1906257
193	0xbeaf5c18	-0.3424995
194	0xbeecf8d6	-0.46283597
195	0xbe24caf1	-0.16093041
196	0xbd6982d9	-0.05700955
197	0xbe834855	-0.25641122
198	0xbddf7cf4	-0.10912505
199	0xbe841c01	-0.25802615
200	0x3ed64862	0.418521
201	0x3f8a8177	1.082076
202	0x3d9abefa	0.07555957
203	0x3f4d7841	0.8026162
204	0x3f01319b	0.50466317
205	0x3e32b730	0.17452693
206	0x40061933	2.095288
207	0x3ff21bc1	1.891472
208	0x3f71cc72	0.94452584
209	0x3f9aa26d	1.2080818
210	0x3e8e7654	0.27824652
211	0x3fb63dfa	1.4237664
212	0xbfebbce3	-1.8417019
213	0xbf8a1032	-1.0786192
214	0x3fae9771	1.3639966
215	0x3f007759	0.5018211
216	0x3f0f97c8	0.56090975
217	0xbfb26e6b	-1.3939947
218	0xc0419cd7	-3.0251977
219	0xbeecb6b9	-0.46233156
220	0x3f7330f1	0.94996554
221	0x3fb958b0	1.448019
222	0xc00dfedd	-2.2186806
223	0xbe9c5db2	-0.30540234
224	0x401c7503	2.4446418
225	0x3f2efeaf	0.68357366
226	0x3e837d7b	0.25681672
227	0x3ebe02e0	0.37111568
228	0x3f84b8a6	1.036885
229	0x3e8192a9	0.25307205
230	0x4004d90c	2.0757475
231	0x3fafc5c1	1.3732225
232	0xbe82a0a4	-0.25513184
233	0xbcec8938	-0.028874025
234	0xbe0278d1	-0.127414
235	0xbe22277a	-0.15835372
236	0x3f9dc59d	1.2325932
237	0x3e54e9d8	0.2079233
238	0x3e872737	0.26397106
239	0xbf1af91a	-0.6053635
240	0xbce6ff46	-0.028197896
241	0xbe987f65	-0.29784694
242	0x3e58df64	0.21178967
243	0x3ee63274	0.44960368
244	0x3eb762fd	0.3581771
245	0xbf820bf6	-1.01599
246	0x3e8650e4	0.2623359
247	0x401387c7	2.3051622
248	0x3fd28a6a	1.6448491
249	0xbf3d5eee	-0.73972976
250	0x3ed1a0e9	0.40943077
251	0xbdaf1edf	-0.0855081
252	0xbdb99b30	-0.09062803
253	0x3e3e98b3	0.18612938
254	0xbfebf933	-1.8435425
255	0x3f925775	1.143294

layers.0.bias f4 [128]
0	0x3f406fd2	0.75170624
1	0x3e60eeb2	0.21966055
2	0xbef14b58	-0.47127795
3	0xbfbb13f1	-1.4615461
4	0x3e655624	0.22396141
5	0xbf3a2718	-0.727159
6	0x3ef160b0	0.4714408
7	0xbfc62c1b	-1.548221
8	0xbfe1512f	-1.76029
9	0xbf98c034	-1.1933656
10	0xbf916e22	-1.1361735
11	0x3f2b41f9	0.6689754
12	0xbfc3044f	-1.523569
13	0x3f46c20f	0.7763986
14	0xbfb1de28	-1.3895922
15	0x3c7a0e6c	0.0152622275
16	0xbe414d3e	-0.18877122
17	0xbf233a85	-0.6376117
18	0x3f381a8e	0.7191552
19	0x3ecc43f8	0.39895606
20	0x3f60cda0	0.8781376
21	0x3e66165e	0.2246947
22	0xbfae7c71	-1.3631727
23	0x3f2f0ae0	0.6837597
24	0xbd5c6b41	-0.053813223
25	0x3eb6e089	0.35718182
26	0xbf415c57	-0.75531524
27	0xbf8d79dc	-1.1052814
28	0xbf240560	-0.640707
29	0xbf7a7fd0	-0.97851276
30	0xbed7bb56	-0.42135113
31	0xc00074fa	-2.0071397
32	0x3e7acffc	0.24493402
33	0x3f179a0b	0.59219426
34	0x3ea270cb	0.3172668
35	0xbf4f8fa4	-0.81078553
36	0xbf0c590d	-0.5482338
37	0xbfc8523f	-1.56501
38	0x3db3a786	0.08772187
39	0x3f663d9b	0.8993775
40	0x3f24bcb6	0.6435045
41	0xbfd125c4	-1.633965
42	0x3c66154d	0.014043164
43	0xbfcb52ca	-1.588464
44	0xbf79fe56	-0.9765371
45	0x3ee31b4d	0.44356766
46	0xbf120688	-0.57041216
47	0x3ee07501	0.43839267
48	0xbcfb2785	-0.030658493
49	0xbf0daace	-0.5533875
50	0xbf659e6b	-0.8969485
51	0x3ee79273	0.4522892
52	0x3ec59d10	0.38596392
53	0x3efc51c8	0.49281144
54	0x3ecfe486	0.40604037
55	0x3eee5e4d	0.4655632
56	0x3e480367	0.19532548
57	0xbf1b9d66	-0.60787046
58	0xbf81f2e0	-1.0152245
59	0x3e38df05	0.18053825
60	0xbe059e1c	-0.13048595
61	0xbfa4d14f	-1.2876376
62	0x3f29f8bd	0.6639517
63	0xbf572d71	-0.84053713
64	0xbfa6defa	-1.3036797
65	0xbe231136	-0.15924534
66	0x3f4306fc	0.7618253
67	0x3f5064a3	0.8140356
68	0xbfb8be1e	-1.4433019
69	0x3effeb32	0.49984127
70	0x3f06935d	0.5256861
71	0x3f027018	0.5095229
72	0x3f31bf49	0.69432503
73	0xbfc4dc6b	-1.5379766
74	0x3e4ced1b	0.20012324
75	0x3e34c312	0.17652538
76	0xbfb9560f	-1.4479388
77	0x3e239a4f	0.15976833
78	0xbf697725	-0.91197425
79	0x3f1f1be9	0.6215196
80	0xbf8dae12	-1.1068747
81	0xbf8d9e6e	-1.1063974
82	0x3ea66298	0.32497096
83	0x3e3ae19b	0.18250124
84	0xbf54cac6	-0.8312191
85	0x3da41e63	0.08013608
86	0x3f0cb75e	0.54967296
87	0x3d0764c4	0.033055082
88	0x3d87b212	0.06625761
89	0xbfa446fa	-1.283416
90	0x3d0d268a	0.03446058
91	0xbfda9c41	-1.7078935
92	0xbf8dd685	-1.1081091
93	0xbea46e30	-0.32115316
94	0x3f0f25e7	0.5591721
95	0xbfb8bb1d	-1.4432102
96	0x3cabaed3	0.020957386
97	0xbf9c04dc	-1.2188983
98	0x3f5ee1bc	0.87063193
99	0x3f65879a	0.89660037
100	0xbfc96ec3	-1.5736927
101	0xbfd9d437	-1.7017888
102	0xbfb0f567	-1.3824891
103	0x3e4083d6	0.18800291
104	0xbf7624c1	-0.9614983
105	0x3d9e38f2	0.07725705
106	0xbe19992c	-0.14999837
107	0xbe474ec2	-0.19463637
108	0xbed9856b	-0.42484602
109	0xbec062e4	-0.37575448
110	0xbe4c17db	-0.19930975
111	0xbcee4e55	-0.029090086
112	0xbe1917ec	-0.14950532
113	0x3f1ff0bb	0.624767
114	0xbf6950b4	-0.9113877
115	0x3e8131aa	0.25233203
116	0xbf13a08d	-0.57666856
117	0x3f5b2644	0.85605264
118	0xbf49cfcc	-0.788327
119	0xbfb1a58f	-1.387865
120	0x3f5230ae	0.8210553
121	0xbfa68e92	-1.3012259
122	0x3d998570	0.07496154
123	0xbf3adf91	-0.72997385
124	0xbf4971bc	-0.7868917
125	0xbf8696ec	-1.0514808
126	0x3f0fd3cd	0.5618256
127	0xbe26e61f	-0.16298722

layers.2.weight f4 [128, 128]
0	0xbc0ee228	-0.008720912
1	0xbe96dc94	-0.29465163
2	0xbcf6d694	-0.030131616
3	0xbe1fc041	-0.15600683
4	0x3ed519f5	0.41621366
5	0x3daaafcb	0.08334311
6	0x3e186437	0.14881979
7	0x3f1e4d0e	0.61836326
8	0xbfa742b2	-1.3067229
9	0xbf4b4a4c	-0.79410243
10	0xbf99ed3e	-1.2025526
11	0x3e5f8735	0.21828921
12	0x3ea27c22	0.3173533
13	0xbd1f0a36	-0.038828097
14	0x3ecdbff3	0.40185508
15	0xbf17a973	-0.59242934
16	0xbee0c490	-0.43899965
17	0xbda7df34	-0.081968695
18	0x3e413fd6	0.18872008
19	0x3e87d0e4	0.26526558
20	0x3d01e190	0.031709254
21	0xbecde100	-0.40210724
22	0x3f75facb	0.96085805
23	0x3e7b791c	0.24557918
24	0xbf0a46c5	-0.54014236
25	0xbe11ffeb	-0.14257781
26	0x3c925bf0	0.017866105
27	0x3f8462c9	1.0342647
28	0x3e31aa83	0.17350201
29	0xbf5eacf5	-0.8698266
30	0xbfd44098	-1.6582212
31	0xbf9b4006	-1.2128913
32	0x3ebad4b5	0.36490408
33	0x3e758f92	0.23980549
34	0xbdc23973	-0.09483614
35	0xbe67b625	-0.22628076
36	0xbd9c9f2a	-0.07647546
37	0xc000f867	-2.0151613
38	0xbfe673d4	-1.8004098
39	0x3e253908	0.16135037
40	0x3e461754	0.19344836
41	0xbfdaa853	-1.7082618
42	0x38a21b61	7.729862e-05
43	0xbe4ed423	-0.20198111
44	0xbd7185fd	-0.05896567
45	0x3e03d3d1	0.1287377
46	0xbdc8755b	-0.09788009
47	0xbe310655	-0.17287572
48	0xbdf269ba	-0.11836572
49	0xbfa18135	-1.2617556
50	0x3f925b7d	1.143417
51	0x3de87776	0.1135091
52	0xbf884149	-1.0644923
53	0x3e6b950b	0.23006074
54	0x3e85b2ba	0.2611292
55	0x3e83687a	0.25665647
56	0xbd010127	-0.03149524
57	0xbde45198	-0.11148375
58	0x3d955264	0.072911054
59	0xc01a1fff	-2.408203
60	0xbfc3f833	-1.5310119
61	0x3f21b85c	0.63171935
62	0x3e85de15	0.26145998
63	0xbf8e09a1	-1.1096689
64	0x3ebaad48	0.36460328
65	0xbd7027e4	-0.058631793
66	0x3e9438c3	0.28949556
67	0x3dc6a838	0.09700054
68	0xbf75720e	-0.9587716
69	0x3e71e81c	0.23623699
70	0x3e39607e	0.18103215
71	0x3e7b9ab4	0.24570733
72	0x3e7d69ee	0.2474744
73	0xc05366a2	-3.3031392
74	0x3f00c07a	0.50293696
75	0x3e0257d1	0.12728812
76	0x3ebf750b	0.37393984
77	0xbed05554	-0.406901
78	0xbecb4fc2	-0.39709288
79	0x3e738714	0.23781997
80	0x3e1147c2	0.1418753
81	0x3ebd2ca8	0.36948133
82	0xbd531762	-0.05153597
83	0x3e5464f1	0.20741631
84	0x3fe60661	1.7970697
85	0xbd880556	-0.06641643
86	0x3e06fd1f	0.13182496
87	0x3f3ea50a	0.7447058
88	0xbc1ea44c	-0.009682726
89	0xbe815b7f	-0.25265118
90	0x3d5efbe5	0.054439444
91	0xbfa6e244	-1.3037801
92	0xbfd3bbc0	-1.6541672
93	0x3f92a698	1.145709
94	0x3e2d9f57	0.16955315
95	0xbed40abe	-0.41414446
96	0xbef8d195	-0.48597398
97	0x3f1b2613	0.6060497
98	0x3c9c1ad3	0.01905576
99	0x3da157e1	0.0787809
100	0x3efb6295	0.4909865
101	0x3e300900	0.17190933
102	0xbf2afe5e	-0.66794384
103	0xbf1b618c	-0.6069572
104	0x3f04a823	0.51819056
105	0x3f16b9c9	0.58877236
106	0xbf138581	-0.57625586
107	0xbf4b4941	-0.7940865
108	0xbff4ff6d	-1.914045
109	0xbf77a174	-0.9673073
110	0xbcd788b1	-0.026310297
111	0x3f843c8c	1.0330977
112	0xbf883a5f	-1.0642813
113	0x3e7f720d	0.2494585
114	0xbf9e67bf	-1.2375411
115	0x3e22b09c	0.15887684
116	0x3ef32515	0.4748923
117	0x3e006bbc	0.12541097
118	0x3f88a905	1.0676581
119	0xbf91c7a1	-1.1389047
120	0x3e53b27f	0.2067356
121	0x3cd74334	0.026277162
122	0xbe96520f	-0.2935948
123	0x3f22656b	0.63436
124	0xbf9b999b	-1.2156252
125	0x3d294688	0.04132703
126	0x3e3e87c9	0.18606485
127	0xbf2e5fbc	-0.6811483
128	0x3df13b33	0.117788695
129	0x3f6a6e23	0.91574305
130	0x3d116e42	0.03550554
131	0xbef484e4	-0.47757638
132	0x3e42bf95	0.19018395
133	0x3dab740f	0.08371746
134	0x3c28ab7c	0.010294791
135	0x3efe43b8	0.4966104
136	0xbfca2916	-1.5793788
137	0xbf2b8ad6	-0.6700872
138	0xbf9c818a	-1.2227032
139	0x3b8b1f34	0.004245663
140	0x3d985be5	0.074394025
141	0xbc4339a7	-0.011915601
142	0x3ed9d32e	0.4254393
143	0xc011b433	-2.2766235
144	0x3d341463	0.043964755
145	0xbc1c9820	-0.009557754
146	0x3dd5af06	0.10433774
147	0x3e1b2374	0.15150243
148	0xbd747b4f	-0.05968791
149	0x3f0f1eb9	0.55906254
150	0x3da1aed0	0.07894671
151	0x3da9d34e	0.08292256
152	0xc0098e01	-2.1492922
153	0xbee8a6cf	-0.45439765
154	0x3db0c911	0.086321004
155	0xbed04084	-0.40674222
156	0x4005f3ec	2.0930128
157	0xc001959b	-2.0247562
158	0xbf378ef2	-0.7170249
159	0xbf705e56	-0.93893945
160	0x3e3b1944	0.18271357
161	0xbcccae62	-0.024985496
162	0x3f49eddc	0.7887857
163	0xbf20efff	-0.62866205
164	0xbd4ed9f7	-0.050500836
165	0xbfe09e42	-1.7548296
166	0xbf3a5cc5	-0.72797805
167	0xbd7a9444	-0.061176553
168	0x3de1fdf9	0.110347696
169	0x3eeaad04	0.45835125
170	0xbf1df1c6	-0.6169704
171	0x3c876487	0.016527427
172	0xbe19cbed	-0.15019198
173	0x3d22ac93	0.03971536
174	0x3f00a3be	0.5024985
175	0xbc75f925	-0.015013014
176	0xc060640e	-3.5061069
177	0xbf784e45	-0.9699443
178	0xbf19fd18	-0.60151815
179	0x3c4d37f7	0.01252555
180	0x3e3180ea	0.17334333
181	0x3cfe2e22	0.031027857
182	0x3e0d2b07	0.13785945
183	0xbb7eadff	-0.0038861034
184	0xbec2268e	-0.3792004
185	0x3e20a194	0.15686637
186	0x3d6c1529	0.057637367
187	0xbf82410e	-1.0176103
188	0xc0355d5a	-2.8338227
189	0xbffda81f	-1.9816931
190	0xbc392707	-0.011300809
191	0xbf44ceca	-0.76878035
192	0xbe10472b	-0.14089648
193	0xbf2522fb	-0.645065
194	0x3e0bdb8f	0.13657974
195	0xbca19bca	-0.019727606
196	0xbf83163d	-1.0241162
197	0x3e16ae2b	0.14714877
198	0xbd866ce5	-0.06563739
199	0x3db3c645	0.08778051
200	0x3e034169	0.1281792
201	0xbfd0b000	-1.6303711
202	0x3ec8023e	0.3906421
203	0x3e93aa4a	0.28840858
204	0xbf274a13	-0.65347403
205	0xbef89974	-0.48554575
206	0xbf287b01	-0.6581269
207	0x3e10be45	0.14135082
208	0xbf795bda	-0.9740578
209	0xbfa46bf0	-1.284544
210	0xbc6d9e0e	-0.014503015
211	0x3e9a9936	0.30195016
212	0x3f3aed19	0.7301803
213	0xbe44c75f	-0.19216679
214	0x3dd951a3	0.10611274
215	0xbee54773	-0.44781074
216	0x3d62c5a8	0.05536428
217	0xbe3fdf9c	-0.18737644
218	0x3ca22145	0.019791255
219	0xbfc7e7fc	-1.5617671
220	0x3f4e5482	0.805977
221	0x400b791b	2.1792667
222	0x3e3a57c1	0.18197538
223	0xbf4b8ace	-0.79508674
224	0xbf3b2154	-0.7309773
225	0x3eae30eb	0.34021696
226	0xbd19c7ef	-0.037544187
227	0xbde83607	-0.1133843
228	0xbf831a87	-1.024247
229	0xbe7b2569	-0.2452599
230	0xbf5d43da	-0.8643166
231	0x3db40f6d	0.08792005
232	0xbf9045a0	-1.1271248
233	0x3ffbfedb	1.9687151
234	0xc0535c4c	-3.3025084
235	0x3ca4d772	0.020122264
236	0xbf44d3ce	-0.7688569
237	0xc0844b8f	-4.1342235
238	0xbf2d429c	-0.6767976
239	0xbfa43de8	-1.2831392
240	0xbf6c08c0	-0.9220085
241	0x3cd68652	0.026187096
242	0xc006052a	-2.0940652
243	0x3f010d88	0.5041127
244	0x3f6965e7	0.91171116
245	0x3e06d7b4	0.13168222
246	0xbefd9c88	-0.49533486
247	0xc00b0e41	-2.172745
248	0x3dbc7404	0.09201816
249	0x3c4cc940	0.012499154
250	0x3eb42f1e	0.35192198
251	0x3f1d0805	0.6134036
252	0xbfe1cd79	-1.764083
253	0xbfb5a7d7	-1.4191846
254	0x3d85cc93	0.0653316
255	0xc020f861	-2.5151598

layers.2.bias f4 [128]
0	0x3e96efa5	0.2947971
1	0x3db84ca4	0.08998993
2	0x3f04062f	0.51571935
3	0xbda975a9	-0.08274395
4	0x3d3e02fe	0.046389572
5	0x3ee95c9d	0.4557847
6	0x3ecdbbf3	0.40182456
7	0xbf0aa9cc	-0.5416534
8	0xbe68bc97	-0.22728191
9	0x3e7af5a2	0.24507764
10	0xbecd724e	-0.4012627
11	0xbde65246	-0.11246161
12	0xbefa0db5	-0.48838583
13	0x3ecf5d4c	0.40500867
14	0xbe1352e6	-0.14387092
15	0xbe6f5331	-0.23371579
16	0xbf0862ed	-0.5327595
17	0x3f0dc584	0.5537951
18	0xbf1528e4	-0.5826552
19	0xbee81482	-0.45328146
20	0xbbda2653	-0.0066574006
21	0xbf23ed37	-0.64033836
22	0xbe023472	-0.12715319
23	0xbd15d0b1	-0.036575977
24	0x3f008c6b	0.5021426
25	0x3ee4f445	0.44717613
26	0x3ca82d03	0.020529276
27	0x3e9f678b	0.31133685
28	0xbf13f4a2	-0.57795155
29	0x3f180b4d	0.59392244
30	0xbebc6d08	-0.36801934
31	0x3c2ce17c	0.010551807
32	0x3d5185fc	0.051153168
33	0xbd5d16e5	-0.053976912
34	0xbdda4a34	-0.106586844
35	0x3c5d627f	0.013512253
36	0x3ea5a42f	0.32351825
37	0xbdb9bf92	-0.09069742
38	0xbefec225	-0.49757496
39	0x3d8170aa	0.06320317
40	0xbc89a998	-0.016804501
41	0xbf281fd0	-0.6567354
42	0xbf08a54b	-0.5337722
43	0xbd925e45	-0.07146887
44	0xbf19dcba	-0.60102427
45	0xbb5b726b	-0.0033484946
46	0xbd2382cc	-0.03991966
47	0xbe027245	-0.12738903
48	0xbef25aeb	-0.4733499
49	0xbb3c16c3	-0.002870009
50	0x3e1f216d	0.15540095
51	0x3d31f03e	0.043442003
52	0x3e67fbdd	0.22654672
53	0xbd64bb14	-0.055842474
54	0xbe885422	-0.26626688
55	0x3e97524e	0.2955498
56	0xbd8d292f	-0.06892621
57	0x3de58827	0.112076096
58	0x3e7d3a8e	0.24729368
59	0x3f126d47	0.57197994
60	0xbf2c7635	-0.6736787
61	0x3eaf42a4	0.3423053
62	0x3e635fbf	0.22204493
63	0xbc8ddc18	-0.017316863
64	0x3e197a70	0.14988112
65	0xbe0c649a	-0.13710251
66	0xbc4e07eb	-0.01257513
67	0x3ea734a9	0.32657364
68	0xbeb232a8	-0.34804273
69	0xbf1a9bde	-0.60394084
70	0x3f00cb03	0.5030977
71	0xbdf88230	-0.12134206
72	0xbd827258	-0.063694656
73	0xbc64139c	-0.013920691
74	0xbd43f1d0	-0.047838032
75	0x3e8222e8	0.25417256
76	0x3eb57c34	0.35446322
77	0xbf1e15ea	-0.6175219
78	0x3e50815d	0.20361848
79	0x3d0ad758	0.033896774
80	0xbd2a1a63	-0.04152907
81	0xbcc79d37	-0.024366958
82	0x3e52d91e	0.20590636
83	0x3ebf349c	0.37344825
84	0xba72e2b7	-0.00092653505
85	0xbf200bec	-0.6251819
86	0x3d22a625	0.03970923
87	0x3e4b71ab	0.1986758
88	0x3f1b75b3	0.6072647
89	0x3eff2a59	0.49836996
90	0xbc1f087a	-0.009706611
91	0x3ee5427a	0.4477728
92	0x3f181171	0.59401613
93	0x3e573ba5	0.21018846
94	0x3f12641a	0.5718399
95	0xbde56c60	-0.112023115
96	0xbd28eedb	-0.041243415
97	0xbd478200	-0.048707962
98	0xbd94a2ac	-0.0725759
99	0x3ea56e54	0.32310736
100	0xbef7be2e	-0.48387283
101	0x3e89d511	0.2692037
102	0xbef49531	-0.47770074
103	0xbca68a3b	-0.020329585
104	0xbec1ed94	-0.3787657
105	0xbef4056a	-0.4766038
106	0x3ed1e0af	0.40991732
107	0x3e8aef61	0.27135757
108	0xbecd60d4	-0.40112936
109	0xbd57da95	-0.05269869
110	0xbd3518ed	-0.044213224
111	0x3ef4a1bc	0.47779644
112	0xbca05b30	-0.019574732
113	0xbd5ca91c	-0.053872213
114	0xbce7e1a4	-0.028305836
115	0x3d2031aa	0.039109863
116	0xbd9d0123	-0.076662324
117	0x3ed8e220	0.4236002
118	0xbd99006f	-0.07470786
119	0xbe3c0410	-0.18360925
120	0xbcfba265	-0.030717084
121	0x3ef4201b	0.47680745
122	0x3ee93c39	0.4555376
123	0xbd546c03	-0.05186082
124	0x3eddaffa	0.43298322
125	0x3e3d687a	0.18496886
126	0xbc91db58	-0.017804787
127	0x3e19d515	0.1502269

layers.4.weight f4 [2, 128]
0	0x3f045c6c	0.51703525
1	0x404fac21	3.244881
2	0x3eea73c1	0.45791438
3	0xbdaf628f	-0.085637204
4	0xbc91a114	-0.017777003
5	0x3ec958ba	0.39325505
6	0x3ecebbce	0.4037766
7	0xbf0ee2ad	-0.5581463
8	0xbf2bff00	-0.67185974
9	0x3f07b89c	0.53016067
10	0xbeb989ec	-0.3623804
11	0xbbf4bbd3	-0.0074686795
12	0xbf338305	-0.70121795
13	0xbdd560e5	-0.10418872
14	0xba137f6f	-0.0005626594
15	0xbf4d8320	-0.80278206
16	0xbf3cce49	-0.73752266
17	0x3edb9f03	0.42894754
18	0xbe7d7871	-0.24752976
19	0x3f5e9c04	0.8695681
20	0xbd64d4e4	-0.05586709
21	0x3f361836	0.7113069
22	0xbca4e87d	-0.02013039
23	0xbb2c9f01	-0.002633989
24	0x3eeb28a4	0.45929444
25	0x3ee3fb21	0.44527534
26	0xbd7a5473	-0.061115693
27	0x3ed55427	0.41665766
28	0x3e0b3c21	0.13597156
29	0x3ed39bd1	0.41329816
30	0x3f7bcfe9	0.9836412
31	0xbdc6dac4	-0.09709695
32	0xbd33a30b	-0.04385666
33	0x3da2d6ae	0.07951103
34	0xbcefedc7	-0.029288186
35	0xbfc09e27	-1.5048264
36	0x3e0d7e83	0.13817792
37	0x3cf085a8	0.029360607
38	0x3b13fd60	0.0022581443
39	0x400e58d6	2.224172
40	0x3b8f6605	0.0043761753
41	0xbf321928	-0.69569635
42	0xbf0ac986	-0.5421375
43	0xbd019833	-0.03163929
44	0xbf185573	-0.59505385
45	0x3cadad15	0.021200696
46	0xbe198f0d	-0.14995976
47	0x3eb0bd35	0.34519354
48	0xbf0cf2c9	-0.5505796
49	0x3d76fe16	0.06030091
50	0xbf1ef35b	-0.6209008
51	0x3b626e64	0.0034550661
52	0x3eea6612	0.45780998
53	0x3e54f7db	0.20797674
54	0xbedd094a	-0.4317115
55	0x3eed57f5	0.46356168
56	0xbd3eb1b2	-0.046556182
57	0x3fe352b1	1.775961
58	0xbea5d843	-0.32391557
59	0x3efab733	0.48967895
60	0xbf2bd01d	-0.6711443
61	0x3ec7475d	0.38921633
62	0xbe88075c	-0.26568115
63	0xbefcabde	-0.49349874
64	0x3c890e48	0.016730443
65	0x3dfefabe	0.12450169
66	0xbac3f562	-0.0014950449
67	0x3edf333f	0.43593785
68	0xbf193afd	-0.59855634
69	0xbf0db73d	-0.55357724
70	0x3ef9f973	0.48823127
71	0x3d54c881	0.051949028
72	0x3bafefb0	0.005369149
73	0x3d04af76	0.032393895
74	0xbdaca552	-0.0842997
75	0x3f5c9f2a	0.86180365
76	0x3eafbb89	0.34322765
77	0x3f3103d8	0.6914649
78	0xbf53b9c3	-0.82705325
79	0xbdec332b	-0.11533197
80	0x3d81d55d	0.06339524
81	0xbf486e86	-0.78293645
82	0x3de3f7ea	0.1113127
83	0x3ecef05f	0.40417764
84	0x3dbb1e28	0.09136611
85	0xbe5f42f0	-0.21802878
86	0xbd1d0d5f	-0.03834283
87	0x3d9af2d9	0.07565851
88	0x3ec96149	0.39332035
89	0x3ebf86e3	0.37407598
90	0x3c6200d1	0.01379414
91	0x3ef1a364	0.4719497
92	0x3ee9480c	0.4556278
93	0x3e58c6c7	0.21169578
94	0x3efe6187	0.49683782
95	0xbd51277d	-0.05106305
96	0x3bcb0427	0.0061955634
97	0xbd154658	-0.03644404
98	0xbc903c4d	-0.017606879
99	0x3ec6cce1	0.38828185
100	0xbf343db6	-0.70406663
101	0x3ee2331f	0.44179627
102	0xbf43f50b	-0.7654578
103	0xbf215644	-0.63022256
104	0x3f41ae1c	0.75656295
105	0xbf3d8cbc	-0.7404287
106	0x3ec81395	0.3907744
107	0x3e569d24	0.20958382
108	0x3cd00c1c	0.0253964
109	0xbf075405	-0.5286258
110	0xbd888afc	-0.06667134
111	0x3eddd728	0.43328214
112	0xbd8c6ae0	-0.06856322
113	0x3ca5d2f1	0.020242186
114	0x3d11664e	0.035497956
115	0x3c9b3f9f	0.018951235
116	0x3cdcad04	0.026937969
117	0x3f00a82e	0.5025662
118	0xbd8dbd10	-0.069208264
119	0x3f564122	0.83693135
120	0xbd646eda	-0.05576978
121	0x3ef5e969	0.4802964
122	0x3ef2ed54	0.47446692
123	0x3c9338f3	0.017971491
124	0x3ed8fbfd	0.42379752
125	0x3f9df8ae	1.2341516
126	0x3da9cdef	0.08291232
127	0x3ea38b12	0.3194204
128	0xbdcea51d	-0.100900866
129	0x3ef77de9	0.4833825
130	0x3ee83fc2	0.45361143
131	0xba2ddf47	-0.0006632697
132	0x3cc69494	0.02424077
133	0x3f172195	0.5903562
134	0x3e910143	0.28321275
135	0xbf3a5ff9	-0.7280269
136	0x3dd59364	0.10428503
137	0x3f04e719	0.5191513
138	0x3e39c05c	0.18139786
139	0x3bb538fe	0.0055304756
140	0xbf0d42f4	-0.5518029
141	0xbf92cf5e	-1.1469533
142	0x3cb1ea79	0.02171825
143	0x3d00cdf9	0.03144643
144	0xbf0b4ceb	-0.5441424
145	0x3ee64711	0.44976094
146	0x3f10efdd	0.56616
147	0x3e0a6051	0.13513304
148	0xbd525001	-0.05134583
149	0xbf13bae8	-0.5770707
150	0xbd5454b3	-0.051838588
151	0xbc2c9a02	-0.010534765
152	0x3ee3e382	0.44509512
153	0x3e1856a3	0.148768
154	0x3d7e1dcf	0.062040146
155	0x3e99f391	0.3006864
156	0xbf74887f	-0.95520777
157	0x3f1d5198	0.6145263
158	0x3e50fe58	0.20409524
159	0x3ef8d66f	0.486011
160	0x3a78c0c6	0.00094891747
161	0xbcb00539	-0.021486865
162	0xbe01043d	-0.12599273
163	0x3f849ff2	1.0361311
164	0x3ed5e29e	0.41774458
165	0xbc3f6a9e	-0.011683134
166	0x3e7dc730	0.24783015
167	0xbf6ecbad	-0.93279535
168	0xbd419602	-0.0472622
169	0xbf156a89	-0.58365685
170	0x3f42b1b6	0.76052415
171	0xbcabd463	-0.020975297
172	0xbf228773	-0.6348793
173	0xbcde6452	-0.027147446
174	0xbd11366b	-0.035452288
175	0x3e5c0148	0.21484864
176	0x3f4913a7	0.7854561
177	0x3ca8bc10	0.020597488
178	0x3f1a8340	0.6035652
179	0xbd0b7bec	-0.034053728
180	0x3f1a37da	0.6024147
181	0x3da01519	0.07816524
182	0x3f2b347f	0.6687698
183	0xbf63ad59	-0.8893638
184	0x3c4fe82d	0.012689632
185	0x3ead1b42	0.3380986
186	0x3f8c88e4	1.0979276
187	0x3f08badf	0.5341014
188	0xbf2291cd	-0.63503724
189	0x3e8bcc48	0.27304292
190	0xbfd2e2bb	-1.6475443
191	0x3f871391	1.0552846
192	0x3e20d639	0.1570672
193	0xbf5ea2a0	-0.86966896
194	0xbd7e48f5	-0.062081296
195	0x3ea5d76b	0.32390913
196	0xbf4839fd	-0.78213483
197	0xbf3cd8dd	-0.7376841
198	0x3f1f5375	0.6223672
199	0xbda4c1ee	-0.08044802
200	0xbda23e37	-0.07922023
201	0xbc82d4f3	-0.015970683
202	0x3c7f46f0	0.015580878
203	0x3fa3a1af	1.2783717
204	0x3e5c9f38	0.21545112
205	0xbf031408	-0.5120244
206	0x3ef6c67c	0.48198307
207	0x3e5146dc	0.20437187
208	0x3c0bc5c5	0.008531039
209	0xbe554f4c	-0.2083103
210	0x3f1b012e	0.60548675
211	0x3e88d898	0.26727748
212	0xbdce8e1b	-0.10085698
213	0xbf9b95ea	-1.2155125
214	0x3d6aea6b	0.057352465
215	0x3fb05167	1.3774842
216	0x3f2120d9	0.62940747
217	0x3eb062df	0.34450433
218	0x3d6b1801	0.05739594
219	0x3ef29b9e	0.47384351
220	0x3f04ae2a	0.51828253
221	0x3f10dd6f	0.5658788
222	0x3f12d5b2	0.57357323
223	0x3c983d18	0.01858382
224	0x3be30c5a	0.0069289627
225	0xbd82869e	-0.063733324
226	0xbd0120f1	-0.031525556
227	0x3ebd7e1f	0.37010285
228	0xbe8a87e2	-0.27056795
229	0x3e4ef969	0.2021233
230	0x3e405753	0.18783312
231	0x3fda0846	1.7033775
232	0x3eff3e03	0.49852
233	0xbeed1cf2	-0.46311146
234	0x3e7136f5	0.2355612
235	0x3faecf00	1.3656921
236	0xbf39d573	-0.7259132
237	0xbedd16c3	-0.43181428
238	0x3d5ec1b8	0.054383963
239	0x3eb6c0bc	0.3569392
240	0xbd2b7c20	-0.04186642
241	0xbbbe1d73	-0.0058018505
242	0x3dac0d53	0.08400979
243	0x3c732f35	0.014842798
244	0x3d96d47b	0.07364746
245	0x3e752abb	0.23942082
246	0x3d835efc	0.06414601
247	0xbf1b315e	-0.60622203
248	0x3d4ec4e0	0.050480723
249	0x3effcfd7	0.49963257
250	0x3f0877a4	0.5330756
251	0xbd981b5d	-0.07427094
252	0x3edf9da5	0.4367496
253	0x3cb6d668	0.022319034
254	0xbc68f1e8	-0.014217831
255	0x3e9c02cd	0.30470887

layers.4.bias f4 [2]
0	0x3edf6d5b	0.4363812
1	0x3eb2835a	0.34865838
