OS/ddqn_models/whole/ddqn_100_1.0.pth (torch_old, 69813 bytes, 6 tensors)

layers.0.weight f4 [128, 2]
-0.017127547 -0.403271 1.1676935 -0.9152408 0.07587606 -0.14804602 1.1543895 0.15681945
1.1513222 0.82343537 -0.26680443 -0.2876226 -0.39215058 0.24993493 0.59558004 0.9621834
-1.2295129 -0.13611506 -0.6895145 -0.8376732 -0.5882295 -0.22372395 -0.7578444 0.15463135
-0.57159775 0.48636967 -0.30987865 -0.3171045 -0.98364514 0.4135273 -0.54759634 1.4751066
1.1584569 0.67222965 -0.005263746 -0.13978195 0.40125787 0.022562228 0.408719 0.29170206
-0.35076767 -0.31891727 1.0841255 -0.55969656 -0.38555107 0.6850627 0.508449 0.24122828
-0.43412638 1.2684786 -0.7005255 -0.021830345 -0.28378257 -0.29301715 -0.0061873533 0.6427207
-0.6442232 0.61515456 1.1817728 -0.20019965 0.7364002 -0.7064046 -1.1642392 0.09456056
0.80218345 1.0790421 -0.3614157 0.10105976 0.78835297 -1.1304485 0.492585 -0.823192
0.009745717 -0.120220006 -1.0978812 -0.12922257 1.2695657 0.0046893223 -0.36154872 -0.31363443
-0.75177866 0.2355262 -0.22947015 -1.2353879 -0.18178697 0.44688213 0.43933576 0.9378123
0.38276055 0.124317065 0.092311084 0.27521402 1.2688979 0.42653623 -0.08320258 -0.57675755
-1.32867 -0.067848876 -0.3227252 -1.3377924 1.0226423 -0.5061145 0.35412934 0.3705109
0.30483314 -1.2282225 -0.4895586 0.5768876 0.62099165 0.5680086 -0.092776485 0.26951036
-0.303742 0.09412422 -0.42100465 -0.116429456 0.58773863 0.4695978 -0.055926327 -0.56566846
1.0054688 -0.46755716 0.8119924 -0.11925616 -0.5774053 0.48855394 -0.8601876 0.9597325
0.6164299 -1.0197604 0.7220114 0.6067698 0.7547692 0.05245177 -0.8214867 0.06989597
0.6491036 0.19882715 0.6122419 0.6254859 -0.581116 0.071850345 1.0790485 0.23221864
0.50826085 0.29164672 -1.2507136 -0.1577922 1.2751479 1.0942422 1.0531098 0.30686694
0.9805601 -0.15477532 -0.6250791 -0.79952127 1.3163884 0.52000076 -0.37598675 0.14787734
0.9424129 0.911526 0.873028 0.85491234 -0.06949224 -0.18182094 1.2440813 0.67116964
-0.9028205 0.55815846 1.3474257 0.8079991 -0.34539467 0.14895253 0.52957344 1.2257171
0.25571853 0.34048107 0.46755925 0.62522024 0.22885078 0.27355093 -1.1894107 -0.09821492
-0.97232467 -1.2853646 -0.9263307 0.5222045 1.2644391 0.63376397 0.8010263 -0.5158036
-0.65010685 -0.3076928 -0.9251463 0.4068851 -0.34213194 -0.33131263 -0.3578949 -0.31491846
0.61612076 1.0260206 0.549197 0.96095824 0.9926643 -0.1277628 1.5259769 0.9227768
0.67357546 0.9192187 0.65618086 0.91718197 -0.7166226 -0.045523196 0.61528826 -0.090316854
-0.67109704 -0.7296782 -1.1615375 1.1156912 1.4862603 -0.12870735 -0.9021396 0.47834548
1.6996751 0.3788432 0.28912866 0.49153125 0.6451544 -1.1351427 1.6663072 0.94102037
-0.7469686 0.34934494 -0.35769412 -0.20626071 1.0516251 0.031733446 -0.13900922 -0.87301916
-0.16346239 -0.24631065 0.47175494 0.831983 0.19221447 -0.48237297 1.3864915 0.79358566
0.2783382 -0.7955764 0.072403245 -0.8752537 -0.22550134 0.30930087 -0.3300377 0.95893633
00000000: 124f 8cbc 8979 cebe fb76 953f 394d 6abf
00000010: e864 9b3d 6099 17be 09c3 933f 4795 203e
00000020: 875e 933f a9cc 523f 979a 88be 4543 93be
00000030: f6c7 c8be f1ee 7f3e ef77 183f a751 763f
00000040: ae60 9dbf bf61 0bbe 0684 30bf c071 56bf
00000050: 3596 16bf e417 65be 1702 42bf ae57 1e3e
00000060: 3b54 12bf 7205 f93e 6aa8 9ebe 855b a2be
00000070: 2bd0 7bbf dab9 d33e 462f 0cbf 4bd0 bc3f
00000080: 5148 943f 3e17 2c3f 807b acbb 0023 0fbe
00000090: ac71 cd3e 6cd4 b83c 9e43 d13e f959 953e
000000a0: d297 b3be 2049 a3be a0c4 8a3f 4648 0fbf
000000b0: f366 c5be 4560 2f3f b729 023f 8c04 773e
000000c0: d045 debe 825d a23f a455 33bf 8dd5 b2bc
000000d0: f34b 91be 5806 96be 48bf cabb 5889 243f
000000e0: d0eb 24bf c57a 1d3f 5544 973f 2301 4dbe
000000f0: b984 3c3f efd6 34bf ca05 95bf f8a8 c13d
00000100: e55b 4d3f 0d1e 8a3f 7b0b b9be 6bf8 ce3d
00000110: 80d1 493f 89b2 90bf 1a34 fc3e b6bc 52bf
00000120: 80ac 1f3c e835 f6bd 5f87 8cbf ec52 04be
00000130: 2181 a23f e3a8 993b ea1c b9be b194 a0be
00000140: 9174 40bf c82d 713e 39fa 6abe 3121 9ebf
00000150: 5d26 3abe bccd e43e 9ef0 e03e 7814 703f
00000160: 31f9 c33e f299 fe3d 980d bd3d dae8 8c3e
00000170: 3f6b a23f f562 da3e 1d66 aabd 62a6 13bf
00000180: dc11 aabf 5af4 8abd 3d3c a5be c83c abbf
00000190: f1e5 823f b890 01bf 7150 b53e 9bb3 bd3e
000001a0: 1713 9c3e 6536 9dbf 6da7 fabe e8ae 133f
000001b0: 4ff9 1e3f 0369 113f 9901 bebd 43fd 893e
000001c0: 1284 9bbe 33c4 c03d ec8d d7be 9172 eebd
000001d0: 0a76 163f 1f6f f03e 0113 65bd a6cf 10bf
000001e0: 34b3 803f a763 efbe bcde 4f3f 933c f4bd
000001f0: d5d0 13bf be23 fa3e 4135 5cbf 07b1 753f
00000200: 5ace 1d3f 8287 82bf bdd5 383f 4455 1b3f
00000210: 8e38 413f abd7 563d f44c 52bf 9e25 8f3d
00000220: a72b 263f 5899 4b3e e3bb 1c3f d81f 203f
00000230: 05c4 14bf 4626 933d 431e 8a3f b9ca 6d3e
00000240: 621d 023f b852 953e 6217 a0bf 4794 21be
00000250: 0c38 a33f 2110 8c3f 4dcc 863f aa1d 9d3e
00000260: fd05 7b3f 6c7d 1ebe 2f05 20bf 6dad 4cbf
00000270: 6a7f a83f c51e 053f 5681 c0be 286d 173e
00000280: f941 713f c559 693f c37e 5f3f 89db 5a3f
00000290: f351 8ebd 452f 3abe 0e3e 9f3f c6d1 2b3f
000002a0: 3f1f 67bf 79e3 0e3f 7278 ac3f 07d9 4e3f
000002b0: 92d7 b0be 0387 183e 2092 073f 4ce4 9c3f
000002c0: 8aed 823e 8953 ae3e ed63 ef3e 6f0e 203f
000002d0: dc57 6a3e de0e 8c3e 9c3e 98bf e724 c9bd
000002e0: 45ea 78bf d486 a4bf 0224 6dbf 32af 053f
000002f0: 24d9 a13f 5b3e 223f 0f10 4d3f b40b 04bf
00000300: 676d 26bf e989 9dbe 63d6 6cbf 3e53 d03e
00000310: eb2b afbe cfa1 a9be 003e b7be fe3c a1be
00000320: 17ba 1d3f a554 833f 2d98 0c3f 5c01 763f
00000330: 3f1f 7e3f 40d4 02be 3653 c33f 1a3b 6c3f
00000340: 716f 2c3f eb51 6b3f 78fb 273f 70cc 6a3f
00000350: 9474 37bf 8876 3abd 8883 1d3f 0bf8 b8bd
00000360: 04cd 2bbf 31cc 3abf 43ad 94bf f8ce 8e3f
00000370: c73d be3f dccb 03be 9ff2 66bf b3e9 f43e
00000380: f48e d93f bcf7 c13e ac08 943e fca9 fb3e
00000390: d728 253f 5b4c 91bf 8e49 d53f b6e6 703f
000003a0: 5639 3fbf 57dd b23e af23 b7be 0236 53be
000003b0: a79b 863f eefa 013d 6f58 0ebe 2f7e 5fbf
000003c0: af62 27be dc38 7cbe dd89 f13e d6fc 543f
000003d0: dfd3 443e 97f9 f6be 8e78 b13f 6e28 4b3f
000003e0: 5882 8e3e e5aa 4bbf 2748 943d a010 60bf
000003f0: d3e9 66be af5c 9e3e b4fa a8be da7c 753f

layers.0.bias f4 [128]
0.8028983 0.25824073 -0.47127795 -0.10743045 0.015490935 -0.61185557 0.6088863 -0.5005103
0.008646895 -0.46366045 -0.34950966 0.72791237 -0.47889134 0.8321297 -0.070464715 0.098576166
0.017019726 -0.6376117 0.8388105 0.61250794 0.91428846 0.55621564 -0.729819 0.8478416
0.011630964 0.5780032 -0.6378789 -0.57333595 -0.62613463 -0.28291014 0.30582318 -0.016564991
0.11899703 0.65846586 0.26633134 -0.43226588 -0.5482338 0.005980136 0.545801 0.9325147
0.7534587 0.020110557 0.35635817 -0.6255687 -0.94477975 0.6024151 -0.10180459 0.5498301
-0.0004791698 -0.32144526 -0.6895642 0.64615005 0.17116556 0.73148334 0.666989 0.6285932
0.29063195 -0.35725987 -0.09901716 0.3245134 0.5262836 -0.53096616 0.8161784 0.025302587
-0.5425031 -0.086908884 0.8923385 0.8433437 -0.8400756 0.7500537 0.58774954 0.64768195
0.8686706 0.009711056 0.15742461 0.49060735 -0.27466556 0.47039074 -0.10959832 0.7298039
-0.16028146 -0.17153865 0.41956806 0.41988927 -0.059010334 0.05456021 0.677535 0.044195924
0.46239826 -0.106944785 0.45338106 0.0030575327 -0.074545294 -0.064723805 0.7867171 -0.41828907
0.28837213 -0.065150715 0.9162918 0.92584354 -0.30469522 -0.36796635 -0.6596473 0.053887174
-0.21222343 -0.026156243 -0.086493485 0.36021876 -0.3004003 0.034701943 0.025274185 -0.063150875
0.059199877 0.8029921 -0.5317715 0.07809628 -0.04956257 0.93382347 -0.7056896 -0.6567295
0.9108897 -0.45342994 0.3983722 0.06062396 -0.3121492 -0.28036597 0.7158626 0.026032843
00000000: be8a 4d3f 2138 843e 584b f1be 7f04 dcbd
00000010: b1cd 7d3c 91a2 1cbf f9df 1b3f 7121 00bf
00000020: b5ab 0d3c e764 edbe eef2 b2be 7758 3a3f
00000030: 3f31 f5be 7406 553f ce4f 90bd 4de2 c93d
00000040: f46c 8b3c 853a 23bf 49bc 563f 52cd 1c3f
00000050: cf0e 6a3f 2664 0e3f 6bd5 3abf 260c 593f
00000060: cd8f 3e3c 05f8 133f 084c 23bf 25c6 12bf
00000070: 5c4a 20bf 99d9 90be db94 9c3e 4eb3 87bc
00000080: b7b4 f33d 3891 283f 955c 883e f451 ddbe
00000090: 0d59 0cbf 04f5 c33b 9db9 0b3f 49b9 6e3f
000000a0: abe2 403f e5be a43c 9474 b63e 4525 20bf
000000b0: 16dd 71bf e037 1a3f ed7e d0bd aac1 0c3f
000000c0: 1539 fbb9 7994 a4be 4887 30bf 176a 253f
000000d0: 0646 2f3e 7e42 3b3f cbbf 2a3f 7ceb 203f
000000e0: b6cd 943e c4ea b6be 82c9 cabd 9f26 a63e
000000f0: 86ba 063f 66ed 07bf 11f1 503f 5f47 cf3c
00000100: 7ce1 0abf 49fd b1bd 4c70 643f 5fe5 573f
00000110: 320f 57bf 8503 403f c176 163f 7cce 253f
00000120: 3261 5e3f 1f1b 1f3c eb33 213e e330 fb3e
00000130: f7a0 8cbe 0ed7 f03e 1675 e0bd 6ed4 3a3f
00000140: d320 24be d4a7 2fbe a0d1 d63e bafb d63e
00000150: d2b4 71bd 877a 5f3d ef72 2d3f c906 353d
00000160: 77bf ec3e de05 dbbd 9021 e83e e360 483b
00000170: 34ab 98bd ea8d 84bd 4b66 493f fc29 d6be
00000180: 83a5 933e bd6d 85bd 1992 6a3f 1504 6d3f
00000190: 0301 9cbe 1666 bcbe a5de 28bf ccb8 5c3d
000001a0: 1951 59be 9e45 d6bc 7f23 b1bd 986e b83e
000001b0: 11ce 99be a023 0e3d cf0b cf3c 3f55 81bd
000001c0: 927b 723d e490 4d3f 2d22 08bf f1f0 9f3d
000001d0: 1f02 4bbd 0e0f 6f3f 13a8 34bf 6d1f 28bf
000001e0: 1130 693f f827 e8be 71f7 cb3e d450 783d
000001f0: 05d2 9fbe 218c 8fbe c542 373f d442 d53c

layers.2.weight f4 [128, 128]
-0.1434117 0.15888727 -0.030131616 0.011182006 0.47441038 0.08334311 -0.024627795 0.22221045
-0.66259897 -0.79410243 0.038651206 -0.038064532 0.19073556 -0.1863383 -0.19054928 -0.21042098
0.64390534 -0.081968695 0.07686652 0.1991649 -0.13486819 -0.022362757 0.09459667 0.1316306
-0.7977768 -0.22253644 0.017866105 -0.12001476 0.32413703 0.20248143 0.02242042 -0.36654797
0.25545543 0.06221791 0.08375326 -0.29911909 -0.07647546 -0.8946522 0.27342692 -0.009156844
-0.08246107 -1.2336915 -0.051096473 0.43510178 -0.027211444 0.026719207 -0.22105567 -0.18151927
-0.7643941 -0.81613904 0.026358735 0.032532744 -0.7904893 -0.027008422 0.1718121 0.11918117
-0.20865528 -0.11148375 0.008396262 -0.23020782 -0.00076067616 0.31765628 0.013739052 -1.0358475
-0.543942 -0.19968604 0.18066141 -0.11785937 0.12859097 0.1296891 -0.005927731 0.1956306
0.1302003 -0.9340287 0.49498188 0.21106017 0.078565076 -0.32138747 -0.21173064 0.05343998
0.041144714 0.15931228 -0.10785212 0.30844772 -0.11317287 0.71718997 -0.039391708 0.34578088
0.04976178 0.0956573 0.15229842 -0.7798906 -1.0556588 -0.14308314 0.09424226 -0.009497014
-0.34603405 -0.0027201632 -0.14530928 -0.0905825 0.135219 0.15402466 0.24495637 0.535081
0.101333626 0.1837879 0.17733407 0.031418763 -1.0737553 -0.55000085 0.62075955 -0.10758147
0.6148008 0.11676952 -0.4435541 0.7240914 -0.031741768 -0.054237854 0.4325301 -1.0627203
0.046405084 0.21174438 -0.10295376 0.6245199 -0.24530469 -0.6142933 0.021041168 -0.7379195
0.0047287317 0.2693628 0.03550554 -0.012361803 0.4833455 0.08371746 -0.022889169 0.22586961
-0.68878615 -0.96523875 0.078813255 -0.08118847 0.0048608594 -0.08443417 -0.27064437 -0.41762272
0.5275429 -0.009557754 0.07487894 0.18656093 -0.1471734 0.1398178 0.04651608 0.07257567
-1.0974299 -0.24853389 0.086321004 -0.285194 0.099392205 0.081953175 0.12982921 -0.31805116
0.32610634 -0.08946001 0.072298035 -0.5734154 -0.050500836 -0.7589552 0.3034483 -0.15045184
0.01446443 -1.0766586 -0.044609025 0.5024344 -0.11844354 0.06815756 -0.1684792 -0.046985302
-0.63869923 -1.1560152 -0.1956105 0.036271118 -0.76145023 -0.0061439965 0.20766835 0.01046548
-0.16685355 0.15686637 0.21839967 -0.21565561 0.06319647 -0.07958465 -0.09540814 -0.9616856
-0.7717683 -0.03907006 0.11909532 -0.08247413 0.06357453 0.20343414 -0.1028032 0.11282453
0.11708258 -0.7174873 0.30814376 0.31309864 0.0828334 -0.24247693 -0.09206611 0.075731955
-0.039662506 0.09022342 -0.08106381 0.21355265 -0.0700009 0.60567683 0.05081195 0.021995049
0.1987075 -0.027942322 0.1799058 -0.7400655 -1.3356739 -0.074979156 0.17491992 -0.0069246558
-0.31437844 -0.15037286 -0.12470336 -0.20283867 0.076665156 0.17918155 -0.11779702 0.5285961
0.06861256 0.07267146 0.09854341 -0.044487283 -1.3679405 -0.8469472 0.6188725 -0.15628058
0.6514576 0.04275778 -0.5990273 0.5285219 -0.06975599 0.039254367 0.17214948 -1.2741894
0.002481152 0.2261707 -0.09392013 0.48115724 -0.43280512 -1.0203243 0.042258132 -0.85958487
00000000: 84da 12be 58b3 223e 94d6 f6bc bc34 373c
00000010: ebe5 f23e cbaf aa3d 3bc0 c9bc 238b 633e
00000020: 16a0 29bf 4c4a 4bbf ba50 1e3d 8ee9 1bbd
00000030: 2f50 433e 78cf 3ebe 5a1f 43be 9978 57be
00000040: fbd6 243f 34df a7bd 326c 9d3d e2f1 4b3e
00000050: e31a 0abe 1a32 b7bc e6bb c13d 2cca 063e
00000060: 1a3b 4cbf 98e0 63be f05b 923c 4cca f5bd
00000070: 4af5 a53e 4b57 4f3e 07ab b73c 2dac bbbe
00000080: 0ecb 823e 35d8 7e3d d486 ab3d 2326 99be
00000090: 2a9f 9cbd ed07 65bf 9dfe 8b3e 9606 16bc
000000a0: 59e1 a8bd 9ae9 9dbf 894a 51bd a9c5 de3e
000000b0: 89ea debc 3de2 da3c 6b5c 62be 30e0 39be
000000c0: 55af 43bf 7dee 50bf 46ee d73c 0e41 053d
000000d0: 825d 4abf c440 ddbc 83ef 2f3e 4215 f43d
000000e0: bba9 55be 9851 e4bd 7a90 093c 99bb 6bbe
000000f0: 1d68 47ba d8a3 a23e c319 613c a796 84bf
00000100: c83f 0bbf 7f7a 4cbe 4eff 383e 4160 f1bd
00000110: 5aad 033e 38cd 043e 693d c2bb 6353 483e
00000120: 3a53 053e 811c 6fbf 446e fd3e 2820 583e
00000130: bae6 a03d e68c a4be ebcf 58be e1e3 5a3d
00000140: 5c87 283d c222 233e 93e1 dcbd dcec 9d3e
00000150: 2dc7 e7bd c399 373f 3359 21bd 310a b13e
00000160: 02d3 4b3d f9e7 c33d 1ef4 1b3e e9a6 47bf
00000170: d41f 87bf 6384 12be 1602 c13d 5d99 1bbc
00000180: 602b b1be c444 32bb f5cb 14be 5183 b9bd
00000190: d976 0a3e a4b8 1d3e d8d5 7a3e 12fb 083f
000001a0: 0188 cf3d e532 3c3e 1097 353e f6b0 003d
000001b0: d070 89bf dbcc 0cbf 19ea 1e3f ac53 dcbd
000001c0: 9663 1d3f dc24 ef3d 8619 e3be 0e5e 393f
000001d0: a803 02bd 8328 5ebd 9674 dd3e 3807 88bf
000001e0: 4213 3e3d 85d3 583e 6cd9 d2bd 89e0 1f3f
000001f0: 2731 7bbe 5342 1dbf 875e ac3c 4be8 3cbf
00000200: 7af3 9a3b ece9 893e 426e 113d 2989 4abc
00000210: 1079 f73e 0f74 ab3d 1182 bbbc 5d4a 673e
00000220: 4a54 30bf e319 77bf d868 a13d 2446 a6bd
00000230: d847 9f3b d2eb acbd e691 8abe a5d2 d5be
00000240: 0d0d 073f 2098 1cbc 215a 993d d409 3f3e
00000250: a0b4 16be 662c 0f3e a587 3e3d 8ea2 943d
00000260: 9578 8cbf ab7f 7ebe 11c9 b03d f304 92be
00000270: 248e cb3d 11d7 a73d f3f1 043e 9ad7 a2be
00000280: 69f7 a63e cf36 b7bd fe10 943d 5acb 12bf
00000290: f7d9 4ebd e34a 42bf 935d 9b3e 0c10 1abe
000002a0: 37fc 6c3c f3cf 89bf f4b7 36bd 8a9f 003f
000002b0: 8792 f2bd 3196 8b3d d085 2cbe a973 40bd
000002c0: cb81 23bf 4ef8 93bf 1e4e 48be 0691 143d
000002d0: 67ee 42bf 9453 c9bb 03a7 543e 6877 2b3c
000002e0: a8db 2abe 94a1 203e 2aa4 5f3e d3d4 5cbe
000002f0: 276d 813d 47fd a2bd 5865 c3bd 0731 76bf
00000300: 9b92 45bf ed07 20bd 3fe8 f33d 32e8 a8bd
00000310: 5d33 823d 0a51 503e 7c8a d2bd 8c10 e73d
00000320: fec8 ef3d 3fad 37bf 05c5 9d3e 774e a03e
00000330: 8fa4 a93d df4b 78be 288d bcbd 5b19 9b3d
00000340: 2775 22bd 0ec7 b83d c804 a6bd 8cad 5a3e
00000350: a25c 8fbd a30d 1b3f 3120 503d f62e b43c
00000360: fb79 4b3e 4ce7 e4bc 3a39 383e ef74 3dbf
00000370: 5df7 aabf ac8e 99bd 351e 333e 39e8 e2bb
00000380: 36f6 a0be 58fb 19be 7a64 ffbd f1b4 4fbe
00000390: 9f02 9d3d 5e7b 373e 903f f1bd 1352 073f
000003a0: be84 8c3d c6d4 943d 21d1 c93d 4c38 36bd
000003b0: ad18 afbf 88d1 58bf 6e6e 1e3f 0408 20be
000003c0: edc5 263f c822 2f3d da59 19bf 364d 073f
000003d0: 3adc 8ebd 30c9 203d f447 303e a318 a3bf
000003e0: d39a 223b 4b99 673e 3259 c0bd 3e5a f63e
000003f0: a298 ddbe fd99 82bf dd16 2d3d c10d 5cbf

layers.2.bias f4 [128]
0.052806154 -0.02499946 0.31106648 -0.04819445 0.046389572 0.27044666 0.22604914 0.11090664
-0.033165783 0.09053832 0.122316465 -0.08071737 -0.12789206 0.21602154 -0.083743624 0.05191953
0.05112512 0.35932925 0.064257465 -0.033177864 -0.0066574006 0.15333655 -0.09687938 -0.0005457401
0.3254571 0.27960482 0.020529276 0.16471693 0.12675644 0.3891898 0.07322897 0.12390305
0.051153168 -0.02229536 -0.03945164 0.0033456779 0.33253807 -0.05893579 0.027362213 -0.034717914
-0.016804501 -0.043196782 -0.11028012 -0.039719842 0.019730654 0.028347319 -0.006771818 0.049335334
-0.0165933 -0.002870009 0.040146917 0.03347469 0.060357817 0.10239241 -0.08407903 -0.07818982
-0.06892621 0.00020070608 0.030978747 0.35501382 -0.072849974 0.17218365 0.27141595 0.07453472
0.33020148 -0.019769983 -0.01257513 0.184272 -0.09776052 0.10440269 0.28230077 -0.047007684
-0.063694656 -0.013920691 -0.047838032 -0.1499387 0.20450081 0.087269165 0.06759187 0.033896774
-0.009800382 0.12730278 0.22083484 0.20896262 -0.00092653505 0.0029861133 0.03970923 0.30052206
0.41034335 0.3143667 0.037535105 0.23700184 0.38857946 0.15609993 0.35206056 -0.091341354
-0.023516212 -0.048707962 -0.0725759 0.14125977 0.02773184 0.12259157 -0.44032592 -0.12177889
0.099433854 -0.04765422 0.23700565 0.09803954 0.04158808 0.057878584 -0.012454226 0.2861891
-0.019574732 -0.012305588 -0.028305836 0.039109863 -0.076662324 0.22602879 -0.07470786 0.093391515
-0.030717084 0.2635864 0.24106129 -0.020095663 0.2848237 0.092110485 -0.017804787 -0.0026339882
00000000: 444b 583d abcb ccbc 1b44 9f3e 8b67 45bd
00000010: fe02 3e3d fc77 8a3e 6d79 673e 0523 e33d
00000020: d8d8 07bd 286c b93d 0e81 fa3d 264f a5bd
00000030: 23f6 02be c034 5d3e c781 abbd 93a9 543d
00000040: 9368 513d 01fa b73e 6b99 833d 83e5 07bd
00000050: 5326 dabb 4204 1d3e b268 c6bd 0010 0fba
00000060: 50a2 a63e 5d28 8f3e 032d a83c 8eab 283e
00000070: 71cc 013e e343 c73e 12f9 953d e2c0 fd3d
00000080: fc85 513d c2a4 b6bc 0b98 21bd 2943 5b3b
00000090: 6e42 aa3e a866 71bd b826 e03c 5f34 0ebd
000000a0: 98a9 89bc 1cef 30bd 8bda e1bd 46b1 22bd
000000b0: 2ea2 a13c a338 e83c 20e6 ddbb d913 4a3d
000000c0: acee 87bc c316 3cbb 1871 243d c21c 093d
000000d0: c239 773d 1db3 d13d a031 acbd fc21 a0bd
000000e0: 2f29 8dbd a174 5239 24c7 fd3c 5fc4 b53e
000000f0: 5e32 95bd e950 303e 08f7 8a3e a9a5 983d
00000100: 2b10 a93e a9f4 a1bc eb07 4ebc cdb1 3c3e
00000110: ab36 c8bd 14d1 d53d ba89 903e 218b 40bd
00000120: 5872 82bd 9c13 64bc d0f1 43bd 8889 19be
00000130: a968 513e 2dba b23d 9b6d 8a3d 58d7 0a3d
00000140: c891 20bc a95b 023e 8722 623e 4cfa 553e
00000150: b7e2 72ba abb2 433b 25a6 223d 07de 993e
00000160: 8618 d23e acf4 a03e 69be 193d 9cb0 723e
00000170: e3f3 c63e a9d8 1f3e 4841 b43e 2d11 bbbd
00000180: 12a5 c0bc 0082 47bd aca2 94bd 67a6 103e
00000190: e22d e33c 4a11 fb3d 6672 e1be 3667 f9bd
000001a0: faa3 cb3d 1231 43bd 9cb1 723e f4c8 c83d
000001b0: 4358 2a3d 1812 6d3d cf0c 4cbc 6187 923e
000001c0: 305b a0bc 619d 49bc a4e1 e7bc aa31 203d
000001d0: 2301 9dbd 1774 673e 6f00 99bd 0d44 bf3d
000001e0: 65a2 fbbc ccf4 863e c5d8 763e a99f a4bc
000001f0: 69d4 913e 6ca4 bc3d 58db 91bc fd9e 2cbb

layers.4.weight f4 [2, 128]
-0.25452238 -0.23696834 0.3971637 -0.05389698 -0.017777003 0.30168265 0.39079112 -0.22506659
-0.42040995 0.41380626 -0.34952834 0.024216555 -0.57173336 0.09445782 -0.00062675774 -0.26518032
-0.3382941 0.37001118 -0.1201559 -0.53063047 -0.05586709 0.005356991 -0.0048688087 -0.014023975
0.3290378 0.3628871 -0.061115693 0.36460376 0.23683514 0.28726417 -0.1442033 0.043934215
-0.04385666 0.07951103 -0.05244033 -0.14821598 0.10507812 0.029360607 -0.09277349 0.6512182
0.0043761753 -0.2773139 -0.345559 -0.03163929 -0.23418589 0.021200696 -0.08820226 0.38848633
-0.13539572 0.06030091 -0.47091842 0.043786597 0.1375613 0.41717076 -0.3143356 0.030622115
-0.046556182 0.36325538 -0.07845613 0.36791876 -0.32116416 0.38105452 0.08497664 0.07801974
0.109039724 -0.01151489 -0.0014950449 0.4235687 -0.36457828 -0.31232604 0.3634117 0.0018962292
0.005369149 0.032393895 -0.0842997 0.8863953 0.34785533 0.06590883 -0.2604439 -0.11533197
0.06339524 -0.20868425 0.1183806 0.3476041 0.09136611 -0.48077822 -0.03834283 0.10517433
0.26841235 0.2923783 0.03413955 0.39859268 0.34107125 0.35861388 0.38247597 -0.05106305
0.033525057 -0.03644404 -0.017606879 0.34862825 -0.32517496 0.35502848 -0.7654578 -0.4077016
0.008482254 -0.34923732 0.3433522 0.49374357 0.05577933 -0.111416884 -0.06667134 0.39692685
-0.06856322 -0.0033398333 0.035497956 0.018951235 0.026937969 0.39694595 -0.069208264 -0.22752361
-0.05576978 0.4118512 0.3503388 0.049735777 0.4127896 -0.15983216 0.08291232 0.16994707
0.41479224 0.24812013 0.28672293 -0.04933665 0.02424077 0.48085773 0.18194927 -0.2914811
0.18863556 0.16184002 0.27206504 0.0055304756 -0.18663993 -0.6840382 0.053481214 -0.17854919
0.010191328 0.3056059 0.38271105 0.09482291 -0.05134583 -0.51071984 -0.059354607 -0.06917408
0.3007896 0.2544609 0.062040146 0.17805927 -0.47869363 0.46291664 0.34602514 0.8089157
0.00094891747 0.010035627 -0.041036658 0.387419 0.37401804 -0.043434802 0.40762344 0.20511356
-0.0472622 -0.016391728 0.23942639 -0.051724773 -0.13348964 0.0037166385 -0.07690057 0.2409049
0.2587074 0.020597488 -0.18492775 0.043542758 0.19027431 0.32610452 0.50262374 -0.22315405
0.012689632 0.239789 0.07193499 0.34809265 -0.11102318 0.18381682 0.28698838 0.40936667
0.36412603 -0.5875742 -0.062081296 0.16924927 -0.10263773 -0.4643733 0.4329965 -0.045815837
-0.07922023 -0.015970683 0.015580878 0.6277809 0.19828305 -0.47424904 -0.2152637 0.20437187
-0.022999965 0.029921044 0.33135316 0.25806853 -0.10085698 -0.543874 0.057352465 0.28923494
0.4614534 0.3683388 0.014046648 0.32069927 0.35137835 0.22936052 0.3836072 -0.009984853
0.03798949 -0.063733324 -0.031525556 0.22853546 -0.32138333 0.21162024 0.23308639 0.048162952
0.21504562 0.03079531 0.23508 -1.0724623 -0.20138793 -0.4790105 0.081365615 0.22044995
-0.04186642 0.00521382 0.08400979 0.014842798 0.07364746 0.22898628 0.06414601 0.32590014
0.050480723 0.32631126 0.35237104 -0.07427094 0.27914286 0.2753313 -0.014217831 0.36481166
00000000: c250 82be d4a7 72be 0a59 cb3e 14c3 5cbd
00000010: 14a1 91bc 2676 9a3e c615 c83e db77 66be
00000020: f93f d7be 6ade d33e 61f5 b2be cc61 c63c
00000030: 1e5d 12bf 1a73 c13d 004d 24ba b7c5 87be
00000040: e234 adbe 1b72 bd3e 4c14 f6bd 66d7 07bf
00000050: e4d4 64bd b389 af3b 878a 9fbb d0c4 65bc
00000060: a477 a83e 57cc b93e 7354 7abd 58ad ba3e
00000070: e984 723e 4a14 933e 08aa 13be 5df4 333d
00000080: 0ba3 33bd aed6 a23d accb 56bd eec5 17be
00000090: 3333 d73d a885 f03c 0700 bebd 3cb6 263f
000000a0: 0566 8f3b 16fc 8dbe 1ced b0be 3398 01bd
000000b0: 6dce 6fbe 15ad ad3c 63a3 b4bd aee7 c63e
000000c0: 2da5 0abe 16fe 763d 381c f1be 9359 333d
000000d0: dfdc 0c3e 6897 d53e 99f0 a0be 3bdb fa3c
000000e0: b2b1 3ebd 9cfc b93e 9cad a0bd d95f bc3e
000000f0: a16f a4be 9419 c33e 3c08 ae3d d0c8 9f3d
00000100: 3850 df3d f3a8 3cbc 62f5 c3ba ffdd d83e
00000110: 01aa babe 33e9 9fbe 1911 ba3e e58a f83a
00000120: b0ef af3b 76af 043d 52a5 acbd cdea 623f
00000130: 181a b23e 35fb 863d e758 85be 2b33 ecbd
00000140: 5dd5 813d 53b1 55be 8771 f23d 2af9 b13e
00000150: 281e bb3d 9028 f6be 5f0d 1dbd a465 d73d
00000160: 586d 893e 9cb2 953e ead5 0b3d 5714 cc3e
00000170: e4a0 ae3e 3d9c b73e e4d3 c33e 7d27 51bd
00000180: 9251 093d 5846 15bd 4d3c 90bc 677f b23e
00000190: 557d a6be 4bc6 b53e 0bf5 43bf 44be d0be
000001a0: 27f9 0a3c 3ccf b2be dccb af3e f5cb fc3e
000001b0: de78 643d 892e e4bd fc8a 88bd ff39 cb3e
000001c0: e06a 8cbd 1be1 5abb 4e66 113d 9f3f 9b3c
000001d0: 04ad dc3c 803c cb3e 10bd 8dbd f3fb 68be
000001e0: da6e 64bd 29de d23e 9b5f b33e beb7 4b3d
000001f0: 2959 d33e 0bab 23be efcd a93d 9b06 2e3e
00000200: a65f d43e 3413 7e3e 59cd 923e 3a15 4abd
00000210: 9494 c63c fc32 f63e e950 3a3e 033d 95be
00000220: ae29 413e 64b9 253e 1c4c 8b3e fe38 b53b
00000230: 8a1e 3fbe 211d 2fbf 1e0f 5b3d 99d5 36be
00000240: 87f9 263c 6078 9c3e b4f2 c33e 8432 c23d
00000250: 0150 52bd 89be 02bf d11d 73bd 24ab 8dbd
00000260: 1801 9a3e b348 823e cf1d 7e3d 2b55 363e
00000270: 5517 f5be 6903 ed3e 352a b13e 1915 4f3f
00000280: c6c0 783a 786c 243c 0e16 28bd c85b c63e
00000290: 4b7f bf3e b1e8 31bd 05b4 d03e 4a09 523e
000002a0: 0296 41bd f247 86bc 312c 753e 5bdd 53bd
000002b0: 82b1 08be d992 733b 0c7e 9dbd c6af 763e
000002c0: 4c75 843e 10bc a83c b35d 3dbe e459 323d
000002d0: 45d7 423e 2cf7 a63e f3ab 003f 7f82 64be
000002e0: 2de8 4f3c 3f8b 753e a752 933d 3339 b23e
000002f0: 1f60 e3bd 7a3a 3c3e 24f0 923e 8298 d13e
00000300: ba6e ba3e 436b 16bf f548 7ebd ae4f 2d3e
00000310: bb33 d2bd 56c2 edbe b8b1 dd3e 63a9 3bbd
00000320: 373e a2bd f3d4 82bc f046 7f3c 40b6 203f
00000330: b60a 4b3e c5d0 f2be 166e 5cbe dc46 513e
00000340: 6c6a bcbc fa1c f53c 1fa7 a93e 8f21 843e
00000350: 1b8e cebd 543b 0bbf 6bea 6a3d 9a16 943e
00000360: 9f43 ec3e e796 bc3e e923 663c b232 a43e
00000370: dde7 b33e 7cdd 6a3e 2a68 c43e 8297 23bc
00000380: de9a 1b3d 9e86 82bd f120 01bd 3305 6a3e
00000390: 5b8c a4be fab2 583e 33ae 6e3e 8446 453d
000003a0: eb34 5c3e 7246 fc3c d0b8 703e 7246 89bf
000003b0: a338 4ebe dd40 f5be 04a3 a63d a2bd 613e
000003c0: 207c 2bbd b1d8 aa3b 530d ac3d 352f 733c
000003d0: 7bd4 963d 617b 6a3e fc5e 833d 62dc a63e
000003e0: e0c4 4e3d 4512 a73e fa69 b43e 5d1b 98bd
000003f0: d0eb 8e3e 39f8 8c3e e8f1 68bc 98c8 ba3e

layers.4.bias f4 [2]
0.15004106 0.26411313
00000000: 5da4 193e d639 873e
