ACC/smooth_0.5/model_1500.pth (torch_old, 1146 bytes, 3 tensors)

fc1.weight f4 [20, 2]
0.30048814 0.048294984 -0.09927609 -0.1390599 0.07206195 0.07130907 -0.29972574 -0.6561451
-0.04666326 0.016951144 0.32900554 0.37299418 0.54871655 0.19838329 -0.3586355 -0.31108493
0.089322664 -0.2955294 -0.22697383 -0.12386259 0.11986339 0.39782017 -0.015445171 -0.2502838
-0.4005721 -0.5434732 0.22602533 0.5968853 -0.12741525 -0.89096016 -0.009357855 -0.2747943
0.15400876 -0.11916522 0.047056243 0.22548397 0.072905146 0.30345014 0.29970676 0.32328457
00000000: 95d9 993e f6d0 453d 4351 cbbd b865 0ebe
00000010: 3795 933d 7d0a 923d a775 99be 20f9 27bf
00000020: f921 3fbd 20dd 8a3c 6a73 a83e 18f9 be3e
00000030: b078 0c3f fd24 4b3e 129f b7be 8646 9fbe
00000040: cdee b63d a14f 97be d46b 68be abab fdbd
00000050: f07a f53d 16af cb3e be0d 7dbc 3325 80be
00000060: c917 cdbe 0f21 0bbf 2f73 673e 7acd 183f
00000070: 2579 02be f715 64bf b051 19bc d7b1 8cbe
00000080: 79b4 1d3e e50c f4bd 0cbe 403d 45e5 663e
00000090: 4b4f 953d d15d 9b3e 2a73 993e 8e85 a53e

fc1.bias f4 [20]
-0.2018928 -2.2016523 1.5935328 -0.9998866 -1.6519516 -0.12934034 1.5776955 0.08135398
2.208245 -1.049745 1.520291 2.1799784 0.8990716 0.2028824 1.6084253 -2.10198
1.7041883 -2.7284262 -0.01960667 0.12647262
00000000: fcbc 4ebe dfe7 0cc0 e2f8 cb3f 91f8 7fbf
00000010: 2673 d3bf cb71 04be edf1 c93f ea9c a63d
00000020: e353 0d40 0b5e 86bf e598 c23f c484 0b40
00000030: 8e29 663f 67c0 4f3e e1e0 cd3f d786 06c0
00000040: d822 da3f 899e 2ec0 2b9e a0bc 0a82 013e

fc3.weight f4 [1, 20]
0.22601758 1.0065348 0.42938644 -0.53343594 0.23395793 -0.13162278 0.31975067 -0.27448282
0.977392 -0.046597194 0.36401796 -0.57117724 0.36935312 0.361904 0.27339303 2.8975768
-1.0450958 -3.988651 -1.6056727 -0.20738937
00000000: 2771 673e 22d6 803f 8ad8 db3e 428f 08bf
00000010: ab92 6f3e 1fc8 06be 5cb6 a33e 0389 8cbe
00000020: 5d36 7a3f b3dc 3ebd 9060 ba3e ac38 12bf
00000030: da1b bd3e 7b4b b93e 2cfa 8b3e e671 3940
00000040: b3c5 85bf 0f46 7fc0 af86 cdbf e15d 54be
