ACC/smooth_0.5/model_1400.pth (torch_old, 1146 bytes, 3 tensors)

fc1.weight f4 [20, 2]
0.107115716 0.105989166 -0.17947038 -0.20416306 0.112553306 0.102796674 -0.4261687 -0.40662956
-0.04805257 0.019294698 0.38081193 0.40058237 0.4001539 0.3925502 -0.4506092 -0.016630642
0.31092793 -0.41098374 -0.34016275 0.17025723 0.09210003 0.39793205 0.02340518 -0.35388166
-0.502532 -0.4285716 -0.0427955 0.5239118 -0.39046815 -0.75251365 0.02746591 -0.25704163
0.10999317 -0.077626355 -0.070815906 0.17517279 0.03015771 0.34059566 0.33564374 0.3273494
00000000: 7c5f db3d d910 d93d 15c7 37be 1f10 51be
00000010: 5982 e63d 1087 d23d c932 dabe c031 d0be
00000020: c6d2 44bd ea0f 9e3c c8f9 c23e 2219 cd3e
00000030: f9e0 cc3e 57fc c83e 40b6 e6be fc3c 88bc
00000040: f231 9f3e 766c d2be d029 aebe e957 2e3e
00000050: f19e bc3d c0bd cb3e 38bc bf3c fa2f b5be
00000060: f0a5 00bf bd6d dbbe 564a 2fbd 151f 063f
00000070: 71eb c7be bca4 40bf 3000 e13c f69a 83be
00000080: 1944 e13d 91fa 9ebd ee07 91bd 7f60 333e
00000090: 4d0d f73c 8e62 ae3e 7fd9 ab3e 579a a73e

fc1.bias f4 [20]
-0.40611267 -1.8938677 1.1192323 -0.7375309 -1.6510242 -0.9922901 1.8692569 0.0025045637
0.64039654 -1.4304838 1.2031869 1.9489679 0.76982856 0.33682323 1.1245158 -1.9242432
0.9913725 -2.691046 -1.3898199 -0.72541076
00000000: 00ee cfbe 426a f2bf 0143 8f3f d3ce 3cbf
00000010: c354 d3bf b906 7ebf cf43 ef3f 9b23 243b
00000020: 07f1 233f 181a b7bf 0702 9a3f c877 f93f
00000030: 7c13 453f 1874 ac3e 22f0 8f3f 9a4d f6bf
00000040: 97ca 7d3f 193a 2cc0 9ee5 b1bf 85b4 39bf

fc3.weight f4 [1, 20]
-0.012893699 0.9075339 0.3236103 -0.5271528 0.23396029 -0.27533644 0.44511205 -0.32174557
0.2946129 -0.32217962 0.32804304 -0.5049988 0.4186921 0.27609533 0.25182316 1.7956566
-0.12374627 -4.024884 -2.1270592 -0.2924635
00000000: 1840 53bc 2454 683f 40b0 a53e 7cf3 06bf
00000010: 4993 6f3e e6f8 8cbe bae5 e33e d6bb a4be
00000020: 81d7 963e baf4 a4be 42f5 a73e 9a47 01bf
00000030: d05e d63e 5e5c 8d3e f7ee 803e 13d8 e53f
00000040: af6e fdbd dacb 80c0 bd21 08c0 c7bd 95be
