ACC/ddqn_models/0417/ddqn_800_1.0.pth (torch_old, 69813 bytes, 6 tensors)

layers.0.weight f4 [128, 2]
00000000: 876c 213f 8f22 2d3e c450 c5bd 16e0 91bf
00000010: 1331 6ebe 2c6c 043f 3f8e 96bb 92fe 01bf
00000020: 4da5 57bb 057b 823b fcac cbbe f310 64be
00000030: 6e20 893e 9dcd 9e3e f643 c3be 507a 333f
00000040: 425a d8be c7d7 39bc 6ae8 f0bd 5dc1 f9bd
00000050: 0eab bebe b73a 71bf d5fe 1ebd a19e 883e
00000060: 4b57 7cbd 697e 0cbf ca88 43bd 1e65 43bf
00000070: 302d f4bc 2fdb 293f 7ab8 c2be 8b3a 293f
00000080: 8e7b 64be a0d1 58bf 4735 ff3d 0573 55bf
00000090: 2b0e 59be 1ac6 8c3e aca5 9ebc 62b7 053e
000000a0: 74f5 c9bc b6f6 683e 6dbe 4b3e d916 173f
000000b0: 8efb 0c3e a55d 9bbe 253d d0be 9c0f 11bf
000000c0: 998c da3e 4bea 3c3f 88d5 0c3f 340b e4be
000000d0: 8cd3 48be d15d 6cbf 063a a2bd d01e 50bd
000000e0: 8e66 07bd 3491 3abf 2adb d33d cc00 1ebd
000000f0: edcb ffbc b6ac 19bf 0e7f 07bf 9f5c 6dbc
00000100: e9b7 f6bc 80cf 89bf 8111 8cbd 8d24 f9be
00000110: b90f 04bd 9f29 813c a346 243c 86fc d33d
00000120: 9896 72be 3774 4338 7d88 a1be 9a50 46bf
00000130: 344a 18be 16a2 773f 3dbc 53be 684a c63d
00000140: bc96 c03d 2f76 8ebe 7584 99bb 5c7a 70bf
00000150: d9ed bf3d f5cd 34bf c373 babe 59b8 c33c
00000160: a7f3 debd 487a 7c3e 80f4 cf3e 9945 1bbf
00000170: 2f50 073f a2b8 533e 7dea 81be ffa1 7c3e
00000180: 9ce2 94be 9514 e2be d518 dd3c ae4c 0fbe
00000190: 4553 df3e 3c3e 3bbf 4945 713e 52c2 3e3f
000001a0: bc42 dbbe dc58 203f bd87 92be 0b45 113e
000001b0: 4d0b 6ebe 350d ebbe aed7 9cbd 57ed fd3e
000001c0: 7982 ffbe 99cd 42bf 08e1 f7be 2ba0 e1be
000001d0: a5ee 2a3e 3fef c3be aa68 aabe 9062 16be
000001e0: f357 863e 7c3a a73e a03e 203f dddd 1bbf
000001f0: d542 8a3c a35f 003e 5232 b8bd 0904 763f
00000200: f152 a2be 565c 38bf acff 71be 5aa7 75be
00000210: 61e4 8fbc 2c78 d0be 4fca f739 7b19 743e
00000220: db85 05be 73cb d63d dc64 efbc d324 f9be
00000230: 6312 c9be 7206 dabe fcc8 20be ee73 3fbf
00000240: 0f05 123f 7eca 52bf 6b59 eb3d 57a2 90be
00000250: e037 77bd 93ac 5cbe 3f5f c23d 0219 db3e
00000260: 5252 ca3c 6a65 1cbf 59d8 48be 28f0 133f
00000270: d005 1fbe a906 993e 7870 aebe 9ddb e5bd
00000280: 77ad 263e 5960 8fbe b649 423e 7b48 49be
00000290: 40e6 7cbe 9e8a ea3d c4e8 053f 81a9 0abd
000002a0: 7987 d5be 1114 0ebf c1ce 83be e2ff 6c3e
000002b0: c526 83bd 827a 923e 8a79 c33e 744b 57bf
000002c0: 7e33 97bd 5219 023e 4d45 01bd 0ead f53c
000002d0: 74b0 03bd f9b9 6fbf 469d 84bd 0142 883e
000002e0: 41d9 a53e 2766 ebbe 016d 913d 3ef0 613f
000002f0: b17d 97be b655 843b c6f4 05bf 0231 533f
00000300: 536a e73d a664 8bbf ba14 9e3e 6984 263f
00000310: 6834 253f 097b bdbd a1d5 f23e 3312 3ebf
00000320: 76a6 fb3b ed2c e63e aeaf c93e 9285 0bbf
00000330: 4869 0b3f 6405 533e e82e b3bc 4602 0abf
00000340: b4ab 093e 48ac b0be ead6 3d3e 90fa 58bf
00000350: fe1f 72bc 2f91 7f3d e41e 603e 6f8e b6be
00000360: 5d7e 0b39 1cdd c8be 8407 11be bdd0 72bf
00000370: 4cdd 8dbe 245d 713e dd48 ac3e 22bf 55be
00000380: 4042 b73e ea8f 953e 5bbd f7be f0de 80bc
00000390: 835f 72be 1178 29bf f538 99bd f5bc 88bf
000003a0: 6e8e 0cbf e549 eebd ef5c a1bc 59db af3c
000003b0: 0cd4 e73e 6363 4d3e b359 f33e d424 573e
000003c0: 76a2 d3bd 716f 9a3e 8859 dd3e 85ce 9bbe
000003d0: ec2c 563f fd1b 1cba 03d2 d73e 64f8 1fbf
000003e0: 6928 bbbd 855c 46bf 3c17 a0be b2e5 4bbf
000003f0: 37ba 68be 1fa4 e6bc ecf4 a33e f0a2 fb3e
0.63056225 0.16907714 -0.096345454 -1.1396511 -0.23260908 0.5172756 -0.004594594 -0.5077907
-0.0032904923 0.00398195 -0.39780414 -0.2227209 0.26782554 0.31016245 -0.38137788 0.7010851
-0.4225636 -0.011342949 -0.117630795 -0.12195084 -0.3723988 -0.94230217 -0.038817246 0.26683524
-0.061606687 -0.54880387 -0.047737874 -0.7632617 -0.029806703 0.6635007 -0.3803137 0.66104954
-0.22312757 -0.8469486 0.12461334 -0.8337863 -0.21196811 0.2749489 -0.019366108 0.13058236
-0.024653174 0.22750363 0.1989686 0.5901924 0.13767835 -0.30344883 -0.4067165 -0.56664443
0.42685392 0.73795 0.5501332 -0.44539797 -0.19611949 -0.9233065 -0.07921223 -0.050810635
-0.03305679 -0.7287781 0.103445366 -0.03857498 -0.03122517 -0.6002916 -0.52928245 -0.014487415
-0.030116992 -1.0766449 -0.06839276 -0.486607 -0.032241557 0.015766917 0.010026607 0.103508994
-0.2369026 4.6599856e-05 -0.31549445 -0.7746674 -0.14872056 0.967317 -0.20677276 0.096821606
0.0940375 -0.27824542 -0.0046849796 -0.93936706 0.09371538 -0.70626765 -0.36416444 0.023891615
-0.10886317 0.24656022 0.40616226 -0.6065307 0.52856725 0.206759 -0.25374213 0.24671172
-0.2907914 -0.44156328 0.02698938 -0.13994095 0.43618217 -0.7314184 0.23561586 0.7451526
-0.42824352 0.6263559 -0.28619185 0.14186494 -0.23246498 -0.45908514 -0.07658325 0.49595138
-0.4990423 -0.7609497 -0.48413873 -0.4406751 0.16692598 -0.38268468 -0.33282977 -0.14686036
0.26238975 0.32661808 0.6259556 -0.6088541 0.016877571 0.12536483 -0.08993973 0.9609991
-0.31703904 -0.72015893 -0.23632687 -0.23989621 -0.017564954 -0.40716684 0.00047262243 0.23837845
-0.13039343 0.104880236 -0.029222898 -0.48660907 -0.3927184 -0.42583042 -0.1570167 -0.7478627
0.5703897 -0.8234023 0.114916645 -0.28248855 -0.06035602 -0.21550207 0.09490823 0.42792517
0.024697457 -0.61092246 -0.1961378 0.57788324 -0.15529561 0.29887894 -0.34070182 -0.112235285
0.16277109 -0.28003195 0.18973431 -0.19656555 -0.24697208 0.114522204 0.523083 -0.033853058
-0.4170492 -0.5549937 -0.25743678 0.23144487 -0.06403879 0.2860909 0.38178664 -0.8409951
-0.07382868 0.12704971 -0.03156023 0.029989745 -0.0321507 -0.93643147 -0.0647531 0.26612857
0.32392314 -0.45976374 0.07100869 0.88257205 -0.29588082 0.004038538 -0.5232662 0.82496655
0.112995766 -1.089009 0.30875188 0.6504579 0.6453309 -0.09251983 0.4742861 -0.7424652
0.007679756 0.4495615 0.39391845 -0.5450069 0.5445752 0.20607525 -0.021872953 -0.5390972
0.13444406 -0.3450644 0.18539014 -0.8475733 -0.014778135 0.062394317 0.21886784 -0.35655543
0.00013303147 -0.39231193 -0.14163023 -0.9484976 -0.277079 0.23570687 0.3364934 -0.20873693
0.35792732 0.2921136 -0.48386654 -0.015731305 -0.23669247 -0.6619883 -0.07481567 -1.0682665
-0.5490483 -0.11635188 -0.019697635 0.021466898 0.45278966 0.20057444 0.47529373 0.21010143
-0.10333721 0.30163148 0.4323237 -0.30431 0.83662295 -0.00059550983 0.42152414 -0.6248839
-0.09138567 -0.77484924 -0.31267726 -0.7964736 -0.22727285 -0.02815443 0.32022798 0.4914775

layers.0.bias f4 [128]
00000000: e01c 10be f921 3bbf 340b 813f dc32 953f
00000010: 1e47 22be b81c 2bc0 860f 903f 3075 eebd
00000020: 8f8a 32c0 9f93 333f 0f3a 7e3f dc76 54c0
00000030: e697 913f a248 cdbf 97b1 13c0 8a3c b33f
00000040: 8a22 193f 0980 1dc0 dd82 05c0 b846 31c0
00000050: 3724 42c0 c422 8abe a7c7 ee3f 2529 c7bd
00000060: fda2 9bbf 23d2 8c3f b6a4 3c3f 1119 4c3e
00000070: 36ee bebf 37bc fabf aad9 dbbf bccc 92bf
00000080: 872e bcbe 6fa8 efbf 9133 c93f 4d93 df3f
00000090: c07f ffbd fa4b f4bf 310f e2be f66e c23e
000000a0: 83b6 c6be 3a49 8b3f 5895 e4bf be70 ecbf
000000b0: d981 17c0 cad1 ef3f fe95 b23f b33c 27c0
000000c0: bac2 0f3f 7077 15c0 1001 85bf 8c9b 073f
000000d0: 02d2 efbf 9c0f fd3e 4dbc 983f e876 a33f
000000e0: 81f4 1d3f bc59 f3bf 647c f83f 0725 22bf
000000f0: 8d3a 8d3f ae82 d1bf 8a1f 1ac0 d7d6 f0bf
00000100: 5389 b7bf 5575 b53b ca34 27c0 02a7 1bc0
00000110: 7912 093e 8188 493f b2c8 9dbf c807 93be
00000120: e1d8 90bf 9666 c83f faad c03f c53c ba3f
00000130: 5eee 2c3f 57b3 0a3f c1c7 52c0 8631 01c0
00000140: e563 e03f 0c6f 09c0 63f4 d53e 2a9d ebbf
00000150: c137 b6bf 8734 11c0 d3cf 9e3f 3c10 b8bf
00000160: ab86 c73f b55d df3f 6ac0 8a3f 1a97 9f3e
00000170: 3537 5b3f c141 06bf 0330 57bd ff13 0b3f
00000180: 1dc7 efbf 74d3 cc3f 7b74 25be ab6b 1cc0
00000190: ea5f 3ec0 1b71 d33f e1d9 b73f f080 11c0
000001a0: e379 e13f f1b5 dd3e 7d11 e73f f051 e93f
000001b0: 7eef 0dc0 22c6 053f 466c 90be 4b2d 55bf
000001c0: 5e4c 973f a723 86bf ab64 9b3f 0e9c abbf
000001d0: 65c6 1bbf ae0c 92bf aee4 973f f272 d5bf
000001e0: 4d41 37c0 8518 d43f 57ea 32bc d7be 4b3e
000001f0: 3385 71bf 824d f53e 061a b7bf 47e4 0ec0
-0.14073515 -0.73098713 1.0081544 1.1656146 -0.15847442 -2.6736279 1.1254737 -0.116434455
-2.789707 0.70147127 0.9930734 -3.3197546 1.1374481 -1.6037791 -2.3077142 1.400285
0.5981833 -2.4609396 -2.0861123 -2.7699413 -3.0334604 -0.2697965 1.8654679 -0.097246446
-1.2159115 1.1001629 0.7368883 0.19931437 -1.4916446 -1.9588689 -1.7175801 -1.146873
-0.36754248 -1.8723277 1.5718862 1.7466828 -0.12475538 -1.9085686 -0.44152215 0.3797528
-0.3881112 1.0881722 -1.7858076 -1.8471906 -2.3673003 1.8735898 1.3952024 -2.6130798
0.56156504 -2.335415 -1.0390949 0.5297172 -1.8735964 0.49425972 1.1932465 1.2770662
0.6170121 -1.901176 1.9412961 -0.6333775 1.1033493 -1.6368005 -2.408175 -1.8815564
-1.4338783 0.0055376687 -2.612597 -2.4320683 0.13385953 0.78723913 -1.2326872 -0.28716874
-1.1316186 1.5656307 1.5053093 1.4549795 0.6755122 0.541799 -3.293442 -2.0186477
1.7530485 -2.1474028 0.41788015 -1.8407338 -1.4235765 -2.268831 1.2407173 -1.4379954
1.5587972 1.7450472 1.083997 0.3116997 0.85631114 -0.5244408 -0.052536022 0.54327387
-1.873264 1.600203 -0.16157715 -2.4440715 -2.9746041 1.6518892 1.4363366 -2.2734947
1.7615322 0.43302873 1.8052212 1.822813 -2.2177424 0.5225545 -0.28207606 -0.83272237
1.182018 -1.047963 1.2140096 -1.3406999 -0.608496 -1.141012 1.1866663 -1.6675704
-2.8633606 1.6569983 -0.010920129 0.19897018 -0.9434387 0.47910696 -1.4304817 -2.232683

layers.2.weight f4 [128, 128]
00000000: 3256 29be 2e73 04c0 99e0 913d 76b3 5fbd
00000010: 65d8 e53c 9e58 083f 5753 cfbe 2103 373d
00000020: ffd1 49be ef40 bf3d 82fe abbf f9f4 b7be
00000030: 8655 17bf 8800 90bd f582 39be b0d2 313d
00000040: 9d21 9bbe af50 16be 2e9b 3c3d 128a ccbd
00000050: fd2f 213e efa2 83bf fa71 cabe 46f4 92bd
00000060: f1fc 5a3e d2a7 bebd e968 24c0 8981 8d3e
00000070: c984 38be 7cb2 4e3e a6f6 2e3d 59fa 8cbd
00000080: 8e8c 583c 113c 12be 02b4 96be 173c 56be
00000090: 9da9 9f3d 00ad 52bf ed07 183e 7f98 0a3e
000000a0: ce4f ffbd 422a 0cc0 b763 4fba cbfa 52be
000000b0: 7f87 87be 64aa d4be 4e1c 1cbe f2f2 30be
000000c0: 2547 4c3e d303 31be cbbc 223e a39f e0bf
000000d0: df75 32bd d544 643e b8fa edbe b454 e8bd
000000e0: 2eb2 63be 699f a8be a230 18be 74ef ba3d
000000f0: f75e 6dbf d330 28be e9b8 3abf 7244 d6be
00000100: 9d54 09be 4a48 ed3d fb77 05be c0bc d6be
00000110: d866 843e afc2 38bf dcb1 4fbd a890 8fbf
00000120: a828 393e 0b85 40bf ff2f f13d ed83 e3bf
00000130: 4361 31bf fe35 073d 7a51 88bd 33d2 a13e
00000140: 125a 68be aeeb 27be 7354 1a3e 4132 48be
00000150: 2d68 91be 3d8a 70be 1d70 4cba fd77 2f3e
00000160: 60a6 1abe 348d 88be 0bb3 02c0 6974 04bc
00000170: e13a 6cbe fbb7 99bf a9a6 1d3e 2720 a03d
00000180: db28 023e 7d61 c2bf 2f80 8dbe 6864 02bd
00000190: 13b7 f6bd f096 5ebd d3ae 53be 34f7 94bd
000001a0: 0835 b1be 45ed 9a3d cad2 d4be a544 a8be
000001b0: 00b1 02bd 677b 79bf c74a 073e 6257 8ebe
000001c0: daa8 b4bd fe39 253b a8a5 b9be 4692 5b3d
000001d0: e4cf 02bd 488f 243e 747a 95be 72d1 71be
000001e0: 9c0a 803e 80e5 f2be 40cd 39be ae5b 39bd
000001f0: a7f8 9cbe 8d75 a0bf 51ab 33be 4709 d4bc
00000200: a5a8 993c 072a 633e ac31 b33d 0dcc 9d3e
00000210: 888d 1c3e 2b24 38be f6f6 7c3e 65c5 40be
00000220: e676 89be 4ab9 0c3e f447 f63d 735c d4bf
00000230: 4239 bc3e dbd4 8cbd 3e5f 75bc ac3a 473e
00000240: 8c44 f43d 87e6 16bf b087 b5be cb60 cdbd
00000250: 725e d7bf 300b 2dbd 2cc6 9a3e 636d 203d
00000260: 3f61 64be 55bb 2e3e 9fd2 7f3e c109 033e
00000270: 645a 00be 4a8a 2fbf 45c3 473d dcbd 8e3e
00000280: 0278 f1bd 3a1d 18be 0f18 003f 045f e33e
00000290: e4c3 bcbd 0e0e bc3d 918b abbe cc61 563e
000002a0: fd97 7f3d d9c9 a03e 24c5 79be e7a3 3abe
000002b0: 9fbf 85bf f145 883d e599 433e d3ad ccbe
000002c0: 7d2c fa3d c30b f7be cb7f 37be 4062 c03d
000002d0: 9293 9bbe 3765 d83d c6b6 983e 753c 333e
000002e0: 8703 b03e 938d 383e 2e28 0e3e 5d7f 8d3c
000002f0: 8c87 083e 349e d4bd 465a 04bf ee12 e5be
00000300: 1907 e53d 318a 523e f406 a3bf 7378 c7be
00000310: 0b9e abbd b5c1 f9bd 7b9e bcbc 370e 60bb
00000320: af88 8ebe d686 8e3e d127 2c3e 8b5d d23e
00000330: dd38 583e 6d93 893c 6c9b 3ebf a546 d6bd
00000340: e0d2 4b3e f171 e0be 8751 413e f85b b8be
00000350: adb0 463d dd89 28bf ff9b 043e 99d5 a2be
00000360: 7686 d63e 5746 393f 30e3 a43e bc44 353d
00000370: 39b5 a53d 6a10 21be efb8 1a3d 1fe8 c73d
00000380: e4f2 9cbe 4cf5 373e 33e4 0c3e 4d2f dbbe
00000390: d7a8 eebe 14f4 ad3d 4903 6d3e f0fe 57be
000003a0: ae8d 773e 1481 5dbe e7ee c83e df8e 553e
000003b0: 0bf6 7bbc eef4 98bc 0aca 723e 39f5 e13d
000003c0: cda0 613d 7b09 5e3e a6d9 a53e 44a7 57be
000003d0: 29fe 463d cfdc 7fbd 2bd2 ed3c c52e 19be
000003e0: 2220 e2bf 8566 1d3e 9d5c 903d b389 9cbd
000003f0: a40c 32be c4b1 5a3e 2611 a5bd aa43 acbe
-0.16536787 -2.06953 0.07122917 -0.054614507 0.028057287 0.5326022 -0.4049327 0.04468072
-0.19709013 0.09338557 -1.3437045 -0.35929087 -0.59114873 -0.07031351 -0.18116362 0.043413818
-0.30299082 -0.14679216 0.04604643 -0.09987272 0.15740962 -1.0284098 -0.39540082 -0.07175498
0.21385552 -0.09309353 -2.5689032 0.2763789 -0.18019404 0.20185274 0.04271569 -0.068836875
0.013217105 -0.14280726 -0.2943421 -0.2092136 0.07796023 -0.8229523 0.14846773 0.13534735
-0.124663934 -2.1900792 -0.0007911282 -0.20603482 -0.26470563 -0.41536248 -0.15245172 -0.17280176
0.19949014 -0.17286615 0.15892331 -1.7548717 -0.043569442 0.22291882 -0.46480346 -0.11344281
-0.22235939 -0.3293412 -0.14862302 0.09127703 -0.9272303 -0.16424875 -0.729384 -0.41849095
-0.13411184 0.11586054 -0.1303405 -0.4194088 0.25859714 -0.72172064 -0.05070673 -1.121602
0.18081915 -0.7520301 0.11776733 -1.7774636 -0.69289035 0.033010475 -0.066561654 0.31605682
-0.22690609 -0.16398498 0.15071277 -0.1955042 -0.28399792 -0.23490234 -0.00077986886 0.17135616
-0.1510253 -0.2667023 -2.042178 -0.008084395 -0.23069336 -1.2009271 0.15395607 0.078186326
0.12710898 -1.5186001 -0.2763686 -0.031834036 -0.120466374 -0.054343164 -0.20672159 -0.07273713
-0.34610772 0.07564787 -0.4156707 -0.32864872 -0.03190708 -0.9745392 0.13212119 -0.27801043
-0.088212684 0.0025211568 -0.36259198 0.053606294 -0.03193654 0.16070282 -0.29194987 -0.23615053
0.25008094 -0.4744072 -0.18144703 -0.04525345 -0.30658457 -1.2535874 -0.17545821 -0.02588333
0.018757174 0.22184001 0.087497085 0.3081974 0.15288365 -0.17982547 0.24703583 -0.188253
-0.26848525 0.13742557 0.12025443 -1.6590713 0.36762434 -0.068765365 -0.014976321 0.19455975
0.11927137 -0.58945507 -0.35455084 -0.100282274 -1.6825697 -0.042246997 0.30229318 0.03916682
-0.22302721 0.17063649 0.2498269 0.1279669 -0.12534481 -0.6857039 0.048770208 0.27879226
-0.11790468 -0.14854899 0.5003671 0.4440843 -0.09217051 0.09182368 -0.33504918 0.20935744
0.062400807 0.31403998 -0.2439161 -0.18226586 -1.0449103 0.06653965 0.19101675 -0.39976367
0.12215517 -0.4825116 -0.17919843 0.0939374 -0.30386025 0.1056618 0.29826945 0.17503531
0.3437769 0.18022756 0.13882515 0.017272646 0.13332957 -0.10381737 -0.51700246 -0.44741005
0.111829944 0.20560528 -1.2736497 -0.38959083 -0.08379754 -0.1219515 -0.023024788 -0.003418816
-0.27838656 0.27837247 0.16812064 0.41086993 0.21115442 0.01679393 -0.74455905 -0.10462693
0.19904661 -0.4383693 0.18878756 -0.36007667 0.048508335 -0.6583536 0.12950133 -0.31803587
0.4189946 0.72372955 0.3220458 0.044255003 0.08091206 -0.15728918 0.037774023 0.097610705
-0.3065406 0.17964667 0.13758926 -0.42809525 -0.4661319 0.0849382 0.23145784 -0.21093345
0.2417514 -0.2163127 0.39244768 0.20855282 -0.015378485 -0.01867148 0.23709884 0.11033101
0.055084992 0.21683304 0.32392615 -0.210599 0.04858223 -0.06246644 0.02903088 -0.14959247
-1.7666056 0.1537114 0.070489146 -0.076434515 -0.17387635 0.21356875 -0.080599114 -0.33645374

layers.2.bias f4 [128]
00000000: c0d0 f9be 962e 583f 124b b8bf 058f 61bd
00000010: d510 993b 81e8 9a3e 432a cb3e c0b8 89bf
00000020: d997 023f 1ef0 173f 8aad d0bf 1fcb 9e3e
00000030: 0041 5a3f 8c44 dc3e b04f 343f 550c 52bd
00000040: 5111 a5bd 6ca5 093e 9cb9 4f3f 4656 90bf
00000050: 03dc 1ebf 7c18 153f f7b5 5a3f 8cbc f23c
00000060: f6fd 003f 6ac4 cf3e acd1 a5bf 116c 893e
00000070: 4d4a db3e 713e 003f c534 d63e aa99 e13e
00000080: 4651 f33e d12d 493f 13d5 cbbc 824b be3e
00000090: 5e4b adbf 9450 c8be 3205 a33e 5d15 b43e
000000a0: 695e 3f3f 5149 263f ad50 a7bf 765a b3bf
000000b0: fbf2 efbd c132 b23e 1f9b aabd ebdd 8ebf
000000c0: 2577 2d3f 6255 023f 260a d4bf 2963 edbf
000000d0: 5091 c4bf a0d7 183f 51c2 d8bd b1df d9bf
000000e0: 6133 563f 1485 d5bf afee aabf 536b 583f
000000f0: 7c75 5abf 0819 b13e f88b 48bf 9a07 45bf
00000100: ceff bb3a a3d0 3a3f 56f5 47bf 8e6f 403f
00000110: 043e f5bc b2c5 cfbf c3f1 5c3e 0afe d83e
00000120: 696b a8bd 9c8b d33e e975 9ebd b2b8 85bf
00000130: 0399 b3bf 4c97 9bbf 84ea 953e 2c68 63bd
00000140: 9a5b 263c 2ad7 a4bf c2b0 c6bf ca69 193f
00000150: 02fa b53e 0ff4 10bf d958 f03e 1168 463f
00000160: 9813 0d3f 6acb 333e 025a abbf 3c19 83be
00000170: a5bc 61bd a8d1 943e 41fd 923c ce10 64bf
00000180: 6f56 41bf 7e08 3a3f 3d6a c9bf 5560 293f
00000190: 8a69 bdbf f168 d1bf 0f00 b0bc 7c0a b3bf
000001a0: d360 f4be 2d3b 443f 53d9 a6bf 8550 8fbf
000001b0: 8a37 02bd 523f 8dbd 0892 98be 8eb6 3fbd
000001c0: 9890 013f a2fd cb3e 33a1 823e 6c30 503f
000001d0: 2251 dabe 9f19 adbd d5b0 87bf 9cdd b0bf
000001e0: 2984 e6bd 839f c0bf a8ba 5c3f 2a3e ca3e
000001f0: ece5 77bf 275b b23e 7ae4 393f 9115 7e3d
-0.48792076 0.84446084 -1.439791 -0.055068035 0.004671196 0.3025551 0.3968068 -1.0759506
0.5101295 0.59350765 -1.630296 0.31014344 0.8525543 0.43021047 0.70434093 -0.051281292
-0.080599435 0.1344201 0.8114259 -1.1276329 -0.6205446 0.58240485 0.85433906 0.029630922
0.50387514 0.4057954 -1.2954612 0.2684026 0.42830124 0.5009528 0.41837135 0.4406255
0.47522944 0.78585535 -0.024881875 0.37166983 -1.3538625 -0.39123976 0.318399 0.3517255
0.74753433 0.6495562 -1.3071495 -1.4011981 -0.11716267 0.34804347 -0.08330368 -1.1161474
0.67759925 0.50911534 -1.6565597 -1.8545886 -1.5356846 0.5970402 -0.10583938 -1.702139
0.8367215 -1.6681237 -1.335409 0.84538764 -0.85335517 0.3458941 -0.78338575 -0.76964724
0.0014343204 0.72974604 -0.7810873 0.7517022 -0.029936798 -1.6232207 0.215766 0.42381316
-0.08223612 0.4131745 -0.07737333 -1.044699 -1.403107 -1.2155547 0.29280484 -0.055519268
0.010153675 -1.2878163 -1.5522692 0.59927046 0.35542303 -0.56622404 0.46942785 0.7750254
0.5510802 0.17558065 -1.3386843 -0.2560519 -0.055111546 0.29066205 0.017943026 -0.8908814
-0.7552251 0.7266921 -1.5735546 0.66162616 -1.4797833 -1.636015 -0.021484403 -1.3987575
-0.4773012 0.76652795 -1.3035072 -1.1196448 -0.031791247 -0.06896843 -0.29798913 -0.046804957
0.5061126 0.39841944 0.2551361 0.81323886 -0.42640024 -0.084521525 -1.060084 -1.381763
-0.11255676 -1.5048679 0.86222315 0.39500552 -0.9683521 0.3483517 0.7261425 0.062032286

layers.4.weight f4 [2, 128]
00000000: f541 24bf b38c a33e 6191 9bbf 956b 8fbc
00000010: cf0e e8bc 5913 a4bf 4682 3f3f 28d4 b1bf
00000020: e30d 413e 7044 153e 625b 32bf 6d64 aa3e
00000030: 7fea a83e 4e25 1540 7be3 a13e 5c5d 9bbc
00000040: 0e26 1c3b d7a6 783f 4d04 683e f9c6 c3be
00000050: 52d3 6fbe 9555 dd3e 1239 7e3e 2030 82bd
00000060: 3f96 e63e 8205 5ebe f5bd f0be 791e 803f
00000070: 9530 fe3e f7f9 ee3e 4179 a53e 5e66 603e
00000080: 2046 1f3e 027a 813e c6ed 73bc e439 f2be
00000090: cf2c ddbe c04d a43e c7da 0cbf 6038 a0be
000000a0: 337c 913e 841e cd3e 8359 09bf f734 a2bf
000000b0: 9ab9 6c3d 08b5 b9be 3739 4f3b 5fba d6be
000000c0: c790 6d3e 41c4 8d3e d4b0 45bf 242d e8be
000000d0: a0a8 42bf d262 633f 6cce 37be 3d84 febe
000000e0: c7e9 ac3e 4df1 d6be 1420 4cbf 2c58 a83e
000000f0: 6fae 0e3f b1bd 18bf 35ac 003f c502 febd
00000100: a20a c5bc 8232 dcba 411c 11bf aa78 303f
00000110: e755 963d 4c67 61bf 238c 5cbf 0056 b53e
00000120: 8484 133d e475 d2be a1a2 2abd 80c3 04be
00000130: 3afd 80bf 4fe0 fdbe 1dbf cebe aab2 06bf
00000140: e8a1 083d 6d9d debe 2b62 06bf 8ec0 3b3e
00000150: 0333 d23e 1e1e dcbe bb14 cbbe 0b8b 623e
00000160: 0173 183e a92f c6be 588f 84be 9881 2bbe
00000170: 113e 1a3d 3cd8 06bf ead4 5f3d 2aeb c3be
00000180: a420 4abc 2f43 ed3d e56f 3dbf b53c 913e
00000190: 5d9d 42bf 0e2a 9d3e d5fc 963d 470b 0bbf
000001a0: 11fd aabe d3be bc3e 396e d5be 61fe c83e
000001b0: 5ac1 563c e65e 81bd 212b 3fbf 6769 3d3b
000001c0: 6a9a 263e f151 bd3f 618f c9bf 6b96 a73e
000001d0: b768 9fbd 278e 4bbc 8cd8 64be f415 7abe
000001e0: 50d8 1ebd 6cbe 9e3d 71c5 883e abd3 57bd
000001f0: dadf a3bf 83a4 d93e d59d a03e b906 023d
00000200: 4d0c 413f bd4a c63e 9c64 4ebf fa0d 063d
00000210: bc93 17bd ecf4 68bc 4dd9 593f a1fd 35bf
00000220: 77ae 013f 117f 553e 25a2 3dbf 42f7 5fbd
00000230: b7e2 8c3e d17b d33f 2b70 623e fbbe c4bc
00000240: c247 32bc a1e2 f63f 59be c03e 0ed8 2fbf
00000250: 9427 eabc bf42 7d3e fb50 993e 04ad dc3c
00000260: fa02 ab3e 3f28 c9be 516c 46bf 7fe0 71bf
00000270: c6f3 e73e e306 903f 06d4 a93e f796 2f3e
00000280: 665e 093e 9f11 af3e 2099 f53b 02f0 ce3d
00000290: 0b9c 1ebf 8f9d 9c3d bd3e 9fbe 6c8b 153f
000002a0: 6a11 a83e 4417 c63d 96d8 13bf be60 99bc
000002b0: 9cc7 91bd 1068 3cbe acb9 a53c 5cce e3be
000002c0: 80ab 723e fd5c 873e e8ac 4fbf 6285 3abf
000002d0: 381d b2bf 60f9 55bd 32cc 933e 2eed 20bf
000002e0: 99de 743e d233 94bf 90eb 66bf 85d3 cb3e
000002f0: a4be 4abf e0a3 b03e ea90 93be ba8b 0dbf
00000300: 723e 873d 0afa a53e ade6 e4bd 71a5 bc3e
00000310: 1100 edbc 6834 1fbf 2596 083f acd8 9d3e
00000320: a36a 3fbc 8e24 123e 7f3c cfbb 030d 08bf
00000330: a469 6ebf 10c7 efbe 7878 dabe b629 e43e
00000340: 77c2 eb3c 0267 15bf ad31 2fbf 3656 693e
00000350: fc48 023e 3bc6 c2be ea60 a53e 997f 8d3e
00000360: e4a0 f63d c69e efbe cfd4 ffbe fb1b b5be
00000370: 143e 8ebd 13e7 873f 448d 8e3d dfbc 263e
00000380: 5326 ebbe f580 a33e 40bb 8ebf 9291 a63e
00000390: 883c 3ebe 9894 b7bf 31cb 8fbd 464e 28bf
000003a0: 6878 a93f b74f d63e 0078 6fbd 98d7 43bf
000003b0: e06b 733b f046 7f3c 7af9 973f da9e bbbc
000003c0: 48df 7b3e b7e7 133f c9ec 593f e537 8a3e
000003d0: c534 30bf 0871 603c ccee fabe b7cc 18bf
000003e0: 375d b0bd 0293 05bf 8874 b43e 5c2a be3e
000003f0: 244e 60bf 3450 923e 3c79 6f3e d579 453d
-0.6416314 0.31943282 -1.2153741 -0.017507354 -0.028327374 -1.2818404 0.74808156 -1.389287
0.18852954 0.14576888 -0.6967069 0.33279744 0.32991406 2.330402 0.31618866 -0.018965416
0.0023826393 0.9712958 0.2265789 -0.38237742 -0.23420456 0.43229356 0.24826458 -0.06356835
0.45036504 -0.21681789 -0.47019926 1.00093 0.4964644 0.46675083 0.32319072 0.2191405
0.15554094 0.25288397 -0.014888233 -0.47309792 -0.4319825 0.3209057 -0.5502133 -0.3129301
0.2841507 0.40062344 -0.5365221 -1.2672414 0.05779419 -0.36270928 0.0031619796 -0.41939065
0.2319976 0.27688792 -0.77222943 -0.4534694 -0.7603855 0.8882266 -0.17949837 -0.49710265
0.33772108 -0.41980973 -0.7973645 0.3287977 0.55734915 -0.59664446 0.5026277 -0.12402872
-0.024052922 -0.001679972 -0.5668374 0.6893412 0.07340603 -0.88048244 -0.8615133 0.35417175
0.03601505 -0.41105568 -0.041659 -0.12965202 -1.0077279 -0.49585196 -0.40380183 -0.5261637
0.03335753 -0.4347948 -0.5249354 0.18335173 0.41054544 -0.42991728 -0.39664254 0.22123353
0.1488762 -0.38708237 -0.25890613 -0.16748655 0.037656847 -0.526737 0.05464641 -0.38265353
-0.012336884 0.1158508 -0.7399886 0.28366628 -0.7602137 0.30696148 0.07372443 -0.5431408
-0.333962 0.36864337 -0.41685656 0.39256576 0.013107622 -0.063169286 -0.74675184 0.0028901936
0.16269842 1.4790632 -1.5746881 0.32731947 -0.07783645 -0.0124240285 -0.22348231 -0.24422437
-0.03878051 0.07751164 0.26713136 -0.052692097 -1.2802689 0.42508325 0.31370416 0.031744692
0.75409395 0.38728896 -0.8062227 0.032728173 -0.037006125 -0.01421855 0.850972 -0.7109013
0.5065684 0.20849253 -0.7407554 -0.054679163 0.2751672 1.6522161 0.22113101 -0.024016848
-0.010881366 1.9287912 0.37645224 -0.6868905 -0.028583325 0.24732493 0.29944596 0.026937969
0.33400708 -0.39288518 -0.7750903 -0.9448318 0.45303172 1.1252102 0.33169574 0.17147432
0.13414916 0.3419313 0.0074950606 0.101043716 -0.6195685 0.076472394 -0.31102553 0.58415866
0.32825786 0.09672406 -0.5775236 -0.018722888 -0.071181506 -0.18399072 0.020230137 -0.44493377
0.23698235 0.26438132 -0.8112321 -0.72859776 -1.3915167 -0.052239776 0.28866726 -0.6286191
0.2391304 -1.1578314 -0.9020319 0.39809814 -0.79197145 0.34500027 -0.28821498 -0.5529133
0.066037074 0.32417327 -0.111768104 0.36844972 -0.028930696 -0.6218934 0.533541 0.3082937
-0.011683139 0.14271757 -0.0063243504 -0.53144854 -0.93129945 -0.4683156 -0.42670035 0.44563073
0.028779252 -0.583603 -0.68435174 0.22786793 0.12723154 -0.38041863 0.32300502 0.27636412
0.12042406 -0.46800822 -0.49967048 -0.3537291 -0.06945434 1.0617393 0.06960538 0.16282986
-0.45927677 0.31934324 -1.1150894 0.32532936 -0.18577778 -1.4342222 -0.070211776 -0.65744436
1.323987 0.41857693 -0.05846405 -0.76500845 0.0037143156 0.015580878 1.1873009 -0.022902895
0.24596894 0.57775444 0.8512693 0.2699577 -0.6883052 0.013698824 -0.49010313 -0.5968737
-0.08611529 -0.5217744 0.35245156 0.37141693 -0.87619233 0.28576815 0.23386091 0.04821189

layers.4.bias f4 [2]
00000000: 25b5 113f 4152 1f3f
0.5691703 0.62234885
