ACC/ddqn_models/0417/ddqn_1000_1.0.pth (torch_old, 69813 bytes, 6 tensors)

layers.0.weight f4 [128, 2]
00000000: 0cc2 0a3f 8a2a 1b3e 81a2 31be 916b 99bf
00000010: 5ed1 46be 7f7d 003f ea07 fd3c c93b 11bf
00000020: 4da5 57bb 057b 823b 0359 f9be 8907 7dbe
00000030: 96dd 5d3e 1f01 a33e a739 8ebe 4537 313f
00000040: 0bd9 b3be 20b5 8c3d 676d dabd d766 13be
00000050: b312 46be cb3b 85bf f2a5 04be 8164 333e
00000060: 1c8a e7bd 378b 09bf 2e36 e9bc 5f24 5ebf
00000070: 412e 0dbd 6e52 213f 8a99 e3be 4058 233f
00000080: bbd8 babd 02e8 64bf fa32 073d 0b9d 39bf
00000090: e570 0abe 3686 9f3e aca5 9ebc 62b7 053e
000000a0: a707 cabb 89c2 4b3e a924 783e c7db d83e
000000b0: b56c 163e 4201 93be 307b bcbe f733 31bf
000000c0: f5b9 d73e b765 2a3f feb1 f83e 7886 21bf
000000d0: 6e59 35be a93d 80bf 7844 e1bb 42ab 343c
000000e0: 8fe8 adbc 2995 45bf 1b97 a63d 570f 26be
000000f0: f1a1 c8bd 2304 50bf b50e e0be f911 e2b9
00000100: 0af6 afbd ad29 8abf 4468 263d 405c c9be
00000110: 1145 37bd bd40 3ebb 5ced 45bc 07da 9d3d
00000120: ceff 7bbe fc91 87be 1d18 c4be b8cb 3abf
00000130: 3caa dbbd 8747 773f 34ed e7bd a43a ea3d
00000140: 7d0b 483d 1a9b 93be 0e9a 99bc e380 75bf
00000150: 6208 6aba a674 36bf fa95 7cbe b9c1 163e
00000160: 8d65 c4bd 3934 0c3e 51e0 f23e 0ee4 0ebf
00000170: d9ab 033f 84cf 143e 6e2e 59be 3904 ac3e
00000180: 5727 9cbe f27f bdbe 5155 b23d fbc0 35be
00000190: 8a17 c83e 379c 48bf 5205 413e 21a4 403f
000001a0: 317e dbbe 0146 183f e039 26be a370 293e
000001b0: 72ef dbbd 6f28 eebe 3375 9abd 52a0 023f
000001c0: 4a20 e9be 4e06 38bf f212 d0be 56ca 2fbf
000001d0: ea56 553e 2566 f0be 3208 87be b66b 80bd
000001e0: 6d04 803e 0678 9c3e 9e24 193f c0d1 2cbf
000001f0: d542 8a3c a35f 003e df9f 80bd d73c 613f
00000200: 5d22 2ebe 3229 33bf d66d 1bbe a4fa a9be
00000210: 681d 273d b06b fbbe c47b a6bd 0a8a 853e
00000220: f280 25bd 4f26 153d 7caf d8bc dc61 debe
00000230: 704b c4be 5a16 0dbf 7230 89be fd4b 41bf
00000240: 7953 053f 9cb2 63bf 6987 153e 792a b1be
00000250: 1eea b9bd 3ef5 b9be 15b3 8b3d 9907 d63e
00000260: f364 6cbc 0bb0 25bf 2eba f8bd a24f 103f
00000270: 0b08 cabd 9897 883e ca7a 78be 6c39 87be
00000280: fe98 203e 1c24 9cbe cfd9 c03d a93d 2abe
00000290: bc81 19be a84b 183e 6b1b 053f d32b e0bc
000002a0: 28bf bcbe b34e 29bf 58dc 1cbe 8f22 8a3e
000002b0: 920b dcbd b043 873e c76b ba3e 3664 63bf
000002c0: eab4 1ebd 1960 633d ce84 46bd 04b1 ea3b
000002d0: d631 b6bd 2c88 71bf 3268 3f3d 0601 823e
000002e0: 1eca f43e 9c8d 01bf 5527 223d 885e 6c3f
000002f0: 3326 80be 29f4 05bd 029c 0bbf ba45 613f
00000300: 2317 bc3d 5405 89bf 421c 633e 1385 373f
00000310: e949 133f f83e 2cbe e5eb bb3e 41dc 5bbf
00000320: 03a4 8abd 2885 ef3e 70db d03e 5993 13bf
00000330: 5e93 043f 3e5b 193e b150 ca3c 12b8 1cbf
00000340: e386 5c3e a373 a7be 4e1c 1e3e 7702 59bf
00000350: 091b 0abd 0c79 163d d45b 833e 862f bdbe
00000360: 8264 013d a974 eabe ed12 e8bd 6bb8 6ebf
00000370: b3ed 77be 7477 4d3e 408b 353e 6f7f f7be
00000380: a9ab a43e 8c10 963e 8841 d6be 1a7b 36bd
00000390: 4208 85be bf47 58bf 1af3 85bd fca9 90bf
000003a0: 8caf 00bf 1f49 5ebe ef5c a1bc 59db af3c
000003b0: 7001 f23e cf15 763d e808 fd3e ef2b 813e
000003c0: a346 c9bd 7840 ab3e d50d db3e 7a10 a2be
000003d0: 00f5 473f 0307 413d 5cde 9f3e ce06 3cbf
000003e0: ea2b 15be 6e76 55bf 4bcd b6be 45cf 51bf
000003f0: 7d4f f7bd a472 1bbd e8e6 c63e 92c4 cf3e
0.5420234 0.15152946 -0.17347147 -1.1985952 -0.19415805 0.5019149 0.030887563 -0.5673185
-0.0032904923 0.00398195 -0.48700723 -0.24709906 0.2166656 0.31836793 -0.2777836 0.6922496
-0.35126528 0.06870484 -0.10665398 -0.14394699 -0.1934307 -1.0408872 -0.12953928 0.17518808
-0.11305639 -0.5372805 -0.028468218 -0.8677425 -0.03446794 0.630164 -0.44453079 0.63806534
-0.09123369 -0.89416516 0.0330076 -0.72505254 -0.13519628 0.31157082 -0.019366108 0.13058236
-0.006165463 0.19898428 0.24232735 0.42355177 0.14689906 -0.28711897 -0.36812735 -0.6921992
0.4213406 0.66561455 0.48573297 -0.6309581 -0.17709896 -1.0018817 -0.006874617 0.011027159
-0.021229057 -0.77180725 0.0813429 -0.16216789 -0.09796513 -0.8125631 -0.4376122 -0.0004311947
-0.0859185 -1.0793968 0.04062678 -0.39328194 -0.0447436 -0.0029030286 -0.012080517 0.07707601
-0.246093 -0.26478565 -0.38299647 -0.729671 -0.10725829 0.9659352 -0.1132454 0.11436966
0.04883908 -0.2882927 -0.018750217 -0.9589979 -0.0008927641 -0.7127174 -0.24666587 0.14722337
-0.09589682 0.13691796 0.47436765 -0.55816734 0.51434094 0.14532286 -0.21209118 0.33596972
-0.30498764 -0.37011677 0.08707679 -0.17749397 0.3908046 -0.78363365 0.18849686 0.7525044
-0.42869714 0.5948182 -0.16233015 0.16546874 -0.1073903 -0.46515223 -0.07541885 0.5102588
-0.45532447 -0.7188462 -0.40639454 -0.68668115 0.20833936 -0.4695293 -0.2637344 -0.06270544
0.25003377 0.3056032 0.598215 -0.67507553 0.016877571 0.12536483 -0.06280493 0.8798346
-0.17005296 -0.69984734 -0.15178618 -0.33199036 0.04079953 -0.49105597 -0.08129075 0.26081878
-0.040406175 0.036413487 -0.026450865 -0.43434036 -0.38338804 -0.5511223 -0.26794773 -0.75506574
0.52080494 -0.8894441 0.14602436 -0.34602717 -0.090778574 -0.36319917 0.068212666 0.41802672
-0.014428365 -0.64721745 -0.12144886 0.5637151 -0.09864815 0.26678157 -0.2426559 -0.26410997
0.15683362 -0.304963 0.09416544 -0.16625084 -0.14990896 0.1487261 0.5199496 -0.027364647
-0.3686459 -0.6613571 -0.1531843 0.2697949 -0.10744394 0.2641883 0.36410353 -0.88824785
-0.03874675 0.055511568 -0.048466496 0.007162215 -0.08896224 -0.94348407 0.046730228 0.25391406
0.47810453 -0.50606704 0.03958829 0.92331743 -0.25029144 -0.032703552 -0.54534924 0.8799702
0.091841005 -1.0704751 0.22178748 0.7168743 0.5753465 -0.16820896 0.3670341 -0.85882956
-0.06769564 0.46781278 0.40792418 -0.5764671 0.51787364 0.14976212 0.02469668 -0.6121837
0.2153583 -0.3270541 0.15440485 -0.84769386 -0.03371719 0.036736533 0.25655997 -0.3695032
0.031589992 -0.4579213 -0.11331735 -0.9325015 -0.24211769 0.20065099 0.17728901 -0.48339412
0.32162216 0.293095 -0.4184687 -0.044550993 -0.25982863 -0.84484476 -0.065405086 -1.1301875
-0.50267863 -0.21707581 -0.019697635 0.021466898 0.47266722 0.060079392 0.49420857 0.2522883
-0.09827926 0.33447623 0.4278399 -0.31653196 0.78108215 0.047125828 0.31224334 -0.73447883
-0.14567533 -0.83383834 -0.357035 -0.81956893 -0.12075708 -0.037951127 0.38848042 0.4057966

layers.0.bias f4 [128]
00000000: d308 213d 363e 75bf 4b15 873f 8802 813f
00000010: 1e47 22be 38a4 31c0 1168 843f 841f a8be
00000020: 2b38 4cc0 9438 d43e 3fe2 8d3f dcbb 73c0
00000030: 5ff9 883f da52 ccbf b212 3dc0 7f5a be3f
00000040: a48f 1f3f dcb3 35c0 cc68 1fc0 b846 31c0
00000050: 83de 43c0 cccc c6be dd0b f73f 36c8 17bf
00000060: d0a8 c6bf 8e50 9a3f d80c 1d3f b66e 583e
00000070: ef85 bfbf dd57 19c0 f0d0 a0bf 9ebc a2bf
00000080: 8ffd 17bf 582e 08c0 b50a d23f 3b92 e73f
00000090: 084c ec3d 4101 02c0 0960 15bf 458b e63e
000000a0: fab3 c0be ba9b 7e3f 15f1 ffbf b426 0fc0
000000b0: f6ae 3bc0 b46b ea3f 901d aa3f f2d4 3bc0
000000c0: 7e2c 153f e03a 27c0 999c b1bf c388 253f
000000d0: ef6a f8bf aba5 fa3e dd8a 963f 346a 9e3f
000000e0: 6cf2 383f 28b4 f5bf 31e6 fb3f 236f 11bf
000000f0: d329 813f 57ad dcbf 8a1f 1ac0 bab1 1fc0
00000100: 5438 c4bf c27e 373e 455b 29c0 b4a6 2cc0
00000110: a0aa 2c3e f300 603f 09f7 bebf f6ab a6be
00000120: 8b2a bfbf c1ba d53f afb4 b13f 0b94 bd3f
00000130: dc7e 0c3f 63cc f53e 8363 73c0 7b59 1cc0
00000140: a438 f73f 9f62 2ec0 6e2b 063f 70b4 11c0
00000150: 6267 c9bf f92a 24c0 849d a33f 949c afbf
00000160: 757a cf3f 543a e73f d2bb 803f 82e2 433e
00000170: 4734 363f 7771 2dbf e533 bcbd dba0 0a3f
00000180: 02b4 f2bf 8a0b d03f 0171 8dbe ffe8 1dc0
00000190: 74f2 5cc0 b5aa d73f e1c6 b13f 3958 10c0
000001a0: df5e f03f e7da d53e 1fdc ee3f c43c ec3f
000001b0: 552b 16c0 80b7 1a3f 79bd 50bd 4e7c 9cbf
000001c0: 7347 853f d817 85bf c720 803f 2253 98bf
000001d0: dc0b f7be ae0c 92bf 54a5 7c3f 56d2 ecbf
000001e0: 4bf2 52c0 72a1 d13f 968f 803d 56b2 d73e
000001f0: 209f 56bf 6ed3 733e c60a febf cf43 22c0
0.039315056 -0.9579805 1.0553373 1.0078897 -0.15847442 -2.775648 1.0344259 -0.32836545
-3.1909282 0.41449416 1.108467 -3.808341 1.0701102 -1.5962784 -2.954266 1.4871367
0.62328553 -2.8391027 -2.4907713 -2.7699413 -3.060456 -0.38828123 1.9300495 -0.5928987
-1.5520267 1.2055833 0.61347723 0.21135983 -1.4962748 -2.3959877 -1.2563763 -1.2713811
-0.59371275 -2.1278286 1.6409518 1.8091501 0.11537939 -2.0313265 -0.58349663 0.4502813
-0.3763731 0.9945637 -1.9995447 -2.2367373 -2.9325538 1.8314118 1.3290272 -2.9348722
0.58271015 -2.6129684 -1.3875915 0.64661807 -1.9407634 0.4895452 1.1761128 1.2376161
0.72244906 -1.9195604 1.9679624 -0.56810206 1.0090889 -1.7240399 -2.408175 -2.4952226
-1.532969 0.17919448 -2.6461957 -2.6976748 0.16861963 0.8750145 -1.4919139 -0.3255307
-1.4934858 1.6697618 1.3883265 1.4810804 0.5488107 0.48007497 -3.8029487 -2.4429615
1.931416 -2.7247694 0.5241002 -2.276638 -1.5734675 -2.5651228 1.2782445 -1.3719659
1.6209246 1.8064675 1.0057318 0.19129375 0.7117352 -0.6775126 -0.091895856 0.54151696
-1.8961184 1.6253521 -0.27625278 -2.467346 -3.4522982 1.6848971 1.3888818 -2.2553847
1.8778952 0.41768572 1.8660926 1.8456044 -2.3463948 0.6043625 -0.050961945 -1.2225435
1.041243 -1.0397902 1.0010003 -1.190037 -0.48251235 -1.141012 0.9868977 -1.850169
-3.2960384 1.6377394 0.06277387 0.42128247 -0.83836555 0.23811123 -1.9847038 -2.5353887

layers.2.weight f4 [128, 128]
00000000: 3256 29be 2e73 04c0 99e0 913d 76b3 5fbd
00000010: 65d8 e53c 9e58 083f 5753 cfbe 2103 373d
00000020: ffd1 49be ef40 bf3d 82fe abbf f9f4 b7be
00000030: 8655 17bf 8800 90bd f582 39be b0d2 313d
00000040: 9d21 9bbe af50 16be 2e9b 3c3d 128a ccbd
00000050: fd2f 213e efa2 83bf fa71 cabe 46f4 92bd
00000060: f1fc 5a3e d2a7 bebd e968 24c0 8981 8d3e
00000070: c984 38be 7cb2 4e3e a6f6 2e3d 59fa 8cbd
00000080: 8e8c 583c 113c 12be 02b4 96be 173c 56be
00000090: 9da9 9f3d 00ad 52bf ed07 183e 7f98 0a3e
000000a0: ce4f ffbd 422a 0cc0 b763 4fba cbfa 52be
000000b0: 7f87 87be 64aa d4be 4e1c 1cbe f2f2 30be
000000c0: 2547 4c3e d303 31be cbbc 223e a39f e0bf
000000d0: df75 32bd d544 643e b8fa edbe b454 e8bd
000000e0: 2eb2 63be 699f a8be a230 18be 74ef ba3d
000000f0: f75e 6dbf d330 28be e9b8 3abf 7244 d6be
00000100: 9d54 09be 4a48 ed3d fb77 05be c0bc d6be
00000110: d866 843e afc2 38bf dcb1 4fbd a890 8fbf
00000120: a828 393e 0b85 40bf ff2f f13d ed83 e3bf
00000130: 4361 31bf fe35 073d 7a51 88bd 33d2 a13e
00000140: 125a 68be aeeb 27be 7354 1a3e 4132 48be
00000150: 2d68 91be 3d8a 70be 1d70 4cba fd77 2f3e
00000160: 60a6 1abe 348d 88be 0bb3 02c0 6974 04bc
00000170: e13a 6cbe fbb7 99bf a9a6 1d3e 2720 a03d
00000180: db28 023e 7d61 c2bf 2f80 8dbe 6864 02bd
00000190: 13b7 f6bd f096 5ebd d3ae 53be 34f7 94bd
000001a0: 0835 b1be 45ed 9a3d cad2 d4be a544 a8be
000001b0: 00b1 02bd 677b 79bf c74a 073e 6257 8ebe
000001c0: daa8 b4bd fe39 253b a8a5 b9be 4692 5b3d
000001d0: e4cf 02bd 488f 243e 747a 95be 72d1 71be
000001e0: 9c0a 803e 80e5 f2be 40cd 39be ae5b 39bd
000001f0: a7f8 9cbe 8d75 a0bf 51ab 33be 4709 d4bc
00000200: c7a9 ee3a 9a42 9c3e 7b29 c33d ee91 9a3e
00000210: 888d 1c3e 6075 24be 6008 713e dd2f 0fbe
00000220: 44a8 48be 59a6 f83d 7dbc 2a3e 967c 24c0
00000230: c789 c63e 3912 18bd f3ef 00be 20ce 793e
00000240: fad8 0c3e 85d8 1abf 5065 a5be cb60 cdbd
00000250: 725e d7bf 6173 82bd 930f 983e 84b3 b73c
00000260: 4569 85be 5c04 3b3e 62a8 8d3e 75fd 4b3e
00000270: 2b3a 86bd 7969 abbf e291 213e 054c 9a3e
00000280: d2c7 acbd 7e50 80be dce5 023f 2f24 e93e
00000290: 1e7b abbd 007d e63d 4b8a a1be 2f19 213e
000002a0: 2a44 3c3d 1b37 983e 30d4 5ebe 0291 e1bd
000002b0: bfca eebf cc0a d13d 743d 433e 68f9 bebe
000002c0: c45f c83d fecd 81bf e966 26be e678 e13d
000002d0: 2055 88be 231f 8d3d 0920 8a3e 6e56 2c3e
000002e0: 8342 983e 2d4f 473e 1aa6 233e 305e ed3c
000002f0: 7132 fa3d 6ea9 1cbe 465a 04bf 0350 d5be
00000300: 343e 303e db75 053e 8d0e a1bf 0fe7 66bf
00000310: a1cd 51bd 268e 79bd 3c8e dd3c 5bc4 ccbc
00000320: a964 88be a6e7 923e 0c9b 2a3e a3a9 d33e
00000330: e264 443e 948e 073c ffc6 8cbf 4a92 56bd
00000340: 3ecb 513e 7b8b 60bf 5947 123e 5091 d4be
00000350: ff80 a23d 84d7 1dbf 3c44 043e 18d6 93be
00000360: ac6e cf3e 28ec 3c3f 1023 993e e8bd 3c3d
00000370: 1473 f13d 7ebb 12be 54b3 253d 4818 453e
00000380: 55b1 7cbe 78c3 4d3e 3ae9 003e 0bfd c6be
00000390: 3c70 84bf b65d 023e 4cf6 6c3e 9387 3bbe
000003a0: 653f 7e3e c0c0 3bbe c65f d03e b1c1 603e
000003b0: 41fb f5bc 6ff4 873b a006 823e a77c 6d3d
000003c0: 8ebb 553d cce0 703e 7889 b93e 0201 14be
000003d0: e000 a63d cfdc 7fbd 4619 e93c 5668 5dbe
000003e0: 9729 0cc0 ff8c 2d3e e4b9 703d 3e2b 85bd
000003f0: c308 00be c9d2 1a3e 58c0 8dbd ebf8 d3be
-0.16536787 -2.06953 0.07122917 -0.054614507 0.028057287 0.5326022 -0.4049327 0.04468072
-0.19709013 0.09338557 -1.3437045 -0.35929087 -0.59114873 -0.07031351 -0.18116362 0.043413818
-0.30299082 -0.14679216 0.04604643 -0.09987272 0.15740962 -1.0284098 -0.39540082 -0.07175498
0.21385552 -0.09309353 -2.5689032 0.2763789 -0.18019404 0.20185274 0.04271569 -0.068836875
0.013217105 -0.14280726 -0.2943421 -0.2092136 0.07796023 -0.8229523 0.14846773 0.13534735
-0.124663934 -2.1900792 -0.0007911282 -0.20603482 -0.26470563 -0.41536248 -0.15245172 -0.17280176
0.19949014 -0.17286615 0.15892331 -1.7548717 -0.043569442 0.22291882 -0.46480346 -0.11344281
-0.22235939 -0.3293412 -0.14862302 0.09127703 -0.9272303 -0.16424875 -0.729384 -0.41849095
-0.13411184 0.11586054 -0.1303405 -0.4194088 0.25859714 -0.72172064 -0.05070673 -1.121602
0.18081915 -0.7520301 0.11776733 -1.7774636 -0.69289035 0.033010475 -0.066561654 0.31605682
-0.22690609 -0.16398498 0.15071277 -0.1955042 -0.28399792 -0.23490234 -0.00077986886 0.17135616
-0.1510253 -0.2667023 -2.042178 -0.008084395 -0.23069336 -1.2009271 0.15395607 0.078186326
0.12710898 -1.5186001 -0.2763686 -0.031834036 -0.120466374 -0.054343164 -0.20672159 -0.07273713
-0.34610772 0.07564787 -0.4156707 -0.32864872 -0.03190708 -0.9745392 0.13212119 -0.27801043
-0.088212684 0.0025211568 -0.36259198 0.053606294 -0.03193654 0.16070282 -0.29194987 -0.23615053
0.25008094 -0.4744072 -0.18144703 -0.04525345 -0.30658457 -1.2535874 -0.17545821 -0.02588333
0.0018208557 0.30519563 0.09529396 0.3018946 0.15288365 -0.160604 0.23538351 -0.13983102
-0.19595438 0.12141103 0.16673465 -2.5701041 0.3877699 -0.037126753 -0.12591533 0.24395037
0.13754645 -0.6048663 -0.32303858 -0.100282274 -1.6825697 -0.06369663 0.29699382 0.022424467
-0.26056877 0.18263382 0.27667528 0.19920905 -0.065540634 -1.3391563 0.15778306 0.30136123
-0.0843655 -0.2506141 0.5113199 0.45535418 -0.08373092 0.112543106 -0.31550822 0.15732263
0.045963444 0.29729542 -0.2176063 -0.11013986 -1.8655623 0.102071375 0.19066411 -0.37299657
0.09783891 -1.0140989 -0.16250195 0.11009388 -0.26627445 0.068907045 0.26977566 0.16829845
0.29738244 0.19463797 0.15981331 0.028975576 0.12216652 -0.15299007 -0.51700246 -0.41662607
0.17211229 0.1303324 -1.2582566 -0.9019632 -0.051221494 -0.06092658 0.027045362 -0.024995973
-0.26639298 0.2869236 0.16660708 0.4134036 0.19179109 0.008273739 -1.0998229 -0.052385606
0.20487687 -0.8771283 0.1428503 -0.41517115 0.0793476 -0.61656976 0.12916654 -0.28874278
0.40514123 0.73797846 0.29909563 0.046079546 0.117895275 -0.14329335 0.040454224 0.19247544
-0.24677022 0.20094097 0.12588969 -0.3886493 -1.0346751 0.1273106 0.2314083 -0.18313436
0.2482887 -0.18335247 0.4069807 0.21948887 -0.030027034 0.004149012 0.2539568 0.057980206
0.05218082 0.23523253 0.36237693 -0.1445351 0.08105636 -0.06246644 0.028454434 -0.21621832
-2.1900384 0.16948317 0.05877103 -0.065023884 -0.12503342 0.1511947 -0.06921452 -0.41400847

layers.2.bias f4 [128]
00000000: c0d0 f9be c76e 653f f45b bcbf 058f 61bd
00000010: d510 993b aa3d 973e 817a d73e c0b8 89bf
00000020: 4ba6 033f 1e2d 123f 8aad d0bf 0c93 c83e
00000030: 2ecd 663f 97ed 113f 0462 353f 550c 52bd
00000040: 5111 a5bd 3f07 ed3d 8c9c 4d3f 4656 90bf
00000050: 03dc 1ebf 3bb9 263f 39a9 673f ece6 88bb
00000060: 4c9c 093f 930a e03e acd1 a5bf c9a8 8e3e
00000070: c414 f33e 9580 203f 9015 ca3e 98c4 d83e
00000080: 4b8e f63e 2e2c 563f 13d5 cbbc 6ad0 a63e
00000090: 5e4b adbf 5ea6 dcbe 5528 283e 2c64 9f3e
000000a0: 81b7 4c3f cb32 213f ad50 a7bf a22c d1bf
000000b0: fbf2 efbd 46cc 8a3e 1f9b aabd ebdd 8ebf
000000c0: 0997 2a3f 605c db3e 260a d4bf 2963 edbf
000000d0: 7dd9 e4bf 13df 1f3f 51c2 d8bd b1df d9bf
000000e0: e235 613f 88bb ddbf afee aabf 9802 673f
000000f0: 7c75 5abf 8b9e d83e f88b 48bf 9a07 45bf
00000100: ceff bb3a 880f 463f 560b 49bf 405b 533f
00000110: 043e f5bc cf0b ddbf 3487 1c3e 26a9 a43e
00000120: 696b a8bd 628e fd3e e975 9ebd b2b8 85bf
00000130: 0399 b3bf 4c97 9bbf 7294 a73e 00a1 f83d
00000140: 9a5b 263c 2ad7 a4bf c2b0 c6bf 5564 163f
00000150: bf61 fb3e d84d 29bf 998b 0b3f 586a 513f
00000160: ef7b 093f b383 703d fe0e bdbf 3c19 83be
00000170: a5bc 61bd 2934 8c3e 41fd 923c ce10 64bf
00000180: 6f56 41bf 5880 3c3f 3d6a c9bf 3259 2c3f
00000190: 8a69 bdbf 242d dcbf 0f00 b0bc 7c0a b3bf
000001a0: d360 f4be 5c10 533f 53d9 a6bf 8550 8fbf
000001b0: 8a37 02bd 523f 8dbd 0892 98be 5dc3 a0bd
000001c0: 2b5d e03e 2f14 da3e b8df e43e 1740 5c3f
000001d0: 8cea aabe 9f19 adbd d5b0 87bf e5d5 b3bf
000001e0: 2984 e6bd f9fd cfbf 15d5 693f 34da d53e
000001f0: ece5 77bf fb28 e53e f5ac 423f 9115 7e3d
-0.48792076 0.8962216 -1.4715562 -0.055068035 0.004671196 0.29539233 0.4208565 -1.0759506
0.5142562 0.57100093 -1.630296 0.39174688 0.9015683 0.5700316 0.70852685 -0.051281292
-0.080599435 0.11573648 0.80316997 -1.1276329 -0.6205446 0.6512639 0.9049259 -0.0041779187
0.53754115 0.43758067 -1.2954612 0.27863148 0.4747678 0.626962 0.39469576 0.4233749
0.48155436 0.8366116 -0.024881875 0.32580882 -1.3538625 -0.43095678 0.16421635 0.31131113
0.79967505 0.6296813 -1.3071495 -1.6341746 -0.11716267 0.27108973 -0.08330368 -1.1161474
0.6663671 0.42843914 -1.6565597 -1.8545886 -1.7878872 0.6244976 -0.10583938 -1.702139
0.87972844 -1.7322855 -1.335409 0.9023833 -0.85335517 0.4230846 -0.78338575 -0.76964724
0.0014343204 0.7736745 -0.7853292 0.8256111 -0.029936798 -1.7269229 0.15285951 0.321603
-0.08223612 0.49522692 -0.07737333 -1.044699 -1.403107 -1.2155547 0.32730442 0.12140083
0.010153675 -1.2878163 -1.5522692 0.58746845 0.49098012 -0.66134405 0.54509884 0.8180289
0.5370473 0.05871935 -1.47702 -0.2560519 -0.055111546 0.27383545 0.017943026 -0.8908814
-0.7552251 0.7363334 -1.5735546 0.673236 -1.4797833 -1.7201276 -0.021484403 -1.3987575
-0.4773012 0.8244684 -1.3035072 -1.1196448 -0.031791247 -0.06896843 -0.29798913 -0.078497626
0.43821082 0.42593524 0.44701934 0.86035293 -0.3338207 -0.084521525 -1.060084 -1.404965
-0.11255676 -1.6249381 0.9134076 0.41768038 -0.9683521 0.44757828 0.7604516 0.062032286

layers.4.weight f4 [2, 128]
00000000: f541 24bf 7d01 c03e 8280 97bf 956b 8fbc
00000010: cf0e e8bc 81af cabf 8f02 c33f 28d4 b1bf
00000020: 4063 243e 8847 003f 625b 32bf a5ce b93e
00000030: ffed b03e c63d 5740 1d37 7e3e 5c5d 9bbc
00000040: 0e26 1c3b 471d 833f 5f20 903d f9c6 c3be
00000050: 52d3 6fbe 7d35 453f 523a 943e a0b6 37bd
00000060: 2142 043f ed44 42be f5bd f0be a54e 883f
00000070: bb4b 613f 9359 8d3f 00f5 463e b5b8 ec3d
00000080: 6cfb 023f 21c8 b33e c6ed 73bc b8c9 cbbe
00000090: cf2c ddbe 7245 f33e ea9b e5be 626f 6cbe
000000a0: 24a5 a73e e29c f93e 8359 09bf 38ca b0bf
000000b0: 9ab9 6c3d 07f1 7dbe 3739 4f3b 5fba d6be
000000c0: f11d 913e f0b2 273e d4b0 45bf 242d e8be
000000d0: 1507 c9be e588 673f 6cce 37be 3d84 febe
000000e0: 43e7 bb3e ddf2 c6be 1420 4cbf 8757 ca3e
000000f0: 6fae 0e3f 7d76 10bf 35ac 003f c502 febd
00000100: a20a c5bc ef7c 8ebe 78fa 08bf 0f40 323f
00000110: e755 963d 5be1 4cbf a826 18bf 69b8 323e
00000120: 8484 133d 71f6 94be a1a2 2abd 80c3 04be
00000130: 3afd 80bf 4fe0 fdbe 9683 d8be bbd8 91bf
00000140: e8a1 083d 6d9d debe 2b62 06bf f9f9 b83d
00000150: ad22 e03e b20e b6be 3465 e4be 2d9a 773e
00000160: 320b 6d3d 9d2a bbbe a9c3 e1be 9881 2bbe
00000170: 113e 1a3d 21be 90be ead4 5f3d 2aeb c3be
00000180: a420 4abc f640 8fbd e56f 3dbf 6306 413e
00000190: 5d9d 42bf cb8a 5d3e d5fc 963d 470b 0bbf
000001a0: 11fd aabe 0c29 db3e 396e d5be 61fe c83e
000001b0: 5ac1 563c e65e 81bd 212b 3fbf c218 ecbc
000001c0: c7f9 ebb9 5cb7 bc3f 70a7 e6bf 3b4c b03e
000001d0: 06fc 13be 278e 4bbc 8cd8 64be 5dae 4bbe
000001e0: 50d8 1ebd 7298 b33c 0df2 a63e 9632 b0bd
000001f0: dadf a3bf 8827 fb3e 15e7 a63e b906 023d
00000200: 4d0c 413f f74c ce3e 9c64 4ebf fa0d 063d
00000210: bc93 17bd 6dea a5be 4daf aa3f a1fd 35bf
00000220: d79f cc3e 53d9 273e 25a2 3dbf 05e0 83bd
00000230: 13b8 9b3e e1f2 d43f 0df3 5f3e fbbe c4bc
00000240: c247 32bc b765 1540 2be2 d33e 0ed8 2fbf
00000250: 9427 eabc 8b8d 8c3e 25c4 a03e 7dc5 63bc
00000260: da86 bc3e 9df4 e1be 516c 46bf b27c 42bf
00000270: b44d 0b3f fe72 993f ccd3 923e ba3c 6d3e
00000280: 788b bfbc 284d b23e 2099 f53b 3530 533e
00000290: 0b9c 1ebf 784e 403f a51c 5cbe 0874 3f3f
000002a0: 2a43 b33e 7dab a03d 96d8 13bf e938 77be
000002b0: 9cc7 91bd a45d 7bbe acb9 a53c 5cce e3be
000002c0: 027b 443e d4c3 eb3e e8ac 4fbf 6285 3abf
000002d0: 23e1 f9bf 7e0f 9a3c 32cc 933e 2eed 20bf
000002e0: 055c 853e d233 94bf 90eb 66bf 2577 d53e
000002f0: a4be 4abf 2e2b 6c3e ea90 93be ba8b 0dbf
00000300: 723e 873d fda5 9e3e 8efa 12be 0d3b c43e
00000310: 1100 edbc 6834 1fbf 4ee8 1a3f c6e1 c13e
00000320: a36a 3fbc 6abf 423e 7f3c cfbb 030d 08bf
00000330: a469 6ebf 10c7 efbe 2b1f d9be 5d04 363f
00000340: 77c2 eb3c 0267 15bf ad31 2fbf 25e3 693e
00000350: e809 003e 3bc6 c2be 0129 e43e dd35 963e
00000360: 664f 383e 9a8e 29bf 31e2 dcbe fb1b b5be
00000370: 143e 8ebd c543 553f 448d 8e3d dfbc 263e
00000380: 5326 ebbe 2b2d ac3e 40bb 8ebf 1f5b b23e
00000390: 883c 3ebe 1d31 e8bf 31cb 8fbd 464e 28bf
000003a0: 6878 a93f 6273 e03e 0078 6fbd 98d7 43bf
000003b0: e06b 733b f046 7f3c 7af9 973f da9e bbbc
000003c0: b0b4 633e 4417 0c3f f00f c13f e6f6 993e
000003d0: 0d89 30bf 0871 603c ccee fabe 86fb 24bf
000003e0: 375d b0bd a098 e0be 412c bd3e 2649 813e
000003f0: 244e 60bf 8e2d cf3d 5865 823e d579 453d
-0.6416314 0.37501135 -1.1836092 -0.017507354 -0.028327374 -1.583481 1.5235156 -1.389287
0.16053486 0.5010915 -0.6967069 0.3629047 0.34556577 3.3631454 0.24825712 -0.018965416
0.0023826393 1.024331 0.07037424 -0.38237742 -0.23420456 0.7703474 0.28950745 -0.0448519
0.51663405 -0.18971606 -0.47019926 1.0649 0.8800618 1.1042961 0.19429398 0.115586676
0.5116489 0.35113624 -0.014888233 -0.39802337 -0.4319825 0.4751392 -0.44845515 -0.23089364
0.3274318 0.48752505 -0.5365221 -1.3811712 0.05779419 -0.24798976 0.0031619796 -0.41939065
0.28343156 0.16376853 -0.77222943 -0.4534694 -0.39263216 0.9044326 -0.17949837 -0.49710265
0.36699876 -0.38857165 -0.7973645 0.39519903 0.55734915 -0.564308 0.5026277 -0.12402872
-0.024052922 -0.27829692 -0.53507185 0.69628996 0.07340603 -0.80031365 -0.59433985 0.1745316
0.03601505 -0.2909427 -0.041659 -0.12965202 -1.0077279 -0.49585196 -0.42287892 -1.1394266
0.03335753 -0.4347948 -0.5249354 0.090320535 0.43776456 -0.35558087 -0.44608462 0.24179907
0.057872005 -0.3655595 -0.4409459 -0.16748655 0.037656847 -0.28270057 0.05464641 -0.38265353
-0.012336884 -0.06994812 -0.7399886 0.18850093 -0.7602137 0.21634977 0.07372443 -0.5431408
-0.333962 0.42804754 -0.41685656 0.39256576 0.013107622 -0.063169286 -0.74675184 -0.0288204
-0.00045008791 1.4743457 -1.8019848 0.3443316 -0.14451608 -0.0124240285 -0.22348231 -0.19890733
-0.03878051 0.021923278 0.32606545 -0.086033985 -1.2802689 0.49053597 0.32598177 0.031744692
0.75409395 0.40293095 -0.8062227 0.032728173 -0.037006125 -0.32405415 1.3334748 -0.7109013
0.39965698 0.16391496 -0.7407554 -0.06439213 0.30413875 1.6636621 0.2187006 -0.024016848
-0.010881366 2.3343332 0.4138349 -0.6868905 -0.028583325 0.2745174 0.31399646 -0.013902065
0.36821634 -0.44131938 -0.7750903 -0.7597152 0.5441544 1.1988218 0.28677213 0.23167697
-0.023381934 0.3482449 0.0074950606 0.20623858 -0.6195685 0.75119734 -0.21495302 0.74786425
0.3501218 0.07845209 -0.5775236 -0.24142803 -0.071181506 -0.2454744 0.020230137 -0.44493377
0.19187549 0.46047843 -0.8112321 -0.72859776 -1.9521831 0.018806215 0.28866726 -0.6286191
0.26046768 -1.1578314 -0.9020319 0.41692463 -0.79197145 0.23063347 -0.28821498 -0.5529133
0.066037074 0.30986014 -0.14353392 0.38326302 -0.028930696 -0.6218934 0.6051072 0.37867564
-0.011683139 0.19018331 -0.0063243504 -0.53144854 -0.93129945 -0.4683156 -0.42406592 0.7110041
0.028779252 -0.583603 -0.68435174 0.22840555 0.12503779 -0.38041863 0.44562533 0.2933797
0.17999038 -0.6623322 -0.4314132 -0.3537291 -0.06945434 0.83306533 0.06960538 0.16282986
-0.45927677 0.3362821 -1.1150894 0.34835145 -0.18577778 -1.8139988 -0.070211776 -0.65744436
1.323987 0.4383803 -0.05846405 -0.76500845 0.0037143156 0.015580878 1.1873009 -0.022902895
0.22236896 0.54723 1.5082989 0.3007118 -0.6895912 0.013698824 -0.49010313 -0.64446294
-0.08611529 -0.43866444 0.36947826 0.2525112 -0.87619233 0.10116111 0.25467944 0.04821189

layers.4.bias f4 [2]
00000000: 5b6f 223f 8dbb 233f
0.63451165 0.63958055
