ACC/ddqn_models/0417/ddqn_1600_1.0.pth (torch_old, 69813 bytes, 6 tensors)

layers.0.weight f4 [128, 2]
000000 e5 88 7e 3d 8d 13 9c be c0 5b 44 be bb 9b 8a bf
       0.06214227 -0.30483666 -0.19175625 -1.0828775
000010 36 a3 4b 3d 3c 10 97 3e 68 c3 ea bd aa fd 4d bf
       0.049716197 0.29504573 -0.11463052 -0.80465186
000020 4d a5 57 bb 05 7b 82 3b 59 6d 17 bf 9c e7 f2 3d
       -0.0032904923 0.00398195 -0.59151226 0.11860582
000030 cb da e4 3e ce 1c b1 3d 90 ef bb bb 1a d5 84 3f
       0.44698176 0.08648072 -0.005735345 1.0377533
000040 11 91 53 bd a9 e1 3a 3e 5e 46 05 3e bf bb 5d 3d
       -0.051652018 0.18250145 0.13015124 0.054134127
000050 e2 79 be bd 74 86 99 bf fb b9 03 be a9 26 00 3d
       -0.09300591 -1.1994157 -0.12863915 0.03128687
000060 eb 72 5c be a8 17 09 bf 7c fb e6 be 95 48 62 bf
       -0.21528213 -0.5355172 -0.45113742 -0.88392
000070 55 ce 0e 3e 6f 70 ad bd 07 d5 61 be 96 fc 36 3f
       0.13945897 -0.08468711 -0.2205392 0.71479166
000080 5e 17 6e be d9 24 c2 be 2e 68 2d bc e8 a5 14 bf
       -0.23251101 -0.37918738 -0.01058392 -0.5806565
000090 11 cc 25 3d a4 4b 58 3e ac a5 9e bc 62 b7 05 3e
       0.040477816 0.21122605 -0.019366108 0.13058236
0000a0 aa bc fd 3c a5 f9 1e 3e aa be e7 3c a5 5f 98 bd
       0.030973751 0.1552492 0.028289158 -0.07440118
0000b0 73 c8 ad 3d 32 27 48 be ee dd 8b be fe 1e c0 bd
       0.08485498 -0.19546202 -0.27317756 -0.09380911
0000c0 31 dc 20 3f 6e 38 d7 3d 69 12 60 3e 7d 4b 85 bf
       0.62835985 0.1050881 0.21882023 -1.0413662
0000d0 16 f7 cf be 28 ff 8e bf a5 59 ed b9 14 f6 e4 ba
       -0.406182 -1.1171618 -0.00045270953 -0.0017468357
0000e0 f2 52 ae be 0a 72 2c bf 69 05 8f 3d 96 e0 d0 bc
       -0.34047657 -0.6736151 0.06983454 -0.025497716
0000f0 05 36 9d be 19 d0 80 bf b1 fc da bd 85 57 9d 3e
       -0.30705276 -1.0063506 -0.10692728 0.30730835
000100 ce 18 88 be 0c 71 82 bf ed b6 e7 bd 89 6b fc 3d
       -0.26581424 -1.0190749 -0.11314187 0.12325198
000110 62 4d 0c bd 1f 55 67 bd 4b 35 0a 3b e8 71 26 bc
       -0.034253486 -0.056477662 0.0021088894 -0.010158993
000120 7f 38 5a be 34 ee bc bd 4e 83 cd be 4d 96 6f bf
       -0.21310614 -0.09225121 -0.4013924 -0.93588716
000130 0e 3b 42 bd 15 e1 68 3f 4f 92 13 3d 59 a7 4c bc
       -0.0474196 0.9096845 0.036028203 -0.012491071
000140 64 1e 02 bd b1 79 5d bf fa 67 cb 3c c6 34 8e bf
       -0.031767264 -0.8651381 0.024829853 -1.1109855
000150 70 6f 21 be 13 8f 54 bf dc b9 aa bc cf f7 24 3e
       -0.15765166 -0.83030814 -0.020840578 0.16110156
000160 b3 c4 cd bd 05 b5 c8 3c 98 6e e3 3e 97 ea 25 bf
       -0.10047283 0.02450038 0.44420314 -0.6481108
000170 ae 8a 16 3f bd a9 a3 3d e6 89 85 3d 4b b5 85 3e
       0.5880536 0.079913594 0.06520443 0.26114878
000180 44 b4 fe bd be 21 88 be e8 7c a4 3d f9 c3 8a bc
       -0.12436727 -0.26588243 0.080316365 -0.01693915
000190 40 d1 70 3e 5f f7 91 bf 5d e8 33 3e 95 6e fc 3e
       0.23517323 -1.1403617 0.17569108 0.49303117
0001a0 11 93 62 bd 8b 24 c9 3e c5 45 93 bd d8 5f 64 3c
       -0.055316035 0.39285693 -0.07191042 0.013938867
0001b0 18 88 1e be 0f 00 e0 be 1a ce 04 3c df 50 cf 3e
       -0.15481603 -0.43750045 0.008105779 0.40491387
0001c0 93 7d 9d be 01 92 20 bf ba 66 11 bf de f9 df be
       -0.30759868 -0.62722784 -0.56797373 -0.4374532
0001d0 ee 45 37 3e b7 3f dc be 39 de 32 3d 93 59 cd 3e
       0.1789777 -0.4301736 0.04366896 0.40107402
0001e0 f7 1f 79 3e b9 fe 6b 3e 92 fa 00 3d 5b fb 26 bf
       0.243286 0.23046388 0.031488962 -0.6522729
0001f0 d5 42 8a 3c a3 5f 00 3e 33 e0 ed 3d 72 67 04 3f
       0.016877571 0.12536483 0.11615028 0.51720345
000200 57 9f c6 be d0 d8 c6 be 16 45 53 be 10 be e7 bd
       -0.38793442 -0.3883729 -0.20631823 -0.113155484
000210 35 0d c0 bb ac 69 47 be d4 50 aa 3a 61 c6 3d 3e
       -0.0058609494 -0.19473904 0.0012994059 0.18532707
000220 90 55 b6 3e ff de fb be ae 8a 2e be 5a 81 e1 bd
       0.35612154 -0.4919357 -0.1704509 -0.11011
000230 2b b5 4e bf 37 23 f6 be 6e 89 72 be e9 14 ee be
       -0.8074519 -0.48073742 -0.23685238 -0.46500328
000240 0a c9 9d 3e e3 3e 75 bf 94 0b 00 3e e9 12 9e bd
       0.30817443 -0.9579908 0.12504417 -0.077184506
000250 d3 dc a4 bd 02 2d 55 be 7c bb 80 3d 90 ac a9 3e
       -0.080499314 -0.2081795 0.0628576 0.33139467
000260 47 8e 85 be 61 cb 85 bf 54 74 89 3e cd e2 c0 3e
       -0.26085111 -1.0452691 0.26846564 0.37673035
000270 d2 f7 a8 bb c0 56 32 3e fb 2c 90 be 73 a6 ce 3d
       -0.0051564956 0.17415905 -0.28159317 0.100903414
000280 31 43 01 3e f8 d5 1a 3c cd 96 a4 3d 65 6b 02 bd
       0.12623288 0.009450428 0.080365755 -0.0318407
000290 be b7 fc 3d 3b 8c 85 3e 32 70 99 3d db f5 38 be
       0.123397335 0.2608355 0.07492103 -0.18062536
0002a0 1e 20 a4 be 68 1a 44 bf 28 f3 13 bd 6a 9e 9a 3e
       -0.32055753 -0.7660279 -0.036120564 0.30198985
0002b0 5d 1d 90 3d 7e 89 ee 3d 51 4f 18 3e a2 25 91 bf
       0.070368506 0.11647318 0.14874007 -1.133961
0002c0 5b ef fb bb 29 8d f2 3b 03 46 01 bd 2a d4 72 bd
       -0.0076884455 0.0074020815 -0.03156091 -0.059284367
0002d0 39 9c c0 3b 88 ea 77 bf f4 87 13 3e 41 6d 32 3c
       0.005877998 -0.9684224 0.14407331 0.010890306
0002e0 c9 9c ef 3d 29 4f a6 bf 09 e6 c7 3e 28 d9 41 3f
       0.11699826 -1.2992908 0.3904269 0.7572198
0002f0 0a 1d 5a be c2 19 33 bd 4b 94 73 be c1 67 64 3f
       -0.2130014 -0.043725736 -0.23787038 0.89220816
000300 54 0f 6b be 3c fe 8c bf db aa f2 3e a3 4d ea 3e
       -0.22955066 -1.1015086 0.47395977 0.45762357
000310 c5 ae a3 3e c5 1c e0 bd a0 9d 05 3e 75 e9 6c bf
       0.31969276 -0.10942987 0.1304841 -0.9254373
000320 ac bc 98 3c 56 c3 72 3e 60 22 ce 3e 60 52 17 bf
       0.018644653 0.23707327 0.402606 -0.5911007
000330 91 ab 20 3f eb b5 2d 3e bd 3b c7 be 9e a8 41 bf
       0.6276179 0.16963927 -0.38912764 -0.75647914
000340 4c b4 32 3e 21 77 d1 be 06 f8 38 be 3a 4a 6d bf
       0.1745159 -0.409112 -0.18063363 -0.92691386
000350 ec a3 10 bc 83 b6 c7 bc 5d a7 25 3e e3 e6 0d bf
       -0.0088281445 -0.02437902 0.16177125 -0.5543043
000360 09 8a 03 3c 87 a1 43 be e4 9f 89 bd 4d 34 6e bf
       0.008028516 -0.19104587 -0.0671995 -0.93048555
000370 89 1d 06 3b ad db 3d be 1f 5f 89 be e0 e3 4a bf
       0.0020464382 -0.18540831 -0.26830384 -0.7925396
000380 b1 87 98 3e a7 f1 df bb 69 4c c1 be 32 d7 b6 bb
       0.29791024 -0.006834227 -0.3775361 -0.0055798525
000390 7d 43 a9 be 63 8a 80 bf c7 8d 5b be 3b ad 61 bf
       -0.33059302 -1.0042232 -0.21440803 -0.88154954
0003a0 f3 61 65 be 6c c8 23 3e ef 5c a1 bc 59 db af 3c
       -0.22400646 0.15994424 -0.019697635 0.021466898
0003b0 6a bd ae 3e 78 07 56 be b6 81 fe 3e 19 d6 ab be
       0.34128886 -0.20901287 0.49708337 -0.3356178
0003c0 32 52 e1 3b b5 18 71 3e d5 c0 ba 3e 42 56 66 be
       0.0068762535 0.23544581 0.36475244 -0.22493842
0003d0 37 89 1a 3f 0f 33 a7 be 8f 31 9b 3d 48 38 8c bf
       0.60365623 -0.32656142 0.07577812 -1.0954676
0003e0 e5 88 77 be 8d 6b 27 bf c6 ba 5a be 2c ef 1a be
       -0.24173315 -0.65398484 -0.21360311 -0.151303
0003f0 2a 01 8e bd 12 c7 6e 3c be 0c 73 3e 39 04 3e 3e
       -0.06933816 0.014573829 0.2373533 0.18556298

layers.0.bias f4 [128]
000000 76 c1 e8 be 91 50 c7 bf e4 96 6a 3f 99 31 67 3f
       -0.454601 -1.5571462 0.9163649 0.90310055
000010 1e 47 22 be cd b0 49 c0 f2 d2 32 3f 0d 2b 06 be
       -0.15847442 -3.151416 0.69853127 -0.1310236
000020 8d 88 81 c0 83 bd e9 3d 55 8c 50 3f 6f 82 85 c0
       -4.047919 0.114130996 0.8146413 -4.172172
000030 80 5e 5f 3f 7b 52 a6 bf d2 72 7b c0 b4 68 bb 3f
       0.8725357 -1.2993921 -3.928883 1.4641328
000040 be b7 3e 3f fc e3 67 c0 52 3d 4e c0 b8 46 31 c0
       0.7449912 -3.62329 -3.2224927 -2.7699413
000050 82 e6 51 c0 5f 6c bd bf 11 79 de 3f 29 9d b0 bf
       -3.279694 -1.4798697 1.7380697 -1.3797961
000060 01 7e d7 bf 63 8a 44 3f 64 88 f4 3c 6a c3 4c bd
       -1.6835328 0.7677366 0.029850192 -0.04999105
000070 f7 50 ce bf 9c b8 2d c0 47 f1 44 bf 74 e2 e5 bf
       -1.6118459 -2.7143927 -0.7693066 -1.7959733
000080 da c2 4f 3e 57 49 55 c0 71 01 db 3f 2a c2 eb 3f
       0.20289174 -3.3326013 1.7109815 1.8418629
000090 b9 c0 ba 3e 5a d4 f9 bf 33 e8 97 bf 37 f9 6e bd
       0.3647516 -1.951793 -1.1867737 -0.05834314
0000a0 db a8 82 be 08 55 91 3f fd e9 e3 bf 7a 08 45 c0
       -0.25519451 1.1354074 -1.7805783 -3.0786424
0000b0 5e 24 53 c0 5c 80 e8 3f 9d 0a 6d 3f 5f 97 73 c0
       -3.2990947 1.8164172 0.9259432 -3.806114
0000c0 d8 60 97 3e c9 9c 3b c0 3c aa 2e bf b5 4f 67 3f
       0.29566073 -2.9314444 -0.6822851 0.90356
0000d0 fc 1f 58 c0 92 92 2f 3e 78 17 7a 3f 06 b0 8c 3f
       -3.3769522 0.17145756 0.9769206 1.0991218
0000e0 44 b5 6a 3f fb 95 a5 bf 1e 6c c0 3f e9 ab af bf
       0.9168284 -1.2936395 1.5032995 -1.3724338
0000f0 b4 35 67 3f c0 05 4d c0 8a 1f 1a c0 bb c8 56 c0
       0.9031632 -3.203476 -2.408175 -3.3560016
000100 75 4e 0d c0 ed 64 d4 3e 4a 4e 44 c0 30 f7 34 c0
       -2.2079136 0.4148325 -3.0672784 -2.8275871
000110 59 92 2c 3e 78 3b 77 3f ae d5 73 bf 48 56 91 bf
       0.16852702 0.9657512 -0.95247924 -1.1354456
000120 6e 66 f2 bf 5f 0e be 3f 60 82 b3 3f 25 42 c9 3f
       -1.8937509 1.4848136 1.4024162 1.5723311
000130 85 c4 9e 3e b7 6a db 3d 74 3b 79 c0 8f 0a 46 c0
       0.31009308 0.107137136 -3.8942537 -3.0943944
000140 40 64 04 40 32 d9 42 c0 cf ce 81 3d 42 38 5e c0
       2.0686188 -3.0445065 0.06338274 -3.4721837
000150 f6 16 b6 bf 0f 91 4d c0 93 d1 a5 3f 94 b3 7e bf
       -1.4225757 -3.2119787 1.2954582 -0.99492764
000160 76 37 cf 3f b1 8e ef 3f 5d fa 70 3f cf 2b 72 3e
       1.61888 1.8715421 0.94132024 0.23649524
000170 76 a6 d9 3e 22 1f 49 bf 19 18 4a be ff a1 35 3f
       0.42509812 -0.7856313 -0.19735755 0.7095031
000180 fd 55 fb bf ba 54 b3 3f 49 07 a7 be ae 84 1a c0
       -1.9635617 1.4010231 -0.32622746 -2.4143481
000190 c5 e2 82 c0 7f 3a d9 3f 6e a0 75 3f 0c c9 f8 bf
       -4.090182 1.6970977 0.9594792 -1.9436355
0001a0 55 ae bf 3f 9f a9 42 3f 7a 2d f4 3f 09 c7 cf 3f
       1.4975077 0.7604007 1.9076378 1.6232616
0001b0 6a 14 41 c0 28 12 37 3f b4 2c b9 3e b8 3e 74 bf
       -3.016871 0.7151208 0.36166918 -0.954082
0001c0 ac 27 7f 3f 29 e5 22 bf 5c 0d 66 3f a1 8c c6 bf
       0.9966991 -0.6363092 0.89864135 -1.5511667
0001d0 01 19 83 bf ae 0c 92 bf 39 5a 85 3f dc 5e 03 c0
       -1.0242006 -1.141012 1.0418159 -2.0526648
0001e0 a7 7f 70 c0 2d 77 c4 3f a1 51 80 3c e6 ef 21 3d
       -3.7577913 1.534887 0.015663924 0.039535426
0001f0 04 de a9 bf 43 34 9f 3e 59 37 15 c0 69 bf 5e c0
       -1.3270879 0.3109456 -2.3315032 -3.4804327

layers.2.weight f4 [128, 128]
000000 32 56 29 be 2e 73 04 c0 99 e0 91 3d 76 b3 5f bd
       -0.16536787 -2.06953 0.07122917 -0.054614507
000010 65 d8 e5 3c 9e 58 08 3f 57 53 cf be 21 03 37 3d
       0.028057287 0.5326022 -0.4049327 0.04468072
000020 ff d1 49 be ef 40 bf 3d 82 fe ab bf f9 f4 b7 be
       -0.19709013 0.09338557 -1.3437045 -0.35929087
000030 86 55 17 bf 88 00 90 bd f5 82 39 be b0 d2 31 3d
       -0.59114873 -0.07031351 -0.18116362 0.043413818
000040 9d 21 9b be af 50 16 be 2e 9b 3c 3d 12 8a cc bd
       -0.30299082 -0.14679216 0.04604643 -0.09987272
000050 fd 2f 21 3e ef a2 83 bf fa 71 ca be 46 f4 92 bd
       0.15740962 -1.0284098 -0.39540082 -0.07175498
000060 f1 fc 5a 3e d2 a7 be bd e9 68 24 c0 89 81 8d 3e
       0.21385552 -0.09309353 -2.5689032 0.2763789
000070 c9 84 38 be 7c b2 4e 3e a6 f6 2e 3d 59 fa 8c bd
       -0.18019404 0.20185274 0.04271569 -0.068836875
000080 8e 8c 58 3c 11 3c 12 be 02 b4 96 be 17 3c 56 be
       0.013217105 -0.14280726 -0.2943421 -0.2092136
000090 9d a9 9f 3d 00 ad 52 bf ed 07 18 3e 7f 98 0a 3e
       0.07796023 -0.8229523 0.14846773 0.13534735
0000a0 ce 4f ff bd 42 2a 0c c0 b7 63 4f ba cb fa 52 be
       -0.124663934 -2.1900792 -0.0007911282 -0.20603482
0000b0 7f 87 87 be 64 aa d4 be 4e 1c 1c be f2 f2 30 be
       -0.26470563 -0.41536248 -0.15245172 -0.17280176
0000c0 25 47 4c 3e d3 03 31 be cb bc 22 3e a3 9f e0 bf
       0.19949014 -0.17286615 0.15892331 -1.7548717
0000d0 df 75 32 bd d5 44 64 3e b8 fa ed be b4 54 e8 bd
       -0.043569442 0.22291882 -0.46480346 -0.11344281
0000e0 2e b2 63 be 69 9f a8 be a2 30 18 be 74 ef ba 3d
       -0.22235939 -0.3293412 -0.14862302 0.09127703
0000f0 f7 5e 6d bf d3 30 28 be e9 b8 3a bf 72 44 d6 be
       -0.9272303 -0.16424875 -0.729384 -0.41849095
000100 9d 54 09 be 4a 48 ed 3d fb 77 05 be c0 bc d6 be
       -0.13411184 0.11586054 -0.1303405 -0.4194088
000110 d8 66 84 3e af c2 38 bf dc b1 4f bd a8 90 8f bf
       0.25859714 -0.72172064 -0.05070673 -1.121602
000120 a8 28 39 3e 0b 85 40 bf ff 2f f1 3d ed 83 e3 bf
       0.18081915 -0.7520301 0.11776733 -1.7774636
000130 43 61 31 bf fe 35 07 3d 7a 51 88 bd 33 d2 a1 3e
       -0.69289035 0.033010475 -0.066561654 0.31605682
000140 12 5a 68 be ae eb 27 be 73 54 1a 3e 41 32 48 be
       -0.22690609 -0.16398498 0.15071277 -0.1955042
000150 2d 68 91 be 3d 8a 70 be 1d 70 4c ba fd 77 2f 3e
       -0.28399792 -0.23490234 -0.00077986886 0.17135616
000160 60 a6 1a be 34 8d 88 be 0b b3 02 c0 69 74 04 bc
       -0.1510253 -0.2667023 -2.042178 -0.008084395
000170 e1 3a 6c be fb b7 99 bf a9 a6 1d 3e 27 20 a0 3d
       -0.23069336 -1.2009271 0.15395607 0.078186326
000180 db 28 02 3e 7d 61 c2 bf 2f 80 8d be 68 64 02 bd
       0.12710898 -1.5186001 -0.2763686 -0.031834036
000190 13 b7 f6 bd f0 96 5e bd d3 ae 53 be 34 f7 94 bd
       -0.120466374 -0.054343164 -0.20672159 -0.07273713
0001a0 08 35 b1 be 45 ed 9a 3d ca d2 d4 be a5 44 a8 be
       -0.34610772 0.07564787 -0.4156707 -0.32864872
0001b0 00 b1 02 bd 67 7b 79 bf c7 4a 07 3e 62 57 8e be
       -0.03190708 -0.9745392 0.13212119 -0.27801043
0001c0 da a8 b4 bd fe 39 25 3b a8 a5 b9 be 46 92 5b 3d
       -0.088212684 0.0025211568 -0.36259198 0.053606294
0001d0 e4 cf 02 bd 48 8f 24 3e 74 7a 95 be 72 d1 71 be
       -0.03193654 0.16070282 -0.29194987 -0.23615053
0001e0 9c 0a 80 3e 80 e5 f2 be 40 cd 39 be ae 5b 39 bd
       0.25008094 -0.4744072 -0.18144703 -0.04525345
0001f0 a7 f8 9c be 8d 75 a0 bf 51 ab 33 be 47 09 d4 bc
       -0.30658457 -1.2535874 -0.17545821 -0.02588333
000200 ba 43 0a be 14 fb 4c 3e 1a f7 6d bd 96 a1 53 3e
       -0.13502398 0.20017654 -0.058096983 0.20667109
000210 88 8d 1c 3e a2 62 44 be a0 ec 8e 3e 60 cb bf be
       0.15288365 -0.1917825 0.27914906 -0.3745985
000220 3c c6 20 bf 9f bb 21 3e 72 9d 87 3d 23 1d 81 c0
       -0.6280248 0.15794228 0.06621827 -4.0348067
000230 d2 8e 95 3e 9a 87 b1 bc 8c 0d 8f be f2 91 c4 3d
       0.29210526 -0.021671105 -0.27940023 0.09598149
000240 41 31 16 3e 86 fc de bf 81 ce dd be cb 60 cd bd
       0.14667226 -1.7420814 -0.43321612 -0.100282274
000250 03 dc dd bf 86 e8 85 be e0 1e 33 3e b3 fe 93 3d
       -1.7332767 -0.26153964 0.17492247 0.072263144
000260 e4 bb af be 1f ec c2 bb 1c c9 6b 3e 08 7d 43 3e
       -0.34323037 -0.005948558 0.23025936 0.19090664
000270 b5 9d 04 bd d7 41 00 c0 4e 58 85 3d 82 48 99 3e
       -0.032376964 -2.0040185 0.065109834 0.29938132
000280 78 d5 47 be 47 95 e8 bf bf c8 dc 3e 76 4e be 3e
       -0.19515026 -1.8170556 0.43121907 0.37169236
000290 a2 74 76 bd 9b 39 87 3e 3e b2 05 bf 64 f2 73 3e
       -0.060169823 0.26411137 -0.522251 0.23822933
0002a0 1d 75 b1 bd 1f 4a 3e 3e 22 c5 85 be 08 d4 1b bf
       -0.08664916 0.18582962 -0.26126963 -0.6087041
0002b0 af b2 4b c0 91 dc c9 bd c2 3c 85 3e 78 33 71 bf
       -3.182781 -0.09856523 0.26022917 -0.9421916
0002c0 a0 69 8a 3d 2d 98 d9 bf 35 94 e0 be 38 0a c4 bd
       0.067584276 -1.6999565 -0.43863073 -0.095722616
0002d0 67 a5 d3 be ce 9d 01 3d 9e f0 51 3e 64 d3 0f 3d
       -0.4133713 0.031644635 0.20501944 0.035113707
0002e0 4c 6a 89 3e de 3c 76 3e 07 3d 8c 3c bc 0d 14 bf
       0.2683891 0.24046656 0.017118944 -0.57833457
0002f0 89 fd f9 3d 86 3a 27 bf 46 5a 04 bf 12 89 27 bf
       0.12206561 -0.65323675 -0.51700246 -0.6544353
000300 86 51 24 3e e9 38 a3 3d fc 27 a4 bf b1 9f 70 bf
       0.16046724 0.07969839 -1.2824702 -0.9399367
000310 bd 24 2a bf 52 32 b6 3c e4 42 03 3e ef e5 63 bc
       -0.6646231 0.022240791 0.12818485 -0.013909801
000320 0d ce 2e bf b1 78 48 3e fc bf 03 3e 53 93 a9 3e
       -0.6828316 0.1957729 0.12866205 0.33120212
000330 7e c3 37 3d 03 3a 68 bd 9e 64 88 bf f1 90 6f bd
       0.04486417 -0.05669595 -1.0655706 -0.058487836
000340 b1 9d ca 3d 9e 19 c6 bf 2c 9e 9b 3d f0 fe 01 bf
       0.098933585 -1.5476568 0.07598528 -0.5077963
000350 02 49 6f 3e b2 40 9d bf 94 00 b0 3d 17 d9 01 bf
       0.23367694 -1.2285368 0.0859386 -0.5072188
000360 5a 4f a2 3e e7 bf 2a 3f e4 ba 20 3e 13 d8 5c be
       0.31701165 0.6669907 0.15696293 -0.21566801
000370 37 db c2 bc 4b 53 9b be ad 94 a1 3d 0c 54 48 3d
       -0.02378617 -0.30336985 0.07889686 0.04890828
000380 bf f2 aa be 80 8c 4f 3e e1 6e b9 3e 66 bb 10 bf
       -0.33388326 0.2026844 0.36217406 -0.5653595
000390 4b 03 b0 bf cd 30 5d bd 63 e4 bc 3e ab 85 70 be
       -1.3751005 -0.05400162 0.36892995 -0.2348849
0003a0 5f a7 e6 3d 91 60 ae be 43 5e aa 3e 4b 68 70 3c
       0.11262392 -0.3405805 0.3327504 0.014673303
0003b0 ba bd 0e bf 23 2a 11 bd 35 5c ff bd 5a 12 83 3d
       -0.5575825 -0.035440575 -0.12468759 0.06399985
0003c0 c2 77 37 be 9b 47 76 3e 34 c4 c0 3e 1d f5 32 be
       -0.17916778 0.24050753 0.3764969 -0.17476316
0003d0 38 99 5b 3d cf dc 7f bd 7e 9d 52 be b2 6c 8e bf
       0.053612918 -0.06246644 -0.20567891 -1.1126921
0003e0 65 15 29 c0 5e d4 85 bd ac f0 57 3e 47 ec ac be
       -2.6419308 -0.065346465 0.21087903 -0.33774015
0003f0 9b 04 e0 bd db 34 26 3e 87 39 62 bf 08 c3 5f bf
       -0.109383784 0.162311 -0.8836903 -0.8740697

layers.2.bias f4 [128]
000000 c0 d0 f9 be d5 4c 69 3f f4 5b bc bf 05 8f 61 bd
       -0.48792076 0.9113286 -1.4715562 -0.055068035
000010 d5 10 99 3b bf 3a 42 3e 6c 70 da 3e c0 b8 89 bf
       0.004671196 0.18967722 0.42663896 -1.0759506
000020 a4 b5 1c 3f b0 da 5a 3f 8a ad d0 bf b7 16 0d 3f
       0.6121466 0.8548994 -1.630296 0.55112785
000030 3f d0 78 3f e0 2b bd 3e 9f f9 4e 3f 55 0c 52 bd
       0.9719276 0.36947536 0.8084964 -0.051281292
000040 51 11 a5 bd 74 67 45 3d d8 ac 41 3f 46 56 90 bf
       -0.080599435 0.048194364 0.75654364 -1.1276329
000050 03 dc 1e bf 34 c9 6f 3f 66 88 78 3f ec e6 88 bb
       -0.6205446 0.93666387 0.9708313 -0.0041779187
000060 5d dd 3d 3f 55 66 9f 3e ac d1 a5 bf cb 35 f3 3e
       0.741659 0.3113276 -1.2954612 0.47501978
000070 bd a2 e1 3e 1c ff 5c 3f e0 c3 04 3f 41 1f b5 3e
       0.44069472 0.86326766 0.5186138 0.35375407
000080 d4 2a 27 3f 8f 0b 67 3f 13 d5 cb bc 6a 30 73 3e
       0.65299726 0.9025201 -0.024881875 0.23748937
000090 5e 4b ad bf c9 b3 23 bf 35 a4 03 3e a2 c8 f6 3b
       -1.3538625 -0.63946205 0.12855609 0.0075312415
0000a0 ab 99 5e 3f 27 34 47 3f ad 50 a7 bf 8a 91 e0 bf
       0.8695323 0.77813953 -1.3071495 -1.7544415
0000b0 fb f2 ef bd bd c1 ea 3d 07 8a eb bd eb dd 8e bf
       -0.11716267 0.11462734 -0.11500936 -1.1161474
0000c0 68 ff 4f 3f ac b1 6d 3d 26 0a d4 bf 29 63 ed bf
       0.81249094 0.05803077 -1.6565597 -1.8545886
0000d0 6b 30 ed bf 0d db 41 3f 51 c2 d8 bd b1 df d9 bf
       -1.8530401 0.7572487 -0.10583938 -1.702139
0000e0 7a d0 74 3f 88 bb dd bf af ee aa bf e6 ee 7a 3f
       0.9563061 -1.7322855 -1.335409 0.9802078
0000f0 7c 75 5a bf c3 d2 c3 3e b4 ad 50 bf 9a 07 45 bf
       -0.85335517 0.38246736 -0.8151505 -0.76964724
000100 ce ff bb 3a a9 b0 32 3f 56 0b 49 bf 21 49 68 3f
       0.0014343204 0.6980081 -0.7853292 0.90736586
000110 54 91 7c bd cf 0b dd bf 2a 4c 84 3d b5 b2 51 3e
       -0.061662033 -1.7269229 0.0645984 0.20478328
000120 69 6b a8 bd 8c 05 0a 3f e9 75 9e bd b2 b8 85 bf
       -0.08223612 0.53914714 -0.07737333 -1.044699
000130 03 99 b3 bf 4c 97 9b bf d9 db 63 3e 38 4a 87 3d
       -1.403107 -1.2155547 0.22251834 0.06605953
000140 9a 5b 26 3c 2a d7 a4 bf c2 b0 c6 bf 3e 26 1e 3f
       0.010153675 -1.2878163 -1.5522692 0.617771
000150 5d 14 44 3f d8 4d 29 bf 43 8e 11 3f 0e ff 5e 3f
       0.7659357 -0.66134405 0.568577 0.8710793
000160 5b b6 07 3f b7 7f a8 bc 53 fa 0e c0 3c 19 83 be
       0.5301263 -0.020568712 -2.2340286 -0.2560519
000170 a5 bc 61 bd 02 51 0e 3f 41 fd 92 3c ce 10 64 bf
       -0.055111546 0.5559236 0.017943026 -0.8908814
000180 6f 56 41 bf 2b b2 43 3f 3d 6a c9 bf bb f5 39 3f
       -0.7552251 0.7644374 -1.5735546 0.7264058
000190 8a 69 bd bf b5 9e d7 bf 0f 00 b0 bc 7c 0a b3 bf
       -1.4797833 -1.6845309 -0.021484403 -1.3987575
0001a0 d3 60 f4 be 93 92 64 3f 53 d9 a6 bf 85 50 8f bf
       -0.4773012 0.89286155 -1.3035072 -1.1196448
0001b0 8a 37 02 bd 8b 4d ce bd 08 92 98 be 5d c3 a0 bd
       -0.031791247 -0.10073384 -0.29798913 -0.078497626
0001c0 35 64 e2 3e ec d2 27 3f bb 4f e0 3e 8b 7a 6e 3f
       0.44217077 0.65556216 0.4381083 0.93155736
0001d0 80 ba 93 be 9f 19 ad bd d5 b0 87 bf 7f ce c8 bf
       -0.28853226 -0.084521525 -1.060084 -1.5688018
0001e0 29 84 e6 bd f9 fd cf bf 7c b9 7a 3f 78 ac 56 3e
       -0.11255676 -1.6249381 0.97939277 0.20964229
0001f0 ec e5 77 bf 65 a1 06 3f 87 ff 53 3f 91 15 7e 3d
       -0.9683521 0.5259002 0.8281178 0.062032286

layers.4.weight f4 [2, 128]
000000 f5 41 24 bf 97 a4 12 3f 82 80 97 bf 95 6b 8f bc
       -0.6416314 0.57282394 -1.1836092 -0.017507354
000010 cf 0e e8 bc 14 1a a2 bf 7b d9 41 40 28 d4 b1 bf
       -0.028327374 -1.2664208 3.028899 -1.389287
000020 ee b3 2b 3f de a6 76 3f 62 5b 32 bf ef 6e c2 3e
       0.67071426 0.9634837 -0.6967069 0.3797526
000030 b4 52 d4 3e bb 4d 39 40 5d 32 0c 3f 5c 5d 9b bc
       0.41469347 2.8953693 0.5476435 -0.018965416
000040 0e 26 1c 3b 8d f3 a5 3f fc 7a ac 3e f9 c6 c3 be
       0.0023826393 1.2964951 0.3368758 -0.38237742
000050 52 d3 6f be ce 18 6b 3f 7b 24 ca 3e a0 b6 37 bd
       -0.23420456 0.91834724 0.39480957 -0.0448519
000060 6c 41 cf 3e 93 fe 8d be f5 bd f0 be 39 20 af 3f
       0.404796 -0.27733287 -0.47019926 1.3681709
000070 68 24 1a 3f d4 15 f9 3f 01 30 01 bf a8 3d 89 3e
       0.602118 1.9459786 -0.50463873 0.26804852
000080 b1 3c b5 3f f8 09 f7 3e c6 ed 73 bc 95 8a b0 be
       1.4159147 0.48249793 -0.014888233 -0.3448073
000090 cf 2c dd be 08 3b 35 3f b1 2e f5 be 60 df d5 3e
       -0.4319825 0.707932 -0.47887185 0.41771984
0000a0 40 3a e3 3e b2 61 2f 3f 83 59 09 bf 81 8c 88 bf
       0.4438038 0.68508446 -0.5365221 -1.0667878
0000b0 9a b9 6c 3d 97 fe 9b be 2c 31 ea bc 5f ba d6 be
       0.05779419 -0.30467674 -0.0285879 -0.41939065
0000c0 0d bf fe 3e 29 c8 22 3f d4 b0 45 bf 24 2d e8 be
       0.49755135 0.6358667 -0.77222943 -0.4534694
0000d0 00 c6 a3 bd b4 d0 86 3f 6c ce 37 be 3d 84 fe be
       -0.0799675 1.0532441 -0.17949837 -0.49710265
0000e0 13 00 e7 3e dd f2 c6 be 14 20 4c bf ef de 03 3f
       0.45117244 -0.38857165 -0.7973645 0.51512045
0000f0 6f ae 0e 3f 7e 49 82 bf 4d 15 f1 3e c5 02 fe bd
       0.55734915 -1.0178678 0.47086564 -0.12402872
000100 a2 0a c5 bc 94 36 14 be 78 fa 08 bf 56 d6 23 3f
       -0.024052922 -0.14473945 -0.53507185 0.63998926
000110 02 f8 2a 3d 5b e1 4c bf 4b c2 01 bf 7a d1 b8 3e
       0.041740425 -0.80031365 -0.5068709 0.36097318
000120 84 84 13 3d d2 31 89 be a1 a2 2a bd 80 c3 04 be
       0.03601505 -0.26795822 -0.041659 -0.12965202
000130 3a fd 80 bf 4f e0 fd be 81 f7 f0 be 2d cf 25 bf
       -1.0077279 -0.49585196 -0.4706383 -0.6476925
000140 e8 a1 08 3d 6d 9d de be 2b 62 06 bf ea 08 05 be
       0.03335753 -0.4347948 -0.5249354 -0.12991682
000150 21 d5 0a 3f b2 0e b6 be b8 14 07 be d8 97 b1 3e
       0.5423146 -0.35558087 -0.13191497 0.3468616
000160 37 96 e2 3d 56 12 d1 be 1c 68 62 bf 98 81 2b be
       0.110638075 -0.40834302 -0.8844011 -0.16748655
000170 11 3e 1a 3d 20 09 e9 3d ea d4 5f 3d 2a eb c3 be
       0.037656847 0.113786936 0.05464641 -0.38265353
000180 a4 20 4a bc 8b bf 3a be e5 6f 3d bf e7 a9 98 3e
       -0.012336884 -0.1823713 -0.7399886 0.29817125
000190 5d 9d 42 bf a9 1a c2 3e d5 fc 96 3d 47 0b 0b bf
       -0.7602137 0.37910965 0.07372443 -0.5431408
0001a0 11 fd aa be 8a 22 07 3f 39 6e d5 be 61 fe c8 3e
       -0.333962 0.5278708 -0.41685656 0.39256576
0001b0 5a c1 56 3c a1 a3 00 bd 21 2b 3f bf c2 18 ec bc
       0.013107622 -0.03140605 -0.74675184 -0.0288204
0001c0 6e fd c9 bf c0 22 a5 3f f1 a8 4a c0 a2 b8 dd 3e
       -1.5780466 1.290123 -3.1665614 0.43304926
0001d0 7e f7 96 be 27 8e 4b bc 8c d8 64 be 0c df 88 3c
       -0.29485697 -0.0124240285 -0.22348231 0.01670792
0001e0 50 d8 1e bd 72 98 b3 3c 1a ba e5 3e c1 4e 03 3e
       -0.03878051 0.021923278 0.44868547 0.12823011
0001f0 da df a3 bf 50 27 d7 3e 08 23 d5 3e b9 06 02 3d
       -1.2802689 0.4202218 0.4162829 0.031744692
000200 4d 0c 41 3f 72 67 ba 3e 9c 64 4e bf fa 0d 06 3d
       0.75409395 0.36407048 -0.8062227 0.032728173
000210 bc 93 17 bd 43 37 7e bf 36 f2 62 40 a1 fd 35 bf
       -0.037006125 -0.9930307 3.5460334 -0.7109013
000220 fc 40 0f 3f 5f 8f 4d be 25 a2 3d bf 5b a1 8a bc
       0.55958533 -0.20074223 -0.7407554 -0.016922643
000230 c4 0a b5 3e 5b 4e 03 40 28 ec c0 3e fb be c4 bc
       0.35359776 2.0516574 0.37680173 -0.024016848
000240 c2 47 32 bc ab 1f 0d 40 23 7c 03 3f 0e d8 2f bf
       -0.010881366 2.2050579 0.5136129 -0.6868905
000250 94 27 ea bc 3a a7 d8 3e 19 73 b3 3e 7d c5 63 bc
       -0.028583325 0.42315084 0.3504875 -0.013902065
000260 fd 79 02 3f 8d 4c bd be 51 6c 46 bf 5e f0 93 bf
       0.5096739 -0.36972466 -0.7750903 -1.1557729
000270 a6 6f 03 3f 89 fb b9 3f 8d 79 cf 3e 1e 57 06 3f
       0.51342237 1.4529887 0.40522423 0.5247668
000280 ec 21 0c 3f e4 96 d1 3e 20 99 f5 3b 34 b0 55 3e
       0.5473926 0.40935433 0.0074950606 0.20867997
000290 0b 9c 1e bf 60 8a 73 3f 83 42 bc be c3 1a 2d 3f
       -0.6195685 0.9513302 -0.36769494 0.6761896
0002a0 94 08 c5 3e 9e f4 42 3c 96 d8 13 bf 0c 3a c8 be
       0.38483107 0.011899142 -0.5775236 -0.39106786
0002b0 9c c7 91 bd 40 38 88 be ac b9 a5 3c 5c ce e3 be
       -0.071181506 -0.26605415 0.020230137 -0.44493377
0002c0 f9 74 89 3e cf 8d a1 3e e8 ac 4f bf 62 85 3a bf
       0.26847056 0.31553504 -0.8112321 -0.72859776
0002d0 a6 a0 03 c0 7b 59 df 3d 32 cc 93 3e 2e ed 20 bf
       -2.0566802 0.10905739 0.28866726 -0.6286191
0002e0 a8 68 a1 3e d2 33 94 bf 90 eb 66 bf 86 24 eb 3e
       0.3152516 -1.1578314 -0.9020319 0.45926303
0002f0 a4 be 4a bf 3b ed 0a 3f ea 90 93 be ba 8b 0d bf
       -0.79197145 0.54268235 -0.28821498 -0.5529133
000300 72 3e 87 3d fc fc 95 3e 8e fa 12 be f9 c7 c8 3e
       0.066037074 0.29294574 -0.14353392 0.39215067
000310 11 00 ed bc 68 34 1f bf 12 34 c5 3e c6 27 20 3e
       -0.028930696 -0.6218934 0.3851629 0.15640172
000320 a3 6a 3f bc 15 9d 8f 3e 7f 3c cf bb 03 0d 08 bf
       -0.011683139 0.28049532 -0.0063243504 -0.53144854
000330 a4 69 6e bf 10 c7 ef be 78 b1 d9 be d8 75 ff 3d
       -0.93129945 -0.4683156 -0.4251821 0.12473649
000340 77 c2 eb 3c 02 67 15 bf ad 31 2f bf 87 62 af 3e
       0.028779252 -0.583603 -0.68435174 0.34254858
000350 f1 eb 25 3e 3b c6 c2 be 1b 43 2f 3f b1 1f ad 3e
       0.16203286 -0.38041863 0.6846177 0.3381324
000360 02 cd ab 3e 37 17 3a bf 8d 36 22 bf fb 1b b5 be
       0.33554846 -0.72691673 -0.6336449 -0.3537291
000370 14 3e 8e bd d8 3a 93 3f 44 8d 8e 3d df bc 26 3e
       -0.06945434 1.1502333 0.06960538 0.16282986
000380 53 26 eb be 4d bf ac 3e 40 bb 8e bf 72 bc cd 3e
       -0.45927677 0.337397 -1.1150894 0.40182835
000390 88 3c 3e be 4b 6b e8 bf 31 cb 8f bd 46 4e 28 bf
       -0.18577778 -1.8157743 -0.070211776 -0.65744436
0003a0 68 78 a9 3f 76 11 f4 3e 00 78 6f bd 98 d7 43 bf
       1.323987 0.47669572 -0.05846405 -0.76500845
0003b0 e0 6b 73 3b f0 46 7f 3c 7a f9 97 3f da 9e bb bc
       0.0037143156 0.015580878 1.1873009 -0.022902895
0003c0 5c 1c b4 3d c6 e6 33 3f a0 76 aa 3f 4e e5 b4 3e
       0.087944716 0.7027401 1.3317451 0.35331196
0003d0 0b 9c 88 bf 08 71 60 3c cc ee fa be ec 1a 48 bf
       -1.067262 0.013698824 -0.49010313 -0.7816608
0003e0 37 5d b0 bd a0 98 e0 be fc 0a d7 3e 6d 36 2d 3f
       -0.08611529 -0.43866444 0.42000568 0.6766117
0003f0 24 4e 60 bf 8f be 19 3f 52 49 9d 3e d5 79 45 3d
       -0.87619233 0.60056394 0.3072 0.04821189

layers.4.bias f4 [2]
000000 a2 e1 4a 3f 83 6f 29 3f
       0.7925054 0.6618578
