ACC/ddqn_models/0417/ddqn_600_1.0.pth (torch_old, 69813 bytes, 6 tensors)

layers.0.weight f4 [128, 2]
0	0x3ee38a5f	0.44441506
1	0xbdfbe8b4	-0.12300244
2	0xbe00b21e	-0.12567946
3	0xbf8f7f13	-1.1210655
4	0xbe8cfd38	-0.2753694
5	0x3f08de8f	0.534646
6	0xbd15aa39	-0.03653929
7	0xbef052c7	-0.46938154
8	0xbd013035	-0.031540114
9	0x3e0475cb	0.1293556
10	0xbeb27ba8	-0.34859967
11	0xbec8d555	-0.3922526
12	0x3e605689	0.2190801
13	0x3ee7209e	0.45142072
14	0xbec5bb43	-0.38619432
15	0x3f2b6db8	0.6696429
16	0xbeb0b5d7	-0.34513733
17	0xbd25dde2	-0.040494807
18	0xbd2de0a8	-0.042450577
19	0xbe028ca3	-0.12748961
20	0xbea57b2a	-0.3232053
21	0xbf6fae70	-0.93625546
22	0x3bef686c	0.007306149
23	0x3e90eda0	0.28306293
24	0xbd29bf28	-0.041442066
25	0xbf0734ec	-0.5281513
26	0xbcba98b5	-0.022777895
27	0xbf2b9faf	-0.6704053
28	0x3d25e83a	0.04050467
29	0x3f2e0cc0	0.67988205
30	0xbed93298	-0.42421412
31	0x3f215860	0.63025475
32	0xbdf3cfb2	-0.11904849
33	0xbf6194cf	-0.8811769
34	0x3e85db56	0.26143903
35	0xbf43bdd3	-0.76461524
36	0xbe9c4f00	-0.30529022
37	0x3ecc706d	0.39929524
38	0xbcf4942d	-0.029855812
39	0x3e0c0ec5	0.13677509
40	0x3bf52bb1	0.007482015
41	0x3e874b2e	0.26424545
42	0x3db8c06e	0.09021078
43	0x3f26cdba	0.65157664
44	0x3e382d4a	0.17986026
45	0xbe9430c3	-0.28943452
46	0xbea7964f	-0.32731864
47	0xbf31ad6d	-0.6940525
48	0x3e87bb1b	0.26509938
49	0x3f4ba10c	0.79542613
50	0x3ea9ec88	0.33188272
51	0xbf163912	-0.5868083
52	0xbdf60e46	-0.12014441
53	0xbf5a3af8	-0.8524623
54	0xbdc56160	-0.096377134
55	0xbe1c79e8	-0.15280879
56	0x3cc5f05b	0.024162462
57	0xbf3afb3d	-0.7303961
58	0x3e4d38ce	0.200412
59	0x3d9e0fdc	0.07717869
60	0x3c18c636	0.009324601
61	0xbf28c58a	-0.6592642
62	0xbee94a58	-0.45564532
63	0xbe0e17d6	-0.1387628
64	0x3e4bfc12	0.19920376
65	0xbf612794	-0.87951016
66	0x3df9fc94	0.122063786
67	0xbed82f41	-0.42223552
68	0xbcf9b30c	-0.030480884
69	0x3cc63b6a	0.024198253
70	0xbae50e64	-0.0017475602
71	0x3e0eee6e	0.13958141
72	0x3d259768	0.040427595
73	0xbda4f3af	-0.080542915
74	0xbe4dee97	-0.20110546
75	0xbf262fb1	-0.6491652
76	0xbe648e25	-0.22319849
77	0x3f81e0c0	1.0146713
78	0xbe97cb8f	-0.2964749
79	0x3d68f802	0.056877144
80	0x3e96aeea	0.29430324
81	0xbea8a296	-0.32936543
82	0xbd5614d0	-0.052265942
83	0xbf615218	-0.8801589
84	0x3e2cbfd8	0.16870058
85	0xbf239462	-0.6389829
86	0xbe911014	-0.2833258
87	0xbd3a6433	-0.045505714
88	0xbdee6db1	-0.11642016
89	0x3e50da2e	0.20395729
90	0x3edc5895	0.43036333
91	0xbf1fa99c	-0.6236818
92	0x3efb2c69	0.4905732
93	0x3e826628	0.25468564
94	0xbea3d825	-0.32000843
95	0x3eb80c5d	0.35946932
96	0xbe852b51	-0.2600961
97	0xbec847c6	-0.3911726
98	0x3e522fdf	0.20526074
99	0xbd952e38	-0.07284206
100	0x3f0225ee	0.50839126
101	0xbf1e71b3	-0.6189224
102	0x3e954fd2	0.2916246
103	0x3f4396a5	0.7640174
104	0xbedfc227	-0.43702814
105	0x3f13b744	0.57701516
106	0xbeab6dbf	-0.33482167
107	0x3e1282b6	0.14307675
108	0xbdd3a52e	-0.1033424
109	0xbeed4d6d	-0.46348134
110	0xbd6b22f5	-0.057406384
111	0x3f0f0de2	0.5588056
112	0xbe9b8edb	-0.30382428
113	0xbf549329	-0.8303705
114	0xbedfdca5	-0.43723026
115	0xbf34b0f1	-0.7058249
116	0x3e63a727	0.22231732
117	0xbec0dcf9	-0.3766859
118	0xbe8dabe9	-0.2767022
119	0xbe2b6b3c	-0.16740125
120	0x3e5c69fd	0.21524806
121	0x3ee5e229	0.4489911
122	0x3ee1950f	0.44059035
123	0xbef8b5f0	-0.48576307
124	0x3b00b072	0.001963642
125	0x3e2bdd34	0.16783601
126	0xbdd7b39c	-0.10532305
127	0x3f572a8f	0.84049314
128	0xbe5ec66f	-0.21755384
129	0xbeef733a	-0.46767598
130	0xbe26fe5a	-0.16307965
131	0xbe5348bd	-0.20633216
132	0x3c5d04ad	0.013489884
133	0xbed01112	-0.40638024
134	0xbcd4c28f	-0.025971679
135	0x3e77a79e	0.24185035
136	0xbc1dddd5	-0.009635408
137	0x3de402ea	0.11133368
138	0x3d313493	0.04326303
139	0xbf1e7ba0	-0.61907387
140	0xbeacd9d7	-0.3375995
141	0xbe7a7f9d	-0.24462743
142	0xbe3577bf	-0.17721461
143	0xbf1e09cd	-0.61733705
144	0x3f157b0a	0.5839087
145	0xbf375f4c	-0.71629786
146	0x3e1f8cf6	0.15581116
147	0xbe8d2237	-0.27565166
148	0xbdbaa6ce	-0.09113847
149	0xbe8fd1ff	-0.28089902
150	0x3db3b4b2	0.08774699
151	0x3ebfece2	0.37485415
152	0xbd16393a	-0.03667567
153	0xbf1071ab	-0.56423444
154	0xbe6e8efe	-0.23296735
155	0x3f27acf0	0.65498257
156	0xbe1d1804	-0.15341192
157	0x3e86a97e	0.26301187
158	0xbe916b4b	-0.2840217
159	0xbee9718f	-0.4559445
160	0x3e1870a1	0.14886715
161	0xbea27d75	-0.3173634
162	0x3e4a87d2	0.19778374
163	0xbaaf6819	-0.0013382464
164	0xbea5d438	-0.32388473
165	0x3def06fd	0.11671255
166	0x3ecff284	0.40614712
167	0x3df9788e	0.12181197
168	0xbea70ce1	-0.32627013
169	0xbf3c13e6	-0.7346786
170	0xbe78d0ee	-0.2429845
171	0x3e877f20	0.26464176
172	0xbe574947	-0.21024047
173	0x3ea0a1dc	0.3137349
174	0x3eccca7c	0.39998233
175	0xbf554824	-0.833132
176	0xbd7fe67d	-0.06247567
177	0x3e228607	0.1587144
178	0xbcde25de	-0.027117666
179	0x3d2aaeff	0.041670796
180	0xbd5c0575	-0.05371614
181	0xbf5be94a	-0.85902846
182	0xbd16ff2e	-0.036864452
183	0x3ecf6a62	0.4051085
184	0x3e95fb72	0.292934
185	0xbe95e491	-0.29275945
186	0x3e2b407f	0.16723822
187	0x3f5d3f95	0.86425143
188	0xbe22c751	-0.15896346
189	0xbe0f4dd6	-0.13994536
190	0xbf0d5133	-0.55202025
191	0x3f5b742f	0.8572416
192	0x3e9c6eac	0.30553186
193	0xbf721ce7	-0.9457535
194	0x3e99884b	0.29986796
195	0x3f40c807	0.7530522
196	0x3f1291b9	0.57253605
197	0xbd92f89e	-0.07176326
198	0x3f134ce9	0.5753923
199	0xbf2787b2	-0.6544143
200	0xbe0044b0	-0.12526202
201	0x3f28325d	0.6570185
202	0x3eca798f	0.39545867
203	0xbf03da28	-0.51504755
204	0x3f039d5e	0.51412
205	0x3e625817	0.22103916
206	0x3d6b3660	0.057424903
207	0xbf270d20	-0.652544
208	0x3e4ea00c	0.2017824
209	0xbeadfded	-0.33982792
210	0x3e98bf4d	0.2983345
211	0xbf6f9f9e	-0.9360293
212	0xbcd20879	-0.025638806
213	0x3dc17736	0.09446566
214	0x3e6f270c	0.23354739
215	0xbec37e57	-0.38182327
216	0xbc670527	-0.0141003495
217	0xbf102675	-0.5630868
218	0xbe43efae	-0.191344
219	0xbf37d3e6	-0.71807706
220	0xbeb3fca5	-0.3515369
221	0x3cc24a84	0.023717172
222	0x3eda7e62	0.42674547
223	0xbd8ff54b	-0.07029208
224	0x3eed91db	0.4640034
225	0x3e8ce0ab	0.27515158
226	0xbedd80ba	-0.43262273
227	0xbd1444ce	-0.03619843
228	0xbe389135	-0.18024142
229	0xbf2a3f2e	-0.66502655
230	0x3dc5a10a	0.096498564
231	0xbf82ade2	-1.0209315
232	0xbeb9d6ba	-0.36296636
233	0xbe5eb42b	-0.21748416
234	0xbca15cef	-0.019697635
235	0x3cafdb59	0.021466898
236	0x3edf95a9	0.4366887
237	0x3e335487	0.17512713
238	0x3ec9512b	0.3931974
239	0x3ee22928	0.44172025
240	0x3bdcfaee	0.0067437803
241	0x3e80c874	0.25152934
242	0x3ee72aef	0.45149943
243	0xbed1bfd5	-0.4096667
244	0x3f356a21	0.70865065
245	0xbd7e941f	-0.062152978
246	0x3edcdf76	0.43139237
247	0xbef0c4f8	-0.47025275
248	0x3cb06453	0.021532213
249	0xbf29cb04	-0.663254
250	0xbe454863	-0.19265895
251	0xbf52e6d6	-0.8238348
252	0xbea605bc	-0.3242625
253	0xbe0a67b1	-0.13516118
254	0x3ebf957e	0.3741874
255	0x3ee66244	0.44996846

layers.0.bias f4 [128]
0	0xbeaed284	-0.34144986
1	0xbee1fa8e	-0.4413647
2	0x3f8673fb	1.0504144
3	0x3fa1ef82	1.2651217
4	0xbd85171f	-0.064985506
5	0xc014c9a9	-2.3248084
6	0x3f855bf8	1.0418692
7	0xbe6f7bbb	-0.23387043
8	0xc02628a0	-2.5962296
9	0x3f85217f	1.0400847
10	0x3f80d575	1.0065142
11	0xc04ae630	-3.1702995
12	0x3fa118b2	1.2585661
13	0xbfd8fa42	-1.6951373
14	0xc00249af	-2.0357473
15	0x3fb78d60	1.4340019
16	0x3f2b1e02	0.66842663
17	0xc0147d6f	-2.3201559
18	0xbfc634b7	-1.5484837
19	0xc0309cfe	-2.759582
20	0xc0384f04	-2.8798227
21	0xbea8b429	-0.3294995
22	0x3ff346e1	1.9006006
23	0x3e67b1b2	0.22626379
24	0xbfb28511	-1.3946859
25	0x3f8a7c9d	1.0819279
26	0x3f707f69	0.9394441
27	0x3ef1602a	0.4714368
28	0xbfc26e67	-1.5189942
29	0xbfe4adef	-1.786558
30	0xbfbac292	-1.4590628
31	0xbf88d776	-1.0690753
32	0xbf293b5c	-0.661062
33	0xbfc91261	-1.5708734
34	0x3fc6821d	1.5508457
35	0x3fdd0653	1.7267555
36	0x3d1a3c34	0.03765507
37	0xbfe7b78c	-1.8102889
38	0xbeeaa053	-0.45825443
39	0x3e5925fb	0.21205895
40	0x3c786af5	0.015162219
41	0x3f96983c	1.1765208
42	0xbfd4067d	-1.656448
43	0xbfd1e49a	-1.6397889
44	0xbff973c0	-1.9488449
45	0x3fe51156	1.7895916
46	0x3fb1e057	1.3896588
47	0xc006a206	-2.1036391
48	0x3f294ea6	0.66135633
49	0xbffc1b80	-1.9695892
50	0xbf8da4c1	-1.1065904
51	0x3eb0022f	0.34376666
52	0xbfd81130	-1.6880245
53	0x3f0b6236	0.54446733
54	0x3fa30ef3	1.2738937
55	0x3fa81900	1.3132629
56	0x3f425714	0.7591412
57	0xbfd23256	-1.6421611
58	0x4000cf85	2.012666
59	0xbf607d59	-0.87691265
60	0x3f817e1d	1.0116612
61	0xbfdc0ba3	-1.7191051
62	0xc01784a8	-2.3674717
63	0xbff2f893	-1.8982109
64	0xbfc07aa7	-1.503743
65	0x3d7d8d6f	0.06190246
66	0xc0118895	-2.2739613
67	0xc007556c	-2.1145887
68	0x3ee6bba8	0.45065045
69	0x3f184d4d	0.5949295
70	0xbfd0d1cd	-1.6314026
71	0x3da91688	0.082562506
72	0xbfb0bb3a	-1.3807137
73	0x3fd3b068	1.653821
74	0x3fc1107f	1.5083159
75	0x3fb9d0ba	1.4516823
76	0x3f54577c	0.8294599
77	0x3f0c0185	0.5468982
78	0xc03700be	-2.8594203
79	0xbfe68282	-1.8008578
80	0x3ff067ba	1.8781655
81	0xc007b8b0	-2.1206474
82	0x3e683b7c	0.22678941
83	0xc00432ce	-2.0656009
84	0xbfacdcce	-1.3504884
85	0xbff1586e	-1.8855112
86	0x3f9f1b46	1.2430198
87	0xbfa12fab	-1.2592672
88	0x3fc936b7	1.5719823
89	0x3fdcc6f7	1.7248219
90	0x3f996285	1.1983191
91	0x3ed34a17	0.41267464
92	0x3f6d36a5	0.92661506
93	0xbf35ff82	-0.71093
94	0xbe2cf2e4	-0.1688953
95	0x3efa121f	0.4884195
96	0xc000f930	-2.0152092
97	0x3fb7a550	1.4347324
98	0x3d88df22	0.06683184
99	0xbff63fd6	-1.9238231
100	0xc01b2595	-2.4241688
101	0x3fcc4af0	1.5960369
102	0x3fb87653	1.441111
103	0xbfeef6c2	-1.8669055
104	0x3feabc70	1.8338757
105	0x3ecc27d9	0.3987415
106	0x3fe36817	1.7766141
107	0x3ff05d70	1.8778515
108	0xbfdeb36e	-1.7398508
109	0x3f3d49b8	0.7394061
110	0xbe5cf662	-0.21578363
111	0xbe806a3f	-0.2508106
112	0x3f8f44fc	1.1192927
113	0xbf75b225	-0.9597495
114	0x3f99c676	1.201369
115	0xbfb26557	-1.3937176
116	0xbf907058	-1.1284285
117	0xbf920cae	-1.141012
118	0x3f9a1228	1.2036791
119	0xbfe882fb	-1.8164972
120	0xc031b56e	-2.7766986
121	0x3fcdf845	1.6091391
122	0x3ef452a3	0.47719297
123	0x3e8b4d42	0.2720738
124	0xbf838cb0	-1.027731
125	0x3f37922e	0.7170743
126	0xbfbb3818	-1.4626493
127	0xc00ab379	-2.1672041

layers.2.weight f4 [128, 128]
0	0xbe295632	-0.16536787
1	0xc004732e	-2.06953
2	0x3df09b97	0.117484264
3	0xbd5fb2e5	-0.054613966
4	0x3d8dad59	0.06917829
5	0x3f16c4b9	0.58893925
6	0xbecf5357	-0.4049327
7	0x3dbb450f	0.09144031
8	0xbe18a95a	-0.14908352
9	0x3e0f8a1f	0.14017533
10	0xbfa4e2c2	-1.2881701
11	0xbeb7f4f9	-0.35929087
12	0xbf175586	-0.59114873
13	0xbd900088	-0.07031351
14	0xbe09c486	-0.13453874
15	0x3db8f053	0.09030213
16	0xbe9b219d	-0.30299082
17	0xbe1650af	-0.14679216
18	0x3dbc9ad0	0.09209216
19	0xbdcc8a12	-0.09987272
20	0x3e212ffd	0.15740962
21	0xbf83b440	-1.0289383
22	0xbeca71fa	-0.39540082
23	0xbca7a37f	-0.020463703
24	0x3e5afcf1	0.21385552
25	0xbdbea7d2	-0.09309353
26	0xc02468e9	-2.5689032
27	0x3ea6d88d	0.3258709
28	0xbe3884c9	-0.18019404
29	0x3e4eb27c	0.20185274
30	0x3d2ef6a6	0.04271569
31	0xbca9f9d1	-0.020749005
32	0x3c588c8e	0.013217105
33	0xbe123c11	-0.14280726
34	0xbe7cb932	-0.24680021
35	0xbe2744e2	-0.1633487
36	0x3e2e7260	0.17035818
37	0xbf52acf7	-0.82295173
38	0x3e45c45f	0.19313191
39	0x3e3ac2bc	0.18238348
40	0xbdff4fce	-0.124663934
41	0xc00c2a42	-2.1900792
42	0xba4f63b7	-0.0007911282
43	0xbe22676a	-0.15859762
44	0xbe70e9c1	-0.2352667
45	0xbed4aa64	-0.41536248
46	0xbe1c1c4e	-0.15245172
47	0xbe018e6d	-0.12651987
48	0x3e803682	0.25041586
49	0xbe3103d3	-0.17286615
50	0x3e22bccb	0.15892331
51	0xbfe09fa3	-1.7548717
52	0x3b2b15cc	0.0026105521
53	0x3e89e5ee	0.26933235
54	0xbed68744	-0.41900074
55	0xbd8c64c8	-0.0685516
56	0xbe2e9acb	-0.17051236
57	0xbe893779	-0.26800135
58	0xbe1830a2	-0.14862302
59	0x3e122b79	0.14274396
60	0xbf6d5ef7	-0.9272303
61	0xbe2830d3	-0.16424875
62	0xbf3ab8e9	-0.729384
63	0xbebf5455	-0.37369028
64	0xbdf2a719	-0.118482776
65	0x3e2cf724	0.16891152
66	0xbe0577fb	-0.1303405
67	0xbec18c5f	-0.37802407
68	0x3e965324	0.29360306
69	0xbf38c2af	-0.72172064
70	0xbb109885	-0.0022063565
71	0xbf8e89eb	-1.1135839
72	0x3e3928a8	0.18081915
73	0xbf40850b	-0.7520301
74	0x3e2b6967	0.16739427
75	0xbfddf83c	-1.734138
76	0xbf316143	-0.69289035
77	0x3da0ef2f	0.07858121
78	0xbd13c1d6	-0.03607353
79	0x3ebff953	0.37494907
80	0xbe685a12	-0.22690609
81	0xbe27ebae	-0.16398498
82	0x3e4a3b6e	0.19749233
83	0xbe483241	-0.1955042
84	0xbe81b7dd	-0.2533559
85	0xbe42c138	-0.1901902
86	0x3d3e62e5	0.046481032
87	0x3e2f77fd	0.17135616
88	0xbdd5207b	-0.10406586
89	0xbe609deb	-0.21935241
90	0xc002b30b	-2.042178
91	0x3d0b13ce	0.033954434
92	0xbe6c3ae1	-0.23069336
93	0xbf960b56	-1.172221
94	0x3e51f420	0.20503283
95	0x3e00289b	0.1251549
96	0x3e0228db	0.12710898
97	0xbfc25364	-1.5181699
98	0xbe8d802f	-0.2763686
99	0xbd026468	-0.031834036
100	0xbda37beb	-0.0798262
101	0xbd5e96f0	-0.054343164
102	0xbe53aed3	-0.20672159
103	0xbd94f734	-0.07273713
104	0xbeb13508	-0.34610772
105	0x3d9aed45	0.07564787
106	0xbebc9e77	-0.3683965
107	0xbea844a5	-0.32864872
108	0xbd02b100	-0.03190708
109	0xbf77c91c	-0.96791244
110	0x3e380584	0.17970854
111	0xbe8e5762	-0.27801043
112	0xbdb4a8da	-0.088212684
113	0x3d462c03	0.048381817
114	0xbe9b7ff4	-0.30371058
115	0x3d5b9246	0.053606294
116	0x3cbd4510	0.02310422
117	0x3e248f48	0.16070282
118	0xbe957a74	-0.29194987
119	0xbe71d172	-0.23615053
120	0x3e902029	0.28149536
121	0xbef2e580	-0.4744072
122	0xbe39cd40	-0.18144703
123	0xbd395bae	-0.04525345
124	0xbe9cf8a7	-0.30658457
125	0xbf9f4c7a	-1.2445214
126	0xbe052dfa	-0.1300582
127	0xbcd40947	-0.02588333
128	0x3a871bad	0.0010307931
129	0x3e6b268f	0.22963928
130	0x3dd20f4a	0.102568224
131	0x3ea73af1	0.32662156
132	0x3df55c6b	0.11980518
133	0xbd93e66c	-0.07221684
134	0x3e4c11d0	0.1992867
135	0xbdfef440	-0.12448931
136	0xbe157b17	-0.14597736
137	0x3e0c6813	0.13711576
138	0x3dd00b3e	0.10158394
139	0xbfb42432	-1.4073546
140	0x3ec38dd1	0.38194135
141	0xbc1262c2	-0.0089346785
142	0x3cb584f3	0.022158122
143	0x3e5548bc	0.20828527
144	0x3db07981	0.08616925
145	0xbf0a8247	-0.5410504
146	0xbe8df8bd	-0.27728835
147	0xbd34bcc7	-0.044125345
148	0xbfb44026	-1.4082077
149	0xbd29a54d	-0.04141741
150	0x3ea2d0b1	0.31799844
151	0x3c963c7b	0.018339386
152	0xbe852ddf	-0.2601156
153	0x3e3f1ea4	0.18664032
154	0x3e84a76b	0.2590898
155	0x3e059c6f	0.13047956
156	0xbdde1232	-0.10843314
157	0xbf5d3118	-0.86403036
158	0x3d8d78db	0.06907817
159	0x3e6af129	0.22943558
160	0xbd005241	-0.031328443
161	0xbd671421	-0.05641568
162	0x3f01fb00	0.5077362
163	0x3ee596f7	0.4484174
164	0xbcabcf81	-0.020972969
165	0x3c5bfaa5	0.0134264575
166	0xbec0d0be	-0.37659258
167	0x3e58044a	0.21095386
168	0x3dcb00ce	0.09912263
169	0x3e9789e4	0.2959739
170	0xbe32cd0e	-0.17461035
171	0xbd8318a5	-0.06401185
172	0xbf2263ce	-0.6343354
173	0x3dc81c65	0.09771041
174	0x3e3ef993	0.18649893
175	0xbe98fef1	-0.29882005
176	0x3ded87d0	0.1159817
177	0xbeeae76b	-0.45879683
178	0xbe0e7a5a	-0.13913861
179	0x3e06d41d	0.13166852
180	0xbe452f7a	-0.19256392
181	0x3dbf3415	0.09336106
182	0x3e9a9922	0.30194956
183	0x3e4e5c5e	0.20152423
184	0x3e9e5f63	0.3093215
185	0x3de5a27a	0.112126306
186	0x3e1598ef	0.14609121
187	0xbc37cf59	-0.011218869
188	0x3dbc4208	0.09192282
189	0xbdae153a	-0.085001424
190	0xbf050fe4	-0.5197737
191	0xbeb304c5	-0.34964576
192	0x3d401c27	0.04690185
193	0x3e261694	0.1621955
194	0xbec92b52	-0.39290863
195	0xbdbc9f86	-0.09210114
196	0xbcf3fd00	-0.029783726
197	0xbdd12432	-0.10211982
198	0x3a24958e	0.0006278389
199	0x3cfa4578	0.030550703
200	0xbe718ece	-0.23589632
201	0x3e9173f9	0.28408793
202	0x3e321113	0.17389326
203	0x3ecced7d	0.4002494
204	0x3e50ba22	0.20383504
205	0x3d4fd8d9	0.05074391
206	0xbe4547cf	-0.19265674
207	0xbd548cc1	-0.051892046
208	0x3e5a059a	0.212912
209	0xbf02ff59	-0.5117088
210	0x3e434f2e	0.19073173
211	0xbea89fad	-0.32934323
212	0x3cb338c0	0.021877646
213	0xbf061add	-0.5238474
214	0x3e0c2902	0.13687518
215	0xbe930a1b	-0.28718647
216	0x3edba3b8	0.42898345
217	0x3f3a9218	0.7287917
218	0x3e9cddd6	0.30637997
219	0x3dbf510d	0.09341631
220	0x3df1bf51	0.11804069
221	0xbe26feff	-0.16308211
222	0x3da314ff	0.07962989
223	0x3df1b6d7	0.11802452
224	0xbe895023	-0.26818952
225	0x3e146289	0.14490713
226	0x3dfdf698	0.1240055
227	0xbebeeac8	-0.372885
228	0xbed880f0	-0.42285872
229	0x3def6e4e	0.11690961
230	0x3e692fa6	0.22772083
231	0xbe02cdf0	-0.12773871
232	0x3e80e89a	0.2517746
233	0xbe8b365f	-0.2718992
234	0x3eca84e2	0.39554507
235	0x3e67c483	0.22633557
236	0x3e19b979	0.15012158
237	0xbcb84380	-0.022493124
238	0x3e81f747	0.2538397
239	0x3df31bfb	0.11870571
240	0x3d10d10f	0.035355624
241	0x3e2e0c5d	0.16996904
242	0x3e970067	0.29492494
243	0xbe19d96e	-0.15024349
244	0x39cb9e95	0.0003883733
245	0xbd7fdccf	-0.06246644
246	0x3d05da3a	0.03267882
247	0xbe0d5914	-0.13803512
248	0xbfb8c5ad	-1.4435326
249	0x3e472b38	0.1945008
250	0x3d585b8a	0.052821673
251	0xbcc82879	-0.024433361
252	0xbdc17aeb	-0.09447273
253	0x3e542169	0.2071587
254	0xbd1fb550	-0.038991272
255	0xbea2166e	-0.31657737

layers.2.bias f4 [128]
0	0xbee11142	-0.4395848
1	0x3f541b19	0.8285385
2	0xbfb84b12	-1.439791
3	0xbd618f05	-0.055068035
4	0x3b9910d5	0.004671196
5	0x3ded8be3	0.11598947
6	0x3eb766d8	0.3582065
7	0xbf89b8c0	-1.0759506
8	0x3f020aea	0.50797904
9	0x3f128000	0.5722656
10	0xbfd0ad8a	-1.630296
11	0x3e88a3d0	0.2668748
12	0x3f58726e	0.84549606
13	0x3edd446e	0.4321627
14	0x3f31a899	0.69397885
15	0xbcf622e5	-0.030045936
16	0xbda51151	-0.080599435
17	0x3e30f2cb	0.17280118
18	0x3f4b9baf	0.7953443
19	0xbf905646	-1.1276329
20	0xbf1edc03	-0.6205446
21	0x3f1c7ba3	0.61126155
22	0x3f5a9489	0.85382897
23	0x3cf2bc8c	0.029630922
24	0x3f0d3030	0.55151653
25	0x3ed4c469	0.415561
26	0xbfa5d1ac	-1.2954612
27	0x3e766683	0.24062543
28	0x3ecb658c	0.39725912
29	0x3eac7a58	0.3368709
30	0x3ecb0919	0.39655378
31	0x3ed21367	0.41030428
32	0x3f071567	0.5276703
33	0x3f458cef	0.7716817
34	0xbccbd513	-0.024881875
35	0x3e9587a0	0.29205036
36	0xbfad4b5e	-1.3538625
37	0xbf081261	-0.53153044
38	0x3e92fded	0.28709355
39	0x3ec9ee97	0.39439842
40	0x3f3c5b9e	0.73577297
41	0x3f2f5349	0.6848646
42	0xbfa750ad	-1.3071495
43	0xbfa27edc	-1.2694964
44	0xbdeff2fb	-0.11716267
45	0x3eb06407	0.34451315
46	0xbdaa9b1f	-0.08330368
47	0xbf8eddeb	-1.1161474
48	0x3f2f6392	0.6851131
49	0x3f0966f1	0.536727
50	0xbfc622a2	-1.5479319
51	0xbfe26856	-1.7688091
52	0xbfb998ed	-1.4499794
53	0x3f0905d7	0.53524536
54	0xbdd8c251	-0.10583938
55	0xbfd9dfb1	-1.702139
56	0x3f539c1b	0.82660073
57	0xbfbb6779	-1.4640952
58	0xbfaaeeaf	-1.335409
59	0x3f557a69	0.8338991
60	0xbf5a757c	-0.85335517
61	0x3e835609	0.25651577
62	0xbf488bf8	-0.78338575
63	0xbf45079a	-0.76964724
64	0x3abbffce	0.0014343204
65	0x3f326a02	0.69693005
66	0xbf47f556	-0.7810873
67	0x3f34a280	0.70560455
68	0xbcf53e04	-0.029936798
69	0xbfb50049	-1.4140712
70	0x3e55d277	0.20881067
71	0x3eef45aa	0.46732837
72	0xbda86b69	-0.08223612
73	0x3ed3446a	0.41263133
74	0xbd9e75e9	-0.07737333
75	0xbf85b8b2	-1.044699
76	0xbfb39903	-1.403107
77	0xbf9b974c	-1.2155547
78	0x3e99ceac	0.3004049
79	0x3d1e504b	0.038650792
80	0x3c265b9a	0.010153675
81	0xbfa4d72a	-1.2878163
82	0xbfc6b0c2	-1.5522692
83	0x3f150422	0.5820943
84	0x3ebaed79	0.36509302
85	0xbeb32f01	-0.349968
86	0x3ed80a06	0.42195147
87	0x3f45ba1f	0.77237123
88	0x3f11a0d6	0.5688604
89	0x3e5ba057	0.21447884
90	0xbf956c33	-1.1673645
91	0xbe83193c	-0.2560519
92	0xbd61bca5	-0.055111546
93	0x3e8edc5b	0.27902493
94	0x3c92fd41	0.017943026
95	0xbf6410ce	-0.8908814
96	0xbf41566f	-0.7552251
97	0x3f37a355	0.717336
98	0xbfb780d2	-1.4336188
99	0x3f25ac7b	0.6471631
100	0xbfbd698a	-1.4797833
101	0xbfcab5e2	-1.5836756
102	0xbcb0000f	-0.021484403
103	0xbfb30a7c	-1.3987575
104	0xbee4fa7f	-0.44722363
105	0x3f3fdae3	0.7494337
106	0xbfa6d953	-1.3035072
107	0xbf8f5085	-1.1196448
108	0xbd02378a	-0.031791247
109	0xbd8d3f52	-0.06896843
110	0xbe884fce	-0.26623386
111	0xbd3fb68e	-0.046804957
112	0x3ec56689	0.3855479
113	0x3e9a0e42	0.30089003
114	0x3dce5672	0.10075082
115	0x3f4cd40c	0.8001106
116	0xbeeca6d5	-0.46221033
117	0xbd582899	-0.052773092
118	0xbf87b0d5	-1.060084
119	0xbf8f9cbc	-1.1219707
120	0xbde68429	-0.11255676
121	0xbfbed4c4	-1.4908681
122	0x3f5900a2	0.8476659
123	0x3ee53c20	0.44772434
124	0xbf77e5ec	-0.9683521
125	0x3e8070be	0.25086015
126	0x3f378100	0.71681213
127	0x3d7e1591	0.062032286

layers.4.weight f4 [2, 128]
0	0xbf26b654	-0.6512196
1	0x3ea856f2	0.32878834
2	0xbf9b9161	-1.2153741
3	0xbc8f6b95	-0.017507354
4	0xbce80ecf	-0.028327374
5	0xbfa8b8dd	-1.3181416
6	0x3f0bf9f6	0.54678285
7	0xbfb1d428	-1.389287
8	0x3d87db0c	0.06633577
9	0x3dd9a7d2	0.10627712
10	0xbf325b62	-0.6967069
11	0x3ea325a5	0.31864658
12	0x3eb50a58	0.35359454
13	0x400c64d6	2.1936545
14	0x3eb38180	0.35059738
15	0xbb02e59c	-0.0019973284
16	0x3b1c260e	0.0023826393
17	0x3f2eb793	0.6824886
18	0x3e5d4422	0.21608022
19	0xbec3c6f9	-0.38237742
20	0xbe6fd352	-0.23420456
21	0x3ec853ac	0.39126337
22	0x3e8431e6	0.2581932
23	0xbd823020	-0.06356835
24	0x3ecc8260	0.39943218
25	0xbe5290d0	-0.20563054
26	0xbef0bdf5	-0.47019926
27	0x3f7a75eb	0.9783618
28	0x3f0aab9c	0.54168105
29	0x3ebb6e3d	0.36607543
30	0x3e45833d	0.19288345
31	0x3e648141	0.22314931
32	0x3e190e3e	0.14946839
33	0x3e85df94	0.2614714
34	0xbc73edc6	-0.014888233
35	0xbecc4a1e	-0.39900297
36	0xbedd2ccf	-0.4319825
37	0x3ed99722	0.42498118
38	0xbeeedad1	-0.4665132
39	0xbdb33dd5	-0.08752028
40	0x3e9986e5	0.2998573
41	0x3ed2236f	0.4104266
42	0xbf095983	-0.5365221
43	0xbf15894c	-0.58412623
44	0x3d6cb99a	0.05779419
45	0xbeab536c	-0.33462083
46	0x3b4f3937	0.0031619796
47	0xbed6ba5f	-0.41939065
48	0x3e5b7902	0.2143288
49	0x3e91e4be	0.2849483
50	0xbf3a37e8	-0.72741556
51	0xbf6c6a4d	-0.923497
52	0xbea2fd61	-0.31833938
53	0x3f5ca8db	0.86195153
54	0xbe37ce6c	-0.17949837
55	0xbefe843d	-0.49710265
56	0x3ebade0f	0.36497542
57	0xbf2c54e1	-0.67317015
58	0xbf4c2014	-0.7973645
59	0x3eb2749a	0.34854585
60	0x3f0eae6f	0.55734915
61	0xbf33022e	-0.699252
62	0x3f00ac35	0.5026277
63	0xbdfe02c5	-0.12402872
64	0xbcc50aa2	-0.024052922
65	0x3cbd586a	0.023113448
66	0xbf111c41	-0.5668374
67	0x3f3514fa	0.7073513
68	0x3d9655e7	0.07340603
69	0xbf0bea9d	-0.54654866
70	0xbeb9f2ec	-0.36318147
71	0x3e82e6c7	0.25566694
72	0x3d138484	0.03601505
73	0xbed54d74	-0.41660655
74	0xbd2aa2a1	-0.041659
75	0xbe04c380	-0.12965202
76	0xbf80fd3a	-1.0077279
77	0xbefde04f	-0.49585196
78	0xbe81d064	-0.25354302
79	0xbec0dc2e	-0.37667984
80	0x3d08a1e8	0.03335753
81	0xbede9d6d	-0.4347948
82	0xbf06622b	-0.5249354
83	0x3e259b1e	0.16172454
84	0x3ebf45f6	0.37358063
85	0xbe7f3829	-0.24923767
86	0xbe9365f6	-0.28788728
87	0x3e501239	0.20319451
88	0x3dfd3b96	0.12364881
89	0xbeb3ff13	-0.35155544
90	0xbe91715d	-0.28406802
91	0xbe2b8198	-0.16748655
92	0x3d1a3e11	0.037656847
93	0xbea760d8	-0.32691073
94	0x3d5fd4ea	0.05464641
95	0xbec3eb2a	-0.38265353
96	0xbc4a20a4	-0.012336884
97	0x3e06dccf	0.1317017
98	0xbf23a4fd	-0.6392363
99	0x3e53c8c9	0.20682062
100	0xbf429d5d	-0.7602137
101	0x3ea2d534	0.31803286
102	0x3d96fcd5	0.07372443
103	0xbf0b0b47	-0.5431408
104	0xbeb3571a	-0.3502739
105	0x3ebce9f9	0.36897257
106	0xbed56e39	-0.41685656
107	0x3ec8fe61	0.39256576
108	0x3c56c15a	0.013107622
109	0xbd815ee6	-0.063169286
110	0xbf46dec5	-0.7768367
111	0x3b3d6967	0.0028901936
112	0x3d076de4	0.033063784
113	0x3f9a879c	1.2072635
114	0xbe38ba0a	-0.18039718
115	0x3ead5fb1	0.3386207
116	0xbd5456ef	-0.05184072
117	0xbc4b8e27	-0.0124240285
118	0xbe64d88c	-0.22348231
119	0xbebeff0f	-0.3730397
120	0xbd1ed850	-0.03878051
121	0xbe141215	-0.14460023
122	0x3e8c1dbf	0.27366444
123	0x3c40c11c	0.011764791
124	0xbfa3dfda	-1.2802689
125	0x3ef5df68	0.48022008
126	0x3ea74f39	0.3267763
127	0x3d0206b9	0.031744692
128	0x3f410c4d	0.75409395
129	0x3ec378ac	0.38178003
130	0xbf4e649c	-0.8062227
131	0x3d060dfa	0.032728173
132	0xbd1793bc	-0.037006125
133	0x3dd39281	0.10330678
134	0x3f057541	0.5213204
135	0xbf35fda1	-0.7109013
136	0x3f19f07c	0.60132575
137	0x3e6f498b	0.23367898
138	0xbf3da225	-0.7407554
139	0xbd18d1b3	-0.03730936
140	0x3e88286f	0.26593348
141	0x3fac4791	1.345934
142	0x3e617885	0.22018631
143	0x3bdce3db	0.0067410297
144	0xbc3247c2	-0.010881366
145	0x3fe2f5fb	1.7731317
146	0x3eb7130f	0.35756728
147	0xbf2fd80e	-0.6868905
148	0xbcea2794	-0.028583325
149	0x3e8ca926	0.274728
150	0x3e99d6de	0.30046743
151	0x3cdcad04	0.026937969
152	0x3eb52163	0.35377035
153	0xbec669ae	-0.38752502
154	0xbf466c51	-0.7750903
155	0xbf6531be	-0.89529026
156	0x3f161947	0.5863232
157	0x3f554c2a	0.8331934
158	0x3ec7784f	0.38958976
159	0x3e369c17	0.17832981
160	0x3e08219e	0.13294074
161	0x3eb052af	0.34438083
162	0x3bf59920	0.0074950606
163	0x3e280741	0.16409017
164	0xbf1e9c0b	-0.6195685
165	0xbe23bdf2	-0.15990427
166	0xbe5f4ce8	-0.21806681
167	0x3ec0a5bc	0.37626445
168	0x3ea56694	0.32304823
169	0x3dab9400	0.08377838
170	0xbf13d896	-0.5775236
171	0xbf6ce1a9	-0.9253183
172	0xbd91c79c	-0.071181506
173	0xbe542416	-0.2071689
174	0x3ca5b9ac	0.020230137
175	0xbee3ce5c	-0.44493377
176	0x3e7c8af1	0.24662377
177	0x3e9ee9a9	0.31037644
178	0xbf4c52d9	-0.79813915
179	0xbf4a4369	-0.7900911
180	0xbfd1dc4d	-1.6395355
181	0xbd16710f	-0.036728915
182	0x3e93cc32	0.28866726
183	0xbf20ed2e	-0.6286191
184	0x3e6568a4	0.22403198
185	0xbf742271	-0.95365053
186	0xbf66eb90	-0.9020319
187	0x3ec6b84c	0.38812482
188	0xbf4abea4	-0.79197145
189	0x3f072e3a	0.5280491
190	0xbe9390ea	-0.28821498
191	0xbf0d8bba	-0.5529133
192	0x3d873e72	0.066037074
193	0x3eaca9f5	0.33723417
194	0xbde4e6ad	-0.111768104
195	0x3ed79eed	0.42113438
196	0xbced0011	-0.028930696
197	0xbf0f2ac5	-0.55924636
198	0x3f1a4915	0.60267764
199	0x3e4d4189	0.20044531
200	0xbc3f6aa3	-0.011683139
201	0x3e4959bb	0.19663136
202	0xbbcf3c7f	-0.0063243504
203	0xbf080d03	-0.53144854
204	0xbf6e69a4	-0.93129945
205	0xbeefc710	-0.4683156
206	0xbedabe2a	-0.4272321
207	0x3eaa3a12	0.3324743
208	0x3cebc277	0.028779252
209	0xbf156702	-0.583603
210	0xbf2f31ad	-0.68435174
211	0x3e847457	0.2587001
212	0x3dd0cad9	0.1019494
213	0xbc6ddb6c	-0.014517646
214	0x3ee32f03	0.44371805
215	0x3e914103	0.28369913
216	0x3e0ce239	0.13758172
217	0xbeb8b6c2	-0.36076933
218	0xbed0f323	-0.408105
219	0xbeb51bfb	-0.3537291
220	0xbd8e3e14	-0.06945434
221	0x3f84b2f3	1.0367111
222	0x3d8e8d44	0.06960538
223	0x3e26bcdf	0.16282986
224	0xbeeb2653	-0.45927677
225	0x3ea9266c	0.33037126
226	0xbf881457	-1.0631207
227	0x3eb8a3c7	0.36062452
228	0xbe3e3c88	-0.18577778
229	0xbfb79498	-1.4342222
230	0xbd8fcb31	-0.070211776
231	0xbf284e46	-0.65744436
232	0x3fa97868	1.323987
233	0x3ed38825	0.41314808
234	0xbd6f7800	-0.05846405
235	0xbf43d798	-0.76500845
236	0x3b736be0	0.0037143156
237	0x3c7f46f0	0.015580878
238	0x3f97f97a	1.1873009
239	0xbcbb9eda	-0.022902895
240	0x3d2a1b59	0.041529987
241	0x3f0f17e2	0.5589582
242	0x3f9ab321	1.2085916
243	0x3e825968	0.25458837
244	0xbf0be697	-0.5464873
245	0x3d2a1f21	0.041533593
246	0xbefaeecc	-0.49010313
247	0xbed2c519	-0.41166
248	0xbdb05d37	-0.08611529
249	0xbf00e425	-0.5034812
250	0x3eb3587f	0.35028455
251	0x3e8b398d	0.27192345
252	0xbf604e24	-0.87619233
253	0x3e61c193	0.22046499
254	0x3e650206	0.22364053
255	0x3d4579d5	0.04821189

layers.4.bias f4 [2]
0	0x3f10d669	0.56577164
1	0x3f19e3c8	0.6011319
