ACC/ddqn_models/0417/ddqn_2000_1.0.pth (torch_old, 69813 bytes, 6 tensors)

layers.0.weight f4 [128, 2]
0	0x3d894f64	0.06704596
1	0xbe372fc2	-0.17889312
2	0xbe44d748	-0.19222748
3	0xbf6d1d1a	-0.9262253
4	0x3dbe9550	0.09305823
5	0x3e32fcf9	0.17479314
6	0xbe8a72b3	-0.27040634
7	0xbef8329a	-0.48476106
8	0xbb57a54d	-0.0032904923
9	0x3b827b05	0.00398195
10	0xbed4e63c	-0.41581905
11	0x3e8ff7ab	0.28118643
12	0x3eb7655d	0.35819522
13	0xbdc95f9c	-0.09832689
14	0x3e309edf	0.17248105
15	0x3f6108f8	0.8790431
16	0xbd539111	-0.051652018
17	0x3e3ae1a9	0.18250145
18	0x3cd5b459	0.026086973
19	0xbe5f8986	-0.21829805
20	0xbe37fbab	-0.17967097
21	0xbf95e916	-1.1711757
22	0xbe03b9fb	-0.12863915
23	0x3d0026a9	0.03128687
24	0xbe4ea24f	-0.20179103
25	0xbf076dc5	-0.5290187
26	0xbe9c06e9	-0.30474022
27	0xbf896551	-1.0734044
28	0x3df1fcc7	0.118157916
29	0xbd03c1dc	-0.0321673
30	0xbe2c5ca5	-0.16832216
31	0x3f3040bc	0.68848777
32	0xbe48ed9f	-0.19621895
33	0xbe4114af	-0.18855546
34	0xbd44b2f3	-0.04802222
35	0xbf0c4788	-0.5479665
36	0xbb91d32f	-0.004450224
37	0x3e6db37d	0.23213
38	0xbc9ea5ac	-0.019366108
39	0x3e05b762	0.13058236
40	0x3cfdbcaa	0.030973751
41	0x3e1ef9a5	0.1552492
42	0x3c8b9671	0.01703951
43	0xbd8b843c	-0.06812331
44	0xbd828b4c	-0.06374225
45	0xbe9ba33d	-0.30397978
46	0xbe7df2fa	-0.2479972
47	0x3dd6466a	0.10462649
48	0x3f22b8b2	0.6356307
49	0xbdba6b7d	-0.09102533
50	0xbe408a1b	-0.18802683
51	0xbf6b389a	-0.9188324
52	0xbeebe3f2	-0.46072346
53	0xbf8decbd	-1.1087872
54	0xb9ed59a5	-0.00045270953
55	0xbae4f614	-0.0017468357
56	0xbea5e8de	-0.32404226
57	0xbf6fa646	-0.9361309
58	0x3d8f0569	0.06983454
59	0xbcd0e096	-0.025497716
60	0xbeac8d62	-0.33701617
61	0xbf42d3f1	-0.76104647
62	0xbe4ce8e6	-0.20010719
63	0x3ebada23	0.3649455
64	0xbeb3d472	-0.3512302
65	0xbf66abfd	-0.90106183
66	0xbe01f466	-0.12690887
67	0x3d43a17f	0.047761437
68	0xbd721c9a	-0.059109308
69	0xbd1784c3	-0.036991846
70	0xbbc30b60	-0.0059522837
71	0xbb84e127	-0.0040551606
72	0xbe143f77	-0.14477335
73	0x3e090402	0.13380435
74	0xbeede184	-0.46461117
75	0xbf61cd91	-0.88204294
76	0x3e544bf0	0.20732093
77	0x3f222f98	0.6335387
78	0xbde3fcc9	-0.11132199
79	0xbe43a3b8	-0.19105422
80	0xbe464987	-0.19363986
81	0xbf703a85	-0.93839294
82	0xbb578fa4	-0.0032892013
83	0xbf8d4762	-1.1037409
84	0xbe510940	-0.20413685
85	0xbf432d9b	-0.76241463
86	0xbcaab9dc	-0.020840578
87	0x3e24f7cf	0.16110156
88	0xbdcdc4b3	-0.10047283
89	0x3cc8b505	0.02450038
90	0x3e45f1ba	0.19330493
91	0xbf250987	-0.6446766
92	0x3f03d360	0.5149441
93	0x3d9ee92a	0.07759316
94	0x3d6cac81	0.0577817
95	0x3e25555a	0.1614584
96	0xbe821cb3	-0.2541252
97	0xbe3850b8	-0.17999542
98	0x3da47ce8	0.080316365
99	0xbc8ac3f9	-0.01693915
100	0x3e58a74b	0.21157567
101	0xbf88839f	-1.0665168
102	0x3e25fea1	0.16210414
103	0x3ecfcdc4	0.40586674
104	0xbd548c8d	-0.051891852
105	0x3ee30b8d	0.4434475
106	0xbd22f6e7	-0.039786246
107	0xbc43effb	-0.011959071
108	0xbda61f13	-0.08111396
109	0xbeb8b840	-0.36078072
110	0x3d782cf5	0.06058975
111	0x3e468049	0.19384874
112	0xbef9c8b6	-0.48785943
113	0xbede415e	-0.43409246
114	0xbf08cf0a	-0.53440917
115	0xbd9af405	-0.07566074
116	0x3cc77d08	0.024351612
117	0xbf248106	-0.64259374
118	0x3e17c00c	0.14819354
119	0x3d63b257	0.05559
120	0x3e96795f	0.29389474
121	0x3e2c2a64	0.16813046
122	0xbc3435c4	-0.010999147
123	0xbf20f3b3	-0.62871855
124	0x3c8a42d5	0.016877571
125	0x3e005fa3	0.12536483
126	0xbd82aac8	-0.0638023
127	0x3ef3a554	0.47587073
128	0xbef46cf6	-0.4773938
129	0xbe11ebd6	-0.1425012
130	0xbe341a83	-0.17588238
131	0xbdb6617b	-0.08905312
132	0xbbc00d35	-0.0058609494
133	0xbe4769ac	-0.19473904
134	0x3aaa50d4	0.0012994059
135	0x3e3dc661	0.18532707
136	0x3ee7ccfd	0.4527358
137	0xbf32d0f1	-0.6985007
138	0xbd8ef1c7	-0.06979709
139	0xbdb6550e	-0.08902942
140	0xbf32700b	-0.69702214
141	0x3c9736f5	0.018458823
142	0xbe6ea670	-0.23305678
143	0xbeb55ef7	-0.35424015
144	0x3dcf49f5	0.10121528
145	0xbf7d2d83	-0.9889757
146	0x3e0bca8d	0.13651486
147	0xbe8fafa8	-0.28063703
148	0xbdfd24b5	-0.12360517
149	0xbea7889d	-0.32721415
150	0x3cb63ddf	0.0222463
151	0x3e8ba8f5	0.2727734
152	0xbed4739c	-0.41494453
153	0xbf8c29b4	-1.0950227
154	0x3e8ce9cb	0.2752212
155	0x3e817608	0.25285363
156	0xbba8f7d2	-0.0051564956
157	0x3e3256c0	0.17415905
158	0xbdcaba87	-0.098988585
159	0x3d9f89ca	0.07789953
160	0x3d62812c	0.05529897
161	0xbd23670e	-0.039893202
162	0x3da496cd	0.080365755
163	0xbd026b65	-0.0318407
164	0x3e59b3ea	0.21260038
165	0x3e87991d	0.26484004
166	0x3d293e3e	0.041319124
167	0xbe21befa	-0.15795508
168	0xbe92bf3b	-0.28661522
169	0xbf3cd559	-0.7376304
170	0x3cb0608b	0.02153041
171	0x3e3e8be6	0.18608055
172	0x3ca5d7c1	0.020244481
173	0x3b836844	0.004010232
174	0x3e42dba5	0.190291
175	0xbf86c268	-1.0528078
176	0xbbae45c8	-0.005318377
177	0x3bb1ed0c	0.0054298695
178	0xbd76e7f5	-0.060279805
179	0xbd426d00	-0.04746723
180	0xbd9ec017	-0.07751482
181	0xbf779cd0	-0.9672365
182	0x3e6093a1	0.21931316
183	0xbd97ed0c	-0.0741826
184	0xbedf474e	-0.4360909
185	0xbfbca483	-1.4737705
186	0x3ed58905	0.417061
187	0x3f11a998	0.56899405
188	0xbea19a4c	-0.31563032
189	0x3e83f37a	0.25771695
190	0xbdfe48ee	-0.12416254
191	0x3f69f174	0.91384053
192	0xbee5b817	-0.44867012
193	0xbf8809b5	-1.0627962
194	0x3f027791	0.50963694
195	0x3ebfdc0d	0.37472573
196	0x3e878164	0.26465905
197	0xbe5d1650	-0.21590543
198	0xbdc6af48	-0.09701401
199	0xbf7c2622	-0.98495686
200	0x3c98bcac	0.018644653
201	0x3e72c356	0.23707327
202	0x3ed61e7d	0.41820136
203	0xbf14e91b	-0.5816819
204	0x3f0a9cd0	0.54145527
205	0x3e1a8b40	0.15092182
206	0xbebd94ae	-0.37027496
207	0xbf353999	-0.7079101
208	0x3d6f1f84	0.058379665
209	0xbf08b3c3	-0.53399295
210	0xbeb8f542	-0.36124617
211	0xbf67c5ce	-0.905362
212	0xbcaeb3ca	-0.021325964
213	0xbc65d1eb	-0.014027099
214	0x3b8f9083	0.004381241
215	0xbf3c91b0	-0.736598
216	0x3c038a09	0.008028516
217	0xbe43a187	-0.19104587
218	0xbc8f778c	-0.01751306
219	0xbf93cb62	-1.1546443
220	0xbc032489	-0.008004316
221	0xbe8d6885	-0.27618805
222	0xbeadf54c	-0.3397621
223	0xbf53f099	-0.82789
224	0x3e9a8b20	0.3018427
225	0xbd75a877	-0.059975114
226	0xbe7c806a	-0.24658361
227	0x3e9e3bcf	0.30905005
228	0xbee26017	-0.44213936
229	0xbf897916	-1.0740077
230	0xbe7023a0	-0.2345109
231	0xbf34f5da	-0.7068764
232	0xbe170b2e	-0.14750358
233	0x3eaae779	0.33379725
234	0xbca15cef	-0.019697635
235	0x3cafdb59	0.021466898
236	0x3e953365	0.29140773
237	0xbe26ffae	-0.16308472
238	0x3eab5352	0.33462006
239	0xbeb88f0c	-0.36046636
240	0x3be15232	0.0068762535
241	0x3e7118b5	0.23544581
242	0x3ebece23	0.37266645
243	0xbe6386bb	-0.22219364
244	0x3ed60817	0.41803047
245	0xbf366bb2	-0.7125808
246	0x3cea32f6	0.028588753
247	0xbf997662	-1.1989253
248	0xbe1d5653	-0.15364961
249	0xbf104761	-0.56358916
250	0xbe4bf70c	-0.1991846
251	0xbd8b4c32	-0.068016425
252	0xbd8e012a	-0.06933816
253	0x3c6ec712	0.014573829
254	0x3e38ce97	0.18047558
255	0xbe04ad39	-0.12956704

layers.0.bias f4 [128]
0	0xbf0298e3	-0.51014537
1	0xbff7947c	-1.9342189
2	0x3f2cc9c7	0.6749539
3	0x3f8572bc	1.0425639
4	0xbe22471e	-0.15847442
5	0xc072d1ee	-3.794063
6	0x3f4581f0	0.77151394
7	0xbcce14e9	-0.025156455
8	0xc081888d	-4.047919
9	0xbeddbde3	-0.43308935
10	0x3f31ccd8	0.6945319
11	0xc085826f	-4.172172
12	0x3f2fd7d2	0.6868869
13	0xbf8b56e3	-1.0885891
14	0xc085ad7e	-4.1774282
15	0x3fb1f888	1.3903971
16	0x3f4cc169	0.7998262
17	0xc079b93a	-3.9019303
18	0xc05a30ab	-3.4092205
19	0xc03146b8	-2.7699413
20	0xc051e682	-3.279694
21	0xbfbeb1e5	-1.4898039
22	0x3fdcd1ad	1.7251488
23	0xbff41fbe	-1.9072187
24	0xbffb462d	-1.9630791
25	0x3f8599f7	1.0437611
26	0x3eda6e03	0.42662057
27	0xbd4cc36a	-0.04999105
28	0xbfd84ccd	-1.6898438
29	0xc02db89c	-2.7143927
30	0xbfa896e2	-1.3171046
31	0xc015be27	-2.339731
32	0x3e2f546a	0.17122045
33	0xc07208ad	-3.7817795
34	0x3fdbde72	1.717726
35	0x3fea86a6	1.8322341
36	0x3ee7f5cd	0.4530472
37	0xc01182de	-2.2736125
38	0xbffd9407	-1.9810799
39	0x3e159846	0.14608869
40	0xbeace921	-0.33771613
41	0x3fa28e62	1.2699702
42	0xc0125950	-2.2867012
43	0xc045087a	-3.0786424
44	0xc053245e	-3.2990947
45	0x3fe9b3ab	1.8257955
46	0x3f6a863c	0.91611075
47	0xc079fbe4	-3.9059992
48	0x3e29d326	0.16584453
49	0xc03b9cc9	-2.9314444
50	0xbfafa3c2	-1.372185
51	0x3f6608d2	0.8985721
52	0xc06686a4	-3.6019678
53	0x3da39da3	0.07989051
54	0x3f521e3f	0.820774
55	0x3f7b4006	0.98144567
56	0x3f54921c	0.83035445
57	0xbf988155	-1.1914469
58	0x3f928276	1.1446064
59	0xc004c789	-2.0746787
60	0x3f4ed18f	0.8078851
61	0xc063e0ff	-3.5606077
62	0xc01a1f8a	-2.408175
63	0xc067709b	-3.616248
64	0xc0170c20	-2.360115
65	0x3eee8af9	0.46590403
66	0xc0444e4a	-3.0672784
67	0xc034f730	-2.8275871
68	0x3e977b22	0.2958613
69	0x3f871add	1.0555073
70	0xbf920d41	-1.1410295
71	0xbf5c9ad6	-0.8617376
72	0xc0058119	-2.0860045
73	0x3fb91285	1.4458777
74	0x3fa4fd17	1.2889737
75	0x3fc8618e	1.5654771
76	0x3e98ebe2	0.29867464
77	0xbbc50802	-0.0060129175
78	0xc0793b74	-3.8942537
79	0xc05d5e12	-3.4588666
80	0x40004df9	2.004759
81	0xc042d932	-3.0445065
82	0xbdc41bff	-0.09575652
83	0xc060010d	-3.5000641
84	0xbfe54753	-1.7912391
85	0xc05bc375	-3.4338048
86	0x3fa256ca	1.2682736
87	0xbfdb0700	-1.7111511
88	0x3fcb9d74	1.5907426
89	0x3ff06f15	1.87839
90	0x3f81903c	1.0122142
91	0x3eb925cc	0.3616165
92	0x3f27f6dc	0.6561105
93	0xbf88e946	-1.0696189
94	0xbcd5a1bd	-0.0260781
95	0x3ef6c406	0.4819643
96	0xbfe90e5b	-1.8207506
97	0x3fb225ca	1.3917782
98	0xbd967ff0	-0.07348621
99	0xc03740c1	-2.8633273
100	0xc082e2c5	-4.090182
101	0x3fda9b85	1.7078711
102	0x3f7291fa	0.9475399
103	0xc014957a	-2.3216233
104	0x3f988200	1.1914673
105	0x3f5161cc	0.8178985
106	0x3ff1e78c	1.8898787
107	0x3fabce93	1.3422416
108	0xc041146a	-3.016871
109	0x3ea5ac06	0.32357806
110	0x3eb5dd1a	0.3552025
111	0xbf5783f9	-0.8418575
112	0x3f5d3527	0.8640923
113	0xbf3d75d3	-0.7400791
114	0x3ebe814b	0.37208018
115	0xc005e6a6	-2.0922027
116	0xbffd4469	-1.9786502
117	0xbf920cae	-1.141012
118	0x3f86307c	1.0483546
119	0xc01ac9e2	-2.418572
120	0xc0707fa7	-3.7577913
121	0x3fbd0f08	1.4770212
122	0x3f1f87bf	0.6231651
123	0x3d2b0537	0.04175302
124	0xbfe0c684	-1.7560582
125	0x3ee20a0b	0.44148287
126	0xc0153759	-2.3315032
127	0xc07c562d	-3.9427598

layers.2.weight f4 [128, 128]
0	0xbe295632	-0.16536787
1	0xc004732e	-2.06953
2	0x3d91e099	0.07122917
3	0xbd5fb376	-0.054614507
4	0x3ce5d865	0.028057287
5	0x3f08589e	0.5326022
6	0xbecf5357	-0.4049327
7	0x3d370321	0.04468072
8	0xbe49d1ff	-0.19709013
9	0x3dbf40ef	0.09338557
10	0xbfabfe82	-1.3437045
11	0xbeb7f4f9	-0.35929087
12	0xbf175586	-0.59114873
13	0xbd900088	-0.07031351
14	0xbe3982f5	-0.18116362
15	0x3d31d2b0	0.043413818
16	0xbe9b219d	-0.30299082
17	0xbe1650af	-0.14679216
18	0x3d3c9b2e	0.04604643
19	0xbdcc8a12	-0.09987272
20	0x3e212ffd	0.15740962
21	0xbf83a2ef	-1.0284098
22	0xbeca71fa	-0.39540082
23	0xbd92f446	-0.07175498
24	0x3e5afcf1	0.21385552
25	0xbdbea7d2	-0.09309353
26	0xc02468e9	-2.5689032
27	0x3e8d8189	0.2763789
28	0xbe3884c9	-0.18019404
29	0x3e4eb27c	0.20185274
30	0x3d2ef6a6	0.04271569
31	0xbd8cfa59	-0.068836875
32	0x3c588c8e	0.013217105
33	0xbe123c11	-0.14280726
34	0xbe96b402	-0.2943421
35	0xbe563c17	-0.2092136
36	0x3d9fa99d	0.07796023
37	0xbf52ad00	-0.8229523
38	0x3e1807ed	0.14846773
39	0x3e0a987f	0.13534735
40	0xbdff4fce	-0.124663934
41	0xc00c2a42	-2.1900792
42	0xba4f63b7	-0.0007911282
43	0xbe52facb	-0.20603482
44	0xbe87877f	-0.26470563
45	0xbed4aa64	-0.41536248
46	0xbe1c1c4e	-0.15245172
47	0xbe30f2f2	-0.17280176
48	0x3e4c4725	0.19949014
49	0xbe3103d3	-0.17286615
50	0x3e22bccb	0.15892331
51	0xbfe09fa3	-1.7548717
52	0xbd3275df	-0.043569442
53	0x3e6444d5	0.22291882
54	0xbeedfab8	-0.46480346
55	0xbde854b4	-0.11344281
56	0xbe63b22e	-0.22235939
57	0xbea89f69	-0.3293412
58	0xbe1830a2	-0.14862302
59	0x3dbaef74	0.09127703
60	0xbf6d5ef7	-0.9272303
61	0xbe2830d3	-0.16424875
62	0xbf3ab8e9	-0.729384
63	0xbed64472	-0.41849095
64	0xbe09549d	-0.13411184
65	0x3ded484a	0.11586054
66	0xbe0577fb	-0.1303405
67	0xbed6bcc0	-0.4194088
68	0x3e8466d8	0.25859714
69	0xbf38c2af	-0.72172064
70	0xbd4fb1dc	-0.05070673
71	0xbf8f90a8	-1.121602
72	0x3e3928a8	0.18081915
73	0xbf40850b	-0.7520301
74	0x3df12fff	0.11776733
75	0xbfe383ed	-1.7774636
76	0xbf316143	-0.69289035
77	0x3d0735fe	0.033010475
78	0xbd88517a	-0.066561654
79	0x3ea1d233	0.31605682
80	0xbe685a12	-0.22690609
81	0xbe27ebae	-0.16398498
82	0x3e1a5473	0.15071277
83	0xbe483241	-0.1955042
84	0xbe91682d	-0.28399792
85	0xbe708a3d	-0.23490234
86	0xba4c701d	-0.00077986886
87	0x3e2f77fd	0.17135616
88	0xbe1aa660	-0.1510253
89	0xbe888d34	-0.2667023
90	0xc002b30b	-2.042178
91	0xbc047469	-0.008084395
92	0xbe6c3ae1	-0.23069336
93	0xbf99b7fb	-1.2009271
94	0x3e1da6a9	0.15395607
95	0x3da02027	0.078186326
96	0x3e0228db	0.12710898
97	0xbfc2617d	-1.5186001
98	0xbe8d802f	-0.2763686
99	0xbd026468	-0.031834036
100	0xbdf6b713	-0.120466374
101	0xbd5e96f0	-0.054343164
102	0xbe53aed3	-0.20672159
103	0xbd94f734	-0.07273713
104	0xbeb13508	-0.34610772
105	0x3d9aed45	0.07564787
106	0xbed4d2ca	-0.4156707
107	0xbea844a5	-0.32864872
108	0xbd02b100	-0.03190708
109	0xbf797b67	-0.9745392
110	0x3e074ac7	0.13212119
111	0xbe8e5762	-0.27801043
112	0xbdb4a8da	-0.088212684
113	0x3b2539fe	0.0025211568
114	0xbeb9a5a8	-0.36259198
115	0x3d5b9246	0.053606294
116	0xbd02cfe4	-0.03193654
117	0x3e248f48	0.16070282
118	0xbe957a74	-0.29194987
119	0xbe71d172	-0.23615053
120	0x3e800a9c	0.25008094
121	0xbef2e580	-0.4744072
122	0xbe39cd40	-0.18144703
123	0xbd395bae	-0.04525345
124	0xbe9cf8a7	-0.30658457
125	0xbfa0758d	-1.2535874
126	0xbe33ab51	-0.17545821
127	0xbcd40947	-0.02588333
128	0xbe420a65	-0.18949278
129	0x3f7729fa	0.96548426
130	0xbcfb1318	-0.030648753
131	0x3d492ee4	0.049116984
132	0x3e1c8d88	0.15288365
133	0xbf05f0a6	-0.52320325
134	0x3f073b29	0.52824646
135	0xbebc57fc	-0.36785877
136	0xbf20c63c	-0.6280248
137	0x3f4e45f6	0.805755
138	0xbda2f4eb	-0.07956871
139	0xc0811d23	-4.0348067
140	0x3df0b9dd	0.117542006
141	0x3dfa2cd9	0.12215585
142	0xbe9ea4df	-0.30985162
143	0x3cd4588a	0.025921125
144	0x3cfbfad7	0.030759258
145	0xbfefcfc8	-1.8735285
146	0xbf4bc3d0	-0.7959566
147	0xbdcd60cb	-0.100282274
148	0xbfdddc03	-1.7332767
149	0xbe85e886	-0.26153964
150	0x3df78a5f	0.12086939
151	0xbe61e85f	-0.22061299
152	0xbeb04b3c	-0.344324
153	0xbe79af9a	-0.24383393
154	0x3e5ca862	0.21548608
155	0x3e437d08	0.19090664
156	0xbe92bb30	-0.28658438
157	0xc00041d7	-2.0040185
158	0xbe588555	-0.21144612
159	0x3d2cf361	0.04222429
160	0xbede143a	-0.43374807
161	0xc058eb77	-3.3893716
162	0x3ec99fb1	0.39379647
163	0x3ebf1074	0.3731724
164	0xbe6de1fd	-0.23230739
165	0x3dc39907	0.09550672
166	0xbf06472c	-0.5245235
167	0x3e496d78	0.19670665
168	0xbe9a20a1	-0.3010302
169	0xbdc25a0f	-0.094898336
170	0x3ec5a29d	0.38600627
171	0xbf1bd408	-0.6087041
172	0xc04bb2af	-3.182781
173	0x3c4b637f	0.012413858
174	0x3f075994	0.5287106
175	0xbf713378	-0.9421916
176	0xbe0182a6	-0.12647495
177	0xbfd9982d	-1.6999565
178	0xbbe2406d	-0.006904653
179	0x3d0eb00d	0.034835864
180	0xbf9af9a0	-1.210743
181	0xbd419fc9	-0.047271524
182	0x3b2b26c3	0.0026115633
183	0x3c87a706	0.016559135
184	0x3d936bca	0.071982935
185	0x3e152b4c	0.14567298
186	0x3c83b393	0.016076839
187	0xbf21daea	-0.6322466
188	0x3e8c4ac2	0.27400786
189	0xbfbe36db	-1.486049
190	0xbf045a46	-0.51700246
191	0xbe36e1cf	-0.17859577
192	0xbdb8708d	-0.09005842
193	0xbdf9c13b	-0.12195059
194	0xbfa427fc	-1.2824702
195	0xbf709fb1	-0.9399367
196	0xbf3d5caa	-0.7396952
197	0xbd82bf56	-0.06384151
198	0xbe288fad	-0.16461058
199	0xbda231c0	-0.07919645
200	0xbee7425b	-0.45167813
201	0x3e8cffea	0.27538997
202	0x3c18f86f	0.009336575
203	0x3ec13a51	0.37739804
204	0xbd1ea7bc	-0.038734183
205	0x3c8cfea5	0.017211268
206	0xbf88649e	-1.0655706
207	0xbdb6ea60	-0.08931422
208	0x3e1ab7fe	0.1510925
209	0xbfc6199e	-1.5476568
210	0xbd54811b	-0.051880937
211	0xbf01fef0	-0.5077963
212	0x3f155fb2	0.58349144
213	0xbfe20487	-1.7657632
214	0x3e00f66d	0.12594004
215	0xbdaa320d	-0.08310328
216	0x3e9d6be3	0.30746374
217	0x3f241d32	0.6410705
218	0xbe155afb	-0.14585488
219	0xbd702a01	-0.058633808
220	0xbeeb7652	-0.4598871
221	0xbdd4a16e	-0.10382353
222	0xbe293628	-0.16524565
223	0xbbe2e5f3	-0.0069243847
224	0xbec08ca1	-0.3760729
225	0x3ebe672c	0.3718809
226	0x3f4ccffe	0.8000487
227	0xbf2492e8	-0.6428666
228	0xbfb0034b	-1.3751005
229	0x3d01c4e6	0.031681918
230	0x3f23945a	0.6389824
231	0xbf114a43	-0.5675394
232	0x3e0adc58	0.13560617
233	0xbeff6c1c	-0.49887168
234	0x3ea759ae	0.32685608
235	0x3d336d6e	0.043805532
236	0xbf0ebdba	-0.5575825
237	0xbdba6e4a	-0.09103067
238	0xbe7e209c	-0.24817127
239	0x3ef56054	0.47925055
240	0xbda783e5	-0.08179454
241	0x3dec3a89	0.11534602
242	0x3e188a44	0.14896494
243	0x3f3989ec	0.7247608
244	0xbe36cd86	-0.17851838
245	0xbd7fdccf	-0.06246644
246	0xbd8be050	-0.068298936
247	0xbf728477	-0.94733375
248	0xc0291565	-2.6419308
249	0x3e0223ff	0.12709044
250	0x3e9a26f6	0.3010785
251	0xbee0ae3c	-0.4388293
252	0x3f0d1d75	0.5512307
253	0xbd740be9	-0.05958167
254	0xbf623987	-0.8836903
255	0xbf9727af	-1.1808985

layers.2.bias f4 [128]
0	0xbef9d0c0	-0.48792076
1	0x3f7994f9	0.9749294
2	0xbfbc5bf4	-1.4715562
3	0xbd618f05	-0.055068035
4	0x3b9910d5	0.004671196
5	0xbd48f18c	-0.049058482
6	0x3e9cbc45	0.30612388
7	0xbf89b8c0	-1.0759506
8	0x3f2b9154	0.6701863
9	0x3f6b073d	0.9180792
10	0xbfd0ad8a	-1.630296
11	0x3f21efd6	0.63256586
12	0x3f814b8f	1.0101184
13	0x3ea474d8	0.32120395
14	0x3f5d70ae	0.8650006
15	0xbd520c55	-0.051281292
16	0xbda51151	-0.080599435
17	0x3cecd012	0.02890781
18	0x3f47bf85	0.7802661
19	0xbf905646	-1.1276329
20	0xbf1edc03	-0.6205446
21	0x3f8906bf	1.0705184
22	0x3f8137e4	1.0095181
23	0xbb88e6ec	-0.0041779187
24	0x3f499b7b	0.7875287
25	0x3e872e20	0.26402378
26	0xbfa5d1ac	-1.2954612
27	0x3f03e796	0.5152525
28	0x3f147ac4	0.57999825
29	0x3f64cea1	0.8937779
30	0x3f128e36	0.57248247
31	0x3f0f2851	0.5592089
32	0x3f251507	0.6448521
33	0x3f70da08	0.9408269
34	0xbccbd513	-0.024881875
35	0x3e79b68d	0.24386044
36	0xbfad4b5e	-1.3538625
37	0xbf23b3c9	-0.63946205
38	0x3de625b8	0.11237663
39	0xbd49eee1	-0.04930008
40	0x3f6946bd	0.91123563
41	0x3f536510	0.82576084
42	0xbfa750ad	-1.3071495
43	0xbfe0918a	-1.7544415
44	0xbdeff2fb	-0.11716267
45	0x3c9655a7	0.01835139
46	0xbdeb8a07	-0.11500936
47	0xbf8eddeb	-1.1161474
48	0x3f5e8400	0.86920166
49	0x3caf7ef7	0.021422846
50	0xbfd40a26	-1.6565597
51	0xbfed6329	-1.8545886
52	0xbfed306b	-1.8530401
53	0x3f6115aa	0.8792368
54	0xbdd8c251	-0.10583938
55	0xbfd9dfb1	-1.702139
56	0x3f7ee987	0.99575084
57	0xbfddbb88	-1.7322855
58	0xbfaaeeaf	-1.335409
59	0x3f832bdd	1.0247761
60	0xbf5a757c	-0.85335517
61	0x3ed0fc78	0.40817618
62	0xbf50adb4	-0.8151505
63	0xbf45079a	-0.76964724
64	0x3abbffce	0.0014343204
65	0x3f2de961	0.6793423
66	0xbf490b56	-0.7853292
67	0x3f6b83a2	0.9199773
68	0xbd7c9154	-0.061662033
69	0xbfdd0bcf	-1.7269229
70	0x3d844c2a	0.0645984
71	0x3e51b2b5	0.20478328
72	0xbda86b69	-0.08223612
73	0x3efbe5b4	0.49198687
74	0xbd9e75e9	-0.07737333
75	0xbf85b8b2	-1.044699
76	0xbfb39903	-1.403107
77	0xbf9b974c	-1.2155547
78	0x3e0ac82e	0.13552925
79	0x3ddf9a08	0.10918051
80	0x3c265b9a	0.010153675
81	0xbfa4d72a	-1.2878163
82	0xbfc6b0c2	-1.5522692
83	0x3f23a9ee	0.6393117
84	0x3f4a559e	0.7903689
85	0xbf294dd8	-0.66134405
86	0x3f2bcda8	0.6711068
87	0x3f68c576	0.909263
88	0x3f1d2135	0.61378795
89	0xbc8c0f0b	-0.017097017
90	0xc0216196	-2.5215812
91	0xbe83193c	-0.2560519
92	0xbd61bca5	-0.055111546
93	0x3f1af9ac	0.6053722
94	0x3c92fd41	0.017943026
95	0xbf6410ce	-0.8908814
96	0xbf41566f	-0.7552251
97	0x3f4f3a46	0.80948293
98	0xbfc96a3d	-1.5735546
99	0x3f40f7b4	0.75377965
100	0xbfbd698a	-1.4797833
101	0xbfd79eb5	-1.6845309
102	0xbcb0000f	-0.021484403
103	0xbfb30a7c	-1.3987575
104	0xbef460d3	-0.4773012
105	0x3f6df0d2	0.9294559
106	0xbfa6d953	-1.3035072
107	0xbf8f5085	-1.1196448
108	0xbd02378a	-0.031791247
109	0xbdce4d8b	-0.10073384
110	0xbe989208	-0.29798913
111	0xbda0c35d	-0.078497626
112	0x3e27ead9	0.16398181
113	0x3f1e43af	0.61822027
114	0x3edcdea6	0.43138617
115	0x3f79042b	0.97271985
116	0xbe5c1441	-0.21492101
117	0xbdad199f	-0.084521525
118	0xbf87b0d5	-1.060084
119	0xbfc8ce7f	-1.5688018
120	0xbde68429	-0.11255676
121	0xbfcffdf9	-1.6249381
122	0x3f82f3cb	1.023065
123	0x3e28afc3	0.16473298
124	0xbf77e5ec	-0.9683521
125	0x3f009262	0.5022336
126	0x3f5dcd8c	0.86641765
127	0x3cf80951	0.03027788

layers.4.weight f4 [2, 128]
0	0xbf2441f5	-0.6416314
1	0x3f4e5635	0.8060029
2	0xbf978082	-1.1836092
3	0xbc8f6b95	-0.017507354
4	0xbce80ecf	-0.028327374
5	0xbf9dc74b	-1.2326444
6	0x40645619	3.567755
7	0xbfb1d428	-1.389287
8	0x3f467d4e	0.7753495
9	0x3f5324c7	0.8247799
10	0xbf325b62	-0.6967069
11	0x3eb42549	0.35184696
12	0x3ebe0bfe	0.37118524
13	0x403745b5	2.8636296
14	0x3f3223f3	0.69586104
15	0xbc9b5d5c	-0.018965416
16	0x3b1c260e	0.0023826393
17	0x3fa66f04	1.3002629
18	0x3f1b1b30	0.6058836
19	0xbec3c6f9	-0.38237742
20	0xbe6fd352	-0.23420456
21	0x3f76aa83	0.9635393
22	0x3eba744c	0.36416852
23	0xbd37b6a0	-0.0448519
24	0x3e868c83	0.26279077
25	0xbeb29cfb	-0.34885392
26	0xbef0bdf5	-0.47019926
27	0x3fed5a54	1.8543191
28	0x3f3f212c	0.7465999
29	0x4005e5bc	2.0921469
30	0xbf2f7ab1	-0.6854659
31	0x3e61fb28	0.22068465
32	0x3fec3bdc	1.8455768
33	0x3ef6c34f	0.48195884
34	0xbc73edc6	-0.014888233
35	0xbf028b50	-0.50993824
36	0xbedd2ccf	-0.4319825
37	0x3f353b08	0.707932
38	0xbee78767	-0.4522049
39	0x3edd2efc	0.4319991
40	0x3ed5acb4	0.41733325
41	0x3f32aeb5	0.6979783
42	0xbf095983	-0.5365221
43	0xbf888c81	-1.0667878
44	0x3d6cb99a	0.05779419
45	0xbeaf7c6a	-0.34274608
46	0xbcea312c	-0.0285879
47	0xbed6ba5f	-0.41939065
48	0x3efac536	0.48978585
49	0x3f155912	0.58339036
50	0xbf45b0d4	-0.77222943
51	0xbee82d24	-0.4534694
52	0xbda3c600	-0.0799675
53	0x3f9423bb	1.1573404
54	0xbe37ce6c	-0.17949837
55	0xbefe843d	-0.49710265
56	0x3ecd14fb	0.4005507
57	0xbec6f2dd	-0.38857165
58	0xbf4c2014	-0.7973645
59	0x3eeeca51	0.4663873
60	0x3f0eae6f	0.55734915
61	0xbf8f2aa2	-1.1184886
62	0x3ef1154d	0.47086564
63	0xbdfe02c5	-0.12402872
64	0xbcc50aa2	-0.024052922
65	0xbe29f784	-0.16598326
66	0xbf08fa78	-0.53507185
67	0x3f21a87f	0.6314773
68	0x3d2af802	0.041740425
69	0xbf4ce15b	-0.80031365
70	0xbf01c24b	-0.5068709
71	0x3eb8d17a	0.36097318
72	0x3d138484	0.03601505
73	0x398092ae	0.00024523347
74	0xbd2aa2a1	-0.041659
75	0xbe04c380	-0.12965202
76	0xbf80fd3a	-1.0077279
77	0xbefde04f	-0.49585196
78	0xbefdef52	-0.4959665
79	0xbf5166de	-0.8179759
80	0x3d08a1e8	0.03335753
81	0xbede9d6d	-0.4347948
82	0xbf06622b	-0.5249354
83	0xbdce6008	-0.1007691
84	0x3edb6c1b	0.42855915
85	0xbeb60eb2	-0.35558087
86	0xbe27919a	-0.16364136
87	0x3eac7841	0.33685496
88	0x3eded322	0.43520457
89	0xbedda480	-0.43289566
90	0xbf7f3030	-0.99682903
91	0xbe2b8198	-0.16748655
92	0x3d1a3e11	0.037656847
93	0x3da14aa5	0.078755654
94	0x3d5fd4ea	0.05464641
95	0xbec3eb2a	-0.38265353
96	0xbc4a20a4	-0.012336884
97	0xbe8cc96d	-0.27497426
98	0xbf3d6fe5	-0.7399886
99	0x3e40873b	0.18801586
100	0xbf429d5d	-0.7602137
101	0x3ec21aa9	0.37910965
102	0x3d96fcd5	0.07372443
103	0xbf0b0b47	-0.5431408
104	0xbeaafd11	-0.333962
105	0x3f05a697	0.5220732
106	0xbed56e39	-0.41685656
107	0x3ec8fe61	0.39256576
108	0x3c56c15a	0.013107622
109	0xbd00a3a1	-0.03140605
110	0xbf3f2b21	-0.74675184
111	0xbcec18c2	-0.0288204
112	0xbfb94271	-1.4473401
113	0x3fab69e4	1.339169
114	0xbfe73629	-1.8063403
115	0x3ec87956	0.39155072
116	0xbf036e1e	-0.513399
117	0xbc4b8e27	-0.0124240285
118	0xbe64d88c	-0.22348231
119	0x3c88df0c	0.01670792
120	0xbd1ed850	-0.03878051
121	0x3cb39872	0.021923278
122	0x3ee0edec	0.4393152
123	0x3dafde4e	0.08587323
124	0xbfa3dfda	-1.2802689
125	0x3e7dabf9	0.24772634
126	0x3ebcbb79	0.3686178
127	0x3d0206b9	0.031744692
128	0x3f410c4d	0.75409395
129	0x3e8b08df	0.27155206
130	0xbf4e649c	-0.8062227
131	0x3d060dfa	0.032728173
132	0xbd1793bc	-0.037006125
133	0xbfaad228	-1.3345385
134	0x405094fd	3.2590935
135	0xbf35fda1	-0.7109013
136	0x3ef2a0b4	0.47388232
137	0xbe87a4e4	-0.2649299
138	0xbf3da225	-0.7407554
139	0xbcd91585	-0.02649952
140	0x3ebfe83b	0.37481865
141	0x4001e016	2.0293021
142	0x3e977000	0.29577637
143	0xbcc4befb	-0.024016848
144	0xbc3247c2	-0.010881366
145	0x400d1fab	2.2050579
146	0x3f1af0e9	0.6052385
147	0xbf2fd80e	-0.6868905
148	0xbcea2794	-0.028583325
149	0x3eed7264	0.46376336
150	0x3eb55ed8	0.35423923
151	0xbc63c57d	-0.013902065
152	0x3f07761e	0.5291461
153	0xbec434fe	-0.3832168
154	0xbf466c51	-0.7750903
155	0xbfef93df	-1.8717002
156	0x3ee2a100	0.44263458
157	0x3f937bd3	1.1522163
158	0x3e91cc8b	0.28476366
159	0x3f0ceb23	0.5504629
160	0x40434117	3.0508478
161	0x3ece2ef4	0.40270197
162	0x3bf59920	0.0074950606
163	0x3e8456bc	0.25847423
164	0xbf1e9c0b	-0.6195685
165	0x3f738a60	0.9513302
166	0xbea09e4c	-0.3137077
167	0x3f008d99	0.5021606
168	0x3ecdfe9e	0.4023332
169	0xbc21bd00	-0.009871721
170	0xbf13d896	-0.5775236
171	0xbec83a0c	-0.39106786
172	0xbd91c79c	-0.071181506
173	0xbe862bcf	-0.26205298
174	0x3ca5b9ac	0.020230137
175	0xbee3ce5c	-0.44493377
176	0x3e60bd2f	0.21947168
177	0x3ea18dcf	0.31553504
178	0xbf4face8	-0.8112321
179	0xbf3a8562	-0.72859776
180	0xc003a0a6	-2.0566802
181	0x3e065d03	0.13121419
182	0x3e93cc32	0.28866726
183	0xbf20ed2e	-0.6286191
184	0x3eb0a05d	0.34497347
185	0xbf9433d2	-1.1578314
186	0xbf66eb90	-0.9020319
187	0x3ef344ff	0.47513577
188	0xbf4abea4	-0.79197145
189	0x3f0386ed	0.51377755
190	0xbe9390ea	-0.28821498
191	0xbf0d8bba	-0.5529133
192	0x3d873e72	0.066037074
193	0x3e6c4b96	0.23075709
194	0xbe12fa8e	-0.14353392
195	0x3eb17574	0.34659922
196	0xbced0011	-0.028930696
197	0xbf1f3468	-0.6218934
198	0x3ec53412	0.3851629
199	0x3e2027c6	0.15640172
200	0xbc3f6aa3	-0.011683139
201	0x3e6055b9	0.219077
202	0xbbcf3c7f	-0.0063243504
203	0xbf080d03	-0.53144854
204	0xbf6e69a4	-0.93129945
205	0xbeefc710	-0.4683156
206	0xbec6e80a	-0.38848907
207	0xbdce1b9a	-0.10063858
208	0x3cebc277	0.028779252
209	0xbf156702	-0.583603
210	0xbf2f31ad	-0.68435174
211	0x3f000c2f	0.5001859
212	0x3e2ef0e4	0.1708408
213	0xbec2c63b	-0.38041863
214	0x3f2a5bce	0.6654633
215	0x3eac7105	0.33679977
216	0x3ed8669f	0.42265794
217	0xbf556bc0	-0.8336754
218	0xbf22368d	-0.6336449
219	0xbeb51bfb	-0.3537291
220	0xbd8e3e14	-0.06945434
221	0x3f945891	1.1589528
222	0x3d8e8d44	0.06960538
223	0x3e26bcdf	0.16282986
224	0xbeeb2653	-0.45927677
225	0x3ea69dff	0.32542416
226	0xbf8ebb40	-1.1150894
227	0x3eca8a2b	0.3955854
228	0xbe3e3c88	-0.18577778
229	0xbfe86b4b	-1.8157743
230	0xbd8fcb31	-0.070211776
231	0xbf284e46	-0.65744436
232	0x3fa97868	1.323987
233	0x3ef87cbb	0.48532662
234	0xbd6f7800	-0.05846405
235	0xbf43d798	-0.76500845
236	0x3b736be0	0.0037143156
237	0x3c7f46f0	0.015580878
238	0x3f97f97a	1.1873009
239	0xbcbb9eda	-0.022902895
240	0xbeb24ac9	-0.34822682
241	0x3f077405	0.52911407
242	0x4010822e	2.2579455
243	0x3ec35bd7	0.38156006
244	0xbfd0a90d	-1.630159
245	0x3c607108	0.013698824
246	0xbefaeecc	-0.49010313
247	0xbf481aec	-0.7816608
248	0xbdb05d37	-0.08611529
249	0xbee098a0	-0.43866444
250	0x3edeebd1	0.4353929
251	0x3f273798	0.65319204
252	0xbf604e24	-0.87619233
253	0x3f3f2de9	0.7467943
254	0x3eab244f	0.3342614
255	0x3c8806a0	0.016604722

layers.4.bias f4 [2]
0	0x3f5c77d9	0.86120373
1	0x3f33a8a7	0.7017922
