ACC/ddqn_models/0417/ddqn_400_1.0.pth (torch_old, 69813 bytes, 6 tensors)

layers.0.weight f4 [128, 2]
0.42573747 0.2057903 -0.21425353 -0.78687114 -0.25291553 0.57799816 -0.034918368 -0.26021338
-0.19804028 0.117336415 -0.23325665 -0.29832554 0.24732697 0.48131984 -0.43322873 0.7466998
-0.31037968 -0.004242033 -0.12735225 -0.11596502 -0.15062736 -0.8202752 -0.08956513 0.26551917
-0.03637321 -0.34051558 0.0065137306 -0.7205814 -0.008937113 0.68708324 -0.399979 0.68699974
0.10063425 -0.8129016 0.3708427 -0.59910935 -0.358453 0.51222587 -0.15651563 0.23594992
-0.068164006 0.36150527 0.10416231 0.53124845 0.20448816 -0.276363 -0.18945712 -0.5927477
0.09468597 0.7742059 0.3771168 -0.42051184 -0.13052723 -0.65393966 -0.28871304 -0.27684116
0.054406077 -0.6831373 0.1564121 0.14133026 0.052528612 -0.72793895 -0.35764903 -0.32772467
0.3776656 -0.66486657 0.18173869 -0.48715627 -0.013502514 0.039924182 -0.04655075 0.15194026
0.039509457 0.063504554 -0.104691565 -0.7327647 -0.4290953 0.89285433 -0.43697122 -0.018209577
0.49862793 -0.25700134 -0.1552238 -0.739627 0.09815527 -0.64996505 -0.26737285 -0.029363029
-0.21272968 0.25685474 0.4377003 -0.54679906 0.50068563 0.25656182 -0.36817077 0.47355038
-0.40269107 -0.40491226 0.21020584 0.01951874 0.5495154 -0.60639864 0.14700133 0.66439694
-0.50869894 0.65184724 -0.5198798 0.09206959 -0.08653199 -0.4322117 -0.10271812 0.568962
-0.22618906 -0.64094007 -0.33919916 -0.7333048 0.22022484 -0.42911515 -0.3278263 -0.08544413
0.28502458 0.3759186 0.4515084 -0.30596575 -0.03743204 0.23378466 -0.0010116893 0.8089072
-0.008893044 -0.56995267 -0.203004 -0.3097048 0.101804025 -0.48609832 -0.016184455 0.38297758
-0.28702506 0.060656827 -0.054359112 -0.38474882 -0.4627624 -0.19663894 -0.024237096 -0.3731517
0.5236037 -0.8213206 0.12071491 -0.28156537 -0.052522976 -0.18168579 0.12413786 0.36856526
-0.016318731 -0.36307156 -0.21675824 0.79273707 -0.33540678 0.4929709 -0.20199984 -0.5663216
0.14750136 -0.30978322 0.19154114 0.10427963 -0.4718313 0.028492084 0.34770754 0.16145578
-0.29069462 -0.59173274 -0.28275087 0.30699697 -0.21171351 0.36032632 0.44248042 -0.71749675
-0.079186074 0.18344723 -0.013673823 0.059854303 -0.14353018 -0.72603106 -0.10678794 0.51495516
0.5192526 -0.15509392 0.10287543 0.67329884 -0.15878817 -0.27040246 -0.52310467 0.94429386
0.41196516 -0.7832528 0.21675602 0.76059175 0.644477 -0.040366504 0.50014406 -0.7517263
-0.08648225 0.71825826 0.36105025 -0.49713826 0.51817226 0.23806731 0.07115001 -0.6634539
0.24581662 -0.35275412 0.42508778 -0.7114389 -0.0044125253 0.08068936 0.3263293 -0.33023444
0.040537093 -0.71838915 -0.06388406 -0.5622158 -0.501008 0.036880493 0.46028826 -0.19608703
0.5574386 0.33274105 -0.4905834 -0.13444503 -0.110231414 -0.5613791 0.22539239 -0.7984439
-0.3316307 -0.09603718 -0.13055757 0.2509581 0.43562675 0.26182705 0.39940712 0.4092974
-0.04354449 0.27405843 0.47306284 -0.41654125 0.75458115 -0.10677669 0.388763 -0.4357099
0.22723858 -0.44350725 -0.0768953 -0.6430604 -0.45127156 -0.13454495 0.3334153 0.45238754
00000000: 43fa d93e b1ba 523e 4765 5bbe 6370 49bf
00000010: 257e 81be b0f7 133f 9006 0fbd b03a 85be
00000020: 12cb 4abe 134e f03d d5da 6ebe 20be 98be
00000030: 4843 7d3e 8e6f f63e 28d0 ddbe b827 3f3f
00000040: 16ea 9ebe c100 8bbb a168 02be 127f edbd
00000050: 0f3e 1abe 8efd 51bf ec6d b7bd 21f2 873e
00000060: 13fc 14bd 0f58 aebe 2271 d53b 0678 38bf
00000070: f86c 12bc b0e4 2f3f 0cca ccbe 37df 2f3f
00000080: 5419 ce3d 521a 50bf 18df bd3e 3b5f 19bf
00000090: 2787 b7be 3c21 033f a245 20be db9c 713e
000000a0: 9299 8bbd 3817 b93e 0d53 d53d e6ff 073f
000000b0: 5865 513e 737f 8dbe 0c01 42be 50be 17bf
000000c0: b8ea c13d 5c32 463f 7415 c13e 544d d7be
000000d0: eea8 05be 9768 27bf 32d2 93be 20be 8dbe
000000e0: e8d8 5e3d 16e2 2ebf 7e2a 203e e1b8 103e
000000f0: 3e28 573d 355a 3abf c61d b7be 87cb a7be
00000100: 635d c13e b234 2abf b519 3a3e 8c6c f9be
00000110: a639 5dbc 8a87 233d 00ac 3ebd 3a96 1b3e
00000120: abd4 213d ad0e 823d 8868 d6bd 7896 3bbf
00000130: 61b2 dbbe 1a92 643f b1ba dfbe 402c 95bc
00000140: 294c ff3e ae95 83be fdf2 1ebe 3258 3dbf
00000150: a105 c93d 1c64 26bf 18e5 88be bc8a f0bc
00000160: cfd5 59be 7782 833e 411a e03e 06fb 0bbf
00000170: ef2c 003f 125c 833e e180 bcbe 3275 f23e
00000180: 862d cebe a950 cfbe 3340 573e c4e5 9f3c
00000190: 0bad 0c3f f13c 1bbf 8487 163e eb15 2a3f
000001a0: 183a 02bf 76df 263f d816 05bf fb8e bc3d
000001b0: af37 b1bd da4a ddbe e15d d2bd 7ea7 113f
000001c0: 1b9e 67be a614 24bf 83ab adbe ddb9 3bbf
000001d0: 9f82 613e fbb4 dbbe d9d8 a7be 55fd aebd
000001e0: beee 913e 6778 c03e 1c2c e73e 8ba7 9cbe
000001f0: 5752 19bd 3f65 6f3e a99a 84ba 8b14 4f3f
00000200: 21b4 11bc 6be8 11bf 48e0 4fbe a191 9ebe
00000210: a17e d03d e1e1 f8be 4395 84bc a315 c43e
00000220: f3f4 92be 4b73 783d a9a7 5ebd ccfd c4be
00000230: 31ef ecbe b85b 49be e08c c6bc bd0d bfbe
00000240: e40a 063f 1142 52bf 6139 f73d 5629 90be
00000250: 5522 57bd d70b 3abe fe3b fe3d 96b4 bc3e
00000260: dcae 85bc 84e4 b9be dff5 5dbe d1f0 4a3f
00000270: 70ba abbe af66 fc3e 0cd9 4ebe 74fa 10bf
00000280: 990a 173e e89b 9ebe 5c23 443e 8f90 d53d
00000290: df93 f1be 3b68 e93c b906 b23e aa54 253e
000002a0: edd5 94be cc7b 17bf b9c4 90be b52e 9d3e
000002b0: 6dcb 58be b17c b83e cb8c e23e dead 37bf
000002c0: 4f2c a2bd 97d9 3b3e 2c08 60bc c929 753d
000002d0: 93f9 12be 2cdd 39bf a3b3 dabd 1ad4 033f
000002e0: bded 043f f1d0 1ebe 5ab0 d23d 505d 2c3f
000002f0: 5e99 22be 3172 8abe 30ea 05bf 3ebd 713f
00000300: 19ed d23e 4183 48bf 4af5 5d3e 24b6 423f
00000310: 72fc 243f 5957 25bd 7109 003f 2371 40bf
00000320: 9b1d b1bd c6df 373f 94db b83e e888 febe
00000330: f0a6 043f ebc7 733e 19b7 913d 1dd8 29bf
00000340: 5ab7 7b3e 309c b4be 1ba5 d93e dc20 36bf
00000350: f296 90bb 7740 a53d a214 a73e 7d14 a9be
00000360: 390a 263d 5ae8 37bf a5d5 82bd 60ed 0fbf
00000370: 0f42 00bf 0010 173d e7aa eb3e 0acb 48be
00000380: 4cb4 0e3f 095d aa3e bf2d fbbe f5ab 09be
00000390: 02c1 e1bd 8ab6 0fbf 43cd 663e d266 4cbf
000003a0: 80cb a9be 24af c4bd e2b0 05be 957d 803e
000003b0: 780a df3e 320e 863e 177f cc3e 6e8f d13e
000003c0: b55b 32bd 6351 8c3e 4b35 f23e e544 d5be
000003d0: 3b2c 413f bdad dabd f20b c73e 5e15 dfbe
000003e0: 3bb1 683e 6213 e3be 487b 9dbd 9b9f 24bf
000003f0: 110d e7be 27c6 09be 69b5 aa3e 579f e73e

layers.0.bias f4 [128]
-0.254313 -0.40503067 1.0467433 1.3144348 -0.09093279 -2.3332121 1.0709734 -0.22718452
-2.4687173 1.1240122 1.331489 -2.6308606 1.3124098 -1.1661557 -1.5614365 1.3126293
0.61185837 -1.9968615 -1.3855326 -2.5007188 -2.233612 -0.3844361 1.7655302 -0.11157548
-1.2219679 0.9310013 1.0428835 0.5819629 -1.4049115 -1.3825059 -1.0451796 -1.0616292
-0.6118377 -0.92235166 1.4086738 1.5761669 0.19784786 -1.2541951 -0.26460895 0.07638866
0.3686546 1.2079803 -1.493248 -1.5151783 -1.4801542 1.7199571 1.4103004 -1.7712324
0.73388743 -1.3853028 -0.70562935 0.3290946 -1.5192358 0.6509241 1.2196205 1.2878256
0.6909699 -1.7887797 1.784011 -1.0507411 1.013777 -1.4870293 -2.0507634 -1.6198
-0.9880124 0.24913175 -1.8197241 -1.328867 0.39873734 0.6436584 -1.511706 0.5586261
-1.0314821 1.4252305 1.5356547 1.3502707 1.005842 0.48156613 -2.1294987 -1.5933864
1.601809 -1.5618143 0.13984306 -1.6736532 -1.5937963 -1.4777993 1.1454612 -1.1577154
1.4826468 1.5889562 1.1654234 0.27444178 0.6431997 -0.8488378 -0.14084311 0.32375613
-1.7695515 1.2907199 -0.04832485 -1.6618567 -1.8780442 1.5085756 1.4282221 -1.618103
1.621026 0.20319138 1.6306323 1.6786032 -1.055813 0.76102406 0.007256291 0.32818264
1.0764056 -1.1513883 1.2855793 -1.4021834 -1.2088023 -0.73125696 1.2505442 -1.5206406
-2.2185137 1.568337 0.5416038 0.48973188 -0.9255694 0.9871863 -1.4004376 -1.7812821
00000000: 5035 82be 2e60 cfbe affb 853f 663f a83f
00000010: f83a babd 5953 15c0 a815 893f 0fa3 68be
00000020: 77ff 1dc0 a2df 8f3f 3b6e aa3f 0560 28c0
00000030: 0bfd a73f 9744 95bf 27dd c7bf 3d04 a83f
00000040: c0a2 1c3f 2899 ffbf 2259 b1bf c70b 20c0
00000050: 80f3 0ec0 cfd4 c4be e5fc e13f af81 e4bd
00000060: 7269 9cbf 1a56 6e3f 357d 853f 85fb 143f
00000070: 24d4 b3bf f4f5 b0bf 72c8 85bf 77e3 87bf
00000080: 65a1 1cbf 3d1f 6cbf 6c4f b43f d6bf c93f
00000090: a198 4a3e 7789 a0bf d37a 87be a871 9c3d
000000a0: 4cc0 bc3e 199f 9a3f c022 bfbf 5df1 c1bf
000000b0: b175 bdbf 8e27 dc3f b984 b43f beb7 e2bf
000000c0: 0ce0 3b3f 9a51 b1bf 20a4 34bf 167f a83e
000000d0: 5276 c2bf f6a2 263f 861c 9c3f 78d7 a43f
000000e0: 67e3 303f bcf6 e4bf 795a e43f af7e 86bf
000000f0: 72c3 813f fa56 bebf b53f 03c0 9b55 cfbf
00000100: 61ee 7cbf 651c 7f3e b8ec e8bf 5018 aabf
00000110: 4d27 cc3e ccc6 243f 957f c1bf 1f02 0f3f
00000120: 9b07 84bf f46d b63f 5590 c43f acd5 ac3f
00000130: 6ebf 803f d68f f63e b549 08c0 16f4 cbbf
00000140: 1408 cd3f 88e9 c7bf 0533 0f3e 453a d6bf
00000150: 8401 ccbf 8728 bdbf 799e 923f 0530 94bf
00000160: 5fc7 bd3f eb62 cb3f 982c 953f a283 8c3e
00000170: bca8 243f 6f4d 59bf 2d39 10be 5dc3 a53e
00000180: aa80 e2bf 4f36 a53f 47f0 45bd b8b7 d4bf
00000190: c163 f0bf 0119 c13f fbcf b63f 001e cfbf
000001a0: c87d cf3f 6711 503e 8fb8 d03f 78dc d63f
000001b0: e124 87bf 79d2 423f 2ec6 ed3b 8e07 a83e
000001c0: a9c7 893f b160 93bf dd8d a43f bf7a b3bf
000001d0: 09ba 9abf a833 3bbf d511 a03f 5aa4 c2bf
000001e0: 21fc 0dc0 44bf c83f 8ca6 0a3f 23be fa3e
000001f0: 1ef2 6cbf 3eb8 7c3f 8a41 b3bf 0d01 e4bf

layers.2.weight f4 [128, 128]
-0.16536787 -1.9655048 0.15297607 -0.29456994 0.089025415 0.41389102 0.3906412 0.14655907
-0.05090869 0.060412217 -1.0781655 0.13827267 -0.7517647 -0.07031351 0.06711157 0.12432747
-0.0033504982 -0.14679216 0.15773946 0.19952469 0.35528582 -0.7165774 -0.39540082 -0.11795412
0.60923064 -0.09309353 -2.324452 0.24991314 -0.18019404 0.20185274 0.04271569 -0.017674586
0.013217105 -0.14280726 -0.28406394 -0.16731942 0.16317075 -0.6817647 0.2561184 0.19006583
-0.124663934 -2.2280478 -0.0007911282 -0.08756499 -0.13913381 -0.41536248 -0.15245172 -0.05500602
0.16976202 -0.17286615 0.15892331 -0.94355994 0.06318863 0.27525014 -0.4133558 -0.021268848
-0.0016827063 0.22754014 -0.14862302 0.19320239 -0.20983632 -0.16424875 -0.25669533 -0.19528183
0.05260466 0.051638395 -0.1303405 0.1222595 0.32209197 -0.54324895 0.02244918 -0.611
0.18081915 -0.7520301 0.004689052 -1.6780175 -0.64856154 0.1364193 0.028561117 0.1905633
-0.22690609 -0.16398498 0.20728976 -0.1955042 0.37131017 -0.120393984 0.071451716 0.17135616
-0.093308255 -0.2485864 -2.10025 0.097414054 -0.23069336 -0.82331026 0.15456207 0.17214364
0.12710898 -1.299134 -0.2763686 -0.031834036 0.06889313 -0.054343164 -0.20672159 -0.07273713
-0.34610772 0.07564787 -0.39902487 -0.32864872 -0.03190708 -0.6080206 0.18687001 -0.27801043
-0.088212684 0.0616896 -0.5361072 0.053606294 0.07493424 0.2259115 -0.29194987 -0.23615053
0.46995515 -0.4744072 -0.18144703 -0.04525345 -0.30658457 -0.4660388 -0.09682208 -0.02588333
0.026281664 0.038939252 0.11362042 0.27697617 0.21130566 -0.05649612 0.21070385 -0.0927958
-0.1345062 0.15630476 0.12237689 -0.48192507 0.31601816 -0.05280019 -0.025008716 0.20409638
0.04181688 -0.54766977 -0.21846433 -0.07677746 -0.70028484 0.06477239 0.32333043 0.109028615
-0.18071079 0.18423456 0.21903117 0.17763446 -0.1917521 -0.733848 -0.026710954 0.1674636
-0.050242435 -0.03527893 0.4931481 0.4288309 0.009650984 -0.059511423 -0.35842678 0.24468404
0.14533639 0.24656756 -0.21089736 -0.08529144 -0.5552144 0.11706085 0.19481534 -0.2727846
0.16749005 -0.26861697 -0.14851637 0.038420103 -0.13298284 0.1199167 0.2477044 0.19584286
0.24207442 0.042660363 0.144741 -0.01312074 0.10309664 -0.0119797615 -0.43343136 -0.32838988
0.01891447 0.21478668 -0.26796737 -0.027249508 0.003365403 -0.13387977 0.004259694 0.030253995
-0.22813457 0.29061186 0.17642534 0.3982172 0.11391628 0.056844544 -0.11039224 -0.0654738
0.22257324 -0.3377743 0.20766854 -0.20946698 -0.052705552 -0.4924113 0.13232392 -0.28605554
0.42622834 0.7093354 0.2247429 0.10713536 0.14250873 -0.08980744 0.078046575 0.10480925
-0.26575407 0.11385467 0.13980488 -0.35050145 -0.3072697 0.124583244 0.23334242 -0.20695421
0.2573819 -0.27301002 0.37409866 0.24136974 0.05782542 -0.035555806 0.26402867 0.12626305
0.030295523 0.1260336 0.2605907 -0.1492787 0.0026407978 -0.033797923 0.042318337 -0.022233283
-0.7024506 0.2156371 0.04643982 -0.026704723 -0.11328781 0.22440338 -0.028702827 -0.19146453
00000000: 3256 29be a995 fbbf c2a5 1c3e dfd1 96be
00000010: f552 b63d 86e9 d33e 2002 c83e 9513 163e
00000020: a185 50bd cd72 773d 5401 8abf 5a97 0d3e
00000030: a773 40bf 8800 90bd ca71 893d 679f fe3d
00000040: 0894 5bbb af50 16be 7486 213e 3350 4c3e
00000050: 06e8 b53e 9e71 37bf fa71 cabe ee91 f1bd
00000060: 8af6 1b3f d2a7 bebd d2c3 14c0 3be9 7f3e
00000070: c984 38be 7cb2 4e3e a6f6 2e3d 4bca 90bc
00000080: 8e8c 583c 113c 12be d470 91be c855 2bbe
00000090: 3c16 273e 2288 2ebf f321 833e 9ea0 423e
000000a0: ce4f ffbd 5698 0ec0 b763 4fba 4655 b3bd
000000b0: 1879 0ebe 64aa d4be 4e1c 1cbe fe4d 61bd
000000c0: 18d6 2d3e d303 31be cbbc 223e 258d 71bf
000000d0: 0a69 813d 96ed 8c3e 5fa3 d3be 023c aebc
000000e0: 418e dcba 4800 693e a230 18be d9d6 453e
000000f0: 55df 56be d330 28be 926d 83be f6f7 47be
00000100: fc77 573d c882 533d fb77 05be 3063 fa3d
00000110: 3de9 a43e 5d12 0bbf 58e7 b73c 7f6a 1cbf
00000120: a828 393e 0b85 40bf 9ea6 993b 47c9 d6bf
00000130: 2108 26bf 80b1 0b3e 01f9 e93c 0723 433e
00000140: 125a 68be aeeb 27be c443 543e 4132 48be
00000150: 5e1c be3e 1f91 f6bd 4755 923d fd77 2f3e
00000160: 6618 bfbd 6f8d 7ebe 7f6a 06c0 0581 c73d
00000170: e13a 6cbe 76c4 52bf 8545 1e3e 6c46 303e
00000180: db28 023e 064a a6bf 2f80 8dbe 6864 02bd
00000190: d717 8d3d f096 5ebd d3ae 53be 34f7 94bd
000001a0: 0835 b1be 45ed 9a3d fd4c ccbe a544 a8be
000001b0: 00b1 02bd 3da7 1bbf da5a 3f3e 6257 8ebe
000001c0: daa8 b4bd 3cae 7c3d 523e 09bf 4692 5b3d
000001d0: 1f77 993d 5855 673e 747a 95be 72d1 71be
000001e0: f69d f03e 80e5 f2be 40cd 39be ae5b 39bd
000001f0: a7f8 9cbe a39c eebe a84a c6bd 4709 d4bc
00000200: a54c d73c c47e 1f3d d3b1 e83d d2cf 8d3e
00000210: 8360 583e 7a68 67bd c0c2 573e b90b bebd
00000220: febb 09be 5b0e 203e bca0 fa3d e2be f6be
00000230: 22cd a13e 0345 58bd 14df ccbc a4fe 503e
00000240: 2d48 2b3d 1634 0cbf 1db5 5fbe 803d 9dbd
00000250: de45 33bf 63a7 843d 918b a53e 654a df3d
00000260: 400c 39be fca7 3c3e b549 603e cfe5 353e
00000270: aa5a 44be 76dd 3bbf eed0 dabc 947b 2b3e
00000280: 03cb 4dbd a480 10bd e87d fc3e b98f db3e
00000290: 291f 1e3c 40c2 73bd b783 b7be 748e 7a3e
000002a0: 10d3 143e 357c 7c3e 7af5 57be 47ad aebd
000002b0: 8822 0ebf 99bd ef3d ac7d 473e 6caa 8bbe
000002c0: 8382 2b3e 2a88 89be ad14 18be 665e 1d3d
000002d0: a72c 08be e396 f53d 39a6 7d3e 088b 483e
000002e0: 5be2 773e a2bc 2e3d fc36 143e 5ff8 56bc
000002f0: 5524 d33d c346 44bc b7ea ddbe b822 a8be
00000300: 85f2 9a3c 0af1 5b3e 0533 89be 5c3a dfbc
00000310: 188e 5c3b c717 09be e794 8b3b 3ad7 f73c
00000320: 1c9c 69be 14cb 943e d8a8 343e 20e3 cb3e
00000330: f04c e93d d3d5 683d 5415 e2bd 2117 86bd
00000340: 3dea 633e c1f0 acbe 10a7 543e 837e 56be
00000350: c7e1 57bd 551d fcbe ec7f 073e df75 92be
00000360: 9a3a da3e 0197 353f 0123 663e c969 db3d
00000370: cfed 113e f7ec b7bd e2d6 9f3d 3ba6 d63d
00000380: eb10 88be a32c e93d 0329 0f3e ed74 b3be
00000390: 7452 9dbe 8025 ff3d 51f1 6e3e ceeb 53be
000003a0: 8fc7 833e f8c7 8bbe dc89 bf3e a129 773e
000003b0: 59da 6c3d f7a2 11bd c42e 873e 1a4b 013e
000003c0: 512e f83c f40e 013e 256c 853e 84dc 18be
000003d0: 3c11 2d3b b16f 0abd fe55 2d3d 9322 b6bc
000003e0: cdd3 33bf f9cf 5c3e ae37 3e3d ddc3 dabc
000003f0: 7003 e8bd 00ca 653e 3122 ebbc 470f 44be

layers.2.bias f4 [128]
-0.4877125 0.7690079 -1.2092322 -0.055068035 0.004671196 0.17630966 0.40614215 -1.0759506
0.481035 0.6175782 -1.6015921 0.21772628 0.7690825 0.37158337 0.5972463 -0.039737817
-0.080599435 0.27000362 0.8106765 -1.1276329 -0.48791504 0.5458621 0.7962934 0.029630922
0.44572097 0.35924006 -1.2756639 0.13984713 0.35506487 0.25034407 0.33983645 0.37592033
0.5505716 0.7326952 0.00681819 0.34671423 -1.3538625 -0.48408306 0.34548232 0.40315083
0.67690694 0.6252219 -1.2974802 -0.9919671 -0.11716267 0.23471577 -0.08330368 -1.1161474
0.63119835 0.50450283 -1.3802202 -1.4430865 -1.1490024 0.29812524 -0.10583938 -1.3354398
0.75927305 -1.3276764 -1.335409 0.78073084 -0.7828816 0.40277705 -0.7306402 -0.76964724
0.03316805 0.7023929 -0.7810873 0.6454043 -0.029936798 -1.2970817 0.10650173 0.47846895
-0.08223612 0.3947425 -0.050871614 -1.044699 -1.3713448 -1.2155547 0.15360995 0.03841439
0.041612305 -1.2878163 -1.4580759 0.566828 0.26413608 -0.39820182 0.36856803 0.7255258
0.58644086 0.45754546 -1.0744362 -0.2560519 -0.055111546 0.27804288 0.017943026 -0.8908814
-0.7552251 0.69332105 -1.2431127 0.6324402 -1.3581555 -1.2796407 -0.021484403 -1.3987575
-0.4209967 0.6863232 -1.3035072 -1.0642295 -2.8267503e-05 -0.06896843 -0.33147082 -0.046804957
0.42146522 0.26662695 0.234509 0.7295461 -0.38611853 -0.052773092 -1.060084 -1.0869913
-0.11255676 -1.3767291 0.7948917 0.41194466 -0.9683521 0.23251534 0.6673104 0.062032286
00000000: 74b5 f9be b4dd 443f 1fc8 9abf 058f 61bd
00000010: d510 993b 858a 343e ddf1 cf3e c0b8 89bf
00000020: 384a f63e 9b19 1e3f f800 cdbf a3f3 5e3e
00000030: 97e2 443f 2d40 be3e 22e5 183f 1fc4 22bd
00000040: 5111 a5bd ea3d 8a3e 7f88 4f3f 4656 90bf
00000050: 00d0 f9be 9ebd 0b3f e2d9 4b3f 8cbc f23c
00000060: 8a35 e43e 50ee b73e f448 a3bf 1634 0f3e
00000070: 10cb b53e 192d 803e 0bff ad3e a178 c03e
00000080: 43f2 0c3f ea91 3b3f 206b df3b 8784 b13e
00000090: 5e4b adbf bcd9 f7be 0fe3 b03e c969 ce3e
000000a0: c649 2d3f 8b0e 203f d513 a6bf 8ef1 7dbf
000000b0: fbf2 efbd 5559 703e 1f9b aabd ebdd 8ebf
000000c0: 3796 213f 1927 013f 0eab b0bf 0fb7 b8bf
000000d0: 8312 93bf dfa3 983e 51c2 d8bd b1ef aabf
000000e0: b85f 423f 4df1 a9bf afee aabf fadd 473f
000000f0: ee6a 48bf cb38 ce3e 3c0b 3bbf 9a07 45bf
00000100: 39db 073d 05d0 333f 56f5 47bf 3739 253f
00000110: 043e f5bc c606 a6bf 941d da3d e2f9 f43e
00000120: 696b a8bd b01b ca3e c15e 50bd b2b8 85bf
00000130: 3a88 afbf 4c97 9bbf ed4b 1d3e 6858 1d3d
00000140: aa71 2a3d 2ad7 a4bf 3ba2 babf a41b 113f
00000150: d83c 873e 1ce1 cbbe f3b4 bc3e 0fbc 393f
00000160: fd20 163f 6643 ea3e 2087 89bf 3c19 83be
00000170: a5bc 61bd a35b 8e3e 41fd 923c ce10 64bf
00000180: 6f56 41bf 7d7d 313f 511e 9fbf 9ae7 213f
00000190: 0ad8 adbf 44cb a3bf 0f00 b0bc 7c0a b3bf
000001a0: e18c d7be e1b2 2f3f 53d9 a6bf ac38 88bf
000001b0: 0020 edb7 523f 8dbd 8bb6 a9be 8eb6 3fbd
000001c0: 4aca d73e 5483 883e 2123 703e 89c3 3a3f
000001d0: 54b1 c5be 9928 58bd d5b0 87bf 8822 8bbf
000001e0: 2984 e6bd a938 b0bf 067e 4b3f 69ea d23e
000001f0: ece5 77bf 8018 6e3e dbd4 2a3f 9115 7e3d

layers.4.weight f4 [2, 128]
-0.70270175 0.31290808 -1.2277353 -0.017507354 -0.028327374 -1.8002032 0.047346655 -1.389287
0.27348295 0.13418008 -0.6967069 0.25663435 0.36791968 0.12468823 0.34112433 0.020060152
0.0023826393 0.03137934 0.2752041 -0.38237742 -0.3157449 0.32116145 0.25597772 -0.06356835
0.3528304 -0.26563025 -0.47019926 0.99832845 0.59201825 0.21204656 0.09453591 0.06852957
0.1481984 0.2591628 -0.04607721 -0.32356396 -0.4319825 0.51878744 -0.51197636 0.15978265
0.2990625 0.3707555 -0.55943316 -1.4322789 0.05779419 -0.23794244 0.0031619796 -0.41939065
0.2284872 0.25720125 -0.738747 -0.77778 -0.9113118 0.98146623 -0.17949837 -0.6726361
0.37590042 -0.5757553 -0.7973645 0.35754234 0.54487467 -0.67228264 0.5032495 -0.12402872
0.0076900595 0.0655807 -0.5668374 0.5798525 0.07340603 -0.6264396 -0.56127167 0.11826881
0.03601505 -0.2387414 -0.0073172525 -0.12965202 -1.0385935 -0.49585196 -0.20380329 -0.21439157
0.03335753 -0.4347948 -0.5345836 0.20545363 0.40534925 -0.38424468 -0.26410887 0.18960069
0.14889143 -0.39788488 -0.25020528 -0.16748655 0.037656847 -0.31300938 0.05464641 -0.38265353
-0.012336884 0.14284515 -0.65580887 0.19284856 -0.6937512 -0.36890748 0.07372443 -0.5431408
-1.1517895 0.35526055 -0.41685656 -0.17221019 0.04486478 -0.063169286 -1.0691382 0.0028901936
0.11052704 0.92688674 -0.4291743 0.34191114 -0.10158895 -0.0124240285 -0.22348231 -0.33389425
-0.03878051 -0.5885343 0.2543912 0.054493595 -1.2802689 0.33638966 0.3425096 0.031744692
0.47782636 0.34953263 -0.35991678 0.032728173 -0.037006125 0.43267563 0.47921756 -0.7109013
0.41407105 0.274319 -0.7574686 -0.020450303 0.22165312 0.4359492 0.17401677 0.02131968
-0.010881366 0.94243145 0.30168647 -0.6868905 -0.07551987 0.23992501 0.26450983 0.026937969
0.30781722 -0.35842678 -0.8007957 -0.770188 0.5053937 0.30010596 0.28324676 0.16153535
0.07586047 0.31341267 0.0074950606 0.08460174 -0.6195685 -0.15440439 -0.16623837 0.17494097
0.29015887 0.14751756 -0.59516084 -0.15182854 -0.071181506 -0.08028801 0.020230137 -0.44493377
0.206935 0.2608155 -0.38351107 -0.70622 -0.97662044 -0.09187402 0.28866726 -0.38042864
0.2056644 -0.6540491 -0.9020319 0.35686895 -0.79197395 0.31116325 -0.31980467 -0.5529133
0.066037074 0.2963196 -0.111768104 0.30316296 -0.028930696 -0.4966547 0.1837383 0.16767496
-0.011683139 0.18023881 0.028878555 -0.53144854 -0.93129945 -0.4683156 -0.34133247 0.35441202
-0.0017650574 -0.583603 -0.7298594 0.20602232 0.058147803 -0.021126427 0.45848975 0.24479578
0.07807443 0.022342391 -0.4581549 -0.3537291 -0.06945434 0.9208843 0.06960538 0.16282986
-0.45927677 0.3033113 -0.47781187 0.32232997 -0.2559126 -0.75433975 -0.070211776 -0.65744436
1.0136769 0.36693817 -0.05846405 -0.5500272 0.0037143156 0.015580878 0.9317819 -0.022902895
0.03151234 0.54797506 0.61911076 0.2126443 -0.41029763 0.041533593 -0.49010313 -0.33305478
-0.08611529 -0.23097008 0.31375077 0.20111178 -0.87619233 0.31915247 0.21150889 0.04821189
00000000: 43e4 33bf 7d35 a03e 6e26 9dbf 956b 8fbc
00000010: cf0e e8bc 0f6d e6bf 91ee 413d 28d4 b1bf
00000020: f505 8c3e 8166 093e 625b 32bf 9465 833e
00000030: f85f bc3e 8b5c ff3d d9a7 ae3e 3055 a43c
00000040: 0e26 1c3b 9f87 003d 8de7 8c3e f9c6 c3be
00000050: 51a9 a1be 466f a43e 830f 833e 2030 82bd
00000060: 30a6 b43e b000 88be f5bd f0be 7492 7f3f
00000070: 828e 173f bc22 593e 0b9c c13d 3b59 8c3d
00000080: 52c1 173e fdb0 843e 75bb 3cbd 2daa a5be
00000090: cf2c ddbe 41cf 043f e210 03bf 109e 233e
000000a0: b81e 993e aad3 bd3e 0337 0fbf ea54 b7bf
000000b0: 9ab9 6c3d 2fa7 73be 3739 4f3b 5fba d6be
000000c0: 8cf8 693e e2af 833e 861e 3dbf 971c 47bf
000000d0: bb4b 69bf 5f41 7b3f 6cce 37be e131 2cbf
000000e0: 0576 c03e b364 13bf 1420 4cbf ca0f b73e
000000f0: e87c 0b3f b71a 2cbf f6d4 003f c502 febd
00000100: e5fc fb3b 2d4f 863d 411c 11bf 3771 143f
00000110: e755 963d 585e 20bf 80af 0fbf eb36 f23d
00000120: 8484 133d a078 74be 90c5 efbb 80c3 04be
00000130: a2f0 84bf 4fe0 fdbe cfb1 50be 7789 5bbe
00000140: e8a1 083d 6d9d debe 79da 08bf 7062 523e
00000150: f089 cf3e b8bb c4be 4739 87be af26 423e
00000160: ff76 183e 91b7 cbbe e81a 80be 9881 2bbe
00000170: 113e 1a3d c442 a0be ead4 5f3d 2aeb c3be
00000180: a420 4abc 0046 123e 17e3 27bf 187a 453e
00000190: ae99 31bf 71e1 bcbe d5fc 963d 470b 0bbf
000001a0: d76d 93bf b6e4 b53e 396e d5be de57 30be
000001b0: 22c4 373d e65e 81bd 85d9 88bf 6769 3d3b
000001c0: 005c e23d 7348 6d3f bcbc dbbe fa0e af3e
000001d0: de0d d0bd 278e 4bbc 8cd8 64be 30f4 aabe
000001e0: 50d8 1ebd 2faa 16bf 903f 823e ad34 5f3d
000001f0: dadf a3bf 443b ac3e 6b5d af3e b906 023d
00000200: a8a5 f43e f1f5 b23e 0347 b8be fa0d 063d
00000210: bc93 17bd a987 dd3e 015c f53e a1fd 35bf
00000220: 1f01 d43e 8a73 8c3e 76e9 41bf 6587 a7bc
00000230: 09f9 623e bc34 df3e 7431 323e 9ca6 ae3c
00000240: c247 32bc 3043 713f a676 9a3e 0ed8 2fbf
00000250: 29aa 9abd e7ae 753e d56d 873e 04ad dc3c
00000260: 389a 9d3e b783 b7be f200 4dbf 0a2b 45bf
00000270: 7b61 013f 7da7 993e b805 913e 8669 253e
00000280: bc5c 9b3d a077 a03e 2099 f53b ad43 ad3d
00000290: 0b9c 1ebf 2f1c 1ebe 643a 2abe ba23 333e
000002a0: b48f 943e d80e 173e 765c 18bf f178 1bbe
000002b0: 9cc7 91bd 0a6e a4bd acb9 a53c 5cce e3be
000002c0: c5e6 533e 9c89 853e 905b c4be d5ca 34bf
000002d0: cc03 7abf 7228 bcbd 32cc 933e 8bc7 c2be
000002e0: b099 523e c36f 27bf 90eb 66bf 87b7 b63e
000002f0: cebe 4abf ca50 9f3e 70bd a3be ba8b 0dbf
00000300: 723e 873d 34b7 973e ade6 e4bd 2d38 9b3e
00000310: 1100 edbc 8649 febe e525 3c3e fcb2 2b3e
00000320: a36a 3fbc 8690 383e b892 ec3c 030d 08bf
00000330: a469 6ebf 10c7 efbe 21c3 aebe 7e75 b53e
00000340: 8059 e7ba 0267 15bf 11d8 3abf 84f7 523e
00000350: 642c 6e3d 5411 adbc 2bbf ea3e bfab 7a3e
00000360: 7de5 9f3d 6407 b73c 4793 eabe fb1b b5be
00000370: 143e 8ebd 13bf 6b3f 448d 8e3d dfbc 263e
00000380: 5326 ebbe 9e4b 9b3e c2a3 f4be 6f08 a53e
00000390: fa06 83be 691c 41bf 31cb 8fbd 464e 28bf
000003a0: 2ac0 813f 52df bb3e 0078 6fbd 95ce 0cbf
000003b0: e06b 733b f046 7f3c 4289 6e3f da9e bbbc
000003c0: 1513 013d 1848 0c3f 0b7e 1e3f 6dbf 593e
000003d0: 8812 d2be 211f 2a3d ccee fabe 2886 aabe
000003e0: 375d b0bd 6c83 6cbe f1a3 a03e 3ff0 4d3e
000003f0: 244e 60bf f467 a33e c995 583e d579 453d

layers.4.bias f4 [2]
0.44653824 0.60301346
00000000: a9a0 e43e 175f 1a3f
