ddqn_models/inv/ddqn_600_1.0.pth (torch_old, 69813 bytes, 6 tensors)

layers.0.weight f4 [128, 2]
000000 d6 4f 9c be dd a0 0b bf 1f 47 7a 3f 7e 6b c4 bf
       -0.3052966 -0.5454233 0.9776477 -1.5345304
000010 e8 64 9b 3d 60 99 17 be 30 9e 80 3f 71 11 2f 3f
       0.07587606 -0.14804602 1.0048275 0.6838599
000020 f6 46 78 3f 13 9c 92 3e 04 7f 0e be 74 4d f1 bd
       0.9698328 0.286347 -0.1391564 -0.11782351
000030 51 5d dc bd e5 c8 43 3e 6b d6 e3 3e 58 64 a8 3f
       -0.10759986 0.19119604 0.44499525 1.3155622
000040 0a 64 57 bf e5 c0 db bd 80 fc b2 bf 1a d8 73 bf
       -0.8413702 -0.10730151 -1.3983307 -0.9525162
000050 25 82 e8 bf e2 3b 78 3e d0 37 c4 be 0b c8 e1 3c
       -1.8164717 0.24241593 -0.38323832 0.027561208
000060 55 74 3d bc e3 30 ff 3e e7 6a 3c bf d9 9e e3 be
       -0.01156338 0.49841985 -0.7360062 -0.4445713
000070 b8 fa cc bf 02 21 ca 3d c8 0f 55 3f 8f 60 90 3f
       -1.6014013 0.09869577 0.83227205 1.1279467
000080 9a d6 92 3f 3a c0 b2 3f 80 7b ac bb 00 23 0f be
       1.1471741 1.3964913 -0.005263746 -0.13978195
000090 09 48 12 3e ab 68 19 bb 12 37 82 3e a4 52 f4 3d
       0.14285292 -0.0023408334 0.2543264 0.11929825
0000a0 d0 80 80 be 7c 51 32 bf 0b 11 00 3f f9 1a 18 bf
       -0.25098276 -0.69655585 0.50026006 -0.59416157
0000b0 3c 1f ae be fd eb d9 3e 9e a5 b4 3e 8a ad 1f 3e
       -0.34008205 0.42562857 0.35282606 0.15593544
0000c0 b2 18 1f bf ec 90 b4 3f f0 ec ed be 8a 8c e9 be
       -0.6214706 1.4106727 -0.4646983 -0.45615035
0000d0 66 5e a6 bd 6d 58 0f bf 4e 23 0a 3e 42 10 55 3f
       -0.08123474 -0.559943 0.1349003 0.8322793
0000e0 10 e2 89 bd 50 56 0e 3f 15 d1 89 3f a7 3f 50 3d
       -0.06732571 0.5560045 1.0766932 0.050841954
0000f0 42 73 54 be fc a9 d3 be cd 78 a7 be 0f 02 42 3e
       -0.20747092 -0.41340625 -0.3270935 0.18946098
000100 24 7d 58 3f 07 62 91 3f ff 61 92 be bf fe 05 3d
       0.8456595 1.135804 -0.2859039 0.032713648
000110 51 07 9d be 35 28 61 bf 4b ab 81 3f 06 0e f9 bd
       -0.30669644 -0.87951976 1.01304 -0.12160878
000120 80 ac 1f 3c e8 35 f6 bd 45 eb b3 bf f0 94 ad be
       0.009745717 -0.120220006 -1.4056174 -0.33902693
000130 f6 13 01 3f 7e 0c 13 bf 6d d2 a0 be 39 31 07 be
       0.5042108 -0.57440937 -0.31410542 -0.1320237
000140 a7 8d cf bd 49 df 8f 3e f0 17 f7 be b9 03 77 bf
       -0.1013444 0.2810004 -0.4826045 -0.96490055
000150 e3 cf da bd 40 86 2e 3e 45 5c be 3e 6f 49 9b 3f
       -0.106841825 0.170434 0.3717977 1.2131785
000160 61 63 b8 3e bf 0c d8 bd d3 fa 37 3b 63 fb 4f 3e
       0.3601332 -0.10549306 0.0028073087 0.2031074
000170 9e 57 39 3f 61 c9 46 3e df ef f4 be 18 19 24 bf
       0.7239932 0.19412757 -0.47839257 -0.6410079
000180 44 d3 a3 bf c1 82 5e 3e 1b ee 0a bf 66 76 a0 bf
       -1.2798848 0.21729566 -0.5426957 -1.2536132
000190 58 47 95 3f 05 fc b6 bf af 2b ee 3c 2f 81 8d 3e
       1.1662397 -1.429566 0.029073564 0.27637622
0001a0 c9 85 6e 3e f3 0e 98 bd 8a bf 56 be e9 3c 89 3f
       0.23293222 -0.07424726 -0.20971504 1.0721713
0001b0 bc cf 2a 3f 87 1a 08 3f fb cc af 3d b6 c3 84 3e
       0.6672323 0.5316548 0.08584019 0.25930566
0001c0 3c c5 41 bf 65 cd ec bd 5d 95 a6 bf 9a 7d 69 be
       -0.7569158 -0.115626134 -1.3014332 -0.2280182
0001d0 a6 ba 4d 3f 05 71 11 3f ca f5 f4 be 3e f7 a5 bf
       0.8036293 0.5681308 -0.47843772 -1.2966077
0001e0 a3 dd ef 3e 30 1c 04 bf c3 25 5c 3e 9e e1 b6 be
       0.46848783 -0.5160551 0.2149878 -0.35719007
0001f0 93 6f 5b bd 31 dc 99 3e f3 89 a0 bf dd c0 89 be
       -0.053573202 0.30050805 -1.2542099 -0.26904956
000200 71 fa eb 3e ad d8 88 bf 45 ef 2a bf bb 13 fa 3e
       0.4608951 -1.0691124 -0.66771346 0.48843178
000210 32 e2 1f 3e 51 23 5e bd 60 40 9e be d0 ab 0e bf
       0.1561363 -0.0542329 -0.3090849 -0.55730915
000220 b7 72 2b 3f 4d be 32 3e f6 f2 0d 3e da dd a3 3e
       0.66971916 0.17455406 0.13862213 0.32005197
000230 ad 47 83 be c4 68 53 3d 66 00 b6 3e 29 3b c5 3c
       -0.25640622 0.051613584 0.3554718 0.024076061
000240 25 52 96 3e 2c 5b 6b 3e 6a f5 a6 bf e8 85 32 bf
       0.29359546 0.22983998 -1.3043644 -0.69735575
000250 f9 e6 96 3f 74 b8 cb 3f 04 0a 4c 3f 14 c2 ac 3d
       1.1789237 1.5915666 0.7970278 0.08435455
000260 65 5a 4f 3f ba 89 a3 bf 63 a7 1f bf a3 da 97 bf
       0.80997306 -1.2776406 -0.62364787 -1.1863598
000270 14 08 ba be 7d fe b8 3f fa c4 e0 bd 9b be 8d 3e
       -0.36334288 1.4452664 -0.1097507 0.27684483
000280 ea 4c 71 be 76 73 b3 3f 00 de d6 be e6 e2 f7 3f
       -0.23564497 1.4019611 -0.41966248 1.9366119
000290 74 84 86 be 83 60 d4 be e2 c4 2f 3f 69 af 3a 3f
       -0.2627293 -0.41479883 0.68659794 0.72923905
0002a0 10 bf 74 bf c9 ff 57 3e a5 b0 c4 3f 84 08 42 3f
       -0.9560404 0.21093668 1.5366408 0.75794244
0002b0 74 f0 12 bd e9 87 90 3e 34 54 24 3e 43 56 40 3f
       -0.035873845 0.2822869 0.16047746 0.75131625
0002c0 d7 89 85 bc c0 a2 7a 3e 91 80 11 bf 79 bc af 3f
       -0.016301079 0.24476147 -0.568368 1.3729392
0002d0 9d 69 b1 bd 57 2b 8b 3d ac 3d af bf b7 e0 8e be
       -0.08662722 0.06795376 -1.3690696 -0.2790582
0002e0 07 02 2d bf d8 2f a2 bf 9a 9d d6 bf 0c 23 30 3f
       -0.6758122 -1.2670851 -1.6766846 0.6880348
0002f0 42 b9 12 3e eb 96 1e 3f ab 12 20 3f 90 80 76 bf
       0.14328483 0.6194903 0.62528485 -0.9628992
000300 5f e3 c4 bf 88 5c b6 be 38 4b 55 bf 4b db 9e 3c
       -1.5381888 -0.3561747 -0.833179 0.019391676
000310 2e 8a 79 be 7b cb 36 bf 55 fb 3f bf b4 5a 1a bf
       -0.24369118 -0.71404237 -0.7499288 -0.6029465
000320 3f d5 25 3f 6d 02 a9 3f a7 36 28 3f ee c1 ab 3f
       0.6477851 1.3203865 0.6570839 1.3418558
000330 12 ac 68 3f dc c0 99 3d 0c 62 c1 3f 80 32 c2 3f
       0.9088756 0.07507488 1.5108047 1.5171661
000340 80 57 23 bf 51 bb cc 3f 79 19 59 3f 2e 4e 97 3f
       -0.6380539 1.5994664 0.84804493 1.1820734
000350 7b 43 ba be 8b 64 52 3e dd 38 9c 3e a4 ee 35 bf
       -0.3637961 0.20546167 0.30512133 -0.7106726
000360 b6 15 5a bf be 05 8c bf 25 af 1b 3f 5a 7b 58 3f
       -0.8518938 -1.0939252 0.60814124 0.8456322
000370 05 c9 ab 3f 9a fd 20 be ea ba 80 bf 57 b0 95 3e
       1.3420721 -0.15721741 -1.0057042 0.292361
000380 9c 8b c2 3f fd 67 cd 3e af 09 47 bd c1 90 de 3e
       1.5198855 0.401184 -0.04859322 0.43469813
000390 c0 39 5f 3f 50 cd 72 bf fa bb e2 3f 28 cd b9 3f
       0.87197495 -0.9484453 1.7713616 1.4515734
0003a0 b5 43 bc bf 75 a3 25 3d 28 b1 ef be 5d 97 3c 3d
       -1.4708163 0.040439088 -0.46814847 0.04604279
0003b0 04 c3 6f 3f 77 87 a4 3d 98 9b 8a bf 76 b9 33 bf
       0.93656945 0.0803365 -1.0828733 -0.70204866
0003c0 fe 61 8c be cf 48 f4 bd 15 18 60 be f1 b6 e2 3e
       -0.27418512 -0.1192795 -0.21884187 0.44280198
0003d0 3f 25 8b 3e 32 20 50 bf 06 5c 7a bd 8d f7 4a 3f
       0.27176854 -0.81299126 -0.061122917 0.7928398
0003e0 dc 31 72 3f 02 e6 16 bf 69 0b 9b be f7 23 61 bf
       0.9460733 -0.58944714 -0.30282143 -0.87945503
0003f0 47 6b 37 3d 03 23 95 3e 64 85 39 3d 2b 3e a3 3e
       0.044780042 0.29128274 0.045293227 0.31883368

layers.0.bias f4 [128]
000000 b1 58 6b 3f 5e 39 d2 3d 58 4b f1 be 71 23 9a bf
       0.9193221 0.10264848 -0.47127795 -1.2042066
000010 eb e2 8d bf 8a e6 11 bf f1 25 17 3f 2a d3 67 bf
       -1.1084875 -0.569924 0.5904227 -0.90556586
000020 7f 30 c7 bf 8b c9 a6 bd 86 2f 27 be 55 c1 65 3f
       -1.5561675 -0.0814391 -0.16326723 0.89748126
000030 c9 81 85 bf db 31 44 3f cf 2b c6 be 8a 44 10 3e
       -1.0430232 0.76638573 -0.38705298 0.14088646
000040 b1 2d 56 3d 85 3a 23 bf 71 e5 68 3f 57 d5 41 3f
       0.05228967 -0.6376117 0.909751 0.75716156
000050 4f 8f 6c 3f 70 2a 0d 3f 64 44 b6 bf e2 31 79 3f
       0.9240617 0.5514288 -1.4239621 0.9734174
000060 ba 83 7f 3c f2 25 03 3f 7e 13 9d bf 06 32 68 bf
       0.015595371 0.51229775 -1.2271574 -0.9070133
000070 c0 63 9c bf 3d 73 7f bf 83 1f af bd f7 1c 82 bf
       -1.2217941 -0.99785215 -0.08550932 -1.0165089
000080 0f 6d e1 3d 51 da 3e 3f 1f 05 f8 bd 64 c6 d9 bf
       0.110071294 0.74551874 -0.12110352 -1.7013669
000090 0d 59 0c bf 9b 35 ae be 81 8f 15 3f 4e 38 8e 3f
       -0.5482338 -0.34025273 0.58422095 1.1110933
0000a0 2e 47 3d 3f 72 5b 9c be 68 ac 02 3f fd 16 70 bf
       0.73936737 -0.30538517 0.5104432 -0.9378508
0000b0 c7 00 87 bf 91 b1 2c 3f 2b 6f be bf cc f5 d2 3e
       -1.0547112 0.67458445 -1.4877676 0.41203153
0000c0 c0 d8 84 bf 1a 05 c8 be 20 9c 3b be aa f3 38 3f
       -1.0378647 -0.39066392 -0.18321276 0.722468
0000d0 d3 7b 2e bf a8 65 41 3f f7 54 10 3f f0 a7 3d 3f
       -0.6815769 0.7554574 0.56379646 0.7408438
0000e0 29 30 b5 bf c2 45 a3 be 7e ee 82 bf a9 ac bb bd
       -1.4155322 -0.31889158 -1.0229032 -0.09163792
0000f0 58 30 09 3f de b5 8e bf 26 9d 6a 3f cf a1 f1 be
       0.5358939 -1.1149251 0.9164604 -0.47193763
000100 be 87 4e bf 51 cb 44 bf 66 47 77 3f b1 fd 6c 3f
       -0.80675876 -0.76872736 0.9659332 0.925746
000110 d5 48 b1 bf 22 0e 73 3f b1 39 34 3f 14 41 72 3f
       -1.3850352 0.9494344 0.7040053 0.9463055
000120 6b 02 79 3f df 73 9e bd 43 e5 43 3e c0 1b e4 3e
       0.97269315 -0.077369444 0.19130425 0.44552422
000130 eb 15 b2 3d 5e 97 80 3e 97 30 9b bb b9 2b 3f 3f
       0.08695587 0.25115484 -0.004736017 0.7467609
000140 3f ee 50 be fb 37 13 bd bf b9 1a 3e 6b 46 f3 3e
       -0.20403384 -0.03594206 0.15109919 0.47514662
000150 31 ae a6 bf 1d df 85 bc bc e0 27 3f b1 65 97 bf
       -1.3021909 -0.01634174 0.6557729 -1.1827909
000160 9b bc 11 3f 9a bf 8f bd be f4 b4 3e 45 6a 8c bf
       0.56928414 -0.07018967 0.35342973 -1.0969931
000170 1c 33 95 bd 5c 56 e3 be ec c8 70 3f 45 9e 15 3e
       -0.07285139 -0.44401824 0.9405658 0.14611156
000180 b6 8e 56 be 18 b4 ad bf 8f 47 6a 3f 62 56 70 3f
       -0.20952877 -1.3570585 0.9151544 0.9388181
000190 82 55 15 bf 81 6e 1a bf 56 84 c8 bf 27 46 77 3d
       -0.583336 -0.60324866 -1.5665386 0.060369637
0001a0 6e 78 b3 3c 51 ef a9 be 25 83 8b bf 13 eb b8 3d
       0.021908011 -0.33190396 -1.0899397 0.09029212
0001b0 a7 49 01 bf 2d 3f b2 3d 4b 8a b7 be cb 41 98 bf
       -0.5050301 0.08703456 -0.35847697 -1.1895078
0001c0 13 01 9d be 24 bf 74 3f f4 52 c3 be 10 aa a6 3d
       -0.30664882 0.9560416 -0.38149226 0.081379056
0001d0 59 92 df be 2d ff 8a 3f 52 e1 ce bf 16 b1 92 bf
       -0.43666342 1.0859123 -1.6162512 -1.1460292
0001e0 c3 8c 80 3f 71 5d ad bf e4 23 84 bc 5d e4 76 bf
       1.0042957 -1.3544141 -0.016130395 -0.96442205
0001f0 bd a9 d5 bd 2a 75 0d be 84 d1 4f 3f a2 39 46 bf
       -0.10432766 -0.13814226 0.8117907 -0.7743169

layers.2.weight f4 [128, 128]
000000 be 4a d8 bd a9 e8 dc bf 94 d6 f6 bc de d6 53 bf
       -0.10561131 -1.7258502 -0.030131616 -0.82749736
000010 b4 93 fb bd cb af aa 3d f9 df 88 3e 7b 19 98 bd
       -0.122840315 0.08334311 0.26733378 -0.07426735
000020 0b f6 f5 bd 21 9a e4 3f 60 13 1e bf af 57 6d 3e
       -0.120098196 1.7859536 -0.61748314 0.2317798
000030 11 4e 2b be 37 90 29 be 5f 59 c8 be d7 1d fa 3e
       -0.16728999 -0.1655892 -0.39130685 0.4885089
000040 fe 65 0f 3f 34 df a7 bd 1c d6 da 3d 93 9b 65 3e
       0.56015 -0.081968695 0.10685369 0.22422628
000050 89 32 1e be 18 a0 06 bf ec 6c b5 3e 2a e7 1b 3e
       -0.15448965 -0.52588034 0.35434663 0.15224901
000060 92 06 a1 3e 0c 36 36 be f0 5b 92 3c 87 3e c2 bd
       0.31450325 -0.17794055 0.017866105 -0.094845824
000070 08 a6 9a 3d 6f 70 cd 3e ea e2 ad bf a0 9f 1b bd
       0.07551199 0.40124843 -1.3584874 -0.037994027
000080 c3 b9 2b 3e 0b 74 7d 3e 43 31 e9 3d 3f f8 a3 be
       0.16770081 0.24751298 0.11386349 -0.32025334
000090 2a 9f 9c bd cb 0b 17 bf 19 60 34 be 67 1a 47 3e
       -0.07647546 -0.5900237 -0.17614783 0.19443665
0000a0 76 53 39 3e 2d 20 09 c0 26 aa 88 3e eb a1 07 3f
       0.18098244 -2.1425889 0.26692313 0.5298144
0000b0 70 90 23 bf 78 10 39 3e ff f5 8e bf ee 3b 31 be
       -0.6389227 0.18072689 -1.1168822 -0.17308018
0000c0 47 7f 9d be 4f 07 30 c0 17 ba 0f c0 11 73 34 3e
       -0.30761167 -2.750446 -2.245733 0.1762202
0000d0 89 92 88 bf b1 b6 95 3e b5 7b 99 3e a8 d0 95 3e
       -1.0669719 0.29240945 0.29977193 0.29260755
0000e0 87 fa 3f bf 1b b4 6e bf 30 4f 15 3f 84 a1 79 3f
       -0.7499165 -0.9324357 0.58323956 0.9751208
0000f0 bb 7c ed be bc 34 83 be 06 4a 75 3e ab b3 85 bf
       -0.46384224 -0.2562617 0.23954019 -1.0445455
000100 5f 88 57 c0 79 a8 8c 3c fe 73 19 3e 81 76 ee bd
       -3.3676984 0.017170178 0.14985654 -0.116436966
000110 fa 37 ff bf 56 eb 89 3e 21 55 86 3e e8 00 1b 3e
       -1.9938958 0.2693736 0.26236823 0.15137064
000120 e2 7c 46 3e 86 f2 83 bf 99 ff 09 3f c0 aa 4e 3e
       0.19383577 -1.0308387 0.53905636 0.20182323
000130 7f 82 5f bf 4e 9b 59 bf 97 1a c4 3d 32 84 9f 3e
       -0.87308496 -0.850026 0.09575384 0.31155545
000140 21 27 13 3e 0b 15 26 3e e9 58 17 bf a7 9d 90 3e
       0.14370395 0.16218965 -0.5912004 0.2824528
000150 fd 74 37 3f 27 dd 7d 3f 87 8a 57 3e ae ea ae 3e
       0.71662885 0.99165577 0.21048938 0.3416342
000160 eb da 6f 3e 3e c0 d6 3e d9 f5 b2 3e 88 4b ba 3e
       0.23423354 0.41943544 0.34953192 0.3638575
000170 79 2d 34 40 30 84 23 bf 3f d7 4d 3e f8 14 df bf
       2.8152754 -0.6387358 0.20101641 -1.7428274
000180 03 37 22 bf b5 4a 50 bf f7 a4 2b be db b9 79 bd
       -0.6336519 -0.81363994 -0.16762148 -0.06096826
000190 98 12 3d be 4a 97 9b be c3 89 7e bf 32 1c ce 3e
       -0.18464124 -0.30388862 -0.9942896 0.40255886
0001a0 f2 23 11 3f 5a 54 f5 3c 7b 68 b2 be e6 e5 5d be
       0.56695473 0.029947449 -0.34845337 -0.2166973
0001b0 b2 f9 22 3d 50 93 1a bd f3 83 fc bf 41 4c 44 3f
       0.03978891 -0.037738144 -1.9727768 0.76678854
0001c0 75 bc 99 bf 8a fa b5 3e cd 6d d1 bf 61 5a 6f 3f
       -1.2010638 0.3554271 -1.6361634 0.9349728
0001d0 f6 ec dc be 51 74 3f 3e 1a 55 a6 bf 06 8d c0 bf
       -0.43149537 0.18696715 -1.2994721 -1.5043037
0001e0 af bd 70 3e 29 85 77 3e 5d df 59 bf f6 3b e8 3d
       0.23509859 0.2417189 -0.8510645 0.11339562
0001f0 8d 9b 35 c0 af ac c6 3f 69 b2 62 3e 62 dc 88 be
       -2.837619 1.5521449 0.2213837 -0.2673064
000200 e4 3f 09 c0 e9 a3 39 3d 42 6e 11 3d 48 b7 2f 3f
       -2.1445246 0.045322333 0.03550554 0.6863904
000210 d0 c6 2b 3f 0f 74 ab 3d e7 f2 53 bf 2e 02 00 3f
       0.6710024 0.08371746 -0.82792515 0.50003326
000220 e1 ed 3c bc a0 8e 23 3f a3 7d 3b bf b1 56 40 c0
       -0.011531324 0.63889503 -0.7323858 -3.0052912
000230 25 9c 68 3f 68 df b9 bf 70 89 dc be 29 5f 4f be
       0.9086326 -1.4521303 -0.43073606 -0.20251144
000240 24 fa 25 3f 20 98 1c bc ba bd e0 be 1a 7d 1c be
       0.6483481 -0.009557754 -0.4389475 -0.15282097
000250 2c 7b 40 c0 56 20 45 3e d3 0f 08 3f 6d f8 91 be
       -3.0075178 0.19250616 0.53149146 -0.28509846
000260 15 64 b1 bf 1a 3f 01 bf 1d 2f 87 3f d6 69 09 3f
       -1.3858668 -0.5048691 1.0561253 0.5367712
000270 20 cd e4 3e 86 42 a9 3e 68 0f 35 bf 69 1d db 3e
       0.44687748 0.33058566 -0.70726633 0.42795876
000280 6e f4 cb 3e 2a 33 1c c0 01 91 56 bf 1c c6 c4 3e
       0.39834923 -2.4406228 -0.8381501 0.38432395
000290 f7 d9 4e bd 35 c8 82 be 78 f7 91 3e fc 2b ec bf
       -0.050500836 -0.2554337 0.28509116 -1.8450923
0002a0 bb 5b 49 bf 6f 87 28 3b 8c d8 5e bf 51 af 36 3f
       -0.78655595 0.002571549 -0.87049174 0.7136126
0002b0 29 fa e5 3e aa ff 2a bf b8 70 4d 40 12 a2 1f bf
       0.4491742 -0.6679636 3.2100048 -0.62356675
0002c0 3a 05 23 bd 49 63 13 3d 7f 97 9c 3e f7 ad 11 bf
       -0.039799906 0.035983358 0.30584332 -0.56906074
0002d0 6a 69 c2 bd 5b 22 28 bf e1 a8 69 bd 64 13 0e bf
       -0.094927624 -0.6567742 -0.05704582 -0.5549834
0002e0 0b 18 a9 be 05 05 55 bd d2 a0 c2 3d 69 ae 13 be
       -0.33026156 -0.05200674 0.0950333 -0.14422001
0002f0 f4 b3 05 3e 72 7c 15 3f 98 d3 54 bf bf 04 04 be
       0.13056928 0.58393013 -0.83135366 -0.12892435
000300 97 86 65 bf 92 67 75 bf dd f7 d9 be bf 63 41 c0
       -0.8965849 -0.9586116 -0.42571917 -3.021713
000310 bb 30 35 40 80 05 86 be c3 b6 07 c0 f4 f2 38 be
       2.8310993 -0.2617607 -2.12053 -0.1806143
000320 bf 59 97 be 6a 6c c1 3e 71 52 a6 3e 38 97 d0 3e
       -0.29560658 0.37778026 0.32484773 0.4074037
000330 89 fd 31 3e d9 37 69 bf a2 aa 38 bd ee bc 46 bf
       0.17381872 -0.9110084 -0.045084603 -0.77632034
000340 db 8f 1f 3d d0 3d 3f 3d 5f f4 09 bf ac 6c 80 3e
       0.03895555 0.04668981 -0.53888506 0.2508291
000350 c3 7d f1 3d 68 8f 45 3f 7a 4b 2f bf 2b 28 f0 be
       0.11791565 0.77171946 -0.68474543 -0.46905646
000360 99 23 c6 be 5d bb 5e bf d5 d5 46 bf ec 5c 48 3c
       -0.38699034 -0.87004644 -0.7767003 0.012229186
000370 ca 97 7e 3c 7a 9c d8 be 58 a2 25 be b6 8a 59 3e
       0.015539119 -0.42306882 -0.1617521 0.2124432
000380 b6 dd d8 3d e2 4d 60 3e 6e a9 3c c0 0c 6b d5 bf
       0.10589163 0.2190471 -2.9478412 -1.6673293
000390 c4 6e 16 3f 85 b4 38 3f 7b b8 12 40 94 29 0d 3f
       0.58762765 0.7215045 2.2925098 0.5514157
0003a0 31 d2 47 be 78 ea 13 3f a7 68 e6 3e f4 a2 04 c0
       -0.19513775 0.57779646 0.45001718 -2.0724459
0003b0 0c a8 00 3f f7 49 f9 be b5 fc 13 3f 85 98 1c 3e
       0.5025642 -0.48689243 0.57807475 0.15292557
0003c0 29 e8 12 3f cc f4 29 bf 45 3a 7e 3d 61 50 29 3f
       0.573855 -0.66389155 0.06206729 0.66138273
0003d0 0b ce ee be 9f fa 4a c0 0e fc 5e 40 68 b1 5b 3e
       -0.46641573 -3.1715467 3.4841342 0.21454394
0003e0 46 5c df bf a3 3b 0e 3f 49 e0 e4 bf a7 6d b0 be
       -1.7450035 0.5555975 -1.7880946 -0.34458658
0003f0 e6 76 94 be 2c 6a fd be 13 b8 16 bf f7 fd 06 bf
       -0.28996962 -0.49495065 -0.58874625 -0.5273127

layers.2.bias f4 [128]
000000 a7 14 35 3e e9 16 3f bf ba 4f e0 3e 57 87 26 bf
       0.1768366 -0.74644333 0.43810827 -0.6505026
000010 fe 02 3e 3d 55 a2 e1 be 39 b1 83 3e 41 47 cc 3c
       0.046389572 -0.44069162 0.25721148 0.02493632
000020 d2 37 a1 be 60 2d fb 3d 2a f1 54 bf 84 77 f5 bd
       -0.314879 0.12264514 -0.8318049 -0.119856864
000030 78 3e c7 bd bb c1 4d be c7 81 ab bd b3 49 62 bc
       -0.09728712 -0.20093434 -0.083743624 -0.013811517
000040 be d2 56 3d e1 21 ed 3e 92 3d 64 be 1e 23 87 be
       0.052447073 0.4631491 -0.22289112 -0.2639398
000050 e9 36 08 bc e8 54 e0 3c 12 6e dc bd 3c 56 04 bd
       -0.008313873 0.027384236 -0.10763182 -0.032308802
000060 d9 db d8 3e 3a 7f 06 3d 74 e8 ec be 1c 14 1c bd
       0.4235523 0.032836176 -0.46271098 -0.038105115
000070 1f bc 2a bf a1 be 12 3d b2 b9 1f 3e 2f d0 3c bf
       -0.666933 0.03582633 0.15598181 -0.7375516
000080 17 74 b3 3d 51 55 11 be 0b 98 21 bd 08 7b 4d be
       0.08762377 -0.14192702 -0.03945164 -0.20066464
000090 ff 17 d6 3e 3d ae 41 be fe b5 0a 3c e1 d0 20 3e
       0.41815183 -0.18914123 0.008466242 0.15704681
0000a0 36 2f 3d bd e5 d4 d7 3e c3 e0 cb 3c e7 4e 8f bd
       -0.046187602 0.42154613 0.024887448 -0.06997471
0000b0 73 1c 1e bf 9f 50 e1 3c 1e 1d ff bc 14 e9 99 3d
       -0.6176216 0.027504263 -0.031141814 0.07515159
0000c0 00 8e b3 be b0 26 e9 ba 56 82 8c 3e 44 c6 c3 3c
       -0.35069275 -0.0017788019 0.27443188 0.023898251
0000d0 f8 77 b3 3e 05 ec 0e 3e 82 54 50 bf 1e 27 13 bd
       0.35052466 0.13957222 -0.8137895 -0.035925977
0000e0 32 4b 2c bf 7d 56 2e bf 6f 25 09 3c 09 a2 e7 3e
       -0.6730224 -0.6810072 0.008370741 0.4524081
0000f0 25 2b 31 bf 95 a7 78 bd 27 e3 cb 3e c5 5c 3d bd
       -0.6920646 -0.060706694 0.3982174 -0.04623105
000100 79 be c2 3e 6b 4e 2f bf da 53 5f bc f9 54 2d be
       0.38035944 -0.6847903 -0.013630832 -0.16926946
000110 22 e9 15 bd 2e e5 28 be 1c e3 b4 3e a0 8b 3a bf
       -0.036599286 -0.16493675 0.3532952 -0.728693
000120 58 72 82 bd 65 52 0c bf d0 f1 43 bd a7 ce a7 bd
       -0.063694656 -0.54813224 -0.047838032 -0.08193713
000130 67 9b 6d bf e1 8f a2 bd 75 1e e8 3c f5 a5 0b 3e
       -0.9281525 -0.07937599 0.028334836 0.13637526
000140 06 22 c8 be d0 78 f0 be 33 c3 ac 3e 78 ec 97 bb
       -0.39088458 -0.46967173 0.33742675 -0.0046363436
000150 34 dd 8e be fb dd 66 bf 5f 69 56 bf 75 3c e5 3e
       -0.2790314 -0.90182465 -0.83754534 0.44772688
000160 10 e7 ea 3e 3a ea e3 3e 20 8d 1c 3d d1 29 bb 3e
       0.45879412 0.44514638 0.038220525 0.3655534
000170 9c 83 f4 3e b9 e1 9a be b5 49 eb 3e 8b 0f 1c bf
       0.4775666 -0.30250338 0.45954672 -0.60961217
000180 8c 8a d5 bc 88 0a 47 bf 7a 79 75 bd 87 45 8a 3e
       -0.02606704 -0.77750444 -0.059930302 0.2700617
000190 97 9f 36 bf 9e 82 ae bd 84 4f 4a be 43 62 58 bf
       -0.71337265 -0.08521007 -0.19756895 -0.84524935
0001a0 bd 79 89 3d 1a 77 26 bf 29 d8 98 3e 00 ec 9d be
       0.06712673 -0.65025485 0.29852417 -0.30844116
0001b0 4c 1f 0a bf f1 33 9e bd 61 96 b6 3e 07 4e a6 3e
       -0.53954005 -0.07724751 0.35661605 0.32481405
0001c0 80 07 04 3a c4 d0 16 bf dd 3a 1a bd 40 3a f8 3e
       0.0005036518 -0.589123 -0.037653793 0.4848194
0001d0 2c fc af bd f6 7e b7 be 83 5f 3d bf 63 ea a0 be
       -0.0859302 -0.3583905 -0.73973864 -0.31428823
0001e0 25 53 07 bd 86 c0 b9 3e 4d ae ba 3e 11 2e 64 bd
       -0.033038277 0.36279696 0.36461106 -0.055707995
0001f0 8e 0c 23 bf f0 39 98 bd 33 8b 56 bc 9e 04 b1 3d
       -0.6369103 -0.07432926 -0.013094711 0.08643459

layers.4.weight f4 [2, 128]
000000 03 89 d8 3c 8b 23 1a bf 33 55 f0 3e 86 93 bd be
       0.02643252 -0.60210484 0.46940002 -0.37026614
000010 14 a1 91 bc aa bf b2 bf 4b 97 07 3f f1 ef 0d bd
       -0.017777003 -1.3964741 0.5296523 -0.034652654
000020 b5 59 2d bf 6e 36 ed 3e 39 0f 25 bf cc 61 c6 3c
       -0.6771501 0.4633059 -0.6447635 0.024216555
000030 ed 9a b3 bd 39 84 39 3e 00 4d 24 ba 48 02 d9 bc
       -0.08769784 0.18116845 -0.00062675774 -0.026490346
000040 1e 91 0f bd 20 4d e8 3e 6c 21 a5 be 63 cf b9 be
       -0.035050504 0.45371342 -0.3225206 -0.36291036
000050 5b 4e 47 bc f3 d2 93 3d ce fd 8f bc bd 58 90 3c
       -0.0121646775 0.0721797 -0.017577078 0.017620439
000060 ac 99 d6 3e 50 ca b3 3b 58 af 0d c0 9d 35 3e 3d
       0.41914117 0.005486764 -2.2138271 0.04643785
000070 f5 d7 ed bf ee a9 d9 3c fc 28 90 3c 53 1b a0 bf
       -1.858153 0.026570287 0.017597668 -1.2508339
000080 70 43 be bb 5f d0 ba 3e ac cb 56 bd 00 e6 8c 3d
       -0.005806379 0.364871 -0.05244033 0.068798065
000090 27 1b 8f 3e aa 98 26 3e c9 ac 61 be 43 14 11 3e
       0.27950403 0.16269174 -0.22038569 0.14167885
0000a0 61 05 9a 3c 83 3e 0c 3f 63 e7 de 3b e3 45 2f 3d
       0.018801393 0.54782885 0.006802486 0.04279126
0000b0 4b 9a c4 be b9 33 da 3c d0 57 42 bd e7 9b 9a 3e
       -0.38398966 0.026635991 -0.047447026 0.3019707
0000c0 e5 20 a9 bd da 92 05 3d 44 22 3b 3e c2 f2 4b 3d
       -0.08258227 0.03261075 0.1827479 0.04979206
0000d0 b7 99 84 3e 57 ae fc 3e 31 b4 cd be c0 e0 43 bc
       0.25898525 0.4935176 -0.40176538 -0.01195544
0000e0 22 fc 38 c0 bd 83 c0 bf 9c ad a0 bd a9 db f2 3e
       -2.890389 -1.5040203 -0.07845613 0.47433212
0000f0 99 d4 a1 be 83 d4 1b 3e c8 3a 8b 3e 3f f6 17 be
       -0.31607512 0.15217786 0.27193284 -0.14840029
000100 d4 74 6c 3e 25 7f b8 bf 18 5e e7 3c 78 85 aa 3e
       0.23091441 -1.4413801 0.02824311 0.33304954
000110 de 06 f9 3d ab e3 1c 3f c9 5f c1 3e 4d 89 dc be
       0.12159513 0.61284894 0.3776839 -0.43073502
000120 b0 ef af 3b 47 9c 56 bf 52 a5 ac bd c1 22 01 bc
       0.005369149 -0.8383221 -0.0842997 -0.007881821
000130 80 70 f6 3c cd 98 be 3d b1 d4 3e bd 7d 36 74 bd
       0.030082941 0.09306488 -0.046589557 -0.059622277
000140 a4 64 cc be b5 73 ff bf 21 8a 95 3e 96 2e 0b 3d
       -0.39920533 -1.9957186 0.29206946 0.033979975
000150 64 0a 9e 3e a0 d9 68 bf 3c 4f 59 bf a8 7c 9b 3e
       0.30867302 -0.9095707 -0.8488653 0.30368543
000160 44 4a 9b 3e b2 39 e0 3e 6a 85 19 3d 87 8c 03 3f
       0.30330098 0.43794018 0.03748075 0.513863
000170 81 c5 e4 3e b5 ee bf be a8 97 ec 3e b4 8d 3a bf
       0.44681934 -0.37486807 0.46209455 -0.7287247
000180 be 9c 35 3d a0 5c bf bf 7a d6 a1 bb 94 60 1c 3f
       0.044338934 -1.4950142 -0.0049388977 0.61084867
000190 50 32 62 bf 6b 77 00 3d 62 76 15 3e ef 0a 8a be
       -0.8835802 0.031363886 0.1459594 -0.26961467
0001a0 3c 87 1e bc af 72 52 bf c2 d8 22 3f 47 0c be 3e
       -0.009675797 -0.82206243 0.63611996 0.37118742
0001b0 a8 71 42 bf 10 c6 eb bc f5 8d 8e 3e 24 b1 0e 3f
       -0.75954676 -0.028780967 0.2784268 0.55739045
0001c0 6d bc b4 bd 41 c7 2b bf 66 34 6c 3d 20 0d b8 3e
       -0.08825002 -0.6710091 0.05766716 0.35947514
0001d0 04 ad dc 3c ab 34 b2 be df 95 42 c0 f0 9c bd bf
       0.026937969 -0.34805807 -3.0403974 -1.4813519
0001e0 ac f3 ab bd 4d 77 00 3f 84 75 df 3e a6 48 75 3d
       -0.08396086 0.5018204 0.43644345 0.059883736
0001f0 2e c2 8a bf 77 25 91 bf fc 89 dc 3b 18 6f 7d 3d
       -1.0840509 -1.1339558 0.006730316 0.061873525
000200 0d ee d2 3f fc 5c eb bf 9c c7 a2 3e 85 53 31 c0
       1.6478897 -1.8387752 0.31792915 -2.7707226
000210 94 94 c6 3c d1 8e be bf fe 7f bf 3e a7 0e 85 bd
       0.02424077 -1.4887334 0.37402338 -0.06496935
000220 5f 08 0b 3f af e2 17 bf 9e 14 2a c0 12 9f f2 3c
       0.5430965 -0.59330267 -2.6575084 0.029616866
000230 8b 5b 0f 3c 45 79 f4 3c 1e 0f 5b 3d f7 7a 8c bc
       0.008749853 0.029842982 0.053481214 -0.017148478
000240 82 e5 78 bc c9 fa 8d 3e 70 ec 69 3f a0 df 69 3f
       -0.015191438 0.27730396 0.913764 0.9135685
000250 82 da 01 bd 40 33 f4 bb 6f 76 8c bd 24 ab 8d bd
       -0.031702526 -0.0074523985 -0.06858527 -0.06917408
000260 08 61 ba 3e 27 6c 4d be 35 f2 6a bd 27 5d 61 bd
       0.36402154 -0.20060788 -0.057359893 -0.055020478
000270 e8 30 b2 bf 62 0b 24 3d 3c 1a 3c 3f d2 9a 47 3f
       -1.3921175 0.040049918 0.7347753 0.7797061
000280 a0 79 30 bb 24 f7 8e be 0e 16 28 bd e6 c1 9b 3f
       -0.0026927963 -0.27922928 -0.041036658 1.2168548
000290 bb ae 06 3f 06 27 8d 3c f8 fc 84 3f c4 97 00 3f
       0.5261037 0.017230522 1.03897 0.50231576
0002a0 fe 2b a3 bb 86 b1 58 be 2b dd 5c 3f 9d c0 8c bc
       -0.0049796095 -0.2116147 0.86274976 -0.017181689
0002b0 69 33 34 c0 c1 8a 87 bc b8 da 4c 3b 34 76 e7 be
       -2.8156378 -0.016545655 0.0031258296 -0.4520737
0002c0 34 67 6c 3f 28 db 15 bc 3f 78 1d 3f 6a 9f 41 3d
       0.92344975 -0.009146489 0.61511606 0.04727117
0002d0 05 90 06 3f 99 62 0e bf 10 d6 6f bf ef f6 1c 3b
       0.52563506 -0.556192 -0.9368601 0.0023950895
0002e0 0a 2a 63 bf bc 9c ae bf c5 12 4a 3d d4 f3 dd 3e
       -0.8873602 -1.3641582 0.049334306 0.4335009
0002f0 42 67 04 bf 4d 55 62 bf c0 ce 04 3f 3a f0 ff 3d
       -0.5172006 -0.8841141 0.51877975 0.124969915
000300 1e 0c 05 3f e2 31 2a bf af 46 6a bd dc 01 15 bf
       0.51971614 -0.66482365 -0.057196315 -0.5820596
000310 83 9b 62 bf d5 2d f0 3f bd fc 06 3f 4e 92 57 bf
       -0.8851854 1.8763987 0.527294 -0.8420762
000320 37 3e a2 bd 54 13 44 bf f0 46 7f 3c 1f bd 14 3f
       -0.07922023 -0.7659199 0.015580878 0.58101076
000330 79 12 51 bf 37 7a 94 bd 65 48 88 bd 64 c2 a4 3f
       -0.8166881 -0.07249873 -0.06654433 1.2871823
000340 0e 66 1e bf 66 47 ae be d8 99 04 3f 17 83 10 bd
       -0.61874473 -0.34038848 0.51797247 -0.035281267
000350 4e 07 22 bf db 8f 32 c0 7d c9 2c c0 b5 71 fa 3e
       -0.63292396 -2.7900302 -2.6997979 0.48914877
000360 11 d2 01 3f a2 c5 c0 3e 17 ac 63 3c 58 06 b6 3e
       0.5071116 0.37650782 0.01389601 0.35551715
000370 57 cc de 3e 4d fa 51 3d d6 d7 f8 3e bc a1 90 3e
       0.43515274 0.051264096 0.4860217 0.28248394
000380 1f a6 b4 3c 27 25 3a bf f1 20 01 bd 99 ec 93 be
       0.022051869 -0.7271294 -0.031525556 -0.28891447
000390 ea 2c dd bf 89 d2 5f bd f5 3d a5 3b c6 64 a7 3f
       -1.7279332 -0.05464414 0.0050427862 1.3077629
0003a0 97 30 05 3f 15 98 93 bf 84 bc 73 3e 45 e0 8a bf
       0.5202727 -1.1530787 0.23802382 -1.0849692
0003b0 d3 21 49 bf 5a 0c 7f bc 4f 44 01 3f 3c 0d 24 3f
       -0.78567237 -0.01556691 0.50494856 0.64082694
0003c0 c0 85 7d bd 75 ce b1 be a5 8e 3b 3d b8 47 d8 3e
       -0.061895132 -0.34727827 0.045790333 0.42242217
0003d0 ad 16 81 3d ee 71 21 bf e3 b9 c2 bf 15 3b bb be
       0.06303153 -0.6306447 -1.5212978 -0.36568514
0003e0 0c 97 1f 3d d8 c4 af 3e 65 fb d2 3e 5a 15 dd bc
       0.03896241 0.34329867 0.41207424 -0.02698772
0003f0 9a b1 b2 bf a8 4c fa 3e 92 1a 5e 3c 36 d4 1c 3f
       -1.396045 0.4888661 0.01355614 0.6126131

layers.4.bias f4 [2]
000000 c9 cc ce 3e e9 df 89 3e
       0.40390614 0.26928642
