ddqn_models/inv/ddqn_800_1.0.pth (torch_old, 69813 bytes, 6 tensors)

layers.0.weight f4 [128, 2]
0	0xbe59b340	-0.21259785
1	0xbee3f866	-0.4452545
2	0x3f8507ac	1.0392966
3	0xbfaa4b95	-1.3304316
4	0x3d9b64e8	0.07587606
5	0xbe179960	-0.14804602
6	0x3f654db4	0.8957169
7	0x3f3d5e8d	0.739724
8	0x3f6903f6	0.9102167
9	0x3f5c4572	0.86043465
10	0xbe0e7f04	-0.1391564
11	0xbdf14d74	-0.11782351
12	0x3d1542c4	0.036440626
13	0x3e5c375f	0.21505497
14	0x3e970a7f	0.29500195
15	0x3f78b3bb	0.97149247
16	0xbf48a587	-0.78377575
17	0xbe2a8732	-0.16653135
18	0xbf921063	-1.1411251
19	0xbf815abc	-1.0105815
20	0xc0053d29	-2.081858
21	0x3d8b6fb7	0.06808417
22	0xbe607cd8	-0.21922624
23	0x3cc804eb	0.024416408
24	0xbc3d7455	-0.01156338
25	0x3eff30e3	0.49841985
26	0xbef95449	-0.48697117
27	0xbecf1f1e	-0.40453428
28	0xbfe602ab	-1.7969564
29	0x3d72ed05	0.05930807
30	0x3f8d188d	1.1023117
31	0x3f6c9bd7	0.9242529
32	0x3f9f119c	1.2427249
33	0x3faf26be	1.3683698
34	0xbbac7b80	-0.005263746
35	0xbe0f2300	-0.13978195
36	0x3e839b09	0.2570422
37	0x3d08949b	0.033344846
38	0x3e8bcebb	0.2730616
39	0x3e0699c3	0.13144593
40	0xbe5b8e28	-0.21440947
41	0xbef54266	-0.4790222
42	0x3f3428d8	0.7037482
43	0xbee179fc	-0.4403838
44	0xbeae1f3c	-0.34008205
45	0x3ed9ebfd	0.42562857
46	0x3eae8290	0.34083986
47	0x3dd4c234	0.10388604
48	0xbee14852	-0.4400049
49	0x3fa83a9b	1.3142885
50	0xbeb23324	-0.34804642
51	0xbe923350	-0.28554773
52	0xbda65e66	-0.08123474
53	0xbf0f586d	-0.559943
54	0x3e6299cc	0.22128981
55	0x3f4627a8	0.7740426
56	0xbd89e210	-0.06732571
57	0x3f0e5650	0.5560045
58	0x3f6bae9b	0.920633
59	0x3f18d481	0.59699255
60	0xbe634ae6	-0.2219654
61	0xbf03466c	-0.5127933
62	0xbea778cd	-0.3270935
63	0x3e42020f	0.18946098
64	0x3f45b301	0.77226263
65	0x3fbb2986	1.4622047
66	0xbdff3caf	-0.12462746
67	0x3cd79357	0.026315374
68	0xbd41047d	-0.04712342
69	0xbf8312ba	-1.024009
70	0x3f79a7b7	0.9752154
71	0x3e23aecf	0.15984653
72	0x3c1fac80	0.009745717
73	0xbdf635e8	-0.120220006
74	0xbf8d905a	-1.1059678
75	0xbf099bd3	-0.53753394
76	0x3f265506	0.64973485
77	0xbebce2cc	-0.36891782
78	0xbe34086d	-0.17581339
79	0xbdefada6	-0.11703043
80	0x3d4e32c1	0.05034137
81	0x3e94422b	0.28956732
82	0xbf08d6e1	-0.5345288
83	0xbf9c3804	-1.2204595
84	0x3d181341	0.037127737
85	0x3e3c6f77	0.18401895
86	0x3f57cc04	0.8429568
87	0x3f66766f	0.90024465
88	0x3eb86361	0.3601332
89	0xbdd80cbf	-0.10549306
90	0x3df260b7	0.11834853
91	0x3e7a18e5	0.24423559
92	0x3f3656e6	0.71226346
93	0x3e5ee51d	0.21767087
94	0xbe51d0dd	-0.20489831
95	0xbf33385d	-0.7000788
96	0xbfac9e11	-1.3485738
97	0xbd87ed76	-0.06637089
98	0xbe6db600	-0.23213959
99	0xbfbbee20	-1.4682045
100	0x3fcc45c0	1.5958786
101	0xbfa2d97f	-1.2722625
102	0x3ded347c	0.11582276
103	0x3e9d5b7a	0.30733854
104	0x3e6e85c9	0.23293222
105	0xbd980ef3	-0.07424726
106	0xbea8d310	-0.32973528
107	0x3f822821	1.0168496
108	0x3f6a21e5	0.9145797
109	0x3ebba68a	0.36650497
110	0x3e14fe3d	0.14550109
111	0x3e8bcdfc	0.2730559
112	0xbf35141c	-0.7073381
113	0xbe26609a	-0.16247788
114	0xbfb47ea8	-1.4101152
115	0xbe09504f	-0.13409542
116	0x3f42364b	0.75864094
117	0x3f3e09c2	0.7423364
118	0xbf12d893	-0.57361716
119	0xbf98965f	-1.192089
120	0x3f18da3d	0.59708005
121	0xbe19090d	-0.14944859
122	0x3e5c25c3	0.2149878
123	0xbeb6e19e	-0.35719007
124	0x3d9af3a4	0.07566002
125	0x3ea95e0f	0.33079574
126	0xbf38510e	-0.7199868
127	0xbf369cea	-0.7133318
128	0x3f517f40	0.81834793
129	0xbf4b8e6b	-0.7951419
130	0xbf317683	-0.6932146
131	0x3e9d7ec5	0.3076078
132	0x3e86707a	0.26257688
133	0xbc9389cf	-0.018010048
134	0xbe66c8ee	-0.22537586
135	0xbeeafe23	-0.45897016
136	0x3f280794	0.65636563
137	0x3e507509	0.20357145
138	0x3e4a58ab	0.19760387
139	0x3eabb2ff	0.33535
140	0xbdd4d06e	-0.10391317
141	0x3d77bcd4	0.060482815
142	0x3ec5ab51	0.38607267
143	0x3d8512e2	0.06497742
144	0x3e97262b	0.29521307
145	0x3e405f5b	0.18786375
146	0xbf988f68	-1.1918764
147	0xbfa5172f	-1.28977
148	0x3fada4b8	1.3565893
149	0x3f9f0de1	1.242611
150	0x3f758a03	0.95913714
151	0x3dd6d62f	0.10490071
152	0x3f5b1da0	0.8559208
153	0xbf9c7d97	-1.2225827
154	0xbf1e83d9	-0.61919934
155	0xbf93a69a	-1.1535218
156	0xbef89686	-0.4855234
157	0x3fcee8fa	1.6164849
158	0x3d135a43	0.035974752
159	0x3e9831bc	0.29725444
160	0xbf04a7a7	-0.5181832
161	0x3fa05c8f	1.2528247
162	0xbf07da4e	-0.5306748
163	0x3fd1f45d	1.6402699
164	0xbe177f1e	-0.14794585
165	0xbe8ff212	-0.28114372
166	0x3f2767bf	0.6539268
167	0x3f482c52	0.7819263
168	0xbf8ad21b	-1.0845369
169	0xbe067afa	-0.1313285
170	0x3f6a5510	0.91536045
171	0x3f731042	0.9494668
172	0x3db49c64	0.08818892
173	0x3e91946a	0.28433543
174	0xbe514abe	-0.20438668
175	0x3f4b5e4f	0.7944078
176	0x3d499898	0.04921779
177	0x3e6c389f	0.23068474
178	0xbf285fbc	-0.6577108
179	0x3fb3cb58	1.404643
180	0x3c47eea4	0.012202892
181	0x3d9fa5aa	0.0779527
182	0xbfab6e5c	-1.3393054
183	0xbea83791	-0.32854894
184	0xbdcc0949	-0.099627085
185	0xbf9e0636	-1.2345645
186	0xbfeebc80	-1.8651276
187	0x3f1a7fa9	0.60351044
188	0x3dfb8fcc	0.122832865
189	0x3ee78d1c	0.45224845
190	0x3f2eff0e	0.6835793
191	0xbf39dd3a	-0.7260319
192	0xbfd42e1f	-1.6576575
193	0xbf2e89c4	-0.68178964
194	0xbf48a7b7	-0.7838091
195	0xbdfde5d8	-0.12397355
196	0xbe422be2	-0.18962052
197	0xbeefe810	-0.46856737
198	0xbf1874d0	-0.5955324
199	0xbf00596a	-0.50136435
200	0x3f45544b	0.77081746
201	0x3fb00725	1.375218
202	0x3f37b09c	0.7175386
203	0x3faa84c9	1.3321773
204	0x3f612278	0.8794322
205	0x3e2654a9	0.16243233
206	0x3fd33d3b	1.6503061
207	0x3fc80af7	1.5628346
208	0xbf4c8f47	-0.79906124
209	0x3fcf22f3	1.6182541
210	0x3f71f157	0.9450888
211	0x3f9f1a83	1.2429966
212	0xbeba437b	-0.3637961
213	0x3e52648b	0.20546167
214	0x3f33a15c	0.7016809
215	0xbea60695	-0.32426897
216	0xbf6d5141	-0.9270211
217	0xbf950b9f	-1.1644171
218	0x3f921b65	1.141461
219	0x3f4a3f72	0.7900306
220	0x3fe186d2	1.7619269
221	0x3e7104be	0.23536965
222	0xbf92b25e	-1.1460683
223	0x3e8088f5	0.2510449
224	0x3fa1f2b9	1.2652198
225	0x3f5ad065	0.85474235
226	0x3d272e30	0.040815532
227	0x3eda89b1	0.42683175
228	0x3f8a06e8	1.0783358
229	0xbf4dd42a	-0.8040186
230	0x3fe4bf8d	1.7870957
231	0x3fc8717c	1.5659633
232	0xbfa55066	-1.2915161
233	0xbea532ca	-0.3226531
234	0xbe9b89aa	-0.30378467
235	0x3d1c100c	0.03810124
236	0x3f68051f	0.90632814
237	0x3e2f1d8f	0.1710112
238	0xbf33cd70	-0.7023535
239	0xbf45834f	-0.77153486
240	0xbe0b9882	-0.13632396
241	0xbdd0911c	-0.101839274
242	0xbe601815	-0.21884187
243	0x3ee2b6f1	0.44280198
244	0x3e45d902	0.19321063
245	0xbf5a9aa9	-0.8539224
246	0xbea7644e	-0.32693714
247	0x3f315a1f	0.6927814
248	0x3fb46a2c	1.4094901
249	0xbe2022da	-0.15638295
250	0xbeb931a1	-0.36170676
251	0xbf987a29	-1.191228
252	0x3df4cf72	0.119536296
253	0x3e981e16	0.29710454
254	0x3d398564	0.045293227
255	0x3ea33e2b	0.31883368

layers.0.bias f4 [128]
0	0x3f625565	0.8841155
1	0x3e21cd78	0.15801036
2	0xbef14b58	-0.47127795
3	0xbfbb50ba	-1.4634011
4	0xbf9f7940	-1.2458878
5	0xbf11e68a	-0.569924
6	0x3f0895d7	0.5335364
7	0xbfd5ef39	-1.671363
8	0xbfce19e7	-1.6101655
9	0xbf1312ad	-0.5745037
10	0xbdb47f64	-0.0881336
11	0x3f5c4e7b	0.8605725
12	0xbf8581c9	-1.0430232
13	0x3f3a5849	0.7279096
14	0xbef3ff1d	-0.47655573
15	0x3d226e1f	0.0396558
16	0x3d8dd941	0.069262035
17	0xbf233a85	-0.6376117
18	0x3f60c0e7	0.87794346
19	0x3f3a4790	0.72765446
20	0x3f614c8e	0.8800744
21	0x3f01aee2	0.50657475
22	0xbfb64464	-1.4239621
23	0x3f746084	0.9545977
24	0xbde9a192	-0.1140777
25	0x3eeb7076	0.45984238
26	0xbf9d137e	-1.2271574
27	0xbfaca28d	-1.3487107
28	0xbf9c63c0	-1.2217941
29	0xbf968ded	-1.1762062
30	0x3c55f8b1	0.013059781
31	0xbf821cf7	-1.0165089
32	0x3d956737	0.07295077
33	0x3f34c1bb	0.7060811
34	0xbb526808	-0.0032105464
35	0xbff541c1	-1.9160691
36	0xbf0c590d	-0.5482338
37	0xbf8c4189	-1.09575
38	0x3f0be043	0.5463907
39	0x3f89cd59	1.0765792
40	0x3f324956	0.6964315
41	0xbd11848c	-0.035526797
42	0x3ee593dc	0.4483937
43	0xbfaf6a30	-1.3704281
44	0xbf8700c7	-1.0547112
45	0x3f226e6c	0.6344974
46	0xbfc35244	-1.525948
47	0x3eaf72d2	0.34267288
48	0xbf5eab0e	-0.8697976
49	0xbd93cac5	-0.072164096
50	0xbde1f4bf	-0.1103301
51	0x3f2fb0e9	0.6862932
52	0xbf2e7bd3	-0.6815769
53	0x3f3b5408	0.73175097
54	0x3efaf27e	0.49013132
55	0x3f34f1b3	0.70681304
56	0xbfbbcf14	-1.467257
57	0xbe892135	-0.26783147
58	0xbf952c44	-1.1654134
59	0x3c1d02f0	0.00958322
60	0x3f019beb	0.50628537
61	0xbf8eb5de	-1.1149251
62	0x3f60f384	0.87871575
63	0xbfa4f300	-1.2886658
64	0xbf2a4ef3	-0.66526717
65	0xbf43f166	-0.7654022
66	0x3f6f0ecf	0.9338197
67	0x3f61931e	0.8811511
68	0xbfb6151a	-1.422519
69	0x3f6a3755	0.9149068
70	0x3f29603e	0.6616248
71	0x3f6bf722	0.9217397
72	0x3f7303bd	0.9492758
73	0xbe0a2768	-0.13491595
74	0x3d88cd23	0.06679752
75	0x3ecd4326	0.40090293
76	0x3e0c4ea9	0.13701881
77	0x3e2fc8c3	0.17166428
78	0xbdbbc9d1	-0.09169353
79	0x3f34621a	0.7046219
80	0xbea9b0cd	-0.331427
81	0xbf1ba753	-0.6080219
82	0xbd7ba7ba	-0.061439253
83	0x3ed5d26d	0.41762105
84	0xbfc6ecd9	-1.554103
85	0xbf98c6bf	-1.1935652
86	0x3f1cb510	0.6121378
87	0xbfa84714	-1.3146691
88	0x3f059a74	0.521888
89	0xbc886846	-0.016651284
90	0x3e81c9fe	0.2534942
91	0xbf879404	-1.0592046
92	0xbea69d52	-0.325419
93	0xbf10baac	-0.5653484
94	0x3f69b7b5	0.9129594
95	0x3d3e369f	0.04643881
96	0xbe29bf89	-0.16576971
97	0xbfc80912	-1.5627768
98	0x3f5f236c	0.87163424
99	0x3f670e9b	0.9025666
100	0xbf0a907f	-0.54126734
101	0xbf5427b8	-0.82873106
102	0xbfe387e7	-1.7775849
103	0x3aa2d64a	0.0012423482
104	0xbcac81ad	-0.021057928
105	0xbe5c50bb	-0.21515171
106	0xbf8b8325	-1.0899397
107	0x3d89b290	0.06723511
108	0xbf4511c3	-0.7698023
109	0x3d2d50e8	0.042313486
110	0xbe923a75	-0.28560224
111	0xbf8643ce	-1.0489442
112	0xbeb0cf65	-0.3453323
113	0x3f6b4ad5	0.9191106
114	0xbeefa416	-0.46804875
115	0x3ddd83d5	0.108161606
116	0xbf4e5458	-0.8059745
117	0x3f864573	1.0489944
118	0xbfe9ae57	-1.8256329
119	0xbfce6c79	-1.6126853
120	0x3f7817f4	0.9691155
121	0xbfad5d71	-1.3544141
122	0x3d839627	0.06425124
123	0xbfb30111	-1.39847
124	0xbe4e4b9f	-0.20146035
125	0x3b7290ab	0.0037012498
126	0x3f46b3fa	0.7761837
127	0xbf4639a2	-0.7743169

layers.2.weight f4 [128, 128]
0	0xbe2a1d46	-0.1661273
1	0xbf9bc403	-1.2169193
2	0xbcf6d694	-0.030131616
3	0xbe962b7e	-0.29330057
4	0x3ef34751	0.47515348
5	0x3daaafcb	0.08334311
6	0x3e86ed3a	0.26352865
7	0xbef597d6	-0.47967404
8	0xbdf5f60b	-0.120098196
9	0x3f7392fa	0.95146143
10	0xbefa7b7f	-0.48922345
11	0x3e58125e	0.21100757
12	0xbe2b4e11	-0.16728999
13	0xbe5f2a3f	-0.2179346
14	0xbe4e882b	-0.20169131
15	0x3ed8aba9	0.42318466
16	0x3ef6bfa4	0.48193085
17	0xbda7df34	-0.081968695
18	0x3dddb35e	0.10825227
19	0x3e6da119	0.23205985
20	0xbe5e0175	-0.21680243
21	0xbef010b8	-0.46887755
22	0x3eb56cec	0.35434663
23	0x3e2aa1c0	0.16663265
24	0x3ecd524a	0.40101844
25	0xbe76f462	-0.24116662
26	0x3c925bf0	0.017866105
27	0xbf639cda	-0.8891121
28	0x3d9aa608	0.07551199
29	0x3f98f5a3	1.1949962
30	0xbff7c03a	-1.9355538
31	0xbd1b9fa0	-0.037994027
32	0x3e5de0a4	0.21667725
33	0x3e664796	0.22488245
34	0x3fdb2d67	1.7123231
35	0x3e4527b4	0.19253427
36	0xbd9c9f2a	-0.07647546
37	0xbf7e0464	-0.9922545
38	0xbe2c5e2b	-0.16832797
39	0x3e304575	0.17213996
40	0x3e3dc074	0.18530446
41	0xc05b0be5	-3.422601
42	0x3e83bdbd	0.25730696
43	0x3f06eedd	0.52708226
44	0xbf239070	-0.6389227
45	0x3e3ebf6f	0.18627714
46	0xbf8d2085	-1.1025549
47	0xbea721d1	-0.32642987
48	0xbd93f354	-0.072241455
49	0xc077012f	-3.8594472
50	0xbfd7c738	-1.6857672
51	0x3e40147e	0.18757817
52	0xbf889289	-1.0669719
53	0x3e9c06cd	0.3047394
54	0x3e8097f8	0.25115943
55	0x3e9c72cf	0.30556342
56	0xbf3ffa87	-0.7499165
57	0xbf3f215b	-0.7466027
58	0x3f57a9c8	0.8424344
59	0x3fbaaceb	1.458402
60	0xbece6258	-0.40309405
61	0xbe8334bc	-0.2562617
62	0x3e7d2274	0.24720174
63	0xbfcee63e	-1.6164014
64	0xc0457059	-3.0849822
65	0x3dfb21b8	0.12262291
66	0x3e17c60a	0.1482164
67	0xbe34319c	-0.1759705
68	0xbfff656e	-1.9952829
69	0x3e91f2f4	0.2850567
70	0x3e772ad6	0.24137434
71	0x3e2888f8	0.164585
72	0x3e55dd1e	0.20885131
73	0xbf8898cb	-1.0671629
74	0x3f077d9a	0.5292603
75	0x3eb99c5c	0.36252105
76	0xbea500fd	-0.32227316
77	0xbf990f25	-1.1957747
78	0x3e482b4e	0.1954777
79	0x3ea1211f	0.31470582
80	0x3e99328a	0.2992137
81	0x3e9cc50e	0.3061909
82	0xbf623bcf	-0.8837251
83	0x3eaa6cae	0.3328604
84	0xbfb94b48	-1.4476099
85	0x3f6d3119	0.9265304
86	0x3e5f2ab1	0.21793629
87	0xbedebd3b	-0.43503746
88	0x3e760e7d	0.24028964
89	0x3f0c1971	0.5472632
90	0x3ea09608	0.31364465
91	0x3e5f1019	0.21783485
92	0x406f5908	3.739809
93	0xbefc4ec8	-0.49278855
94	0x3e5f76a5	0.21822603
95	0xbf5d8cfc	-0.8654325
96	0xbf024fcd	-0.50903016
97	0xbfabf8ae	-1.3435266
98	0xbe6d83e5	-0.23194845
99	0xbdec759a	-0.11545868
100	0xbe919448	-0.28433442
101	0xbecb57e8	-0.39715505
102	0xbeab1741	-0.3341618
103	0x3ede9812	0.43475395
104	0x3f25e5d0	0.6480379
105	0xbe2b7624	-0.16744286
106	0xbeb2687b	-0.34845337
107	0x3f5d873f	0.86534494
108	0xbf19fa7d	-0.6014784
109	0x3dcc1264	0.09964445
110	0xc00b4e2d	-2.1766465
111	0x3f774d2f	0.9660215
112	0xbf9df8a7	-1.2341508
113	0x3ebc4628	0.36772275
114	0xbf47609b	-0.77881783
115	0x3f8843de	1.0645711
116	0xbeacbf8f	-0.33739898
117	0x3e2d6e34	0.1693657
118	0xbf576f75	-0.84154445
119	0xbfb93a03	-1.4470829
120	0x3e5890ad	0.2114894
121	0x3e778529	0.2417189
122	0x3fca4d92	1.5804923
123	0xbf990c4e	-1.195688
124	0xc01913e7	-2.3918397
125	0x40543afb	3.3161
126	0x3e6e8be1	0.23295547
127	0xbe88dc62	-0.2673064
128	0xc0093fe4	-2.1445246
129	0xbd9dd463	-0.07706525
130	0x3d116e42	0.03550554
131	0x3f2a82e2	0.6660596
132	0x3f259f86	0.6469654
133	0x3dab740f	0.08371746
134	0xbf5be543	-0.858967
135	0x3efa4e04	0.48887646
136	0xbc3cede1	-0.011531324
137	0x3f238ea0	0.63889503
138	0xbf3b7da3	-0.7323858
139	0xc042df20	-3.0448685
140	0x3f689c25	0.9086326
141	0xbfb9df68	-1.4521303
142	0xbedc8970	-0.43073606
143	0xbe68a0d1	-0.22717597
144	0x3f1f5238	0.6223483
145	0xbc1c9820	-0.009557754
146	0xbef4d51e	-0.47818846
147	0xbe401784	-0.1875897
148	0xc0407b2c	-3.0075178
149	0x3de89e7e	0.11358355
150	0x3f080fd3	0.53149146
151	0xbea3eea1	-0.32017997
152	0xbfaf6c3e	-1.3704908
153	0xbf013f1a	-0.5048691
154	0x3f872f1d	1.0561253
155	0x3f09279b	0.5357606
156	0x3ee4cd20	0.44687748
157	0x3e98a477	0.29812977
158	0xbf350f68	-0.70726633
159	0x3edb1d69	0.42795876
160	0x3ebf436b	0.37356123
161	0xc01e8f20	-2.4774857
162	0xbf569101	-0.8381501
163	0x3e8e793e	0.27826875
164	0xbd4ed9f7	-0.050500836
165	0xbe82c835	-0.2554337
166	0x3e578011	0.21044947
167	0xbff38c99	-1.9027282
168	0xbf5128da	-0.8170296
169	0x3b28876f	0.002571549
170	0xbf66d05b	-0.90161675
171	0x3f34f2ae	0.706828
172	0x3ee5fa29	0.4491742
173	0xbf3314fe	-0.69953907
174	0x405018a3	3.2515037
175	0xbf1fa212	-0.62356675
176	0xbd23053a	-0.039799906
177	0x3d136349	0.035983358
178	0x3e394920	0.18094301
179	0xbf199523	-0.5999319
180	0xbdc2696a	-0.094927624
181	0xbf2d4a0c	-0.6769111
182	0xbdb23866	-0.087021634
183	0xbf16246a	-0.58649313
184	0xbea9180b	-0.33026156
185	0xbd550505	-0.05200674
186	0x3da3f9d0	0.08006632
187	0xbe13ae69	-0.14422001
188	0x3d778e6d	0.060438562
189	0x3f157c72	0.58393013
190	0xbf5cd4df	-0.86262316
191	0xbe0404bf	-0.12892435
192	0xbf658697	-0.8965849
193	0xbf756792	-0.9586116
194	0xbeeef7ca	-0.46673423
195	0xc04163bf	-3.021713
196	0x40385e64	2.8807611
197	0xbe967e62	-0.29393297
198	0xc00a03db	-2.1564853
199	0xbe60195a	-0.21884671
200	0xbea89ad4	-0.32930624
201	0x3ec16c6a	0.37778026
202	0x3e990291	0.2988477
203	0x3ebe68fd	0.37189475
204	0x3d5701f4	0.052492097
205	0xbf6937d9	-0.9110084
206	0xbd6508e2	-0.055916674
207	0xbf4e9213	-0.8069164
208	0x3d0ab839	0.033867095
209	0x3d1c8cbc	0.038220152
210	0xbf09f45f	-0.53888506
211	0x3e63b143	0.22235589
212	0x3df17dc3	0.11791565
213	0x3f3ec883	0.74524707
214	0xbf370389	-0.7148977
215	0xbee0298c	-0.43781698
216	0xbed59391	-0.41714147
217	0xbf5abede	-0.8544749
218	0xbf4f5cf7	-0.8100123
219	0x3c485cec	0.012229186
220	0x3c7e97ca	0.015539119
221	0xbed89c7a	-0.42306882
222	0xbe42e8bc	-0.19034094
223	0x3db9ea36	0.09077875
224	0x3dd8ddb6	0.10589163
225	0x3e604de2	0.2190471
226	0xc03ca96e	-2.9478412
227	0xbfd56b0c	-1.6673293
228	0x3f10830f	0.5644998
229	0x3f336437	0.7007479
230	0x401154fc	2.270812
231	0x3f06501a	0.52465975
232	0xbe3d4378	-0.18482769
233	0x3f0d39d9	0.55166394
234	0x3ee668a7	0.45001718
235	0xc00de5a1	-2.2171404
236	0x3f00a80c	0.5025642
237	0xbf02b623	-0.5105917
238	0x3f0a5a36	0.540439
239	0x3e1c9885	0.15292557
240	0x3f0b2756	0.54356897
241	0xbf319ce2	-0.6938001
242	0xbd6daf00	-0.05802822
243	0x3f22514d	0.63405305
244	0xbeeece0b	-0.46641573
245	0xc04d8174	-3.2110262
246	0x405da458	3.4631557
247	0x3e5bb168	0.21454394
248	0xbfe67bc6	-1.8006523
249	0x3f0e3ba3	0.5555975
250	0xbfe4e049	-1.7880946
251	0xbe8fdae5	-0.2809669
252	0xbeb6aa18	-0.35676646
253	0xbefd6a2c	-0.49495065
254	0xbf1eb806	-0.6199955
255	0xbf06fdf7	-0.5273127

layers.2.bias f4 [128]
0	0x3e3b1906	0.18271264
1	0xbf49daf2	-0.7884971
2	0x3ee55042	0.44787794
3	0xbf444ed3	-0.76682776
4	0x3d3e02fe	0.046389572
5	0xbf06fa50	-0.52725697
6	0x3e8569b9	0.26057222
7	0x3ccc4741	0.02493632
8	0xbea137d2	-0.314879
9	0x3df3e82f	0.1190952
10	0xbf766521	-0.9624806
11	0xbdf57784	-0.119856864
12	0xbdc73e78	-0.09728712
13	0xbe4dc1bb	-0.20093434
14	0xbdec8fa0	-0.11550832
15	0xbc6249b3	-0.013811517
16	0x3d56d2be	0.052447073
17	0x3ef17df5	0.4716641
18	0xbe643d92	-0.22289112
19	0xbe87231e	-0.2639398
20	0xbc0836e9	-0.008313873
21	0xbb8d1a10	-0.0043060854
22	0xbddc6e12	-0.10763182
23	0xbd04563c	-0.032308802
24	0x3edd0ba3	0.4317294
25	0x3d067f3a	0.032836176
26	0xbf2ba0d4	-0.6704228
27	0xbd1c141c	-0.038105115
28	0xbf29e0cc	-0.6635864
29	0x3d12bea1	0.03582633
30	0xbc8ed87e	-0.017437216
31	0xbf2b7a9f	-0.6698398
32	0x3d6998db	0.05703054
33	0xbdb67e6f	-0.08910834
34	0xbd21980b	-0.03945164
35	0xbe4d7b08	-0.20066464
36	0x3ed6c3d6	0.41946286
37	0xbe41ae3d	-0.18914123
38	0xbe0e6fe8	-0.13909876
39	0x3e0ed9c9	0.13950266
40	0xbd3d2f36	-0.046187602
41	0x3edfd8de	0.43720144
42	0xbe0dd40b	-0.13850419
43	0xbd8f4ee7	-0.06997471
44	0xbf3e533d	-0.7434576
45	0x3ce1509f	0.027504263
46	0xbcff1d1e	-0.031141814
47	0x3e2de0c9	0.1698028
48	0xbeb38e00	-0.35069275
49	0xbae926b0	-0.0017788019
50	0x3e80373c	0.2504214
51	0x3cc3c644	0.023898251
52	0x3eb23954	0.34809363
53	0x3e33a623	0.17543845
54	0xbf36cc65	-0.7140563
55	0xbd13271e	-0.035925977
56	0xbf3d44fa	-0.73933375
57	0xbf31b7a7	-0.69420856
58	0x3c09256f	0.008370741
59	0x3eed836c	0.4638933
60	0xbf334a1f	-0.70034975
61	0xbd78a795	-0.060706694
62	0x3ecba6f5	0.39775816
63	0xbd3d5cc5	-0.04623105
64	0x3ebd731a	0.37001878
65	0xbf27ac34	-0.65497136
66	0xbd39f1b2	-0.045396514
67	0xbe2d54f9	-0.16926946
68	0xbdae0b5b	-0.0849826
69	0xbe75a1dd	-0.23987527
70	0x3eb96404	0.36209118
71	0xbf3a8ba0	-0.728693
72	0xbd827258	-0.063694656
73	0xbf0c5265	-0.54813224
74	0xbd43f1d0	-0.047838032
75	0xbda7cea7	-0.08193713
76	0xbf7a6464	-0.97809434
77	0xbda28fe1	-0.07937599
78	0x3ce81e75	0.028334836
79	0x3e05e29f	0.1307473
80	0xbec82206	-0.39088458
81	0xbef4dcbd	-0.4782466
82	0x3eab145c	0.3341397
83	0xbb97ec78	-0.0046363436
84	0xbe8edd34	-0.2790314
85	0xbf87a487	-1.0597085
86	0xbf7ffac2	-0.99992
87	0x3ee53c12	0.44772393
88	0x3eea0716	0.4570853
89	0x3ee8adad	0.45445004
90	0x3d1c8d20	0.038220525
91	0x3ec1de06	0.37864703
92	0x3efa7485	0.48917022
93	0xbe9ae1b9	-0.30250338
94	0x3ef0c65d	0.4702634
95	0xbf1c0f8b	-0.60961217
96	0xbcd58a8c	-0.02606704
97	0xbf3f6347	-0.7476086
98	0xbd75797a	-0.059930302
99	0x3e959c8c	0.29220998
100	0xbf40525c	-0.7512567
101	0xbdae829e	-0.08521007
102	0xbe4a4f84	-0.19756895
103	0xbf69e4d5	-0.91364795
104	0xbdb749ec	-0.08949646
105	0xbf13e252	-0.5776721
106	0x3e99c44e	0.3003258
107	0xbec54d4b	-0.38535532
108	0xbf0a1f4c	-0.53954005
109	0xbd9e33f1	-0.07724751
110	0x3eb51123	0.35364637
111	0x3eac91a2	0.3370486
112	0xbcffdcb9	-0.031233178
113	0xbf0f6774	-0.5601723
114	0xbd1a3add	-0.037653793
115	0x3ef9750c	0.48722112
116	0xbdaffc2c	-0.0859302
117	0xbeb77ef6	-0.3583905
118	0xbf371083	-0.7150957
119	0xbeb879bd	-0.3603038
120	0xbd075325	-0.033038277
121	0x3ebfb51b	0.3744286
122	0x3ebecce1	0.37265685
123	0xbd642e11	-0.055707995
124	0xbf230c8e	-0.6369103
125	0xbdcca670	-0.09992683
126	0xbd379e69	-0.044828806
127	0x3dbe33ae	0.09287201

layers.4.weight f4 [2, 128]
0	0x3d52aaa2	0.05143226
1	0xbf1a238b	-0.60210484
2	0x3eebce95	0.46056047
3	0xbee0956e	-0.43864006
4	0xbc91a114	-0.017777003
5	0xbfaddf4b	-1.3583769
6	0x3f018cd9	0.5060554
7	0xbd0deff1	-0.034652654
8	0xbf2d59b5	-0.6771501
9	0x3ed93644	0.42424214
10	0xbf36ee86	-0.7145771
11	0x3cc661cc	0.024216555
12	0xbdb39aed	-0.08769784
13	0x3e398439	0.18116845
14	0xba244d00	-0.00062675774
15	0xbcd90248	-0.026490346
16	0xbd0f911e	-0.035050504
17	0x3ee3c4f1	0.44486192
18	0xbea5216c	-0.3225206
19	0xbeb9cf63	-0.36291036
20	0xbc474e5b	-0.0121646775
21	0x3d93d2f3	0.0721797
22	0xbc8ffdce	-0.017577078
23	0x3c9058bd	0.017620439
24	0x3ed248a0	0.41071033
25	0x3bb3ca50	0.005486764
26	0xc0141aed	-2.3141434
27	0x3d3e359d	0.04643785
28	0xbfedd7f5	-1.858153
29	0x3cd9a9ee	0.026570287
30	0x3d2183b5	0.039432246
31	0xbfac5618	-1.3463774
32	0xbbbe4370	-0.005806379
33	0x3e4f65a1	0.20253612
34	0xbd56cbac	-0.05244033
35	0x3d8ce600	0.068798065
36	0x3e8a9d6e	0.27073234
37	0x3e2698aa	0.16269174
38	0xbe32518f	-0.17413925
39	0x3dcf2e88	0.10116297
40	0x3c9a0561	0.018801393
41	0x3f0b0321	0.5430165
42	0x3c53634e	0.012902094
43	0x3d2f45e3	0.04279126
44	0xbee57626	-0.44816703
45	0x3cda33b9	0.026635991
46	0xbd4257d0	-0.047447026
47	0x3e263580	0.16231346
48	0xbda920e5	-0.08258227
49	0x3d0592da	0.03261075
50	0x3e16166f	0.14656995
51	0x3d4bf2c2	0.04979206
52	0x3e7ba7ab	0.24575679
53	0x3ebdcc82	0.3707009
54	0xbf0421dd	-0.5161417
55	0xbc43e0c0	-0.01195544
56	0xc036a629	-2.8538916
57	0xbfc083bd	-1.5040203
58	0xbda0ad9c	-0.07845613
59	0x3ef04845	0.46930137
60	0xbef36e41	-0.47545055
61	0x3e1bd483	0.15217786
62	0x3e84f793	0.25970134
63	0xbe17f63f	-0.14840029
64	0x3e5c4c71	0.21513535
65	0xbfb87f25	-1.4413801
66	0x3ce75e18	0.02824311
67	0x3eaa8578	0.33304954
68	0x3eb2d038	0.34924483
69	0x3f4ce2f4	0.80033803
70	0x3ebdd542	0.37076765
71	0xbedc894d	-0.43073502
72	0x3bafefb0	0.005369149
73	0xbf569c47	-0.8383221
74	0xbdaca552	-0.0842997
75	0xbc0122c1	-0.007881821
76	0xbc7b3b9f	-0.015334039
77	0x3dbe98cd	0.09306488
78	0xbd3ed4b1	-0.046589557
79	0xbdcfd0c1	-0.101472385
80	0xbecc64a4	-0.39920533
81	0xbfff73b5	-1.9957186
82	0x3e920f0a	0.285271
83	0x3d0b2e96	0.033979975
84	0x3e9e0a64	0.30867302
85	0xbf7ab5cc	-0.9793365
86	0xbf6b9d45	-0.9203685
87	0x3e973bab	0.2953771
88	0x3e97295e	0.29523748
89	0x3edbe917	0.4295127
90	0x3d19856a	0.03748075
91	0x3f0231c5	0.5085719
92	0x3ee10f72	0.43957096
93	0xbebfeeb5	-0.37486807
94	0x3eea1160	0.4571638
95	0xbf3a8db4	-0.7287247
96	0x3d359cbe	0.044338934
97	0xbfbf5ca0	-1.4950142
98	0xbba1d67a	-0.0049388977
99	0x3f1cb0cd	0.61207277
100	0xbf75eff5	-0.9606927
101	0x3d00776b	0.031363886
102	0x3e157662	0.1459594
103	0xbebc8f3f	-0.36828038
104	0x3ed7a418	0.4211738
105	0xbf6d38cf	-0.9266481
106	0x3f209cde	0.6273936
107	0x3eabe800	0.3357544
108	0xbf4271a8	-0.75954676
109	0xbcebc610	-0.028780967
110	0x3e8a0fb5	0.2696511
111	0x3f0b826d	0.5449589
112	0xbdb4bc6d	-0.08825002
113	0xbf2bc741	-0.6710091
114	0x3d6c3466	0.05766716
115	0x3eb4f44d	0.35342637
116	0x3cdcad04	0.026937969
117	0xbeb234ab	-0.34805807
118	0xc0429b65	-3.0407345
119	0xbfbd9cf0	-1.4813519
120	0xbdabf3ac	-0.08396086
121	0x3efd9ede	0.4953527
122	0x3edcdb80	0.43136215
123	0x3d7548a6	0.059883736
124	0xbf8ac22e	-1.0840509
125	0xbf8ad98f	-1.0847644
126	0x3bdc89fc	0.006730316
127	0x3d41c09b	0.047302824
128	0x3fd06e89	1.6283733
129	0xbfe7c7e1	-1.8107873
130	0x3ebebd3e	0.37253755
131	0xc02a0d8f	-2.6570776
132	0x3cc69494	0.02424077
133	0xbfb80cff	-1.4378966
134	0x3e854ba9	0.26034287
135	0xbd850ea7	-0.06496935
136	0x3f0b085f	0.5430965
137	0xbefcc967	-0.49372408
138	0xc020388a	-2.5034509
139	0x3cf29f12	0.029616866
140	0x3c0f5b8b	0.008749853
141	0x3cf47945	0.029842982
142	0x3cb24622	0.021761958
143	0xbc8c7af7	-0.017148478
144	0xbc78e582	-0.015191438
145	0x3eae6011	0.34057668
146	0x3f69ec70	0.913764
147	0x3f69dfa0	0.9135685
148	0xbd01da82	-0.031702526
149	0x3cc6c7f4	0.024265267
150	0xbd8c766f	-0.06858527
151	0xbd8dab24	-0.06917408
152	0x3ed58ed0	0.4171052
153	0xbe4d6c27	-0.20060788
154	0xbf77e9bb	-0.9684102
155	0xbd615d27	-0.055020478
156	0xbfb7c169	-1.4355899
157	0x3d240b62	0.040049918
158	0x3eed02b9	0.4629114
159	0x3f604d04	0.87617517
160	0x3ce3c5d1	0.027804287
161	0xbf02f6a6	-0.51157606
162	0xbd28160e	-0.041036658
163	0x3f9bc1e6	1.2168548
164	0x3f0c687d	0.54846936
165	0x3c8d2706	0.017230522
166	0x3f7da5e7	0.9908127
167	0x3f112b29	0.5670648
168	0xbba32bfe	-0.0049796095
169	0xbec24971	-0.37946656
170	0x3fb4b560	1.4117851
171	0xbc8cc09d	-0.017181689
172	0xc02c8a53	-2.6959426
173	0xbc878ac1	-0.016545655
174	0x3b4cdab8	0.0031258296
175	0xbf00f92a	-0.50380194
176	0x3f6c6734	0.92344975
177	0xbc15db28	-0.009146489
178	0x3f2dadf1	0.6784354
179	0x3d419f6a	0.04727117
180	0x3f0f02b3	0.55863494
181	0xbf270617	-0.6524367
182	0xbf645351	-0.8918963
183	0x3b1cf6ef	0.0023950895
184	0xbf7fd326	-0.9993156
185	0xbfaad52e	-1.3346307
186	0x3d4a12c5	0.049334306
187	0x3ef74cd9	0.48300818
188	0xbf360cbf	-0.711132
189	0xbf62554d	-0.8841141
190	0x3f094ffd	0.5363768
191	0x3dfff03a	0.124969915
192	0x3f08d8f0	0.5345602
193	0xbf2ca2f8	-0.6743617
194	0xbcd0566a	-0.02543183
195	0xbf1501dc	-0.5820596
196	0xbf24e287	-0.64408153
197	0x400691b9	2.1026442
198	0x3f0f855e	0.5606288
199	0xbf57924e	-0.8420762
200	0xbda23e37	-0.07922023
201	0xbf441354	-0.7659199
202	0x3c7f46f0	0.015580878
203	0x3f14bd1f	0.58101076
204	0xbf45b25f	-0.772253
205	0xbd947a37	-0.07249873
206	0xbd884865	-0.06654433
207	0x3fa5f392	1.2964957
208	0xbf1e660e	-0.61874473
209	0xbec5ed8e	-0.38657802
210	0x3f0d7769	0.5526033
211	0xbd108317	-0.035281267
212	0xbf22074e	-0.63292396
213	0xc0285875	-2.630399
214	0xc02267fb	-2.5375965
215	0x3f05d4dd	0.5227793
216	0x3f0a5b43	0.54045504
217	0x3edcdabc	0.4313563
218	0x3c63ac17	0.01389601
219	0x3ed1d6ee	0.4098429
220	0x3ef34d4e	0.47519916
221	0x3d51fa4d	0.051264096
222	0x3f07e25a	0.5307976
223	0x3e90a1bc	0.28248394
224	0x3cb4a61f	0.022051869
225	0xbf3cfbc0	-0.7382164
226	0xbd0120f1	-0.031525556
227	0xbe813005	-0.25231948
228	0xbfcbe6e4	-1.5929837
229	0xbd5fd289	-0.05464414
230	0x3ba53df5	0.0050427862
231	0x3f8a05a5	1.0782973
232	0x3f6694e8	0.9007096
233	0xbf86054e	-1.0470369
234	0x3e701446	0.23445234
235	0xbf86cf66	-1.0532043
236	0xbf4921d3	-0.78567237
237	0xbc7f0c5a	-0.01556691
238	0x3f0871e1	0.53298765
239	0x3f252146	0.64503896
240	0xbd0990a8	-0.03358522
241	0xbeb3e6b5	-0.35136953
242	0x3d3b8ea5	0.045790333
243	0x3eef702c	0.46765268
244	0x3d8116ad	0.06303153
245	0xbf2171ee	-0.6306447
246	0xbfd6fec5	-1.67965
247	0xbea018d9	-0.31268957
248	0x3d1f970c	0.03896241
249	0x3ec9abde	0.39388937
250	0x3eec1a4b	0.4611381
251	0xbcdd155a	-0.02698772
252	0xbfb2b19a	-1.396045
253	0x3edbc2bb	0.42922005
254	0xbc8d349e	-0.017237004
255	0x3f595ee9	0.84910446

layers.4.bias f4 [2]
0	0x3ee16871	0.44024995
1	0x3e9ce97b	0.3064688
