ddqn_models/inv/ddqn_300_1.0.pth (torch_old, 69813 bytes, 6 tensors)

layers.0.weight f4 [128, 2]
0	0xbe7642a1	-0.24048854
1	0xbee6b459	-0.4505947
2	0x3f1ecad8	0.62028265
3	0xbfa8a6bc	-1.3175883
4	0x3d9b64e8	0.07587606
5	0xbe179960	-0.14804602
6	0x3f8355be	1.0260541
7	0x3f0a2c1c	0.53973556
8	0x3f6c3954	0.92274976
9	0x3e85f189	0.2616084
10	0xbe0e7f04	-0.1391564
11	0xbdf14d74	-0.11782351
12	0xbdb5b16c	-0.08871731
13	0x3e68f3f4	0.2274931
14	0x3ee288dd	0.44245043
15	0x3f8f79ea	1.120908
16	0xbf41155e	-0.7542323
17	0xbdb8a5ef	-0.09016024
18	0xbf9bdab6	-1.217612
19	0xbf54bf02	-0.83103955
20	0xbfb007cb	-1.3752378
21	0x3ed5a66d	0.41728535
22	0xbebd5476	-0.369785
23	0x3cfe5bf0	0.031049699
24	0xbc3d7455	-0.01156338
25	0x3eff30e3	0.49841985
26	0xbf47ba7c	-0.7801893
27	0xbf1ff30c	-0.62480235
28	0xbfa45537	-1.2838506
29	0x3e850bdf	0.2598562
30	0x3f038985	0.51381713
31	0x3f7b272b	0.9810664
32	0x3f861e8e	1.0478075
33	0x3f7b1941	0.9808541
34	0xbbac7b80	-0.005263746
35	0xbe0f2300	-0.13978195
36	0x3d947961	0.07249714
37	0xbdb85825	-0.09001187
38	0x3e53eae7	0.20695077
39	0x3d6cc224	0.057802334
40	0xbf14b624	-0.58090425
41	0xbf2a31f5	-0.6648248
42	0x3f045d3a	0.5170475
43	0xbf075180	-0.52858734
44	0xbeb8cc97	-0.3609359
45	0x3f0c9434	0.5491364
46	0x3e966764	0.29375756
47	0x3dbc4bb8	0.0919413
48	0xbf194977	-0.59877723
49	0x3f6814e1	0.9065686
50	0xbf48fbd8	-0.78509283
51	0xbec6c2b8	-0.38820434
52	0xbe305e05	-0.17223366
53	0xbf39a267	-0.7251343
54	0x3e97b70e	0.29631847
55	0x3f3163d4	0.6929295
56	0xbd89e210	-0.06732571
57	0x3f0e5650	0.5560045
58	0x3f31337b	0.6921918
59	0xbe778fc8	-0.24175942
60	0xbed159fa	-0.4088896
61	0xbf2d14ee	-0.6761006
62	0xbea778cd	-0.3270935
63	0x3e42020f	0.18946098
64	0x3f372d60	0.7155361
65	0x3f81ef3c	1.0151134
66	0xbe8ed553	-0.27897128
67	0xbc982603	-0.018572813
68	0xbf023f12	-0.5087749
69	0xbf865426	-1.049443
70	0x3f84c0df	1.037136
71	0xbf1eaa74	-0.6197884
72	0x3c1fac80	0.009745717
73	0xbdf635e8	-0.120220006
74	0xbfa20b96	-1.2659786
75	0xbe00d842	-0.12582496
76	0x3f00910e	0.50221336
77	0xbedfb186	-0.43690127
78	0xbeb259a6	-0.3483402
79	0xbe6b6c0c	-0.22990435
80	0xbd9bc932	-0.07606734
81	0x3e9ccb54	0.30623877
82	0xbf20ce7d	-0.62815076
83	0xbf61f6c6	-0.8826717
84	0xbdb4df52	-0.088316575
85	0x3e445b6f	0.19175504
86	0x3ea5c8d7	0.3237979
87	0x3f889a70	1.067213
88	0x3eb86361	0.3601332
89	0xbdd80cbf	-0.10549306
90	0xbcf05d2d	-0.029341305
91	0x3e0eb506	0.13936242
92	0x3f3de053	0.74170417
93	0x3d07420d	0.033021975
94	0xbf3cd66a	-0.7376467
95	0xbf2d55cf	-0.6770906
96	0xbfaffb12	-1.3748496
97	0x3e8100c0	0.25195885
98	0xbf1e9218	-0.6194167
99	0xbf8a56f7	-1.080779
100	0x3f74bfaa	0.95604956
101	0xbf8488c4	-1.0354238
102	0x3d91feb9	0.071286626
103	0x3ea21373	0.31655464
104	0x3e918ae7	0.28426287
105	0xbdfc5eee	-0.12322794
106	0xbcefa0e8	-0.02925153
107	0x3f4ff4dc	0.81233
108	0x3efdcd97	0.49570915
109	0x3ed16824	0.40899765
110	0x3d73cca8	0.059521347
111	0x3e480bed	0.195358
112	0xbf2c232a	-0.67241156
113	0xbdb06ab9	-0.08614106
114	0xbf95f41c	-1.1715121
115	0xbe7c8783	-0.24661069
116	0x3f586e7d	0.8454359
117	0x3e728ed3	0.23687296
118	0xbf3f668a	-0.7476584
119	0xbf82ad8d	-1.0209213
120	0x3ef678c7	0.4813902
121	0xbefba967	-0.4915268
122	0x3e5c25c3	0.2149878
123	0xbeb6e19e	-0.35719007
124	0xbda2c6c8	-0.07948071
125	0x3e732d02	0.23747638
126	0xbf8d3296	-1.1031063
127	0xbeb0195b	-0.34394345
128	0x3e5b322a	0.21405855
129	0xbf8d019c	-1.1016116
130	0xbf0ef2fb	-0.5583951
131	0x3ed14403	0.408722
132	0x3dafc07e	0.08581637
133	0xbe19e6b3	-0.15029411
134	0xbf1234f7	-0.5711207
135	0xbf016a79	-0.5055309
136	0x3f2f9786	0.6859058
137	0x3cdb6193	0.026779925
138	0x3e32c630	0.17458415
139	0x3ea9fd8a	0.33201247
140	0xbe9302a0	-0.2871294
141	0x3ddb8d74	0.107203394
142	0x3ea09e14	0.31370604
143	0xbd6e7911	-0.058220927
144	0x3e76c221	0.24097492
145	0x3e287a1a	0.16452828
146	0xbf965f8c	-1.1747909
147	0xbf03ce24	-0.5148642
148	0x3f737c97	0.95111984
149	0x3fc40e16	1.5316799
150	0x3f34ce93	0.7062771
151	0x3dd12e88	0.10213953
152	0x3f36dba1	0.7142888
153	0xbf569a66	-0.83829343
154	0xbf6f6eea	-0.93528616
155	0xbf845c12	-1.0340598
156	0x3ddd80f0	0.108156085
157	0x3f8c3c5e	1.0955923
158	0xbdac59e0	-0.0841558
159	0x3e9ba593	0.3039976
160	0x3da61c91	0.08110917
161	0x3f8c692c	1.0969596
162	0x3e0c32de	0.1369128
163	0x3f889b8f	1.0672473
164	0xbf15d54f	-0.5852861
165	0xbede1156	-0.433726
166	0x3f624760	0.8839016
167	0x3f2dc03a	0.6787144
168	0xbf575a00	-0.84121704
169	0x3ec82fb1	0.39098886
170	0x3fb801a5	1.4375502
171	0x3f372f90	0.7155695
172	0xbd28d727	-0.04122081
173	0x3e9673c8	0.2938521
174	0x3e2a32cf	0.16620944
175	0x3f628c71	0.88495547
176	0x3d035ac2	0.032068975
177	0x3e86837f	0.262722
178	0x3d964813	0.07337966
179	0x3f4de30d	0.80424577
180	0xbd9e57e9	-0.07731611
181	0x3e048523	0.12941413
182	0xbfa7160e	-1.3053606
183	0x3e448f8e	0.19195387
184	0xbf4a702d	-0.79077417
185	0xbf9afc7f	-1.2108306
186	0xbfc11f9c	-1.5087771
187	0x3f0c6276	0.5483774
188	0x3ee7cf57	0.45275375
189	0x3f0cf771	0.55065066
190	0x3f3d9e92	0.74070084
191	0xbf5b9300	-0.8577118
192	0xbfabe6de	-1.342983
193	0xbe972ecb	-0.29527888
194	0xbf42aba6	-0.76043165
195	0x3e2c23fa	0.16810599
196	0xbf13fb49	-0.57805306
197	0xbf27b4bf	-0.6551017
198	0xbf62641c	-0.88434005
199	0xbf28f831	-0.6600371
200	0x3f5c4440	0.8604164
201	0x3f8ec3a7	1.1153458
202	0x3f4e5d6a	0.8061129
203	0x3f8139db	1.0095781
204	0x3f4a37b5	0.7899125
205	0x3c63120a	0.013859281
206	0x3f8c13c0	1.0943527
207	0x3fbf977f	1.4968108
208	0x3d5934f0	0.053029
209	0x3f96f019	1.1792022
210	0x3f40f9fa	0.75381434
211	0x3f74c6e2	0.9561597
212	0xbeba437b	-0.3637961
213	0x3e52648b	0.20546167
214	0xbe4dffc6	-0.20117101
215	0xbf082eb4	-0.53196263
216	0xbf949fb5	-1.1611239
217	0xbf3f4687	-0.7471699
218	0x3e5716a6	0.21004733
219	0x3f3c957d	0.736656
220	0x3f55bb0c	0.83488536
221	0xbee63d67	-0.4496872
222	0xbf54b7b9	-0.8309284
223	0x3ec0b6db	0.37639508
224	0x3fb12d0a	1.384187
225	0x3e125062	0.14288476
226	0xbca1960a	-0.019724865
227	0x3ee6a02a	0.4504407
228	0x3f18a9df	0.596342
229	0xbf567ea2	-0.83786976
230	0x3fcd0a7c	1.6018825
231	0x3f701912	0.93788254
232	0xbf9a88c7	-1.2072991
233	0x3e3637e0	0.17794752
234	0xbeed2ee5	-0.4632484
235	0x3cb4b085	0.022056827
236	0x3f519fae	0.81884277
237	0x3cd67a7d	0.026181454
238	0xbf89e44c	-1.0772796
239	0xbf3b30dc	-0.7312143
240	0xbe9f0829	-0.31060913
241	0xbe534ccf	-0.20634769
242	0xbe601815	-0.21884187
243	0x3ee2b6f1	0.44280198
244	0xbe3e0425	-0.18556269
245	0xbf1b1575	-0.60579616
246	0x3db96980	0.09053326
247	0x3f174d95	0.59102756
248	0x3e3ad87a	0.18246642
249	0xbf3f6b1c	-0.7477281
250	0xbed90440	-0.42386055
251	0xbf5ea4b7	-0.86970085
252	0x3c60bf33	0.01371746
253	0x3e6cd6f6	0.23128876
254	0x3dea2940	0.11433649
255	0x3ed9d9f0	0.42549086

layers.0.bias f4 [128]
0	0x3f6e494f	0.9308061
1	0xba1371d4	-0.00056245667
2	0xbef14b58	-0.47127795
3	0xbf06243f	-0.5239906
4	0xbf03c308	-0.5146947
5	0xbf11e68a	-0.569924
6	0x3f1818ad	0.5941265
7	0xbf83336f	-1.0250071
8	0xbfb1b277	-1.3882588
9	0xbda9c838	-0.08290142
10	0xbd9de6e6	-0.07710056
11	0x3f631c66	0.8871521
12	0xbf8581c9	-1.0430232
13	0x3f4e140c	0.8049934
14	0xbec98fe3	-0.3936759
15	0x3cff887b	0.031193009
16	0x3d90db80	0.07073116
17	0xbf233a85	-0.6376117
18	0x3f6a67e2	0.9156476
19	0x3f40b804	0.75280786
20	0x3f6a5cb7	0.9154772
21	0x3f0fe8e3	0.5621473
22	0xbfae1040	-1.3598709
23	0x3f7645d6	0.9620031
24	0xbb2b741d	-0.0026161738
25	0x3f0c73db	0.5486428
26	0xbf8669ec	-1.0501075
27	0xbf55aea5	-0.8346961
28	0xbf9c63c0	-1.2217941
29	0xbf391daf	-0.7231092
30	0x3dded8de	0.10881208
31	0xbf821cf7	-1.0165089
32	0x3d035e72	0.032072492
33	0x3f413f1f	0.7548694
34	0xbcf65394	-0.03006915
35	0xbf4663e2	-0.7749616
36	0xbf0c590d	-0.5482338
37	0xbe74ff8f	-0.23925613
38	0x3f16fd18	0.5897994
39	0x3f8f8cb9	1.121482
40	0x3f3c3124	0.7351248
41	0xbe250589	-0.16115393
42	0x3f05a0c5	0.5219844
43	0xbf624bcf	-0.88396925
44	0xbf8700c7	-1.0547112
45	0x3f2fb4f1	0.6863547
46	0xbfaabf04	-1.3339543
47	0x3ee7ab94	0.4524809
48	0xbf3bc1d3	-0.7334263
49	0xbe593e75	-0.21215232
50	0xbed7575c	-0.42058837
51	0x3f375818	0.71618795
52	0xbf214917	-0.6300215
53	0x3f450691	0.76963145
54	0x3f24b815	0.64343387
55	0x3f3e9398	0.7444396
56	0xbf9ef028	-1.241704
57	0xbe49fb4e	-0.19724771
58	0xbf2ff422	-0.6873189
59	0xbd5bceed	-0.053664137
60	0x3f0ac277	0.5420298
61	0xbf8eb5de	-1.1149251
62	0x3f6c9e3d	0.9242895
63	0xbde3b594	-0.11118618
64	0xbe35913d	-0.17731185
65	0xbf2793bf	-0.6545982
66	0x3f791032	0.9729034
67	0x3f6927f2	0.91076577
68	0xbf9d7fcf	-1.2304629
69	0x3f716846	0.94299734
70	0x3f329781	0.69762427
71	0x3f6c53bb	0.9231526
72	0x3f77edbd	0.96847135
73	0xbda771a7	-0.08175974
74	0x3da126ad	0.07868705
75	0x3f0166de	0.5054759
76	0x3cd7d06a	0.026344497
77	0x3e9b2793	0.3030363
78	0xbe8c0ef1	-0.2735515
79	0x3f3e8c61	0.7443295
80	0xbea19326	-0.31557578
81	0x3d5ccbdc	0.053905353
82	0x3e79232d	0.24329825
83	0x3f03ab25	0.5143302
84	0xbf8d01b0	-1.101614
85	0x3dcc549b	0.09977075
86	0x3f27964f	0.6546373
87	0xbebf5e3b	-0.3737658
88	0x3f126ce5	0.5719741
89	0xbc3a40f2	-0.011368023
90	0x3ec772da	0.38954812
91	0xbf48a219	-0.7837234
92	0xbd82a55c	-0.06379196
93	0xbebf9afe	-0.37422937
94	0x3f725d3e	0.94673526
95	0x3dbddf53	0.09271111
96	0xbe62ceea	-0.22149244
97	0xbf9444f1	-1.1583539
98	0x3f68da40	0.90958023
99	0x3f76cecc	0.96409297
100	0xbee3c824	-0.44488633
101	0xbf226ed2	-0.6345035
102	0xbfb51c6f	-1.4149302
103	0x3db6a12f	0.08917462
104	0x3d59b5cb	0.053151887
105	0xbebf3623	-0.3734599
106	0xbf8b8325	-1.0899397
107	0x3e54d130	0.20782924
108	0xbda1ef4a	-0.07906969
109	0xbe2dfad7	-0.16990219
110	0xbf141133	-0.57838744
111	0xbf89be94	-1.0761285
112	0xbe91ed70	-0.28501463
113	0x3f731ef4	0.94969106
114	0xbf5a80f0	-0.85352993
115	0x3de1170a	0.109907225
116	0xbeae4da0	-0.34043598
117	0x3f8a7566	1.0817077
118	0xbfbc0305	-1.4688421
119	0xbee854e7	-0.45377275
120	0x3f824af7	1.0179127
121	0xbfad5d71	-1.3544141
122	0x3e25232e	0.16126701
123	0xbf16986c	-0.5882633
124	0x3c5fe044	0.013664309
125	0xbc259d3c	-0.010108288
126	0x3f523636	0.8211397
127	0xbefab46e	-0.48965782

layers.2.weight f4 [128, 128]
0	0xbe4d8317	-0.20069538
1	0xbf6c59cb	-0.92324513
2	0xbcf6d694	-0.030131616
3	0xbf32f96d	-0.69911844
4	0xbe509e5c	-0.2037291
5	0x3daaafcb	0.08334311
6	0x3e172463	0.14759974
7	0xbe7299af	-0.23691438
8	0xbdf5f60b	-0.120098196
9	0x3fd74dee	1.6820657
10	0xbec78497	-0.38968346
11	0x3dd5ee7c	0.10445878
12	0xbe2b4e11	-0.16728999
13	0xbe9e0380	-0.30862045
14	0xbecc015a	-0.3984478
15	0x3eef08e1	0.46686462
16	0x3ef062b9	0.4695032
17	0xbda7df34	-0.081968695
18	0xbb71d377	-0.0036899725
19	0x3de09b01	0.10967065
20	0xbe7e5e0e	-0.24840567
21	0xbf094397	-0.5361876
22	0x3e07ed7c	0.13274187
23	0x3d046250	0.03232032
24	0x3ec75c9a	0.38937837
25	0xbea6fc8f	-0.32614562
26	0x3c925bf0	0.017866105
27	0xbf199ca0	-0.60004616
28	0x3d9aa608	0.07551199
29	0xbd83c499	-0.064339824
30	0xbf9c4154	-1.2207437
31	0xbd1b9fa0	-0.037994027
32	0x3e313a17	0.17307316
33	0x3e062b86	0.1310254
34	0x3d59b042	0.05314661
35	0x3e81f25e	0.25380224
36	0xbd9c9f2a	-0.07647546
37	0xbf3f67e8	-0.74767923
38	0xbe63dd90	-0.22252488
39	0x3d9d5dec	0.0768393
40	0x3d5619a1	0.052270535
41	0xbf22265b	-0.63339776
42	0x3e1cee58	0.15325296
43	0x3d2d27fa	0.042274453
44	0xbf239070	-0.6389227
45	0x3d8017bf	0.06254529
46	0xbf76dd82	-0.96431744
47	0xbeb0c88d	-0.34528008
48	0xbf2ff4bf	-0.6873283
49	0xbf38ad66	-0.72139585
50	0xbf97ed4d	-1.1869293
51	0x3d52ddac	0.051480934
52	0xbf889289	-1.0669719
53	0x3e242988	0.16031468
54	0x3e35fb6c	0.17771691
55	0x3e2fe037	0.17175375
56	0xbf3ffa87	-0.7499165
57	0xbf99e567	-1.2023133
58	0x3e7f8e60	0.24956656
59	0x3f82180e	1.0163591
60	0xbefa5c07	-0.48898336
61	0xbe8334bc	-0.2562617
62	0x3de49806	0.11161809
63	0xbfa62097	-1.2978696
64	0xc00826aa	-2.1273599
65	0xbd92c5c8	-0.0716663
66	0x3d2b9580	0.04189062
67	0xbe5ce0d8	-0.21570146
68	0xbfec850e	-1.8478105
69	0x3e1114bc	0.14168066
70	0x3e11b261	0.14228202
71	0x3d1b54c7	0.037922647
72	0x3d920c26	0.071312234
73	0xbf937e58	-1.1522932
74	0x3ee02b69	0.4378312
75	0x3d43e64b	0.047827046
76	0xbea2f53f	-0.31827733
77	0xbf503e92	-0.81345475
78	0xbdf1ece1	-0.11812759
79	0x3e3bcc24	0.18339592
80	0xbd0eeeec	-0.034895822
81	0x3e1e3c2c	0.15452641
82	0xbf08868e	-0.53330314
83	0x3e2b1677	0.16707788
84	0xbe5a5874	-0.21322805
85	0x3f2ae3f4	0.6675408
86	0x3daa6760	0.083204985
87	0x3e5afffa	0.2138671
88	0x3deb15c1	0.114787586
89	0x3e773016	0.24139437
90	0x3e841e4b	0.25804362
91	0xbf14e1ff	-0.5815734
92	0x4011b06c	2.276393
93	0xbf046709	-0.5171972
94	0x3d8b47a2	0.06800772
95	0xbf9a109f	-1.2036322
96	0xbf6b8b0e	-0.92009056
97	0x3d61e0b7	0.055145945
98	0xbe868090	-0.2626996
99	0xbe426a5c	-0.18985885
100	0xbde94dae	-0.11391769
101	0xbe7730a5	-0.2413965
102	0xbf3bfc81	-0.73432165
103	0x3ee4d9d2	0.44697434
104	0x3ecbdce9	0.3981698
105	0x3d23db52	0.040004082
106	0xbeb2687b	-0.34845337
107	0xbeb2f210	-0.34950304
108	0x3f2e35f8	0.680511
109	0x3dd2b62c	0.10288653
110	0xbec6fbf0	-0.38864088
111	0xbe2bea36	-0.16788563
112	0xbf160cf5	-0.5861352
113	0x3e64b306	0.22333917
114	0xbf5037c4	-0.8133509
115	0x3f37ecb1	0.7184554
116	0xbee08559	-0.43851736
117	0x3d61c80f	0.05512243
118	0xbf8263c7	-1.01867
119	0xbe75b328	-0.23994124
120	0x3df6ebba	0.1205668
121	0x3e778529	0.2417189
122	0xbf37f7a4	-0.71862245
123	0x3e369cc2	0.17833236
124	0xbf274294	-0.65335965
125	0x3ee148d8	0.44000888
126	0x3dc72702	0.09724237
127	0xbe23d144	-0.15997797
128	0xbf66a7a7	-0.9009957
129	0x3dd16019	0.10223407
130	0x3d116e42	0.03550554
131	0x3f1a1ee3	0.6020338
132	0x3f11755e	0.56819713
133	0x3dab740f	0.08371746
134	0xbf46b85a	-0.7762505
135	0x3ea9c570	0.33158445
136	0xbc3cede1	-0.011531324
137	0x3f238ea0	0.63889503
138	0xbf3b7da3	-0.7323858
139	0xc0160dc0	-2.3445892
140	0x3f689c25	0.9086326
141	0xbfb59f66	-1.418927
142	0xbedc8970	-0.43073606
143	0xbe86b4d3	-0.26309833
144	0x3f184b9c	0.5949037
145	0xbc1c9820	-0.009557754
146	0xbec80cdf	-0.3907232
147	0xbe0ad808	-0.13558972
148	0xbfaa19ff	-1.3289183
149	0x3e388e09	0.18022932
150	0x3f080fd3	0.53149146
151	0xbe88eb5e	-0.2674207
152	0xbf5f7649	-0.87289864
153	0xbf013f1a	-0.5048691
154	0x3f872f1d	1.0561253
155	0x3ec5dd72	0.38645512
156	0x3ee4cd20	0.44687748
157	0x3e24b2b9	0.16083802
158	0xbf350f68	-0.70726633
159	0x3edb1d69	0.42795876
160	0x3eaecd13	0.34140834
161	0xc001b977	-2.0269449
162	0xbf569101	-0.8381501
163	0x3e6fbc07	0.2341157
164	0xbd4ed9f7	-0.050500836
165	0xbe82c835	-0.2554337
166	0x3e8d753c	0.27628505
167	0xbfc224b1	-1.5167447
168	0xbf3cc7b4	-0.7374222
169	0x3b28876f	0.002571549
170	0xbf51622e	-0.81790435
171	0x3f11daf4	0.5697472
172	0x3ee5fa29	0.4491742
173	0xbf1ea293	-0.6196682
174	0x4026f3f1	2.608639
175	0xbf1fa212	-0.62356675
176	0xbd23053a	-0.039799906
177	0x3d136349	0.035983358
178	0x3e322ded	0.17400332
179	0xbf08b3a6	-0.5339912
180	0xbdc2696a	-0.094927624
181	0xbf25bd8d	-0.64742357
182	0xbd9033bf	-0.0704112
183	0xbf06546b	-0.5247256
184	0xbea9180b	-0.33026156
185	0xbd550505	-0.05200674
186	0xbdbf7538	-0.093485296
187	0xbe13ae69	-0.14422001
188	0x3df2ebb3	0.11861362
189	0x3f157c72	0.58393013
190	0xbf45507a	-0.7707592
191	0xbe0404bf	-0.12892435
192	0xbc3b4adb	-0.011431421
193	0xbf756792	-0.9586116
194	0xbec05bb1	-0.37569955
195	0xbfab266d	-1.3371102
196	0x400fc078	2.2461224
197	0xbe6c7967	-0.23093186
198	0xbfe2fec8	-1.7734003
199	0xbe273f46	-0.1633273
200	0xbe8cbb49	-0.27486637
201	0x3ec16c6a	0.37778026
202	0x3e8b252c	0.27176797
203	0x3ec67ada	0.38765603
204	0x3d586b0e	0.05283647
205	0xbf6937d9	-0.9110084
206	0xbd5a290e	-0.05326181
207	0xbf39b2f3	-0.7253868
208	0xbba28e25	-0.0049607926
209	0xbc91c0b6	-0.017792087
210	0xbf09f45f	-0.53888506
211	0x3e61e608	0.22060406
212	0x3df17dc3	0.11791565
213	0x3f384f43	0.71995944
214	0xbf25f707	-0.6483006
215	0xbf152556	-0.58260095
216	0xbeb567fd	-0.354309
217	0xbec52397	-0.38503715
218	0xbf3b8c8c	-0.7326133
219	0x3c485cec	0.012229186
220	0x3c7e97ca	0.015539119
221	0xbed89c7a	-0.42306882
222	0xbe252e74	-0.16131002
223	0x3dd52884	0.10408118
224	0x3dd8ddb6	0.10589163
225	0x3e604de2	0.2190471
226	0xbfa42aaf	-1.2825526
227	0xbfcc3d2b	-1.5956167
228	0x3f01bd0f	0.50679106
229	0x3f1db947	0.61610836
230	0x3fd7ed58	1.6869307
231	0x3efd9c2a	0.49533206
232	0xbe505c7d	-0.20347781
233	0x3f00764e	0.5018052
234	0x3ee668a7	0.45001718
235	0xbeebbb61	-0.46041396
236	0x3f00a80c	0.5025642
237	0xbf0f4455	-0.5596364
238	0x3ef1c419	0.47219923
239	0x3e1c9885	0.15292557
240	0x3f00f4f8	0.5037379
241	0xbf1fdee7	-0.62449497
242	0x3e733f5a	0.23754635
243	0x3f1c12c9	0.60966164
244	0xbeeece0b	-0.46641573
245	0xc01b3bea	-2.4255319
246	0x4035e8cf	2.8423345
247	0x3e5bb168	0.21454394
248	0xbfb80a14	-1.4378076
249	0x3f0e3ba3	0.5555975
250	0xbeabfb2c	-0.33590066
251	0xbe524e6d	-0.2053773
252	0x3ccdcb80	0.02512145
253	0xbefd6a2c	-0.49495065
254	0xbf0c9a44	-0.5492289
255	0xbec6f6fc	-0.3886031

layers.2.bias f4 [128]
0	0x3d223023	0.039596688
1	0xbf29759a	-0.6619507
2	0x3eca1249	0.39467075
3	0xbf0aa1b5	-0.54152995
4	0x3d3e02fe	0.046389572
5	0xbdaa4130	-0.08313215
6	0x3e259503	0.16170125
7	0x3ccc4741	0.02493632
8	0xbdfeb7e7	-0.1243742
9	0x3d947ce9	0.07250387
10	0xbf17c997	-0.59291977
11	0xbdb48798	-0.08814925
12	0xbdc73e78	-0.09728712
13	0xbe4dc1bb	-0.20093434
14	0xbdab81c7	-0.083743624
15	0x3c9313d9	0.0179538
16	0x3d56d2be	0.052447073
17	0x3ed6c903	0.41950235
18	0xbe643d92	-0.22289112
19	0xbe87231e	-0.2639398
20	0x3c98d904	0.018658169
21	0x3ce054e8	0.027384236
22	0xbddc6e12	-0.10763182
23	0xba0f1000	-0.0005457401
24	0x3ec626ae	0.38701385
25	0x3d067f3a	0.032836176
26	0xbe8c95db	-0.2745808
27	0xbd1c141c	-0.038105115
28	0xbf264484	-0.64948297
29	0x3d12bea1	0.03582633
30	0x3e2045df	0.15651654
31	0xbedd4b55	-0.43221536
32	0x3db37417	0.08762377
33	0xbd63bccc	-0.055599973
34	0xbd21980b	-0.03945164
35	0xbe4d7b08	-0.20066464
36	0x3ed06552	0.407023
37	0xbe41ae3d	-0.18914123
38	0x3d061c56	0.032741867
39	0x3e44f2b4	0.19233209
40	0xbd3d2f36	-0.046187602
41	0x3ebe451f	0.3716211
42	0x3daef7ba	0.08543344
43	0xbd8f4ee7	-0.06997471
44	0xbef4166c	-0.47673357
45	0x3ce1509f	0.027504263
46	0xbcff1d1e	-0.031141814
47	0x3ddad7a0	0.106856585
48	0xbe930728	-0.28716397
49	0xbae926b0	-0.0017788019
50	0x3e92a6bc	0.28642833
51	0x3cc3c644	0.023898251
52	0x3eaf46fe	0.3423385
53	0x3dfe14cb	0.1240631
54	0xbf2ebbab	-0.6825511
55	0xbd13271e	-0.035925977
56	0xbea9a5b5	-0.33134237
57	0xbf3c30ef	-0.73512167
58	0x3c09256f	0.008370741
59	0x3ed0eb9f	0.40804765
60	0xbe7f077b	-0.24905197
61	0x3cb73ee3	0.022368854
62	0x3ec65720	0.38738346
63	0xbd3d5cc5	-0.04623105
64	0x3ec049bf	0.37556264
65	0xbf20c3c5	-0.6279872
66	0x3aa9f7cf	0.001296753
67	0xba257155	-0.0006311138
68	0xbd588edc	-0.052870616
69	0xbe45fe5e	-0.19335315
70	0x3ea4488f	0.32086608
71	0xbf3269f3	-0.69692916
72	0xbd827258	-0.063694656
73	0xbf04309f	-0.5163669
74	0xbd43f1d0	-0.047838032
75	0xbda7cea7	-0.08193713
76	0xbf655e00	-0.8959656
77	0xbda28fe1	-0.07937599
78	0x3ce81e75	0.028334836
79	0x3df2348b	0.11826428
80	0xbec82206	-0.39088458
81	0xbec261a2	-0.37965113
82	0x3ea5d727	0.3239071
83	0xbb97ec78	-0.0046363436
84	0xbe83f05a	-0.2576931
85	0xbf4bc90d	-0.79603654
86	0xbf29178f	-0.6605157
87	0x3edccf74	0.43127024
88	0x3ee32bf2	0.44369465
89	0x3ed099cf	0.40742347
90	0x3d1c8d20	0.038220525
91	0x3ea35740	0.31902504
92	0x3edf9901	0.4367142
93	0xbe9ae1b9	-0.30250338
94	0x3ed61225	0.41810718
95	0xbf1c0f8b	-0.60961217
96	0xbcd58a8c	-0.02606704
97	0xbf27724d	-0.65408784
98	0xbd75797a	-0.059930302
99	0x3e582d20	0.21110964
100	0xbf2938ca	-0.6610228
101	0xbdae829e	-0.08521007
102	0xbe4a4f84	-0.19756895
103	0xbf012d7f	-0.50460047
104	0x3e3a14be	0.18171975
105	0xbf20ec72	-0.62860787
106	0x3e7c32ab	0.24628703
107	0xbe739eb4	-0.23791009
108	0xbf01fd86	-0.5077747
109	0xbd9e33f1	-0.07724751
110	0x3eafb927	0.34320948
111	0x3e7dd29f	0.24787377
112	0x3a040780	0.0005036518
113	0xbf16d0c4	-0.589123
114	0xbd1a3add	-0.037653793
115	0x3ee98b29	0.45613983
116	0xbdaffc2c	-0.0859302
117	0xbeb77ef6	-0.3583905
118	0xbf278b1a	-0.6544663
119	0xbeaf416e	-0.34229606
120	0xbd075325	-0.033038277
121	0x3ea29e4c	0.31761396
122	0x3ea733c3	0.3265668
123	0xbcc48d4b	-0.023993155
124	0xbf16745e	-0.5877131
125	0xbe34778d	-0.1762373
126	0xbc568b33	-0.013094711
127	0x3e38cb12	0.18046215

layers.4.weight f4 [2, 128]
0	0xbc49878f	-0.012300386
1	0xbebe1b7b	-0.3713034
2	0x3eeb7b46	0.45992488
3	0xbebd9386	-0.37026614
4	0xbc91a114	-0.017777003
5	0x3d6d8704	0.05799009
6	0x3f07c508	0.5303502
7	0xbd0deff1	-0.034652654
8	0xbf1937d3	-0.59850806
9	0x3f0111e9	0.50417954
10	0xbe7b5656	-0.24544653
11	0x3cc661cc	0.024216555
12	0xbdb39aed	-0.08769784
13	0x3e398439	0.18116845
14	0xba244d00	-0.00062675774
15	0xbcd90248	-0.026490346
16	0xbd0f911e	-0.035050504
17	0x3ee3568b	0.44401965
18	0xbea5216c	-0.3225206
19	0xbeb9cf63	-0.36291036
20	0xbd64d4e4	-0.05586709
21	0x3d93d2f3	0.0721797
22	0xbc8ffdce	-0.017577078
23	0xbc65c4d0	-0.014023975
24	0x3ed0b108	0.40760064
25	0x3bb3ca50	0.005486764
26	0xbf9603a2	-1.1719859
27	0x3d3e359d	0.04643785
28	0xbfc3d912	-1.530062
29	0x3cd9a9ee	0.026570287
30	0x3d7669f3	0.060159635
31	0xbf438b4a	-0.76384413
32	0xbbbe4370	-0.005806379
33	0xbd8a3019	-0.06747455
34	0xbd56cbac	-0.05244033
35	0x3d8ce600	0.068798065
36	0x3e87a357	0.26491806
37	0x3e2698aa	0.16269174
38	0xbb7dfec8	-0.0038756598
39	0x3e2daaab	0.16959636
40	0x3c9a0561	0.018801393
41	0x3f05b228	0.5222497
42	0x3b9db4ef	0.0048128287
43	0x3d2f45e3	0.04279126
44	0xbec49a4b	-0.38398966
45	0x3cda33b9	0.026635991
46	0xbd4257d0	-0.047447026
47	0x3eb0373b	0.34417138
48	0xbda920e5	-0.08258227
49	0x3d0592da	0.03261075
50	0x3e31a3e5	0.17347677
51	0x3d4bf2c2	0.04979206
52	0x3e80537c	0.25063694
53	0x3edaf208	0.4276278
54	0xbecdb431	-0.40176538
55	0xbc43e0c0	-0.01195544
56	0xbf8d3eb2	-1.1034758
57	0xbf9c3ad1	-1.2205449
58	0xbda0ad9c	-0.07845613
59	0x3ee9bbcc	0.4565109
60	0xbf2c1ca4	-0.672312
61	0x3ece4fef	0.4029536
62	0x3e859909	0.2609332
63	0xbe17f63f	-0.14840029
64	0x3e638c29	0.22221436
65	0xbfc3a2d9	-1.5284072
66	0x3ce75e18	0.02824311
67	0x3e9bfc0a	0.30465728
68	0x3ddab30f	0.10678684
69	0x3dc02f25	0.09383992
70	0x3eb85b50	0.36007166
71	0xbedc894d	-0.43073502
72	0x3bafefb0	0.005369149
73	0xbf569c47	-0.8383221
74	0xbdaca552	-0.0842997
75	0xbc0122c1	-0.007881821
76	0x3cf67080	0.030082941
77	0x3dbe98cd	0.09306488
78	0xbd3ed4b1	-0.046589557
79	0xbc6f78af	-0.014616176
80	0xbecc64a4	-0.39920533
81	0xbfce1bd9	-1.6102248
82	0x3e8dfc88	0.2773173
83	0x3d0b2e96	0.033979975
84	0x3ea3765c	0.3192624
85	0xbf68d9a0	-0.9095707
86	0xbf594f3c	-0.8488653
87	0x3e93b2f8	0.2884748
88	0x3e93264e	0.28740162
89	0x3eda07c3	0.42584047
90	0x3d19856a	0.03748075
91	0x3eff6257	0.49879715
92	0x3edc1640	0.42985725
93	0xbebfeeb5	-0.37486807
94	0x3ee3ee6d	0.44517842
95	0xbf3a8db4	-0.7287247
96	0x3d359cbe	0.044338934
97	0xbfc6f35c	-1.5543017
98	0xbba1d67a	-0.0049388977
99	0x3f1528ff	0.5826568
100	0xbf623250	-0.8835802
101	0x3d00776b	0.031363886
102	0x3e157662	0.1459594
103	0xbed6a35a	-0.41921502
104	0x3db30a75	0.08742229
105	0xbf5272af	-0.82206243
106	0x3f17625b	0.59134454
107	0x3ebe0c47	0.37118742
108	0xbf4271a8	-0.75954676
109	0xbcebc610	-0.028780967
110	0x3e88749d	0.2665147
111	0x3f0dc8bc	0.5538442
112	0xbdb4bc6d	-0.08825002
113	0xbf2bc741	-0.6710091
114	0x3d6c3466	0.05766716
115	0x3eaf4cd1	0.34238294
116	0x3cdcad04	0.026937969
117	0xbeb234ab	-0.34805807
118	0xc02d5972	-2.7085843
119	0xbf8bce28	-1.0922289
120	0xbdabf3ac	-0.08396086
121	0x3efa5dca	0.4889968
122	0x3ed654bc	0.41861522
123	0x3d7548a6	0.059883736
124	0xbf8dea78	-1.1087179
125	0xbf57fdf7	-0.84371895
126	0x3bdc89fc	0.006730316
127	0x3df0f6d1	0.117658265
128	0x3f91b767	1.1384095
129	0xbfa7ee46	-1.311959
130	0x3e867074	0.2625767
131	0xbfdea5d7	-1.739436
132	0x3cc69494	0.02424077
133	0x3d565d1e	0.052334897
134	0x3e91a393	0.2844511
135	0xbd850ea7	-0.06496935
136	0x3f21f634	0.632663
137	0xbef88053	-0.48535404
138	0xbf930549	-1.1485988
139	0xbb0bb684	-0.0021318505
140	0x3c0f5b8b	0.008749853
141	0x3cf47945	0.029842982
142	0x3d5b0f1e	0.053481214
143	0xbd48594d	-0.04891329
144	0xbc78e582	-0.015191438
145	0x3e7b08a9	0.24515022
146	0x3f69ec70	0.913764
147	0x3f69dfa0	0.9135685
148	0xbd9ca858	-0.076492965
149	0xbbf43340	-0.0074523985
150	0xbd8c766f	-0.06858527
151	0xbd8dab24	-0.06917408
152	0x3ea293a6	0.31753272
153	0xbe4d6c27	-0.20060788
154	0x3e935b6a	0.2878068
155	0xbd615d27	-0.055020478
156	0xbf9acf32	-1.2094481
157	0x3d240b62	0.040049918
158	0x3f165158	0.5871787
159	0x3ed322b8	0.41237426
160	0xbb3079a0	-0.0026927963
161	0xbf01e5f1	-0.5074149
162	0xbd28160e	-0.041036658
163	0x3f9bc1e6	1.2168548
164	0x3eeb2b1d	0.4593133
165	0x3c8d2706	0.017230522
166	0x3f0ab902	0.5418855
167	0x3ec904e3	0.3926154
168	0xbba32bfe	-0.0049796095
169	0x3c865d79	0.016401993
170	0x3f49a47a	0.78766596
171	0xbc8cc09d	-0.017181689
172	0xbfe2f13d	-1.772987
173	0xbc878ac1	-0.016545655
174	0x3b4cdab8	0.0031258296
175	0xbe749e27	-0.23888455
176	0x3f7caa0e	0.9869698
177	0xbc15db28	-0.009146489
178	0x3ed25cd0	0.41086435
179	0x3d419f6a	0.04727117
180	0x3ee827c7	0.45342848
181	0xbe5a6cf9	-0.21330632
182	0xbf06a25d	-0.52591497
183	0x3b1cf6ef	0.0023950895
184	0xbe9e5873	-0.30926856
185	0xbf940ad8	-1.1565809
186	0x3d4a12c5	0.049334306
187	0x3ecf269e	0.4045915
188	0xbeb14d5a	-0.34629327
189	0xbe97b58c	-0.29630697
190	0x3ee4479d	0.44585887
191	0x3dfff03a	0.124969915
192	0x3efafd50	0.49021387
193	0xbf295ff2	-0.66162026
194	0xbd3d4d86	-0.04621651
195	0xbf11c79f	-0.5694522
196	0xbe9e2cb8	-0.30893493
197	0x3fc09f5f	1.5048636
198	0x3ef9c937	0.48786327
199	0xbf5fb417	-0.8738417
200	0xbda23e37	-0.07922023
201	0xbf4c351c	-0.7976854
202	0x3c7f46f0	0.015580878
203	0x3f14bd1f	0.58101076
204	0xbf410092	-0.75391495
205	0xbd947a37	-0.07249873
206	0xbd884865	-0.06654433
207	0x3ef559ae	0.47919983
208	0xbf1e660e	-0.61874473
209	0xbed99ca4	-0.4250232
210	0x3ee6b44d	0.45059434
211	0xbd108317	-0.035281267
212	0xbf22074e	-0.63292396
213	0xbffc956e	-1.9733102
214	0xbfd1391a	-1.6345551
215	0x3edcc840	0.4312153
216	0x3ee7f2c0	0.4530239
217	0x3ea85a4e	0.32881397
218	0x3c63ac17	0.01389601
219	0x3e9fb1ef	0.3119044
220	0x3ecb4bd2	0.39706284
221	0x3d51fa4d	0.051264096
222	0x3eddf28b	0.43349108
223	0x3e90a1bc	0.28248394
224	0x3cb4a61f	0.022051869
225	0xbf3724dd	-0.71540624
226	0xbd0120f1	-0.031525556
227	0xbe202855	-0.15640385
228	0xbf62a0f5	-0.8852685
229	0xbd5fd289	-0.05464414
230	0x3ba53df5	0.0050427862
231	0x3f6c18d2	0.9222537
232	0x3e87ea53	0.26545963
233	0xbf8e5e80	-1.1122589
234	0x3e2a4b98	0.16630399
235	0xbf412346	-0.7544445
236	0xbf514399	-0.8174377
237	0xbc7f0c5a	-0.01556691
238	0x3edca937	0.4309785
239	0x3f0257ba	0.5091511
240	0xbd7d85c0	-0.061895132
241	0xbeb1ce75	-0.34727827
242	0x3d3b8ea5	0.045790333
243	0x3ec914f9	0.39273813
244	0x3d8116ad	0.06303153
245	0xbf2171ee	-0.6306447
246	0xbfbd97f6	-1.4812
247	0xbf00f9e7	-0.5038132
248	0x3d1f970c	0.03896241
249	0x3e97f59b	0.2967957
250	0x3ec1852d	0.37796918
251	0xbd6f4c17	-0.058422174
252	0xbfb6c279	-1.4278098
253	0x3e8fa6a5	0.28056827
254	0x3c5e1a92	0.01355614
255	0x3ed74817	0.42047188

layers.4.bias f4 [2]
0	0x3ea44cd4	0.32089865
1	0x3e8e9e31	0.27855065
